model_zoo/model_Tonsil_2023_10_13_00_13.pth (torch, 485903 bytes, 66 tensors)

encoders.0.weight f4 [128, 128]
-0.048980854 -0.00040595845 0.06418894 0.024891654 -0.026874105 -0.06632122 -0.015331074 -0.06726362
-0.04188675 -0.007320823 -0.013287416 0.0461995 0.042511944 -0.031706832 -0.011670346 -0.07185431
0.07072551 0.053968668 0.05027489 0.015640222 0.04340924 0.064896725 -0.058167707 -0.06558573
-0.06565226 0.06432043 0.04874481 0.021243097 0.027717864 0.02866189 -0.08149847 0.031617764
0.067011416 0.05546582 -0.06891093 0.029217796 -0.010450954 -0.010754379 0.07210197 0.023451634
-0.077261366 0.012838457 0.031399254 -0.036099777 0.053975813 -0.04122732 -0.050166875 -0.08479448
-0.0185428 -0.07031024 0.022310212 0.034148388 0.054621346 -0.07193129 -0.04377758 -0.040001806
-0.0651944 -0.039079938 0.00815317 -0.06428064 0.0054774256 -0.003370125 0.005914741 0.086349875
0.07660069 0.02184746 -0.05950546 0.08232498 -0.036341097 -0.03080334 0.058413245 0.025238955
-0.08499419 0.005777711 -0.03751706 0.044196807 0.018409785 -0.08353928 0.004926197 0.01667185
-0.08162497 -0.052414548 0.0436568 -0.058356684 0.082702845 0.030837236 0.027127955 -0.033861756
0.014876246 0.027266514 -0.08159537 -0.028528769 0.021432588 0.07283576 0.08006423 0.059864033
0.06575398 -0.0060513075 0.07608377 -0.058830846 0.0382703 -0.053744774 0.050349373 0.0610874
-0.028906489 0.04812013 0.071933396 0.057114046 0.04259315 0.06839325 0.011783447 -0.04686071
-0.007122775 0.056386255 -0.0027302834 0.068398066 0.0234292 -0.009538042 0.0023562722 -0.056693453
-0.034659155 -0.063726835 0.069177404 -0.07838259 -0.056035023 0.01607212 0.01715601 0.049314037
0.012690679 0.05285422 -0.07769348 -0.00083297974 -0.017180162 -0.050711602 -0.05378883 -0.020409042
-0.03930435 0.052230515 -0.031287543 -0.071397215 0.030396529 -0.042370267 0.061627995 0.049913395
-0.062994815 -0.0058916234 0.055715226 -0.085845545 -0.00963774 0.0056003574 -0.06553926 0.053851806
-0.08108117 -0.057911646 0.04802253 -0.035992827 0.06778275 -0.051906507 0.035855524 -0.048651814
0.06186917 -0.059195943 0.037621457 0.01429108 0.04040848 -0.016837528 0.07703621 0.024034461
0.084251106 -0.014698418 0.0056021167 -0.010961447 0.05285649 0.07429744 -0.015286989 -0.0548798
-0.058834303 0.023438547 0.072001755 -0.07503416 -0.03799517 0.049433615 -0.057903793 -0.015630307
0.036982384 -0.05599903 -0.032563467 0.0036343648 0.017581051 0.021346051 -0.06320712 -0.009545639
-0.015608737 0.029160455 0.0792343 -0.06993025 0.058366966 -0.012692039 0.025264286 -0.031695914
-0.023848308 0.000976827 -0.056122206 0.05487155 0.07819738 -0.056180052 -0.028373763 -0.040871907
0.013662523 0.014760574 -0.020409264 -0.077045985 0.0072540836 -0.0032104307 -0.040256806 0.047075994
0.03092113 0.058874995 0.078160256 0.03429291 -0.08642469 -0.06825855 -0.04486237 -0.06807599
-0.039372858 -0.08802871 0.07388684 -0.037416033 -0.040371895 0.041877612 0.046706293 -0.054690078
0.06513848 -0.05539615 0.07170448 0.08313451 -0.001665401 0.039761547 -0.012126491 -0.04058754
0.072781466 -0.06917095 0.07711565 0.027902046 0.05493965 0.08281292 0.061368234 -0.07886303
0.027379489 -0.0021896446 -0.025430849 0.010551052 0.062506504 0.05416347 0.079757944 0.013351005
00000000: 26a0 48bd d2d6 d4b9 7e75 833d 95e9 cb3c
00000010: 1527 dcbc 6bd3 87bd 2f2f 7bbc 82c1 89bd
00000020: 7191 2bbd 84e3 efbb 76b3 59bc b03b 3d3d
00000030: 0121 2e3d 06df 01bd fb34 3fbc 5a28 93bd
00000040: 89d8 903d 400e 5d3d 0bed 4d3d ec1f 803c
00000050: e3cd 313d 93e8 843d 4341 6ebd d051 86bd
00000060: b174 86bd 6eba 833d a3a8 473d 0106 ae3c
00000070: 9310 e33c 57cc ea3c abe8 a6bd a181 013d
00000080: 483d 893d 2130 633d 2c21 8dbd 295a ef3c
00000090: 7a3a 2bbc 2333 30bc 33aa 933d a41d c03c
000000a0: 353b 9ebd 6458 523c 819c 003d 5cdd 13bd
000000b0: be15 5d3d fadd 28bd c87b 4dbd baa8 adbd
000000c0: 12e7 97bc d1fe 8fbd e8c3 b63c 2edf 0b3d
000000d0: a2ba 5f3d b650 93bd 1f50 33bd efd8 23bd
000000e0: a484 85bd 4912 20bd e094 053c 91a5 83bd
000000f0: fa7b b33b 51dd 5cbb 72d0 c13b 34d8 b03d
00000100: d3e0 9c3d 72f9 b23c ffbb 73bd 009a a83d
00000110: 67da 14bd 4957 fcbc ba42 6f3d edc1 ce3c
00000120: 6f11 aebd f452 bd3b 7dab 19bd b607 353d
00000130: 1ed0 963c a416 abbd f06b a13b 6793 883c
00000140: fe2a a7bd a3b0 56bd 79d1 323d 6b07 6fbd
00000150: 1c60 a93d 5f9e fc3c 723b de3c a0b2 0abd
00000160: 80bb 733c 065e df3c 791b a7bd 2ab5 e9bc
00000170: 6593 af3c ea2a 953d b7f8 a33d fd33 753d
00000180: 06aa 863d 0c4a c6bb cfd1 9b3d 9df8 70bd
00000190: 51c1 1c3d 7b23 5cbd 253b 4e3d c836 7a3d
000001a0: 4dcd ecbc 9d19 453d d151 933d 6bf0 693d
000001b0: 2876 2e3d c311 8c3d 5c0f 413c 04f1 3fbd
000001c0: 2b66 e9bb 46f5 663d 8eee 32bb 4914 8c3d
000001d0: 98ee bf3c 7345 1cbc b06b 1a3b 6537 68bd
000001e0: c2f6 0dbd 3783 82bd e2ac 8d3d 0d87 a0bd
000001f0: fb84 65bd aea9 833c c38a 8c3c 84fd 493d
00000200: 91ec 4f3c ab7d 583d c21d 9fbd 535c 5aba
00000210: 69bd 8cbc f8b6 4fbd ad51 5cbd dd30 a7bc
00000220: 99fd 20bd aaef 553d 5e27 00bd b438 92bd
00000230: 2402 f93c 728c 2dbd a36d 7c3d fd71 4c3d
00000240: 6d03 81bd 850e c1bb a635 643d cacf afbd
00000250: 9de7 1dbc 3483 b73b 7339 86bd b693 5c3d
00000260: e20d a6bd c334 6dbd 46b3 443d 376d 13bd
00000270: afd1 8a3d eb9b 54bd 3edd 123d 2047 47bd
00000280: 876a 7d3d 7277 72bd f518 1a3d 2225 6a3c
00000290: 5d83 253d dbee 89bc 29c5 9d3d ebe3 c43c
000002a0: d88b ac3d a2d1 70bc f691 b73b a497 33bc
000002b0: 0c80 583d 4229 983d 4776 7abc a4c9 60bd
000002c0: 3dfc 70bd 3202 c03c a875 933d 82ab 99bd
000002d0: d3a0 1bbd e77a 4a3d 872c 6dbd 210b 80bc
000002e0: d77a 173d 3d5f 65bd 4561 05bd 862e 6e3b
000002f0: 2306 903c eadd ae3c bc72 81bd 5065 1cbc
00000300: cabb 7fbc e8e1 ee3c 9845 a23d 9737 8fbd
00000310: 3312 6f3d 45f2 4fbc 0cf7 ce3c 93d3 01bd
00000320: 875d c3bc e008 803a 66e0 65bd fec0 603d
00000330: f325 a03d 0e1d 66bd 1870 e8bc 4d69 27bd
00000340: c6d8 5f3c 56d6 713c 5431 a7bc 49ca 9dbd
00000350: aab3 ed3b 1766 52bb 52e4 24bd c2d2 403d
00000360: 4f4e fd3c e826 713d 7c12 a03d b976 0c3d
00000370: 6eff b0bd 23cb 8bbd 9bc1 37bd 6d6b 8bbd
00000380: 6f45 21bd 6548 b4bd fc51 973d 8e41 19bd
00000390: 005d 25bd dc87 2b3d 194f 3f3d b402 60bd
000003a0: 5367 853d 13e7 62bd ccd9 923d 6d42 aa3d
000003b0: 9649 daba 01dd 223d 31ae 46bc 1f3f 26bd
000003c0: 730e 953d 80a9 8dbd cfee 9d3d d592 e43c
000003d0: 6608 613d d299 a93d 425d 7b3d f182 a1bd
000003e0: f34a e03c 2480 0fbb 5b54 d0bc 52de 2c3c
000003f0: 6903 803d 84da 5d3d 2258 a33d 2cbe 5a3c

encoders.0.encoder.conv.bias f4 [128]
-0.0030979144 -0.039467227 0.03816693 0.033576347 -0.0011347532 -0.0062365565 -0.01910395 0.026496116
0.036132537 0.03289716 -0.0056916913 0.04552927 0.01712572 0.010650672 -0.0060738134 -0.0017135452
-0.0018315557 0.003579316 0.0054519754 0.019863684 -0.019823812 0.016363172 0.013244642 0.02922542
0.034901306 0.025737265 0.016363239 0.041732 0.029309476 0.00042716632 0.044724114 0.025267491
0.01511351 -0.008644723 0.005274475 0.002577363 -0.028989313 0.0019298538 0.04892555 0.046532292
0.014249315 0.0056573516 0.04838368 0.0447571 0.018935837 0.06843111 0.026823271 0.007086803
-0.0050566844 0.016721219 -0.009518153 -0.0013813103 0.025893146 0.02291652 0.033882864 -0.020449303
0.017988991 0.01659501 -0.039922796 0.00048528687 0.02069383 0.004354847 0.056845218 -0.009835764
0.03619062 0.014956532 0.017892327 0.016295116 0.005301352 -0.0025353367 0.0055213855 0.012308504
0.054344475 -0.0022509363 0.05896558 0.0135000395 0.040924832 0.035327725 0.051274266 0.01898018
0.050538793 0.009798203 -0.035835408 -0.0035395229 0.000958084 0.0007094549 0.017953543 -0.023460733
0.032025825 0.05893357 -0.02469865 -0.007571617 -0.015453332 0.020101562 -0.029466895 -0.005261798
-0.008183031 -0.00050098344 0.055318613 0.02401458 0.0069228034 0.011127078 0.0029859478 -0.0024096167
0.046165265 -0.011176086 0.034395523 0.047471784 0.055145737 0.022697678 0.0031614546 -0.015930347
0.039140526 0.0413559 -0.00023559283 0.030365935 0.026376905 -0.03321397 -0.04013175 0.031054746
0.0405175 0.028352821 -0.017440185 -0.016476477 -0.0068266774 0.005190667 0.026375936 0.030635208
00000000: 6106 4bbb 63a8 21bd ed54 1c3d 5a87 093d
00000010: 00bc 94ba 075c ccbb e37f 9cbc 620e d93c
00000020: b6ff 133d 2cbf 063d 5e81 babb e67c 3a3d
00000030: 3d4b 8c3c 2880 2e3c d706 c7bb 0999 e0ba
00000040: d010 f0ba f592 6a3b 7ca6 b23b 2ab9 a23c
00000050: 8c65 a2bc 0f0c 863c 0e00 593c 266a ef3c
00000060: acf4 0e3d f5d6 d23c 330c 863c 2cef 2a3d
00000070: 6d1a f03c 4bf5 df39 a230 373d c5fd ce3c
00000080: a89e 773c 99a2 0dbc 81d5 ac3b fae8 283b
00000090: ff7a edbc 26f3 fc3a 2866 483d a598 3e3d
000000a0: f575 693c 4e61 b93b f72d 463d 3953 373d
000000b0: 541f 9b3c 9c25 8c3d 7abc db3c 6a38 e83b
000000c0: 8bb2 a5bb f0fa 883c 07f2 1bbc 150d b5ba
000000d0: dd1d d43c 6dbb bb3c c2c8 0a3d 4c85 a7bc
000000e0: a65d 933c 42f2 873c 1686 23bd 1a6e fe39
000000f0: 1b86 a93c 1bb3 8e3b 88d6 683d 2f26 21bc
00000100: 9e3c 143d 3e0c 753c ee92 923c 567d 853c
00000110: f7b6 ad3b e427 26bb bdec b43b 9ca9 493c
00000120: 5098 5e3d 7284 13bb e485 713d 452f 5d3c
00000130: cca0 273d ceb3 103d f704 523d 537c 9b3c
00000140: c401 4f3d a488 203c 26c8 12bd 57f7 67bb
00000150: ee27 7b3a b6fa 393a 4f13 933c b930 c0bc
00000160: 832d 033d 5464 713d d354 cabc 541b f8bb
00000170: f92f 7dbc 08ac a43c 8f64 f1bc 296b acbb
00000180: 1f12 06bc 6e54 03ba c595 623d 39ba c43c
00000190: afd8 e23b 594e 363c e4af 433b a9ea 1dbb
000001a0: ca17 3d3d e71b 37bc 52e2 0c3d c671 423d
000001b0: 7fe0 613d 7bf0 b93c 6830 4f3b 5c80 82bc
000001c0: d151 203d ce64 293d 7809 77b9 fbc1 f83c
000001d0: 6114 d83c 5f0b 08bd 3161 24bd 8666 fe3c
000001e0: aef5 253d 2d44 e83c b8de 8ebc adf9 86bc
000001f0: 52b2 dfbb 7916 aa3b 5912 d83c b0f6 fa3c

encoders.0.encoder.conv.lin.weight f4 [128, 16]
-0.08014846 -0.11482206 -0.08714287 -0.070067056 -0.055783242 0.08894642 0.015151704 -0.03639347
0.04906216 0.17513062 -0.18961331 0.08618305 0.056216206 0.06327596 -0.103134915 0.056236807
0.045035332 0.019991787 0.19892055 -0.09975051 0.07306809 0.009806617 0.18007399 -0.015123728
0.19141161 0.11716597 0.13969989 -0.11817684 0.21314915 -0.20317206 0.071632855 -0.112566665
0.01602902 -0.044844333 0.09832776 -0.16704486 0.17356765 0.09991466 0.0400039 0.11705937
-0.04755835 0.07777084 0.14920892 -0.19243956 -0.006180202 0.024878975 -0.00884896 -0.03315842
0.008094147 -0.17806858 -0.19133246 -0.11767699 0.031291522 -0.12217229 0.118992575 -0.023306645
-0.16141011 -0.033464625 -0.14715114 -0.16168419 0.06439124 0.04550573 -0.08059832 0.06302912
-0.16513251 0.09460041 0.10968642 0.14101718 -0.14160188 -0.12582396 -0.0010453399 0.095414065
-0.07181681 -0.010425441 0.01603134 -0.15844525 0.114853844 -0.10156735 -0.113227546 0.079320095
0.15586282 0.08231365 0.009069991 -0.12754178 0.085449904 -0.12437607 -0.07268091 -0.12790497
0.04073231 0.04421244 -0.06160832 -0.14917114 0.04424265 0.05976608 0.18267217 0.094496794
-0.1372701 0.15104677 0.003832588 -0.040930856 -0.0059890132 -0.19776738 -0.025212208 0.07728405
-0.15682715 0.042038467 -0.05560033 0.0032532648 0.06364986 0.16947342 -0.1923469 0.08325652
0.05417963 0.019467337 -0.19637218 0.16633894 0.038603283 0.056873053 0.18431273 0.10494987
-0.03422437 0.069457754 0.03915577 0.165124 -0.2524686 0.18273133 -0.14224845 -0.15777597
-0.014380732 -0.10228352 0.16073264 -0.09645167 0.017437441 0.17549682 -0.06931941 0.059885718
-0.09158513 -0.07395227 0.1290529 -0.028890122 0.13513191 0.121479034 -0.1981918 -0.007471871
-0.025600115 0.20755798 0.094372496 0.11910289 -0.12964822 0.16466765 -0.082174584 0.011042703
0.014548955 0.08548343 -0.09063175 -0.15255156 -0.19580533 -0.041683193 -0.13567227 -0.1687027
-0.09543436 0.19230768 -0.135486 0.20366542 0.17690796 0.019723864 0.005495518 0.004710073
-0.13334447 0.14800909 0.07840883 0.113788 -0.11650325 -0.092930645 0.09752991 -0.009196313
0.22767648 -0.10528737 0.10890562 0.1638553 -0.09671619 0.0072669936 0.17942786 0.08850623
-0.14126262 -0.025191998 0.016438335 0.03498615 -0.1527548 0.15875065 -0.11055886 0.08318362
-0.20639212 -0.15352608 0.08455361 0.19620037 0.05103185 0.020552313 -0.06546349 0.038519878
0.19881734 0.109810784 -0.17846984 -0.018815452 -0.093728445 0.037220858 -0.07342402 -0.05446162
0.10099241 0.11093774 0.20374438 0.059963472 0.028737703 -0.17690018 0.051692523 -0.15343075
-0.12865981 0.12673052 0.17375484 0.04607605 0.14353174 0.035926 -0.183405 -0.09430001
0.084500626 -0.057182044 -0.11293154 0.124435194 0.08982503 0.009424248 -0.15009403 -0.13996369
-0.033683166 -0.011614346 0.1051555 0.07401352 -0.0733264 0.12692353 -0.19392082 -0.072109014
0.16380599 0.14134577 0.022989534 0.057040427 0.06381202 -0.18270858 0.12131624 0.123990014
-0.14248136 -0.042229567 -0.18935686 -0.04301463 -0.046509378 -0.025723059 -0.034641955 -0.1773198
00000000: e024 a4bd d427 ebbd f677 b2bd 517f 8fbd
00000010: f87c 64bd 8a29 b63d da3e 783c 5211 15bd
00000020: 67f5 483d 7155 333e fe29 42be bd80 b03d
00000030: f742 663d d496 813d 6638 d3bd 9158 663d
00000040: f876 383d d1c5 a33c d4b1 4b3e ff49 ccbd
00000050: b9a4 953d efab 203c 5165 383e 83c9 77bc
00000060: 6801 443e b6f4 ef3d 7d0d 0f3e b306 f2bd
00000070: c543 5a3e 560c 50be 3fb4 923d 5a89 e6bd
00000080: 4b4f 833c b1ae 37bd 1160 c93d cf0d 2bbe
00000090: b8bb 313e 0fa0 cc3d 21db 233d d3bc ef3d
000000a0: 8bcc 42bd 5146 9f3d 39ca 183e e00e 45be
000000b0: 4b83 cabb fece cb3c 3afb 10bc 20d1 07bd
000000c0: 509d 043c 9c57 36be a8ec 43be a200 f1bd
000000d0: 8a2b 003d 7735 fabd 61b2 f33d 94ed bebc
000000e0: b148 25be 3412 09bd caae 16be 8a90 25be
000000f0: 8edf 833d 3764 3a3d bb10 a5bd 6915 813d
00000100: 7f18 29be dcbd c13d 46a3 e03d cf66 103e
00000110: 1500 11be ffd7 00be c903 89ba 7368 c33d
00000120: b114 93bd 78cf 2abc 2854 833c 793f 22be
00000130: 7e38 eb3d 8b02 d0bd d8e3 e7bd 9372 a23d
00000140: 819a 1f3e 0f94 a83d 4d9a 143c 509a 02be
00000150: 5c00 af3d e2b8 febd bbd9 94bd 85f9 02be
00000160: ecd6 263d 1a18 353d 0159 7cbd 52c0 18be
00000170: c837 353d 47cd 743d 6a0e 3b3e 8987 c13d
00000180: 8890 0cbe 01ac 1a3e 282c 7b3b 1da7 27bd
00000190: 7c3f c4bb 8883 4abe d589 cebc 1a47 9e3d
000001a0: 4c97 20be 8730 2c3d 2cbd 63bd ba34 553b
000001b0: dc5a 823d 718a 2d3e 96f6 44be 6582 aa3d
000001c0: 76eb 5d3d f779 9f3c ca15 49be c154 2a3e
000001d0: 7a1e 1e3d b8f3 683d 7abc 3c3e f5ef d63d
000001e0: da2e 0cbd de3f 8e3d cd61 203d 4416 293e
000001f0: 9043 81be ec1d 3b3e 94a9 11be 0690 21be
00000200: 299d 6bbc 067a d1bd 1997 243e 7488 c5bd
00000210: f7d8 8e3c 70b5 333e 56f7 8dbd ba4a 753d
00000220: fc90 bbbd 4a74 97bd 7226 043e faaa ecbc
00000230: 0560 0a3e 00ca f83d cbf2 4abe 99d6 f4bb
00000240: 55b7 d1bc 148a 543e 5e46 c13d 37ec f33d
00000250: 81c2 04be a39e 283e 264b a8bd 74ec 343c
00000260: bd5e 6e3c f011 af3d 249d b9bd 7a36 1cbe
00000270: 3181 48be ffbb 2abd aced 0abe 67c0 2cbe
00000280: 1773 c3bd 4eec 443e d8bc 0abe ab8d 503e
00000290: 5c27 353e f193 a13c bf13 b43b f556 9a3b
000002a0: 748b 08be b28f 173e cf94 a03d af09 e93d
000002b0: 4299 eebd 6c52 bebd c3bd c73d 22ac 16bc
000002c0: 0624 693e e8a0 d7bd e909 df3d afc9 273e
000002d0: 2313 c6bd f61f ee3b f0bb 373e c142 b53d
000002e0: 26a7 10be 735f cebc b0a9 863c a34d 0f3d
000002f0: c16b 1cbe 888f 223e af6c e2bd 2c5c aa3d
00000300: 7558 53be f135 1dbe 712a ad3d c0e8 483e
00000310: c606 513d 535d a83c b911 86bd 05c7 1d3d
00000320: c696 4b3e 7ae4 e03d ccc0 36be dd22 9abc
00000330: b3f4 bfbd e674 183d 555f 96bd 2613 5fbd
00000340: 1cd5 ce3d 5333 e33d 5ea2 503e 429c 753d
00000350: 556b eb3c 5225 35be 8abb 533d f31c 1dbe
00000360: 66bf 03be a5c5 013e caec 313e 3dba 3c3d
00000370: fcf9 123e 2427 133d 85ce 3bbe 5d20 c1bd
00000380: aa0e ad3d b837 6abd a748 e7bd e1d7 fe3d
00000390: 2ff6 b73d 2968 1a3c 40b2 19be a452 0fbe
000003a0: 5cf7 09bd 194a 3ebc c45b d73d 6694 973d
000003b0: 272c 96bd 3ef8 013e 2e93 46be e4ad 93bd
000003c0: c2bc 273e f2bc 103e 8c54 bc3c 39a3 693d
000003d0: e0af 823d f517 3bbe a674 f83d 7aee fd3d
000003e0: a2e6 11be e9f8 2cbd c4e6 41be 1c30 30bd
000003f0: 9e80 3ebd 2ab9 d2bc b9e4 0dbd 5293 35be

encoders.0.encoder.prelu.weight f4 [128]
0.22225782 0.23473063 0.2549579 0.23283136 0.25593254 0.27554342 0.24860564 0.25200185
0.27077177 0.25009406 0.2606756 0.2518988 0.24129039 0.2472379 0.17711467 0.2347603
0.23138158 0.21535648 0.21153878 0.24428642 0.26548573 0.24016406 0.27534917 0.22891365
0.24724336 0.2986158 0.25978467 0.2344332 0.22952467 0.29655164 0.24982895 0.2546465
0.22754818 0.27356377 0.2050624 0.24828306 0.27242422 0.23774385 0.26499698 0.24191393
0.24009137 0.24860369 0.22978598 0.2723226 0.26730868 0.2620141 0.23903233 0.26470056
0.2337925 0.26698896 0.2705745 0.24098429 0.336566 0.22666664 0.27973205 0.26594934
0.2556807 0.254778 0.262792 0.21131012 0.28631055 0.24055196 0.26297483 0.24195638
0.27030718 0.24591748 0.23710887 0.23307003 0.26624358 0.21166532 0.27805465 0.2911395
0.2249952 0.2516423 0.23492523 0.25500092 0.24400254 0.25365466 0.24874185 0.2494388
0.24131848 0.27749386 0.22967227 0.2662327 0.27920958 0.25558776 0.22333546 0.24628557
0.25146326 0.2133986 0.24882397 0.22800922 0.2622016 0.24826078 0.2660642 0.2565893
0.24863385 0.2486898 0.24887444 0.248893 0.22697796 0.2535993 0.28131592 0.2551767
0.2511613 0.22470506 0.27120423 0.23337923 0.2651149 0.27891797 0.23356535 0.25856107
0.22794609 0.28822803 0.20583154 0.24029808 0.23746128 0.249114 0.26440743 0.24307548
0.26043737 0.2433689 0.2708486 0.25863487 0.2390137 0.24496298 0.23692483 0.23543616
00000000: 8e97 633e 3a5d 703e d889 823e 586b 6e3e
00000010: 9709 833e 0714 8d3e 7a92 7e3e 6306 813e
00000020: 99a2 8a3e 540c 803e 4677 853e e1f8 803e
00000030: d414 773e ef2b 7d3e 8c5d 353e 0165 703e
00000040: 4bef 6c3e 6986 5c3e 9f9d 583e 3826 7a3e
00000050: bfed 873e 91ed 753e 91fa 8c3e 5768 6a3e
00000060: 5d2d 7d3e 2ce4 983e 7f02 853e 420f 703e
00000070: 8408 6b3e 9ed5 973e 29d3 7f3e 0761 823e
00000080: 6402 693e 8d10 8c3e e1fb 513e ea3d 7e3e
00000090: 307b 8b3e 2073 733e afad 873e 49b8 773e
000000a0: 83da 753e f791 7e3e 044d 6b3e de6d 8b3e
000000b0: afdc 883e b626 863e e4c4 743e d586 873e
000000c0: 4d67 6f3e c7b2 883e be88 8a3e 96c4 763e
000000d0: 6152 ac3e 4d1b 683e 0a39 8f3e 832a 883e
000000e0: 95e8 823e 4372 823e ac8c 863e ae61 583e
000000f0: 4c97 923e 4153 763e a3a4 863e 6ac3 773e
00000100: b465 8a3e cbd1 7b3e abcc 723e e9a9 6e3e
00000110: 1451 883e cbbe 583e 2e5d 8e3e 3d10 953e
00000120: 2465 663e 42d7 803e 3d90 703e 7b8f 823e
00000130: cddb 793e 06df 813e 2fb6 7e3e e36c 7f3e
00000140: 311c 773e ad13 8e3e 352f 6b3e a74f 883e
00000150: 8ff4 8e3e 66dc 823e 0db2 643e 4932 7c3e
00000160: cbbf 803e 2a85 5a3e b6cb 7e3e 407b 693e
00000170: 4a3f 863e 1338 7e3e 9139 883e ac5f 833e
00000180: df99 7e3e 8aa8 7e3e f1d8 7e3e cedd 7e3e
00000190: e96c 683e c4d7 813e a408 903e 85a6 823e
000001a0: 3798 803e 1519 663e 48db 8a3e f7fa 6e3e
000001b0: 24bd 873e 56ce 8e3e c12b 6f3e 1e62 843e
000001c0: b36a 693e a092 933e 81c5 523e b310 763e
000001d0: 0d29 733e be17 7f3e 6960 873e c7e8 783e
000001e0: 0c58 853e b235 793e abac 8a3e ca6b 843e
000001f0: 02c0 743e 93d7 7a3e 6c9c 723e 2d16 713e

encoders.0.encoder.conv2.bias f4 [128]
-0.0003248712 0.029103875 0.040709637 0.028695814 0.026643796 -0.0046745553 0.034146324 0.0076048747
0.03869923 0.030613922 0.03089274 0.0056443918 0.019339066 -0.025157377 0.002873273 0.020432007
0.023802944 0.048268985 0.0072735776 0.015202045 0.05628902 -0.013266803 0.04040379 0.024465593
0.004305155 0.039906804 0.026011733 0.015963545 0.0025509328 0.029273331 0.030691499 0.037154235
0.016045345 0.016086105 0.0075709857 0.002339954 0.042228457 0.020146359 -0.014831899 0.028395617
-0.0069586765 -0.011146838 0.027691118 -0.01893064 -0.0096541075 0.00031727596 -0.011646179 0.017952688
0.006547255 0.038750783 0.034038786 0.02084683 0.02013415 0.026856396 -0.010473789 0.08111704
0.009627995 0.011645531 0.019318743 0.04780613 0.025439352 0.041642893 0.004294484 -0.012560453
0.035876885 0.032713555 0.05565036 0.011047666 0.009042692 -0.024961628 0.019307122 0.008910005
0.020277586 -0.0068120975 0.030095339 0.023155041 -0.007907607 -0.029221255 0.031173868 0.040128328
0.037695598 -0.021545878 -0.025084348 0.0001302679 0.039303478 -0.016482756 -0.02006164 0.021328274
0.042795744 0.021993777 0.001480907 0.045432385 0.02865815 0.0069129625 0.004836123 0.02177985
0.01491107 0.028433193 -0.0017269462 0.029125005 0.027173968 0.057713874 0.014820285 -0.016542029
-0.0020512897 0.014237616 0.027768666 0.040508024 0.029384153 0.03202491 0.0032963748 0.01609167
-0.0003077718 0.0044715 0.015955592 0.014963582 0.02431545 0.025354551 0.031048475 0.04705697
0.014689114 -0.010903683 0.057432376 0.017837418 -0.011982262 -0.032767117 0.03366791 -0.0071549374
00000000: 7953 aab9 406b ee3c 26bf 263d 7c13 eb3c
00000010: 1744 da3c 032d 99bb 04dd 0b3d 5032 f93b
00000020: 1583 1e3d 0cca fa3c c512 fd3c 97f4 b83b
00000030: f66c 9e3c d816 cebc 864d 3c3b 0661 a73c
00000040: 64fe c23c b3b5 453d 3157 ee3b 0012 793c
00000050: 518f 663d 015d 59bc 727e 253d 116c c83c
00000060: 4212 8d3b 5175 233d 8f16 d53c fbc5 823c
00000070: 8d2d 273b a0ce ef3c bd6c fb3c 0a2f 183d
00000080: 8771 833c 02c7 833c 0816 f83b ea59 193b
00000090: bff7 2c3d fa09 a53c 7e01 73bc ed9d e83c
000000a0: 9c05 e4bb 3aa1 36bc 7cd8 e23c 6e14 9bbc
000000b0: 432c 1ebc 0f58 a639 9dcf 3ebc 8411 933c
000000c0: 5b8a d63b 24b9 1e3d 416c 0b3d f9c6 aa3c
000000d0: 5ff0 a43c f201 dc3c 419a 2bbc b120 a63d
000000e0: bdbe 1d3c e6cc 3e3c 5742 9e3c 5cd0 433d
000000f0: 3066 d03c bd91 2a3d beb8 8c3b 5cca 4dbc
00000100: a4f3 123d a6fe 053d a2f1 633d 4501 353c
00000110: cd27 143c 547c ccbc f829 9e3c 45fb 113c
00000120: 2e1d a63c 0438 dfbb 808a f63c a4af bd3c
00000130: e88e 01bc 6a61 efbc 5760 ff3c 9a5d 243d
00000140: b366 1a3d fb80 b0bc b17d cdbc 8698 0839
00000150: affc 203d d806 87bc 4f58 a4bc a2b8 ae3c
00000160: 974a 2f3d 4b2c b43c fe1a c23a 4f17 3a3d
00000170: 7fc4 ea3c 2286 e23b 5778 9e3b a86b b23c
00000180: 8f4d 743c baec e83c b35a e2ba 9097 ee3c
00000190: f19b de3c 6265 6c3d c8d0 723c 2683 87bc
000001a0: ee6e 06bb e444 693c 1d7b e33c beeb 253d
000001b0: 09b7 f03c 8d2c 033d fe07 583b aed2 833c
000001c0: 6f5c a1b9 a985 923b 4db5 823c d029 753c
000001d0: 3231 c73c 59b4 cf3c 5f59 fe3c cfbe 403d
000001e0: 9caa 703c 5ca5 32bc 363e 6b3d c71f 923c
000001f0: 4051 44bc d036 06bd 5de7 093d f773 eabb

encoders.0.encoder.conv2.lin.weight f4 [128, 128]
-0.052314878 -0.06452779 -0.09842834 -0.041988544 0.12407753 0.16641118 0.07008368 0.11318638
-0.0060228524 0.08870097 -0.03368078 -0.15699415 0.008404063 0.01760292 0.12390705 -0.052061893
-0.049644366 0.0057399124 -0.14225776 0.08760511 0.08653698 -0.0665523 0.0701884 0.04484475
0.009066414 0.03440977 -0.046435785 0.01731874 0.12556319 -0.17339897 0.009479523 0.14733072
0.08966718 -0.034116335 -0.09460241 -0.09402303 0.028694963 0.13082427 0.08278712 -0.13144486
0.12783092 0.0057552913 -0.11533931 -0.019673722 0.029248986 0.13939498 0.005546095 0.12075049
0.1008668 -0.005385115 0.008393537 0.005141089 0.12205567 -0.0916669 0.015543097 -0.037119325
0.04133444 -0.08995057 0.06876656 -0.14902323 0.014618212 -0.077095956 -0.040120687 -0.09521088
-0.10823807 0.0734612 0.14039852 -0.086883485 0.030297322 -0.069723874 -0.0019917556 0.08269014
-0.014200876 0.13265938 -0.006570991 -0.05434528 -0.12706359 -0.12872238 -0.14588287 0.039608702
0.06855191 -0.060265712 -0.12304888 0.023421763 0.12799324 -0.016569503 -0.13428786 0.04860191
-0.061960667 0.05740548 -0.015836217 0.10430766 0.12640841 -0.12452862 -0.008782105 -0.06994236
0.016520368 0.08552017 0.09535353 0.077361465 -0.044931922 -0.16055627 -0.12739788 -0.02850498
0.07339328 -0.03601833 -0.05709589 -0.03515406 0.089701615 0.14450082 0.08783917 -0.12613468
0.12122294 0.14289626 -0.14350824 -0.14106865 0.14549862 -0.10541161 -0.054005537 -0.05420876
0.110091545 0.18428464 -0.02936569 0.12845191 -0.11001189 0.09221666 0.153545 0.08285453
-0.027119806 0.03725764 0.069870636 -0.060873568 0.020336604 0.13507852 -0.084517725 0.07061717
0.14526992 -0.07582496 -0.0066762464 -0.065103695 -0.015991533 0.029735472 0.106168024 -0.094534
-0.004010087 -0.1084592 0.027295766 -0.15674955 0.010254261 -0.124801844 -0.12888636 0.105764896
-0.05970322 0.067826316 0.15890951 -0.00918368 -0.016826434 0.017207613 -0.027716335 0.06934362
-0.028674398 0.12874503 -0.004816098 0.0882445 -0.11087942 0.03605972 0.032143563 -0.057789512
-0.059135716 -0.0013533577 0.15047637 -0.056002896 -0.05577838 0.044327922 -0.089308165 -0.08765057
-0.044450477 -0.11845044 -0.03743992 0.04973101 -0.03321791 0.14018887 0.09535728 0.047634896
0.11390948 0.14202136 0.040690016 0.11392281 0.009834004 -0.024786642 0.05004749 -0.075943634
-0.05897141 -0.090991855 -0.08937789 -0.04909489 -0.09611888 0.087663494 0.12305768 -0.0205489
-0.031788997 -0.027363766 0.13004035 0.04788322 0.026722927 0.007502354 -0.030430185 0.010545283
-0.07379173 0.043027796 -0.04376756 0.11464722 0.06011901 -0.12878954 -0.11578667 -0.0020405469
0.01601399 0.060528424 0.07298212 0.14401709 0.010417052 -0.16497527 0.085213445 0.095734075
-0.11896239 0.07224513 0.15708919 -0.043530606 0.11896739 -0.10498972 -0.10933945 -0.018442081
-0.14659847 0.055942737 0.07191472 0.00067930616 -0.06965914 0.022357693 -0.039737202 -0.028492175
0.02834095 0.007249569 -0.046681173 -0.0037395405 0.073182516 0.063616894 0.078321226 -0.13508841
0.07893306 -0.0025056931 0.11514231 0.1409889 0.068467885 -0.09508612 0.031002145 -0.06286259
00000000: 2048 56bd 2527 84bd cc94 c9bd 2efc 2bbd
00000010: 5c1c fe3d b167 2a3e 0888 8f3d 43ce e73d
00000020: 595b c5bb dba8 b53d dcf4 09bd 13c3 20be
00000030: 32b1 093c 0034 903c fbc2 fd3d da3e 55bd
00000040: e457 4bbd e015 bc3b 05ac 11be 4f6a b33d
00000050: 4d3a b13d 924c 88bd f0be 8f3d 21af 373d
00000060: 4c8b 143c 42f1 0c3d 7333 3ebd 08e0 8d3c
00000070: a393 003e 808f 31be 0050 1b3c dddd 163e
00000080: 6da3 b73d 92bd 0bbd e9be c1bd 258f c0bd
00000090: b311 eb3c ccf6 053e 4b8c a93d 7b99 06be
000000a0: 1ce6 023e e296 bc3b 0437 ecbd c92a a1bc
000000b0: 929b ef3c 8fbd 0e3e 04bc b53b 084c f73d
000000c0: 4193 ce3d 9e75 b0bb 0c85 093c 9576 a83b
000000d0: 53f8 f93d dbbb bbbd 79a8 7e3c 6f0a 18bd
000000e0: 4d4e 293d 0138 b8bd 7bd5 8c3d 8c99 18be
000000f0: 3a81 6f3c 7ce4 9dbd 9755 24bd ecfd c2bd
00000100: ecab ddbd d372 963d a1c4 0f3e f8ef b1bd
00000110: 1732 f83c 64cb 8ebd 1d88 02bb 7359 a93d
00000120: caaa 68bc dcd7 073e 7851 d7bb 2899 5ebd
00000130: f51c 02be cdcf 03be 5262 15be bc3c 223d
00000140: f264 8c3d 2ed9 76bd 0d01 fcbd ffde bf3c
00000150: a910 033e c4bc 87bc c282 09be cc12 473d
00000160: 78ca 7dbd 0222 6b3d f4ba 81bc 419f d53d
00000170: 3571 013e dc08 ffbd d1e2 0fbc f13d 8fbd
00000180: b955 873c 3325 af3d b648 c33d b06f 9e3d
00000190: 890a 38bd dd68 24be 9774 02be 4783 e9bc
000001a0: 374f 963d f587 13bd 61dd 69bd b4fd 0fbd
000001b0: 7bb5 b73d 06f8 133e 06e5 b33d 7329 01be
000001c0: bc43 f83d 6653 123e d3f3 12be 4d74 10be
000001d0: 97fd 143e 0be2 d7bd e934 5dbd 010a 5ebd
000001e0: ad77 e13d 1db5 3c3e 5190 f0bc e688 033e
000001f0: ea4d e1bd 17dc bc3d e73a 1d3e a3af a93d
00000200: 5b2a debc 789b 183d 5618 8f3d 9056 79bd
00000210: f398 a63c 0652 0a3e a117 adbd bc9f 903d
00000220: a3c1 143e 1e4a 9bbd 6ac4 dabb 1655 85bd
00000230: ad00 83bc ce97 f33c 9f6e d93d 0b9b c1bd
00000240: 0c67 83bb db1f debd 5f9b df3c f482 20be
00000250: 7d01 283c 1c98 ffbd c9fa 03be 449b d83d
00000260: 5d8b 74bd 86e8 8a3d 2db9 223e 2577 16bc
00000270: 97d7 89bc fbf6 8c3c 5e0d e3bc 0704 8e3d
00000280: 92e6 eabc bdd5 033e 5cd0 9dbb 88b9 b43d
00000290: c014 e3bd 5bb3 133d f8a8 033d b2b4 6cbd
000002a0: 4b38 72bd 2663 b1ba 7a16 1a3e 4b63 65bd
000002b0: df77 64bd 3291 353d 33e7 b6bd 2482 b3bd
000002c0: b411 36bd 2596 f2bd 9a5a 19bd beb2 4b3d
000002d0: 810f 08bd ac8d 0f3e ad4a c33d cf1c 433d
000002e0: 6049 e93d 0c6e 113e 93aa 263d 5d50 e93d
000002f0: cd1e 213c 5b0d cbbc 99fe 4c3d 5688 9bbd
00000300: 018c 71bd f059 babd c10b b7bd b917 49bd
00000310: fad9 c4bd eb88 b33d aa05 fc3d 2b56 a8bc
00000320: 2e35 02bd fa29 e0bc 4c29 053e 3221 443d
00000330: 0aea da3c 4fd6 f53b b948 f9bc 1fc6 2c3c
00000340: 1e20 97bd ea3d 303d 9d45 33bd 29cc ea3d
00000350: 5a3f 763d 68e1 03be 9021 edbd b2ba 05bb
00000360: c52f 833c a7ec 773d a677 953d 3779 133e
00000370: 48ac 2a3c 47ef 28be 6384 ae3d 3a10 c43d
00000380: 8ea2 f3bd 41f5 933d fddb 203e 264d 32bd
00000390: 2da5 f33d da04 d7bd 5ded dfbd d913 97bc
000003a0: e91d 16be 3624 653d 0648 933d 7713 323a
000003b0: 74a9 8ebd 7b27 b73c 7ac3 22bd 6c68 e9bc
000003c0: 482b e83c cb8d ed3b c234 3fbd 1413 75bb
000003d0: b7e0 953d 9349 823d e166 a03d 9e54 0abe
000003e0: a8a7 a13d 8e36 24bb bbcf eb3d 655f 103e
000003f0: e438 8c3d 83bc c2bd 36f8 fd3c 1abe 80bd

encoders.0.encoder.prelu2.weight f4 [128]
0.24326175 0.27128956 0.27122355 0.2186724 0.25656393 0.24620622 0.27581024 0.25934657
0.26920277 0.2605706 0.28010625 0.2269222 0.26105276 0.21643654 0.24051832 0.2397007
0.23395951 0.24606393 0.2826388 0.23893239 0.2700885 0.2695294 0.26890296 0.23411581
0.22919029 0.27321604 0.257522 0.2617922 0.24317122 0.25389597 0.25082463 0.24668679
0.24191926 0.23473032 0.23228417 0.266659 0.25717732 0.2370306 0.24607787 0.25815955
0.21610601 0.22432275 0.28092438 0.20032509 0.22558624 0.22315001 0.22985193 0.23533832
0.22694217 0.27836803 0.20806639 0.28406814 0.23089981 0.25068495 0.21210533 0.25360677
0.25452557 0.22243512 0.26220492 0.26153114 0.2781388 0.25262213 0.25083077 0.22437604
0.24414505 0.2721985 0.29338652 0.28926533 0.23792578 0.2254213 0.25122 0.2202415
0.24468853 0.21732356 0.26801375 0.27102834 0.23395373 0.27112544 0.25114295 0.28492033
0.2604745 0.26137802 0.23939067 0.22227716 0.28083238 0.23542024 0.23101874 0.2562626
0.26566324 0.23847419 0.23886584 0.29360372 0.27023962 0.22520904 0.2559724 0.25131908
0.24323249 0.23081903 0.23075439 0.28772348 0.2272795 0.2826396 0.26634675 0.24117547
0.21249072 0.22786273 0.20474619 0.30030417 0.21555175 0.2453515 0.21865241 0.27041543
0.26730773 0.22901073 0.23409554 0.20826933 0.23233098 0.24633928 0.2725281 0.22457074
0.26517183 0.22667399 0.29668546 0.23852175 0.2620068 0.28806412 0.26156056 0.22953314
00000000: 9c19 793e 77e6 8a3e d0dd 8a3e a8eb 5f3e
00000010: 595c 833e 7c1d 7c3e 0037 8d3e 13c9 843e
00000020: f2d4 893e 8269 853e 166a 8f3e 4b5e 683e
00000030: b5a8 853e 8aa1 5d3e 6f4a 763e 1a74 753e
00000040: 1593 6f3e 2ff8 7b3e 08b6 903e b1aa 743e
00000050: 0a49 8a3e c2ff 893e a6ad 893e 0ebc 6f3e
00000060: dcb0 6a3e f9e2 8b3e ecd9 833e a109 863e
00000070: e001 793e a7fe 813e 166c 803e 769b 7c3e
00000080: afb9 773e 255d 703e e7db 6d3e 8787 883e
00000090: bfac 833e 26b8 723e d6fb 7b3e 7d2d 843e
000000a0: e54a 5d3e ddb4 653e 52d5 8f3e 0522 4d3e
000000b0: 1400 673e 7081 643e 4e5e 6b3e 87fc 703e
000000c0: 8763 683e 4186 8e3e 5b0f 553e 6171 913e
000000d0: 0071 6c3e c759 803e 2432 593e bfd8 813e
000000e0: 2d51 823e 08c6 633e b93f 863e 69e7 853e
000000f0: 3568 8e3e b057 813e e46c 803e d5c2 653e
00000100: 2901 7a3e 9a5d 8b3e c236 963e 961a 943e
00000110: d1a2 733e d7d4 663e e89f 803e fd86 613e
00000120: a18f 7a3e 118a 5e3e 1939 893e 3ac4 8a3e
00000130: 9191 6f3e f4d0 8a3e cf95 803e 14e1 913e
00000140: ea5c 853e 57d3 853e d422 753e a09c 633e
00000150: 43c9 8f3e 0112 713e 2d90 6c3e da34 833e
00000160: 0305 883e 9432 743e 3f99 743e 3a53 963e
00000170: d95c 8a3e 339d 663e d00e 833e e5ac 803e
00000180: f011 793e d35b 6c3e e14a 6c3e 7e50 933e
00000190: f5bb 683e 23b6 903e 9a5e 883e b4f6 763e
000001a0: 2b97 593e d954 693e fca8 513e 78c1 993e
000001b0: 99b9 5c3e 6c3d 7b3e 6be6 5f3e e473 8a3e
000001c0: 8fdc 883e ca81 6a3e beb6 6f3e 8e44 553e
000001d0: 2ce8 6d3e 5d40 7c3e ce88 8b3e dff5 653e
000001e0: 9ac4 873e 3a1d 683e 28e7 973e 0c3f 743e
000001f0: c125 863e 247d 933e 44eb 853e bc0a 6b3e

encoders.1.weight f4 [128, 128]
-0.029449446 -0.094676495 -0.03454682 -0.039212726 -0.09701511 -0.09815772 -0.10090888 -0.119362235
-0.059155073 0.01676576 0.004909315 -0.0017900489 -0.038228344 -0.014021616 -0.1118227 -0.15252408
-0.04982312 -0.15387367 -0.056469142 -0.06612992 -0.10104269 -0.10316053 -0.12909308 -0.13499764
-0.058677666 -0.11703299 -0.0056939092 -0.0724418 -0.089935906 -0.11712578 -0.018087406 0.0043849004
-0.09479016 -0.04656404 -0.11420087 -0.011467859 -0.1094727 -0.07974038 -0.06365728 0.015006363
-0.094309546 -0.09709603 -0.09168827 -0.017328732 -0.063413166 -0.048055727 -0.08042985 -0.055111747
0.0138811255 -0.032883946 -0.08960622 -0.040275548 -0.07579503 -0.034045916 -0.05194208 -0.011783721
-0.048330385 -0.1429847 -0.14693867 -0.13551304 -0.1428535 -0.1582863 -0.08444781 -0.088399574
-0.07994484 0.008194209 -0.07055588 -0.13112715 -0.07034493 -0.11856204 0.0072886753 -0.011428649
-0.019230802 -0.14937864 -0.07435723 -0.11425972 -0.01256343 -0.024291422 -0.0776976 -0.0050051333
-0.046933703 -0.095857285 0.01253863 0.0035281524 -0.046522297 -0.03580797 -0.07318728 -0.025648257
-0.097910054 -0.07317241 -0.14448752 -0.04406039 -0.022946214 -0.13086174 -0.019233717 -0.08744061
-0.013214517 -0.03750719 -0.061700843 -0.065602265 -0.13713922 -0.026460668 -0.019717682 0.004388984
-0.025638286 -0.15354581 -0.10545653 -0.11769384 -0.15446626 -0.043916777 -0.020707605 -0.14200406
-0.1106109 -0.0476711 -0.033746794 -0.03413006 -0.11941355 -0.107452065 -0.11132338 -0.021430837
-0.066928506 -0.060984783 -0.10962248 -0.10048246 -0.12067164 -0.07162877 -0.1115421 -0.08772043
0.008113369 0.072710864 0.07729703 -0.0515107 0.09031966 0.08158105 0.10625991 0.032445684
0.011255485 0.032897804 0.060021874 0.08999312 -0.030699221 0.031792816 0.03824208 0.08808383
0.020360999 -0.04116464 0.08114674 -0.04868796 0.076252416 0.09122147 0.07392611 0.098297164
-0.033026297 0.11004571 -0.016668474 -0.007801982 0.022661055 -0.027809212 0.015779894 0.06726738
-0.0029205699 -0.04897318 0.046885412 0.012511686 -0.04918243 0.07567489 0.054176148 -0.0051063383
-0.045453615 0.03384855 0.092039675 0.08533424 0.041756444 0.029259149 -0.051731985 0.005644306
0.09668132 0.05345142 0.01014949 0.08957836 0.118566796 0.09570366 -0.03409082 0.04695583
0.051485054 -0.045181263 0.09131718 0.078029424 0.042237528 -0.02555677 0.054986194 0.059703235
0.062986426 0.1148674 0.019880401 -0.007015394 0.04283101 0.09707327 -0.025563464 0.04267931
0.089507796 -0.042014044 0.09765626 0.054839976 0.016728794 0.04039267 0.1170964 -0.0389439
0.11681503 0.012971187 -0.034428496 -0.037923124 -0.022582017 -0.003088782 0.041870408 0.012048534
0.08880303 0.07662681 0.11303592 0.09932874 0.10967241 -0.01714194 -0.0133599555 0.09233643
-0.054143567 0.0551892 0.056405377 0.05412819 0.088232175 0.0628258 0.105462186 -0.04289697
-0.044060383 0.10150841 0.105322435 0.082085066 -0.04760634 0.052918438 0.039869115 -0.05023739
0.07517511 -0.034757275 0.007786227 0.03132655 -0.049529556 -0.043588683 -0.05320899 0.026882237
0.056974664 0.029340798 -0.04464588 -0.032647997 -0.0013742509 0.09557497 -0.004581349 0.04934511
00000000: f73f f1bc c0e5 c1bd f780 0dbd 869d 20bd
00000010: dcaf c6bd ea06 c9bd 51a9 cebd 3074 f4bd
00000020: 974c 72bd 5958 893c 52de a03b 13a0 eaba
00000030: 5395 1cbd ecba 65bc 4d03 e5bd 462f 1cbe
00000040: 5413 4cbd 0f91 1dbe 304c 67bd 206f 87bd
00000050: 78ef cebd d445 d3bd fa30 04be d23c 0abe
00000060: fe57 70bd feae efbd f993 babb 5e5c 94bd
00000070: 5130 b8bd a4df efbd 0a2c 94bc 36af 8f3b
00000080: 5821 c2bd efb9 3ebd 25e2 e9bd b0e3 3bbc
00000090: 3933 e0bd ed4e a3bd bf5e 82bd 40dd 753c
000000a0: 5d25 c1bd 49da c6bd 0fc7 bbbd fcf4 8dbc
000000b0: c3de 81bd 15d6 44bd 68b8 a4bd dbbc 61bd
000000c0: a96d 633c 51b1 06bd 7783 b7bd f9f7 24bd
000000d0: 6d3a 9bbd bb73 0bbd 38c1 54bd 8210 41bc
000000e0: 15f6 45bd 956a 12be 1777 16be eec3 0abe
000000f0: 3048 12be ce15 22be f9f2 acbd d60a b5bd
00000100: 1fba a3bd 0141 063c 9a7f 90bd 3246 06be
00000110: 0111 90bd a8d0 f2bd d7d5 ee3b 3a3f 3bbc
00000120: ea89 9dbc b7f6 18be 9a48 98bd 0001 eabd
00000130: d8d6 4dbc cefe c6bc eb1f 9fbd 1a02 a4bb
00000140: 8e3d 40bd d350 c4bd d36e 4d3c 9338 673b
00000150: 2a8e 3ebd 61ab 12bd 36e3 95bd 4b1c d2bc
00000160: 1185 c8bd 6bdb 95bd 89f4 13be ab78 34bd
00000170: b3f9 bbbc 9f00 06be 0790 9dbc 1014 b3bd
00000180: b481 58bc 24a1 19bd 06ba 7cbd 7b5a 86bd
00000190: 396e 0cbe 0bc4 d8bc fa86 a1bc 77d1 8f3b
000001a0: 6207 d2bc 1d3b 1dbe 98f9 d7bd 7809 f1bd
000001b0: 672c 1ebe 14e2 33bd ffa2 a9bc 8369 11be
000001c0: f887 e2bd c542 43bd 143a 0abd f6cb 0bbd
000001d0: 178f f4bd d40f dcbd 83fd e3bd b98f afbc
000001e0: d011 89bd 2ecb 79bd c081 e0bd bfc9 cdbd
000001f0: b122 f7bd 1bb2 92bd 2f70 e4bd c5a6 b3bd
00000200: f0ed 043c 6fe9 943d e84d 9e3d e2fc 52bd
00000210: 84f9 b83d f713 a73d cc9e d93d c4e5 043d
00000220: ed68 383c d9bf 063d 7fd9 753d 504e b83d
00000230: ef7c fbbc 2f39 023d baa3 1c3d 4c65 b43d
00000240: 1ccc a63c 419c 28bd 4330 a63d 076d 47bd
00000250: 3a2a 9c3d 52d2 ba3d 9366 973d 0650 c93d
00000260: 9546 07bd a55f e13d 538c 88bc c5a7 ffbb
00000270: ada3 b93c 25d0 e3bc d644 813c 7bc3 893d
00000280: 0867 3fbb 1a98 48bd eb0a 403d d1fd 4c3c
00000290: 8473 49bd 70fb 9a3d cfe7 5d3d 1253 a7bb
000002a0: 922d 3abd c7a4 0a3d 4c7f bc3d b8c3 ae3d
000002b0: ce08 2b3d e2b0 ef3c ebe4 53bd dff3 b83b
000002c0: db00 c63d e0ef 5a3d 0c4a 263c dc74 b73d
000002d0: 26d3 f23d 4800 c43d d1a2 0bbd c254 403d
000002e0: fee1 523d fd0f 39bd 8004 bb3d e4cd 9f3d
000002f0: 4201 2d3d 6e5c d1bc 3439 613d 618b 743d
00000300: 07ff 803d 993f eb3d 39dc a23c 64e1 e5bb
00000310: 926f 2f3d 5ace c63d 786a d1bc 80d0 2e3d
00000320: dd4f b73d eb16 2cbd 0100 c83d e29f 603d
00000330: d30a 893c c972 253d 3dd0 ef3d a483 1fbd
00000340: b83c ef3d 1a85 543c e504 0dbd 4755 1bbd
00000350: ecfd b8bc 2a6d 4abb 4e80 2b3d 3767 453c
00000360: 5dde b53d 84ee 9c3d 607f e73d de6c cb3d
00000370: ee9b e03d 416d 8cbc b7e3 5abc e21a bd3d
00000380: a5c5 5dbd 120e 623d 5309 673d 85b5 5d3d
00000390: 12b3 b43d d0aa 803d 8ffc d73d bcb4 2fbd
000003a0: a978 34bd a4e3 cf3d 4ab3 d73d 371c a83d
000003b0: defe 42bd 01c1 583d cc4d 233d b9c5 4dbd
000003c0: 68f5 993d a55d 0ebd 9b23 ff3b 4550 003d
000003d0: 81df 4abd 0c8a 32bd abf1 59bd 2338 dc3c
000003e0: 445e 693d 1d5c f03c 99de 36bd e8b9 05bd
000003f0: 3520 b4ba cfbc c33d 241f 96bb 191e 4a3d

encoders.1.encoder.conv.bias f4 [128]
-0.013155129 0.011537098 -0.021796683 -0.0012835681 -0.0033793359 -0.0032785537 0.002968 -0.009420335
-0.003250078 -0.01577411 0.018552182 -0.00719592 -0.012916786 0.045121666 -0.025827952 0.014605156
-0.0021811076 0.029840019 0.012678262 0.026950972 0.019199794 -0.0167152 -0.022828765 -0.02832606
0.004102249 0.0094657615 0.0036779996 0.0091183 -0.0031292075 0.0065329764 -0.012793814 -0.0062723495
0.010116301 -0.017573936 0.010162702 -0.010422583 -0.0074551026 0.0021544276 0.027762448 -0.003912105
0.024922097 -0.016949495 -0.01013122 0.016441368 -0.004247569 -0.004105522 0.030687816 0.04703698
0.007308132 -0.011494143 -0.0181311 -0.00054762803 0.010148639 0.004476081 0.01712166 -0.0022833315
-0.012336203 0.0052484456 -0.003820717 0.03497521 -0.0066355094 -0.005827909 -0.00705828 -0.01734179
-0.030224582 0.0069581703 -0.0017110002 0.0033324154 -0.019766243 0.015571093 -0.0070482045 0.006368211
-0.010950872 -0.005287865 -0.024491036 -0.009619778 -0.018298395 -0.0061549465 0.007840565 -0.022833789
-0.00076066324 -0.013560452 0.0010843923 0.008469935 -0.008231719 0.029156322 -0.019377876 -0.017193707
-0.017369306 -0.021857088 0.020781323 -3.1132844e-05 -0.0052598156 0.00023924168 0.0060568876 -0.0012093083
-0.009275093 0.016542928 -0.011617988 -0.0049226442 -0.02540518 -0.017652346 -0.032670427 0.016158402
-0.011523248 0.002090752 -0.0066301674 -0.013087121 0.0048695607 -0.010785133 -0.024607604 0.039936174
0.026361449 -0.013190087 -0.010608091 0.011695588 0.019892389 0.0094149355 -0.009334294 -0.024690017
-0.011821562 0.010109117 -0.014739762 -0.009309515 0.020336146 0.01736191 0.008438166 0.016243616
00000000: 9c88 57bc 1906 3d3c f58e b2bc 663d a8ba
00000010: d977 5dbb 01dd 56bb c782 423b c057 1abc
00000020: 43ff 54bb b538 81bc bffa 973c c1cb ebbb
00000030: eda0 53bc 7fd1 383d 2495 d3bc 774a 6f3c
00000040: eaf0 0ebb 0e73 f43c 7cb8 4f3c 49c8 dc3c
00000050: e348 9d3c 51ee 88bc 6403 bbbc 0e0c e8bc
00000060: 296c 863b 4816 1b3c 980a 713b ec64 153c
00000070: 6413 4dbb 9412 d63b 259d 51bc 4888 cdbb
00000080: d7be 253c 37f7 8fbc 7681 263c 7bc3 2abc
00000090: ef49 f4bb 4c31 0d3b 136e e33c 1e31 80bb
000000a0: 6d29 cc3c abd9 8abc 6bfd 25bc 0cb0 863c
000000b0: 312f 8bbb 9d87 86bb 0465 fb3c d9a9 403d
000000c0: 0e79 ef3b ee51 3cbc ac87 94bc b28e 0fba
000000d0: 7a46 263c 17ac 923b b942 8c3c f2a3 15bb
000000e0: c91d 4abc 27fb ab3b ff64 7abb 2a42 0f3d
000000f0: b06e d9bb 0bf8 bebb 2549 e7bb 5f10 8ebc
00000100: 8b99 f7bc 5d01 e43b a443 e0ba a764 5a3b
00000110: d1ec a1bc e61d 7f3c a0f4 e6bb 6dac d03b
00000120: 496b 33bc d445 adbb 6da1 c8bc 469c 1dbc
00000130: 84e6 95bc 6faf c9bb b775 003c ed0d bbbc
00000140: 3f67 47ba a82c 5ebc 2b22 8e3a 7bc5 0a3c
00000150: 55de 06bc 3dd9 ee3c 5abe 9ebc d1d9 8cbc
00000160: 134a 8ebc a30d b3bc 983d aa3c a394 02b8
00000170: 885a acbb f3dc 7a39 db78 c63b a781 9eba
00000180: 8ff6 17bc 0985 873c 6059 3ebc 224e a1bb
00000190: 861e d0bc a79b 90bc 6dd1 05bd a05e 843c
000001a0: 01cc 3cbc ff04 093b e041 d9bb 5d6b 56bc
000001b0: d690 9f3b 20b4 30bc e395 c9bc 1d94 233d
000001c0: f7f3 d73c 3c1b 58bc 8fcd 2dbc da9e 3f3c
000001d0: 5df5 a23c 1a41 1a3c deee 18bc b842 cabc
000001e0: 3aaf 41bc b6a0 253c 0b7f 71bc f086 18bc
000001f0: fd97 a63c 903a 8e3c 3c40 0a3c 5511 853c

encoders.1.encoder.conv.lin.weight f4 [128, 30]
0.041841727 0.07922508 0.19888732 -0.16911122 -0.13541618 -0.0771838 0.00651803 -0.031178523
-0.018021297 -0.11862578 -0.099976525 0.061837748 -0.04911271 0.014943587 0.12155211 -0.011717434
-0.1336274 0.14000393 -0.13492182 0.033582374 0.04833712 -0.20627576 -0.077974714 -0.12075166
0.036757816 -0.2136709 -0.20242333 -0.1595096 -0.13642804 0.03286028 -0.10505934 0.10413578
0.16308355 0.0012553441 -0.008054685 -0.110054515 -0.09568125 0.04107594 -0.043342136 -0.1538183
0.1234705 -0.17021808 -0.07401483 0.1423721 0.051349085 0.1709651 0.12086116 0.05183189
-0.0023864196 0.06455333 -0.18400218 -0.07373017 -0.18272325 -0.0062441346 -0.043513533 -0.14764698
-0.11681171 -0.052274358 -0.12891525 -0.13056143 0.08491225 0.054286174 -0.16082057 -0.11001311
0.117758185 0.122583956 -0.1504628 -0.032629944 0.066791594 -0.047200043 -0.13923426 0.0723482
-0.047129996 -0.003482814 -0.071309984 0.08178841 0.10740771 -0.030097984 0.061340302 0.082273446
0.1159896 0.11171092 -0.056019947 -0.066747755 -0.05517324 -0.059041355 0.18170038 0.15545593
0.029351132 -0.16099113 0.13018765 0.056835193 -0.17101637 -0.17226277 0.16313453 0.09663315
0.02698367 -0.048675396 0.07401058 -0.021935318 -0.042594094 0.02289042 0.16504268 -0.026082935
0.17117086 -0.18038923 0.17411035 -0.09493012 0.13235305 0.024285072 -0.1750548 0.05399985
0.12938131 -0.041221388 0.0470167 -0.07347699 -0.18016712 -0.17199092 0.003259212 0.060924854
-0.07273759 0.07035638 -0.008209658 0.15636806 0.19732726 0.05171524 0.19185299 0.083134
0.11892102 0.16435441 0.074202925 -0.09276307 0.087458484 0.11565987 0.014552013 -0.06766553
0.08064369 -0.05266507 0.16167319 -0.1892535 0.037109505 0.005492579 -0.11403134 0.09840589
0.17078047 0.06697635 0.029912671 -0.057676855 0.08984683 0.10231366 0.19189738 -0.11270766
0.15055211 0.09432762 -0.008283495 -0.1986796 -0.059254713 -0.01928008 -0.13109195 0.13866574
0.18963937 0.111650616 -0.15153974 -0.187007 0.16824113 0.045049038 -0.12209511 0.16676065
0.034022465 0.08675639 0.025714181 -0.07797279 -0.01585372 0.05807659 0.00046837574 0.06796888
0.023904065 0.12375949 0.08650532 0.09118501 0.20977405 0.100261465 0.15518862 -0.07888149
-0.07153441 -0.049092427 0.0045016473 0.13075899 -0.077529855 0.09035758 0.024029396 -0.009355714
-0.09107074 0.1042163 -0.0791754 -0.09964504 0.18739596 -0.22559606 -0.08278901 0.05592386
-0.1286547 -0.14113423 -0.1285977 -0.1473894 0.117844835 0.15138629 0.07712045 0.09056684
-0.07148217 0.11074806 0.01927358 0.0005116389 0.054495946 0.18265118 0.17724486 -0.10321202
0.13459203 -0.16729376 -0.13170534 0.09652805 -0.16514553 -0.15909943 0.030272692 0.016464222
0.085952535 -0.07809273 -0.10964904 -0.010465019 -0.015915303 -0.15185201 0.0029536006 -0.006669445
-0.1747588 -0.044612747 0.13018686 -0.18977496 0.0847013 -0.14337079 0.037118383 0.10071003
-0.040852137 -0.0781849 0.16309363 -0.15623723 0.13274379 0.17125368 0.054203983 -0.075895205
0.07454929 -0.039828964 -0.026335599 -0.07894369 -0.06588379 0.027679266 -0.010545393 0.06444277
00000000: 3b62 2b3d c240 a23d 1ea9 4b3e 7e2b 2dbe
00000010: 8aaa 0abe 8a12 9ebd 3395 d53b 1a6a ffbc
00000020: 66a1 93bc 13f2 f2bd 7ec0 ccbd 9449 7d3d
00000030: 692a 49bd f2d5 743c 50f0 f83d 7bfa 3fbc
00000040: 9fd5 08be 315d 0f3e f228 0abe ac8d 093d
00000050: 25fd 453d f439 53be 35b1 9fbd a54c f7bd
00000060: 5d8f 163d 8bcc 5abe 1048 4fbe 7c56 23be
00000070: cbb3 0bbe 8098 063d 5a29 d7bd 2445 d53d
00000080: 60ff 263e 5c8a a43a ccf7 03bc 4364 e1bd
00000090: 88f4 c3bd 3f3f 283d 8687 31bd 8b82 1dbe
000000a0: 1ade fc3d a64d 2ebe 1695 97bd fec9 113e
000000b0: 6b53 523d 7a11 2f3e 0e86 f73d ad4d 543d
000000c0: 7a65 1cbb 8934 843d 116b 3cbe d8ff 96bd
000000d0: ce1b 3bbe 999b ccbb 3f3b 32bd c530 17be
000000e0: fa3a efbd a31d 56bd 5c02 04be e5b1 05be
000000f0: 79e6 ad3d 2e5b 5e3d 26ae 24be 8e4e e1bd
00000100: 342b f13d 4c0d fb3d ec12 1abe faa6 05bd
00000110: 08ca 883d d554 41bd 6d93 0ebe 4b2b 943d
00000120: 620b 41bd ec3f 64bb f80a 92bd af80 a73d
00000130: 93f8 db3d 0c90 f6bc f83f 7b3d fb7e a83d
00000140: f58b ed3d b2c8 e43d 2c75 65bd 0cb3 88bd
00000150: 56fd 61bd 59d5 71bd aa0f 3a3e d72f 1f3e
00000160: c971 f03c dcda 24be e94f 053e 05cc 683d
00000170: ea1e 2fbe a765 30be bd0c 273e 9ae7 c53d
00000180: dc0c dd3c da5f 47bd dc92 973d b2b1 b3bc
00000190: 2577 2ebd b184 bb3c f300 293e e1ab d5bc
000001a0: 6a47 2f3e f4b7 38be fc49 323e b96a c2bd
000001b0: 8f87 073e 7df1 c63c 9141 33be f22e 5d3d
000001c0: 897c 043e c2d7 28bd 9594 403d 1b7b 96bd
000001d0: bb7d 38be 631e 30be 8198 553b 578c 793d
000001e0: 72f7 94bd 0117 903d cd81 06bc f31e 203e
000001f0: 2810 4a3e 5cd3 533d 1c75 443e 2942 aa3d
00000200: dd8c f33d 864c 283e b4f7 973d 90fa bdbd
00000210: 6f1d b33d 15df ec3d 916b 6e3c 3a94 8abd
00000220: 8528 a53d 54b7 57bd a88d 253e abcb 41be
00000230: 2300 183d 18fb b33b 4389 e9bd 0789 c93d
00000240: 13e1 2e3e e62a 893d 6b0b f53c 913e 6cbd
00000250: 9d01 b83d d389 d13d bf80 443e 46d3 e6bd
00000260: 552a 1a3e d72e c13d 7fb7 07bc aa72 4bbe
00000270: 12b5 72bd 42f1 9dbc f83c 06be 64fe 0d3e
00000280: d330 423e 14a9 e43d 3c2d 1bbe c37e 3fbe
00000290: 6747 2c3e 5785 383d 000d fabd 4ec3 2a3e
000002a0: 245b 0b3d 56ad b13d 8ca6 d23c 33b0 9fbd
000002b0: a9df 81bc b8e1 6d3d 5490 f539 4533 8b3d
000002c0: 75d2 c33c 9e75 fd3d b429 b13d 35bf ba3d
000002d0: 02cf 563e e255 cd3d c4e9 1e3e 9e8c a1bd
000002e0: a280 92bd 2415 49bd 8e82 933b afe5 053e
000002f0: f9c7 9ebd 650d b93d 4cd9 c43c b548 19bc
00000300: 4c83 babd 5b6f d53d b626 a2bd b312 ccbd
00000310: bae4 3f3e a702 67be 498d a9bd 6b10 653d
00000320: 0fbe 03be 7e85 10be 1eaf 03be 3fed 16be
00000330: a258 f13d 0205 1b3e 54f1 9d3d 1b7b b93d
00000340: 3e65 92bd e1cf e23d a0e3 9d3c 811f 063a
00000350: 2437 5f3d e908 3b3e ad7f 353e d360 d3bd
00000360: 7ed2 093e 0e4f 2bbe c4dd 06be 80b0 c53d
00000370: e91b 29be f6ea 22be 70fe f73c fadf 863c
00000380: e207 b03d 15ef 9fbd ad8f e0bd 7975 2bbc
00000390: cf60 82bc 187f 1bbe 3291 413b 5c8b dabb
000003a0: f9f3 32be dbbb 36bd b44f 053e 5e54 42be
000003b0: e077 ad3d cbcf 12be 7209 183d 0f41 ce3d
000003c0: 9254 27bd 681f a0bd 0402 273e a7fc 1fbe
000003d0: fded 073e 205d 2f3e ff04 5e3d f26e 9bbd
000003e0: 4cad 983d b223 23bd c1bd d7bc 3bad a1bd
000003f0: 15ee 86bd a1bf e23c 96c6 2cbc 92fa 833d

encoders.1.encoder.prelu.weight f4 [128]
0.26882666 0.23911974 0.27992868 0.25516564 0.25 0.32842752 0.25824982 0.23454764
0.24046056 0.2518677 0.20469907 0.20776057 0.21793 0.25860474 0.22234288 0.2436744
0.24471512 0.24909118 0.28884706 0.25878078 0.23698999 0.27412626 0.25183493 0.23406126
0.22744735 0.24841124 0.23241141 0.25135058 0.28637856 0.23697048 0.26405045 0.25481176
0.23989086 0.25373635 0.2677899 0.21154633 0.23969978 0.24642618 0.24005863 0.22957629
0.2475953 0.24133174 0.2380716 0.27582875 0.2794786 0.22168478 0.22206971 0.27160272
0.2625092 0.22242968 0.22109935 0.21126616 0.22720878 0.28637078 0.24235144 0.2592383
0.24415146 0.2445874 0.26141518 0.25280306 0.24834293 0.22497429 0.28754106 0.22243421
0.2615405 0.2573513 0.32420266 0.2718523 0.22968756 0.23390694 0.25349048 0.19601205
0.26457876 0.2284916 0.280783 0.25249562 0.24551404 0.21776035 0.2744614 0.27238625
0.28851193 0.2424327 0.24576741 0.24908495 0.25150305 0.22930758 0.24998395 0.21810563
0.23019916 0.29317605 0.26621893 0.24735042 0.2566121 0.26578814 0.23845668 0.23465787
0.22048189 0.26331952 0.22578631 0.28655297 0.25394434 0.23567446 0.23949493 0.2580213
0.22867915 0.2246246 0.24697165 0.23918182 0.23448028 0.21499762 0.23588659 0.29887342
0.27755797 0.24052414 0.22391321 0.26249915 0.24815446 0.29337132 0.23327231 0.24545892
0.25062826 0.26756075 0.25484195 0.19395997 0.23539233 0.25 0.25263238 0.3024121
00000000: a6a3 893e cedb 743e d052 8f3e 12a5 823e
00000010: 0000 803e a727 a83e 5239 843e 422d 703e
00000020: 4b3b 763e cef4 803e a29c 513e 30bf 543e
00000030: 0b29 5f3e d767 843e daad 633e c885 793e
00000040: 9a96 7a3e c211 7f3e c3e3 933e ea7e 843e
00000050: 81ad 723e 475a 8c3e 82f0 803e c1ad 6f3e
00000060: f5e7 683e 845f 7e3e 42fd 6d3e 06b1 803e
00000070: 36a0 923e 64a8 723e 9f31 873e b076 823e
00000080: f3a5 753e bbe9 813e c21b 893e 9a9f 583e
00000090: dc73 753e 2557 7c3e eed1 753e 0c16 6b3e
000000a0: 9f89 7d3e ab1f 773e 0bc9 733e 6d39 8d3e
000000b0: d217 8f3e 5601 633e 3e66 633e 830f 8b3e
000000c0: 9b67 863e 9bc4 633e de67 623e 2856 583e
000000d0: 6ba9 683e 319f 923e fa2a 783e e2ba 843e
000000e0: d702 7a3e 1f75 7a3e 36d8 853e 676f 813e
000000f0: 9c4d 7e3e a95f 663e 9538 933e cbc5 633e
00000100: a3e8 853e 8dc3 833e e4fd a53e 3a30 8b3e
00000110: 3733 6b3e 4d85 6f3e 81c9 813e 62b7 483e
00000120: de76 873e b4f9 693e cac2 8f3e 1b47 813e
00000130: 0868 7b3e 92fc 5e3e 3486 8c3e 3676 8b3e
00000140: d6b7 933e 4740 783e 74aa 7b3e 2010 7f3e
00000150: 02c5 803e 9bcf 6a3e cbfb 7f3e 1557 5f3e
00000160: 54b9 6b3e 2c1b 963e d94d 883e 6e49 7d3e
00000170: a962 833e 6215 883e fd2d 743e 274a 703e
00000180: 01c6 613e d1d1 863e 8734 673e 12b7 923e
00000190: fe04 823e a554 713e 293e 753e 5e1b 843e
000001a0: de2a 6a3e fe03 663e 23e6 7c3e 14ec 743e
000001b0: 991b 703e 5628 5c3e 418c 713e f005 993e
000001c0: 141c 8e3e f64b 763e 8149 653e 4a66 863e
000001d0: 341c 7e3e c434 963e f0de 6e3e 9559 7b3e
000001e0: 5952 803e b9fd 883e a57a 823e 719d 463e
000001f0: b00a 713e 0000 803e 0859 813e c2d5 9a3e
