model_zoo/model_Breast_2023_11_02_00_08.pth (torch, 485903 bytes, 66 tensors)

encoders.0.weight f4 [128, 128]
00000000: 31ee abbc 687d 6d3d f9a9 6bbd 05b1 313c
00000010: d8ae 95bc 4d6d 9fbd 64b4 393d 451b 963d
00000020: 2ac0 9bbd 85b1 843c 578e e5bc 9ff8 d13c
00000030: 44f1 a0bd 0bda 8a3d ed2f 2fbd b24f b13d
00000040: 3e9c cfbc e88e 0cbd 8a97 943c 4586 853d
00000050: 1cec 2e3d 6c4e 9dbd 0e88 023d c158 8b3d
00000060: e619 203c b24c 233d dd8e a23d eb21 46bd
00000070: 8a12 50bd 88e7 5d3d 26cb 59bc b6d9 933d
00000080: 7831 edbc a057 44bb 8c2c 353a 685a 8e3d
00000090: 6651 9a3d a324 333d 19e6 cebb 4500 90bd
000000a0: 476b 973d 7c21 af3c 5ce2 6abd f531 01bd
000000b0: caba 13bd 23cf 033b 077f 3bbd 7425 073c
000000c0: da7f 7b3d d262 fc3a 5b00 3bbd beb9 a53c
000000d0: 2977 873d 428f 803d deea f0bc 963a a33c
000000e0: bfd8 97bd e5e3 8e3c 0f44 44bd 8f8a f63c
000000f0: ca2e 98bd 15a4 283d 90de b33d 8669 b23d
00000100: bcd2 64bd a1b5 94bd 7502 d6bc f452 a2bd
00000110: f20e 12bd cb78 863d c930 603d d8e7 2c3d
00000120: 20bb 6a3c 5b4c e13c 8f4b 7bbc 7d2a 683d
00000130: 3e6e 9ebd d9a1 2dbd 6cc1 343d 958d 51bc
00000140: 8d98 80bd dbdb 8cbd 3dbc fe3c 0300 00bd
00000150: b9f2 c8bb 4bd5 803c 4a0b 5b3d 40fd 95bd
00000160: 08f6 5a3c 7bc9 9cbc 08cd 02bd ff4c 1c3d
00000170: d0ec b1bd 7cfc 95bd 0b3d f23c de8e d53c
00000180: 7d33 ac3c 4cdc 09bd d8dd 7a3d 2252 d3bc
00000190: 12fc 483d 418e 2a3c 8982 aa3d f014 8e3d
000001a0: 34cb e83c 826d b3bd ec8b 47bd 88ee b6bc
000001b0: f97a a9bd 3165 533d dfcb 52bd aa9a c9bc
000001c0: 52b4 853c 83af a33d a540 b7bc e6f6 9a3d
000001d0: 6fe5 633b 7a7e 7e3c 49ea 8bbd 8248 51bd
000001e0: 85f0 9a3d 4b67 33bb 9bcd c7bc 0db3 0b3d
000001f0: ae80 813c 2b7c b1bd 6315 6abd ea3b abbd
00000200: f616 abbd b1bd ee3c 8a75 413c ac5d d63c
00000210: 5929 823d 89b3 1abd 839c 86bd f82b a9bc
00000220: f8ea ae3d fe98 0a3d be57 cb3c 56cf 843d
00000230: bb13 01bd bea6 5dbd ccfa f1bb e30c 8abd
00000240: 9a5d adbc 70c8 293b 8d4d 24bd a391 5a3d
00000250: a9a4 433d 7bb4 653d c3c1 c33c 26da 513d
00000260: de75 74bd db49 d13c 7a45 c1bc 4a95 c13c
00000270: 559b 80bd c726 95bd a4ae 2fbc 9aa1 d13b
00000280: 6ffa d13c 7a9e 293d 35bf fcbc f38d 993d
00000290: 78aa 8c3d ffea 89bd 1a7a 83bd 4f8d 203d
000002a0: f152 bbbc 43dd 17bc a8ca 56bc b4fc a53d
000002b0: bf9c 093d b004 fc3c 4cc1 04bd be05 a93c
000002c0: b683 a7bd c4d5 163d cbb1 b1bd 1dab b13d
000002d0: 1350 343d 56af aabd b138 8dbd 6751 9c3d
000002e0: 59f5 023d 1ca2 62ba 2ba7 543d f9d2 943d
000002f0: 1231 dc3c cd6c 0abd c1d1 833d 1f93 0bbd
00000300: 3904 6bbd 6222 1c3d 6397 443d 1ccf 36bd
00000310: 2190 5f3d 72df 88bd 98d3 e9bb d8fa 8c3d
00000320: e269 303d 9cd4 2a3c c732 053d 35e3 773d
00000330: 1b01 ca3c 49d9 9bbc 87a0 58bc c9eb 163b
00000340: 71cb 6d3d 755a 0a3d be62 113d 2378 663d
00000350: 7c2b 6a3d d086 8abd a624 5d3c d1f2 923d
00000360: 1821 8bbd 5184 f43c a38a f4bb 50d4 b03d
00000370: b51b 2fbd c65d 4d3d d918 33bc d51e 7fbd
00000380: 6cd3 4fbb 9772 8f3d 12c6 04bd d8be 86bd
00000390: d55d c43c 807a 123d 9c83 a03d ce2f 893d
000003a0: 89d4 233c 6a4a 76bb 2a15 8dbd 61d1 1abd
000003b0: 5cb1 403c c526 8f3d a363 8f3d 5dc0 953d
000003c0: 54bb 8a3d fd80 44bc b759 a93d 8804 0fbd
000003d0: 7b83 823d be23 0dba 4cda b03d d344 2ebd
000003e0: 88d1 813d d4ef fbbc 2835 13bd 2d8c 2abd
000003f0: 9395 db3c 0801 3fbd 2043 23bd 428c 593b
-0.020987602 0.057980925 -0.057535145 0.010845427 -0.018271849 -0.07784519 0.04533805 0.0732942
-0.07605012 0.01619793 -0.028021974 0.025631247 -0.07858518 0.0677987 -0.042770315 0.08657779
-0.025343057 -0.034315974 0.018138666 0.065197505 0.04270564 -0.076809734 0.031868033 0.06804038
0.0097718 0.039868064 0.07937405 -0.04837219 -0.05079893 0.054175884 -0.013293063 0.072192594
-0.028954253 -0.0029959455 0.000691124 0.069508374 0.07535057 0.04373611 -0.006314051 -0.070313014
0.073935084 0.021378271 -0.05734478 -0.031541783 -0.036066808 0.0020112477 -0.04577544 0.008248676
0.061401226 0.0019255525 -0.045654636 0.02023017 0.06614525 0.06277324 -0.029408868 0.019925397
-0.07414388 0.017442653 -0.04791647 0.030095367 -0.07430799 0.041172106 0.08782685 0.08711533
-0.055865034 -0.072612055 -0.026124218 -0.07925978 -0.035658784 0.06566008 0.054734025 0.04221329
0.014326841 0.02750223 -0.015337839 0.056681145 -0.07735871 -0.042390678 0.044129774 -0.012790103
-0.06279097 -0.068778716 0.031095618 -0.03125001 -0.0061324504 0.015726706 0.053477563 -0.07323694
0.0133643225 -0.019139042 -0.031933814 0.038159367 -0.086877465 -0.07323548 0.029570123 0.026069101
0.021020645 -0.033657357 0.061246723 -0.025796 0.049068518 0.010409893 0.08325679 0.06937587
0.028417207 -0.08761121 -0.048717424 -0.022330537 -0.08275408 0.051610176 -0.051463958 -0.024609882
0.016321335 0.079924606 -0.022369692 0.075666234 0.0034774204 0.015533084 -0.06831796 -0.05109454
0.07565407 -0.00273748 -0.024390033 0.034106303 0.01580843 -0.08666261 -0.057149302 -0.08361037
-0.08353989 0.029143186 0.011807809 0.026167713 0.06355543 -0.037768874 -0.06572821 -0.020650849
0.085409105 0.03383731 0.024822112 0.06484859 -0.031512957 -0.054114096 -0.0073846336 -0.06740739
-0.021162797 0.0025906824 -0.04011302 0.053361546 0.047764454 0.056080323 0.023896104 0.051233433
-0.05968272 0.025547912 -0.0235927 0.023630757 -0.06279627 -0.07282787 -0.01072279 0.0063974382
0.025632111 0.0414109 -0.030852893 0.07497778 0.06868452 -0.06734275 -0.064197734 0.039197262
-0.022866698 -0.0092690615 -0.01310984 0.0810484 0.03359675 0.030763954 -0.032410905 0.02063262
-0.08179419 0.036824957 -0.086764894 0.086752154 0.044021677 -0.08334224 -0.06895579 0.07632714
0.031972263 -0.0008645372 0.051917236 0.07266802 0.026878867 -0.033795167 0.06436492 -0.034075852
-0.057377074 0.038118728 0.047995936 -0.04463111 0.05458081 -0.06683244 -0.0071358196 0.06883782
0.043069728 0.010426667 0.03251913 0.060519416 0.02465873 -0.019024508 -0.013221866 0.0023028722
0.058055345 0.033777673 0.03549456 0.056266915 0.057170376 -0.06763995 0.013497507 0.0717522
-0.067934215 0.02984825 -0.007462816 0.086342454 -0.042751033 0.050138257 -0.010931217 -0.062285263
-0.003171171 0.07004278 -0.032415457 -0.06579369 0.023970524 0.035761356 0.078376025 0.06698571
0.009999403 -0.0037580975 -0.06888802 -0.037797336 0.011761036 0.069898166 0.07001426 0.07312081
0.06774011 -0.011993644 0.08269065 -0.03491643 0.06372734 -0.0005384049 0.08635387 -0.042546105
0.06338793 -0.030754007 -0.035939366 -0.04163759 0.026804721 -0.046631843 -0.039858937 0.0033195172

encoders.0.encoder.conv.bias f4 [128]
00000000: 12d9 073d eb23 83bd 543a 2cbb b5e7 903b
00000010: 0a2d 97bc 0e16 5cbd d350 e03d 3c4c 60bd
00000020: cd44 72bd c9ee b1bd 5462 483d 155c 323e
00000030: ac15 37bd 18ea d9bb 9276 3dbd 014d 2a3d
00000040: 89db 6cbd 2aa8 433d acc6 d3bd b6ca d9bc
00000050: 5fc7 8dbd 9b3d 323d 911a ad3d e7af d7bc
00000060: e57c 213d eb26 183c d3bb 15bd 4f38 75bd
00000070: d027 1d3e 5ffd cb3d 0e3d cd3c 6314 65bd
00000080: 1f2a 5ebc 3b70 a9bd 866a 3b3d 4926 4a3c
00000090: 0b26 dc3c 98e6 bcbc b349 dabc 357f ad3b
000000a0: 0c23 68bb 1b12 a4bd cbc0 83bd d874 a13d
000000b0: 957d 26bc 8804 8cbb 20a2 243c ab13 303d
000000c0: ea88 75bd 55ac 253d f66a 033e a8a7 f3bc
000000d0: 5889 753d f0c2 d1bc 9418 583d 9cf8 10bb
000000e0: 66a6 1bbd 9415 5f3d 3f69 8d3d ae86 973d
000000f0: 02a8 05bc 8fc1 b73d 36ef 2f3a 4cf0 83bd
00000100: 447b 503d 82b2 77bd 4b7b ea3c 211b 6abd
00000110: b1c0 683d 6671 a43d a7ee 57bd d897 3c3d
00000120: 5eb7 c2bc bf53 73ba 4149 3cbd cd2b bb3d
00000130: 3e78 11bc 432f 7ebb 0a80 2f3d c0d6 20bd
00000140: 9a0b a6bd 2b0b 8f3c d41e c33d a4d9 22bc
00000150: 711c abbd 07e1 9fbd 0347 81bd db01 043b
00000160: 8993 cfbc 81bb 0dbe 70fa f03d 75d4 93bc
00000170: d76a 513d 8518 e4bc f9a6 6e3d 45da 753d
00000180: 5d77 8c3d 1e69 1c3d b228 fe3d 9627 9fbd
00000190: b996 1b3d cd8c d6bd 4353 f1bc 25be db3c
000001a0: 068c e1bd 929a 643b 3d83 01be efee e03d
000001b0: 9551 8f3d 0494 d63b 1b97 adbd 96f8 46bd
000001c0: 2312 a93b 4969 973d b4e1 7abc 0ba7 65bc
000001d0: c823 af3d 9b12 c5bd 0512 b4bd b14f fc3d
000001e0: c3e6 253d 677e 893c 0156 633d 6eed 1d3d
000001f0: bf65 743d dfbb 99bd b4b3 d63d ce14 233e
0.033166 -0.06403335 -0.0026279883 0.004422153 -0.018454093 -0.05373197 0.10952916 -0.054760203
-0.059147645 -0.08688123 0.048921898 0.17417939 -0.044698402 -0.0066502206 -0.046255656 0.041577343
-0.057826553 0.047767796 -0.10340628 -0.026585918 -0.06922793 0.043515783 0.08452333 -0.026328994
0.03942575 0.0092866225 -0.036556076 -0.059868153 0.15347219 0.09960436 0.025053527 -0.055927645
-0.013559847 -0.082733594 0.045755886 0.012338229 0.026873609 -0.023059174 -0.02664647 0.0052947053
-0.003542128 -0.08011266 -0.06433257 0.07883614 -0.010161777 -0.004273001 0.010048419 0.042987507
-0.059945025 0.04044755 0.12833771 -0.02974303 0.059945434 -0.025605649 0.052757815 -0.002212084
-0.038000487 0.054463938 0.0690484 0.07398735 -0.008157732 0.08972465 0.00067113654 -0.06442317
0.050898805 -0.060472973 0.028623244 -0.05715478 0.05682439 0.080294415 -0.05271783 0.046043247
-0.023769077 -0.00092821935 -0.045968298 0.09139214 -0.008878766 -0.0038785494 0.042846717 -0.0392673
-0.081076816 0.01746138 0.095273644 -0.009939585 -0.08355034 -0.078065924 -0.063123725 0.0020142708
-0.025338905 -0.13841058 0.11766517 -0.018045643 0.05112728 -0.027843723 0.058264706 0.06002261
0.06858704 0.038186185 0.12410106 -0.07771222 0.037985537 -0.10476074 -0.029458648 0.026824066
-0.110130355 0.003488217 -0.1264772 0.10983073 0.069979824 0.0065484066 -0.08476087 -0.048576914
0.005159633 0.073931284 -0.015312601 -0.014016877 0.085517466 -0.09622689 -0.087924995 0.123198874
0.040503275 0.016783906 0.05550194 0.03855651 0.059667345 -0.07506537 0.104834944 0.15925905

encoders.0.encoder.conv.lin.weight f4 [128, 16]
00000000: b646 b6bd 0ca2 483e df07 b93d 4b1e 70be
00000010: 837a edbd aed6 123e e7c7 cd3d 2e7e fe3d
00000020: 5836 db3d a0ec 0abe 1413 1dbe 2a7e ba3c
00000030: f782 4abe 88f8 423e 6299 3ebd 0675 9bbc
00000040: af86 20be f06a 2f3d 14da 163d 0898 013e
00000050: 01c3 e9bc 7efa 143e bbb7 233d 4a2f 0cbe
00000060: 612e ecbd c1f8 a53d 675c 0fbe b5cd 19be
00000070: 5c51 2d3e 70be 573e 5644 e3bc 6960 873d
00000080: 5acd 28be 020d a73d 4068 13be 3aee 31be
00000090: b169 f93c a41e 243e 685e d63d 47e5 3b3e
000000a0: 5999 5ebd 0f94 90bd 7aaa f33d 1b57 353e
000000b0: 5871 b43d ad38 1dbd 7199 233c 4c35 c53d
000000c0: e470 19be 873f 04be 5f47 383e bbb8 17bb
000000d0: 8bb0 203e 83f5 f93d b266 353c b706 313e
000000e0: 8960 713c 97b5 203e ed67 f9bd 52ec 9ebd
000000f0: 6e27 783d 25d9 34be dc6b 1cbe 4931 ee3a
00000100: f4de 31be 4d02 0b3b c977 90be 2936 2dbe
00000110: e021 773c 8bbb d33d 1d19 dd3d 4e7f 363e
00000120: 1bc0 a73d fe0a dabd 4654 0d3e 6c2d be3d
00000130: a0dc 20be 8c9b 4d3e 5f0d ce3d 1ab8 bebd
00000140: 8a75 65be 1e5a f93a d7e9 53be d28c 8ebe
00000150: d333 113d 1332 0f3d 8704 aa3d a171 f53c
00000160: 0919 683e da4a d53d 4fb9 e63d ec1b 2cbd
00000170: f9a4 10bd 5e90 19bc 0419 cabb 75cc 77bd
00000180: e3ca 053e f1c3 3dbe cdd2 fd3d 6c8e f63d
00000190: cd35 303d d133 273e 3368 c6bd 24c6 8abd
000001a0: bd3f e03d c3d1 1bbe 0e92 3cbe f68b 46be
000001b0: 86a4 c83d be4b f5bd e55e 52bd 9dfe b9bd
000001c0: 7d10 7d3d f5e9 d83d 5f8f 8abc 9aa3 df3d
000001d0: 8f46 edbb 420e ed3d 2e00 16bd 0f20 3fbe
000001e0: dd35 eebc a810 a73d 101f 083e caa5 5dbe
000001f0: 740e 9b3a 0706 15be dc8b 7ebd 9dcf f9bd
00000200: c895 3cbe ead6 083e 26c5 243e fc6f 9cbb
00000210: c2be a9bd 6d15 703d 35dd d9bc d9ce 9cbc
00000220: ca69 8c3e a279 373e 09ca a53d 572d b03d
00000230: 8fc3 00be 1c0f 62bd 4880 c239 733f 68bd
00000240: 9dae 39be 79cf d83d d93e eabb 9aea 8dbe
00000250: f0b6 043e 7754 693d c8bb dd3d df8e b1bd
00000260: 59f3 93bb 80c4 abbb cba6 63be c703 66bd
00000270: d0ce 7bbd 094d 2c3e 06bc 3b3e fea2 2abc
00000280: 6dbd e63d dc12 c33d 5f03 a93d 3c0f 89bd
00000290: e6a1 afbd d8f6 a4bc 144d 253c 07bc 58be
000002a0: d234 acbd 04a7 5fbe ec06 043e a632 0b3e
000002b0: 0e01 1bbe d03d aa3d f47c 9bbd 067e f7bd
000002c0: 2162 833e b53d 6cbd 423a 6ebd 44ad 063c
000002d0: 404b 31be c01b 41be e5d0 e73c f1d5 3a3d
000002e0: 8f73 823d 7f4c 36be f1f2 e1bc e620 1c3e
000002f0: 0bdf f0bd 1846 3abe d4f2 42be 47e3 65be
00000300: db65 4abe 1535 683d efee 0cbe 6f52 2bbe
00000310: b9ff a73d 6c83 3e3e ae52 023d d57f 97bc
00000320: 6318 1c3a c0dd 5b3e 6810 de3d 6e39 97bd
00000330: 1dc4 83bd 2ec3 fb3d dc91 a03c 1250 1e3e
00000340: f5d0 ac3d c3c5 123e 0c24 093e 1924 f5bd
00000350: 3648 933d 5862 3abc 7a5f 0f3d ed82 eebd
00000360: 9e03 cdbc 6069 393e 4bb6 703d f2d6 bc3d
00000370: 48fc 653e fa9c 783d 8989 d5bd 5ac4 653d
00000380: b136 dcbc 41f7 153d e476 1e3e 092d 0abe
00000390: 99e8 85bd 57ed e63d 1c82 04be 1de7 a23d
000003a0: f269 16be c6e3 e13d 075d 6bbc 74b1 483d
000003b0: f93b b53d 26a6 a0bc f730 873c 4ecd e23d
000003c0: 8efe ca3b 3b93 813d 4b0d b03d 801e 95bc
000003d0: d731 a6bd 34d2 29be 11a8 fd3d dc22 f0bd
000003e0: 7d77 4c3d 00a4 70be abb1 773e 4e50 0e3e
000003f0: 9bc9 853d afae d0bc 25b9 773a 1285 87bd
-0.08900206 0.19593066 0.090347044 -0.23449056 -0.11595633 0.14339706 0.10047894 0.124264106
0.107037246 -0.13566828 -0.15339309 0.022765238 -0.19776522 0.1904012 -0.046532996 -0.0189767
-0.15676378 0.042826593 0.03682907 0.12655652 -0.028535368 0.1454868 0.03997014 -0.13689914
-0.115322836 0.08104087 -0.14000092 -0.15019877 0.16925567 0.2106874 -0.027742546 0.06610186
-0.16484585 0.08156778 -0.14395237 -0.17376032 0.030445905 0.16027313 0.10467225 0.18349181
-0.054345462 -0.0705949 0.1189775 0.1770901 0.08810681 -0.03838413 0.009985314 0.09629306
-0.1498447 -0.12914859 0.17995976 -0.002315088 0.15692346 0.12205031 0.011071848 0.17287718
0.014732488 0.15694271 -0.121780254 -0.07759918 0.060584478 -0.17660959 -0.1527552 0.0018172647
-0.17370206 0.0021211088 -0.2821639 -0.16915192 0.01508376 0.10338505 0.107958056 0.17822
0.08190938 -0.10646628 0.13801679 0.09286007 -0.15709162 0.20078868 0.10061144 -0.09312458
-0.22408119 0.0019024049 -0.20694672 -0.27841812 0.035449814 0.034959864 0.08301645 0.029961409
0.226658 0.104146674 0.112658136 -0.042018816 -0.03531358 -0.009372799 -0.006167533 -0.06049772
0.13065676 -0.18531777 0.12393723 0.120388836 0.04302006 0.1632836 -0.09687843 -0.067760736
0.10949657 -0.15216736 -0.1841509 -0.19389328 0.09797005 -0.11977337 -0.05136003 -0.09081767
0.061783303 0.10591499 -0.016914068 0.109198764 -0.0072410773 0.11574985 -0.036621265 -0.18664573
-0.029078418 0.08157474 0.132931 -0.21645275 0.0011829869 -0.1455308 -0.0621451 -0.12197802
-0.18416512 0.13363233 0.16090831 -0.0047740918 -0.08288337 0.058614183 -0.026594738 -0.019141601
0.2742446 0.17917493 0.08095176 0.08602398 -0.125746 -0.05519019 0.0003709814 -0.056701135
-0.18133016 0.10586447 -0.0071486053 -0.2771805 0.1296041 0.056965318 0.10826832 -0.086698286
-0.0045150933 -0.0052419305 -0.22231595 -0.056155946 -0.06147653 0.16826262 0.18333444 -0.010414837
0.11266599 0.095250815 0.08252596 -0.06692359 -0.085758016 -0.020137236 0.010089178 -0.21165477
-0.08408512 -0.21841055 0.12893265 0.1359354 -0.15137121 0.08312571 -0.07592192 -0.12084584
0.25660804 -0.057676036 -0.058161028 0.008220021 -0.17313862 -0.18858242 0.02829785 0.045614187
0.06369697 -0.17802618 -0.027581664 0.15246925 -0.11761292 -0.18190801 -0.19037944 -0.2244998
-0.19765417 0.056691248 -0.13763021 -0.16730665 0.08203072 0.18604821 0.03181713 -0.018493572
0.00059545616 0.2147131 0.10842973 -0.07384001 -0.0643389 0.12293087 0.019600801 0.15460232
0.08438293 0.14333253 0.13392657 -0.11969776 0.071915075 -0.011375986 0.035003163 -0.11646066
-0.025026139 0.18106604 0.058767598 0.09220685 0.22459519 0.06069658 -0.104266234 0.05609546
-0.026881548 0.036612753 0.1547504 -0.13493742 -0.06538505 0.11275738 -0.12940258 0.079542376
-0.14688852 0.110297725 -0.014365441 0.048997357 0.088493295 -0.019610476 0.01650284 0.11074315
0.006194896 0.0632691 0.085962854 -0.01820302 -0.08114975 -0.16584092 0.12385572 -0.11725399
0.04991864 -0.23500061 0.24188869 0.13897821 0.06532594 -0.02547392 0.0009449891 -0.06617178

encoders.0.encoder.prelu.weight f4 [128]
00000000: 6c22 703e 61bf 423e ad0f 813e a6d6 483e
00000010: cdd9 ce3d a164 573e f4f8 4b3e c0fa 463e
00000020: 26cf 733e b18d 3c3e e35e 833e 9976 8c3e
00000030: 0f41 3d3e a034 4c3e e2c7 a33e 7abb 713e
00000040: de6e 673e 6972 933e 78ae 313e 4c21 3b3e
00000050: a55e 293e 4fee 4b3e bad4 a23e ddba 753e
00000060: 9b28 5a3e 0990 613e 25fb 583e 32d1 7c3e
00000070: b8ef 783e ba8f bc3e 5d1e 5c3e ef19 843e
00000080: e28c 9e3e fc27 973e e52a 983e 6b97 683e
00000090: 5588 673e 98b5 833e ab90 3a3e 9b1a 6f3e
000000a0: d5ec 3f3e 89be 623e bc80 363e 9696 4f3e
000000b0: 69ef 143e 35e6 8b3e 3c89 843e 1c8b 9d3e
000000c0: 262e 8b3e e57a 563e ce91 713e 1604 4d3e
000000d0: cb5d 833e 1087 573e 4c12 863e d323 623e
000000e0: 0f46 403e f39b 163e b049 933e 0a7e 2c3e
000000f0: 938b 853e 1472 8d3e 5f7a 623e c954 383e
00000100: 761b 573e a836 223e 18a7 793e c2dc 2c3e
00000110: 7b7e 453e 6f64 7f3e 7f31 893e 1730 363e
00000120: 9cdc 833e e832 363e 3561 463e 2123 383e
00000130: 004e 463e 1044 863e eff5 6b3e c846 723e
00000140: f0f6 753e 07d3 823e 11e3 763e 8d79 693e
00000150: 42da 283e b39e 353e 2b36 103e 631c 273e
00000160: cce1 833e c2b1 583e bfbb 6d3e 49f0 903e
00000170: d0b6 133e 92f1 a23e 2ad7 753e 8ec4 833e
00000180: e463 203e 9873 753e d0ef 943e 1fbf 443e
00000190: ffd2 853e 2385 473e 7637 8b3e cc03 703e
000001a0: 175a 383e f84f 8a3e 72af 433e 8b4c 773e
000001b0: c8fe 353e 4b73 643e 1c79 383e 02cd 643e
000001c0: 612a 543e 0a00 733e 6af5 123e 2ea3 8b3e
000001d0: 775f 5c3e ca23 833e 98c2 873e faf2 533e
000001e0: 8ee9 6b3e d3e5 933e 0c16 5e3e eaf7 553e
000001f0: a3b7 453e de6f fa3d 6bd9 6c3e 74f9 523e
0.23450631 0.19018318 0.25207272 0.19613132 0.10100136 0.2103448 0.19919187 0.19431591
0.2380949 0.18413426 0.2565833 0.27434233 0.18481849 0.1994195 0.31988436 0.23606673
0.22600886 0.28798226 0.17351711 0.1827442 0.1654001 0.19915126 0.31802922 0.23997064
0.21304552 0.22027601 0.21189554 0.24689177 0.24310195 0.36828405 0.21495958 0.25801036
0.3096686 0.29522693 0.29720226 0.22714011 0.226106 0.25724483 0.18219249 0.23349993
0.18742688 0.22142996 0.17822546 0.20272288 0.14544453 0.27324072 0.25885952 0.30770195
0.27183646 0.20945318 0.23590776 0.2002109 0.25657496 0.21047616 0.26185834 0.22083978
0.18776725 0.14707927 0.28767157 0.16844955 0.2608305 0.27626097 0.22116993 0.18001093
0.2100657 0.15841162 0.24380147 0.16881087 0.1928653 0.24940656 0.26795575 0.17791782
0.2575425 0.17792857 0.19373019 0.1798215 0.19365692 0.26223803 0.23043035 0.23659813
0.2401998 0.25551626 0.24110056 0.22800274 0.16489509 0.1773632 0.14083163 0.16319422
0.25758207 0.21161559 0.2321615 0.28308323 0.14425206 0.3182493 0.2400786 0.25735897
0.15663105 0.23969877 0.29089212 0.19213532 0.2613754 0.19484381 0.2719075 0.23438948
0.18003117 0.27014136 0.19109896 0.24150293 0.17772973 0.22309606 0.1801495 0.2234383
0.20719291 0.23730484 0.1435143 0.27272934 0.21520792 0.25613242 0.2651565 0.20698157
0.23038313 0.2888628 0.21688098 0.20895353 0.19308333 0.12228368 0.23129813 0.20602971

encoders.0.encoder.conv2.bias f4 [128]
00000000: 84f6 533d 830d 883d 939f 233d 66d7 a93c
00000010: bf10 89bd 70f3 6cbd ba0d 06bc 06e6 b03c
00000020: cf5d b63d af88 89bc 71b6 00bc 5599 e33d
00000030: 0ae0 8d3b 8d9f 8a3d d167 c03c 66a8 c4bb
00000040: 931b a0bd dbd5 7f3d b0aa 3fbd 4dfa 563d
00000050: 55ad 183e 2b1a d93c 2b0e ef3a 2d00 33bd
00000060: 592b 833c 11ac 81bd ac11 163c af9e 17bd
00000070: 0d30 d73d 411b 253a 006e 8fbc 232c 50bb
00000080: 365a 153c 929c dbbc af66 843b dea1 7039
00000090: 87c0 06bd aff9 af39 ac7a e5bc e428 fcbb
000000a0: 0232 8c3d c954 323d 575d 90bc ce7d 0abd
000000b0: 054c 353d 0db5 b6bc 24d0 8c3d 47df 643d
000000c0: c724 7c3c d154 a6bd 3b0f df3c b2df ba3d
000000d0: 9c47 ce3d 27c6 cbbd ff44 82bb ca05 4bbd
000000e0: 8dff 553d 647d d7bc 10d6 1bbd e567 cabd
000000f0: 8e89 d63a 1069 53bd 1f4b d439 cbdb a83c
00000100: cddb 1dbd 6cf0 fbbb 5e16 8e3c defa 23bd
00000110: c5a2 50bd 0f29 07bc 0b29 683d 41bf fe3c
00000120: 43f4 933c 516c 3e3d 99c5 bb3c cc1f 30bd
00000130: 1e29 24bd ccd1 18bd df3d 9e3d 7307 ae3a
00000140: cb8c d93d 74cd 3cba 3f82 173d 07b2 df3c
00000150: 1aad ef3c e31a 8d3c 648a e03c 3f07 b63c
00000160: 467a 933c 88c7 f73c ceaf b6bc bf36 d73c
00000170: d11f 623d ae6b 5dbc dec4 5fbc c15a ce3c
00000180: 4e48 94bd b5b2 8ebd 6c29 b53c a121 d53d
00000190: be0b 813d 932a bebc d59d 623d 37cb 1bbd
000001a0: a06b 403b 1956 6cbb 83e8 18be 557a e3bd
000001b0: 8d21 0f3d 624a 12bd 18cc f3bb da0a 543d
000001c0: 2daf 353d 51d4 113d dec6 d0bc d056 4cbd
000001d0: 2ac3 423d 9ade 8b3d 4f5e 503d a335 413b
000001e0: d4d2 bebd 5d28 cdbd 37d2 353d 1ddc 813d
000001f0: 9110 25bd 80f4 26bd ad75 cc3d 5ac0 99bd
0.051748767 0.06643202 0.039947104 0.020732593 -0.06692647 -0.057849348 -0.008181984 0.021594059
0.08904611 -0.016788809 -0.007855997 0.1111323 0.004329686 0.06768713 0.023487004 -0.00600152
-0.07817759 0.062459808 -0.04679364 0.0524848 0.14909871 0.026501736 0.0018238475 -0.04370134
0.01601188 -0.06331647 0.009159487 -0.037016567 0.10507212 0.00062983116 -0.017508507 -0.0031764589
0.009115746 -0.026808057 0.004040561 0.00022948484 -0.032898452 0.0003356463 -0.028012596 -0.007695304
0.06845476 0.04353789 -0.017622633 -0.033811383 0.04426195 -0.022303129 0.06875637 0.055876996
0.015389628 -0.08121646 0.027228942 0.09124698 0.10072252 -0.09949904 -0.00397551 -0.049566068
0.052245665 -0.026304908 -0.038045943 -0.098830976 0.0016367899 -0.051613867 0.0004049176 0.020612618
-0.038539696 -0.0076885726 0.01734465 -0.040034167 -0.05093648 -0.008249535 0.056679767 0.031097056
0.018060809 0.046490017 0.02292137 -0.042999074 -0.040078275 -0.037309453 0.07726645 0.0013277367
0.10622557 -0.0007202246 0.036989447 0.02730657 0.029257346 0.017224735 0.02740974 0.022220252
0.01800264 0.030246511 -0.022300627 0.026271222 0.055206124 -0.013514442 -0.013657777 0.02518976
-0.072403535 -0.069676794 0.022114478 0.10406805 0.06301068 -0.02321366 0.0553263 -0.038035598
0.0029361024 -0.003606206 -0.14932446 -0.11107317 0.034944106 -0.03571547 -0.0074401014 0.05176816
0.044356514 0.03560287 -0.025485452 -0.04988748 0.047549404 0.06829567 0.05087119 0.0029481433
-0.09317556 -0.10017464 0.04438993 0.063408114 -0.040299002 -0.040760517 0.099833824 -0.07507391

encoders.0.encoder.conv2.lin.weight f4 [128, 128]
00000000: cba7 1ebe c817 05bd df26 adbb a779 b13d
00000010: 3c1c 143e d4d4 15be 2dfe 2dbd fb5c be3d
00000020: aad7 983d 2e21 4ebd 1c90 28be c277 a43d
00000030: 821a 1e3e 9644 a43c eaee 25be 609b 533d
00000040: b994 d5bc 5e64 7ebd 1bd4 8cbd da87 80bc
00000050: 0eaf f5bc b630 d9bd d0d0 183e dbaa babb
00000060: b10d 28be 3c9b a73c fa4b c6bd 684a 8bbd
00000070: 17bb a2bd 359f 1dbe 75c2 8bbd 6776 6cbd
00000080: 77d8 94bc 24c5 1cbd 3871 d43d 7513 1a3e
00000090: 7a8f 15bd 84c6 15be 9400 2b3d c0bb ef3d
000000a0: 6215 93bd ccef 27bd f7e3 0d3d 8917 31bd
000000b0: dc7c aa3d 9dce 9ebd e26d 873d dd5f b53c
000000c0: 80fb a73d 464c db3c a87d 443e 481d 24bd
000000d0: d235 ea3d 3b12 efbd 29c6 c23d f1d1 ffbc
000000e0: 682c 423d 2cc5 fabd abff d5bd e6b5 32be
000000f0: 1822 103e 35a5 4d3d 7315 ba3c f140 5a3d
00000100: 3662 9c3d 90ba 6a3d af04 6ebe 384b a43d
00000110: 84ce 2a3e 7b93 5abd 0cf6 aa3d 79d2 243e
00000120: 49e4 12be 3ae3 de3d 82de b3bc f834 153e
00000130: daac 78bd 0240 f2bd c716 eb3d 8eec ae3d
00000140: a555 09be 390a abbd 4c98 f63d db49 d63c
00000150: 3ef1 0bbd 07ae 2d3d f96a 6f3d 6a13 b83d
00000160: 827b 0bbe ddc9 f23d f815 83bd 3721 a63d
00000170: ce4e febd da86 d2bb 3c28 1a3d 5dc4 0cbd
00000180: d424 1a3e e56b 823c 2728 dc3d 599e 7dbc
00000190: 7541 283d 0362 033e 5a9e e23d 3393 2e3e
000001a0: ab57 77bd bed1 51bd c66a 85bd a203 1e3e
000001b0: bef3 1bbd c6b6 6abd 3df5 c53d c7fd d93d
000001c0: 09e4 08bb bfce 193e 219e 373d ed57 45bd
000001d0: d9b6 ea3b 7b9d 0f3e a5a4 463d 1d16 c8bb
000001e0: e6e9 463e 2a6a 0ebe 34cc 3a3e 4214 8dbd
000001f0: befc a2bd 2999 c23d fbec 053e b5ad 49bd
00000200: 5353 1abe 9c66 f03c 2a29 86bd f315 e6bd
00000210: 0548 83bd 96e3 6b3d 3ce1 a4bd f843 ce3d
00000220: 3578 063e 2064 39bc 4739 2bbd c56c 1cbe
00000230: b80c 0b3d 00c8 123d 4541 a0bd 2c15 45bd
00000240: bdc2 03be 2c0a c53d ad6a 8e3c 91be e7bd
00000250: b473 f43d 9421 c6bd 7eae 913d e622 31bd
00000260: a4d4 a53c 423f 473e f0fd 0fbe d70c cfbd
00000270: 93d0 aa3c e1c4 6dbe 1fda 08be ca25 c33d
00000280: 66cc cabd c3a8 1fbd 35d0 e23d 3c63 06bd
00000290: 41dd 5c3c ec0f 2b3d 773b 0d3e f113 0e3e
000002a0: 66a2 1cbd ab87 9abd 7970 22bd bc18 df3b
000002b0: 9448 7dbd c908 7b3d ba01 f6bc cd9d 18bd
000002c0: 7a9c 0c3e 0c47 d4bd 9380 603d b563 d0bd
000002d0: 5d43 35bd 81c4 b63d fa86 c2bd be15 d5bd
000002e0: 4ded 473d ce05 253d 1307 a33c bcd9 3dbc
000002f0: 7705 6d3d 8de6 77bd 6cb2 093d f920 cebd
00000300: 11b5 83bd b6be a9bd b9aa d13d 1352 053e
00000310: b1ed 2bbe 5576 813c d999 513e cb63 713c
00000320: 724c bbbd 2e61 30be 602c 15be 7a28 1f3e
00000330: 4921 b6bc 3ab3 2a3e b6e2 e33d 9d5f 883d
00000340: 4cf5 0abe 231b 83ba 9fc3 163e 57bf 65bd
00000350: a721 c13d 04e4 4a3d 97e6 833d 78aa e93d
00000360: f16e b4bd 62d8 9fbd 8ba5 38be e886 993d
00000370: 7359 c43d 8ea6 3ebd 8eaa 8abc aafe db3d
00000380: b7e5 28be ddc2 21be a691 043e 22cf b4bc
00000390: 0bf8 943b 85ef 0cbe ca1c ad3d 22f7 2b3d
000003a0: c132 04bd bdd5 66be c2d6 98bd 852d f43c
000003b0: eab8 8ebc 5144 243d 404f 0fbe 3553 743b
000003c0: 07ff 0ebe fb9a bcbd 483a 92bd cb73 4dbd
000003d0: 9ab8 d1bd 2ae3 fd3d eb49 59bd 68df 493c
000003e0: bed0 8b3b 2e5b 87ba e7e4 3a3e 1329 033e
000003f0: 5368 123e b8ac 87bd 8f3d c23d 6d23 9b3c
-0.15493695 -0.032493383 -0.005284175 0.086657815 0.14463896 -0.14631969 -0.04247873 0.09295078
0.0746301 -0.05032461 -0.16461223 0.080306545 0.154398 0.020052236 -0.1620442 0.05166185
-0.026071893 -0.062107436 -0.068763934 -0.01568978 -0.0299907 -0.10604994 0.14923406 -0.005696637
-0.16411473 0.020459764 -0.0968246 -0.06801301 -0.07945841 -0.15392764 -0.06824199 -0.057730105
-0.018169625 -0.038273945 0.10373157 0.15046485 -0.036513783 -0.14626509 0.0417486 0.11705732
-0.07181813 -0.041000172 0.034641232 -0.043235335 0.08324596 -0.07754252 0.06612755 0.022140438
0.08202267 0.026769768 0.19188559 -0.040066987 0.11436047 -0.11673399 0.09510452 -0.031228038
0.04740563 -0.12244639 -0.104491554 -0.17452201 0.14075506 0.05020638 0.022715306 0.05328459
0.0763592 0.057306826 -0.23243974 0.08022159 0.16680342 -0.053363305 0.08347711 0.16095914
-0.14344896 0.10883184 -0.021956686 0.14570987 -0.06071172 -0.11828615 0.11478954 0.08541213
-0.13411577 -0.08351559 0.12040767 0.026158264 -0.034165613 0.042402294 0.058451626 0.08988078
-0.13621333 0.118549086 -0.064006746 0.08111804 -0.124173746 -0.006424767 0.037636027 -0.034366954
0.15053111 0.015920589 0.10749846 -0.015479648 0.04107805 0.12830357 0.110653594 0.1704834
-0.06038634 -0.051225416 -0.06514506 0.15431073 -0.038074248 -0.057303213 0.09665916 0.10644107
-0.0020887873 0.15020274 0.044828538 -0.048179556 0.0071629104 0.14024918 0.04849686 -0.0061061517
0.19425163 -0.13907686 0.1824196 -0.068886295 -0.07958363 0.09501869 0.13078682 -0.049237926
-0.15070848 0.029345803 -0.0655082 -0.11234655 -0.06410221 0.05759009 -0.080507725 0.10071558
0.13131793 -0.011315376 -0.04180267 -0.15275867 0.033947676 0.035835266 -0.07824949 -0.048115894
-0.12867256 0.09621081 0.017384851 -0.113156445 0.11936131 -0.09674373 0.0711336 -0.043246172
0.020242997 0.19457725 -0.14061713 -0.10109871 0.020851409 -0.23219635 -0.13364457 0.09528692
-0.09902267 -0.038979303 0.110748686 -0.03280948 0.013480485 0.04176323 0.13792215 0.13874795
-0.038240813 -0.07545408 -0.039658044 0.0068083685 -0.061836794 0.061287675 -0.03003012 -0.037259866
0.13731566 -0.103651136 0.054810118 -0.101752676 -0.044253696 0.08924199 -0.09498401 -0.104045376
0.048810292 0.04028874 0.019900834 -0.011587556 0.05786654 -0.060522605 0.033617422 -0.10064883
-0.0643102 -0.08288328 0.10237641 0.1301959 -0.16789891 0.015803495 0.20468844 0.014733265
-0.0914544 -0.17224571 -0.14567709 0.15542784 -0.022232668 0.16669932 0.11127226 0.06658862
-0.13570136 -0.0010002594 0.14723061 -0.05609068 0.09430247 0.04953386 0.06440466 0.114094675
-0.08810223 -0.078049436 -0.180319 0.074964345 0.095873736 -0.046545558 -0.01692703 0.10741933
-0.1649388 -0.1579699 0.12946185 -0.022071425 0.0045461706 -0.13763244 0.08452757 0.04198373
-0.032274965 -0.22542472 -0.07462837 0.029806862 -0.017422158 0.040104214 -0.13995075 0.003728104
-0.13964473 -0.09209248 -0.071400225 -0.050159257 -0.10240288 0.12396844 -0.05304901 0.012321331
0.0042668274 -0.0010326856 0.18251382 0.12808637 0.14297609 -0.0662474 0.094843976 0.01893779

encoders.0.encoder.prelu2.weight f4 [128]
00000000: bdac 673e a1e0 623e c633 a63d 1649 653e
00000010: b12c 1e3e c3c9 1d3e 6420 883e ebf9 2e3e
00000020: 1c17 1a3e 364f 3a3e 4a0b 903e c511 583e
00000030: 72b3 503e a413 3c3e e675 b03d bd08 513e
00000040: 252f 073d 7171 883e 4d14 733e 32fa 713d
00000050: ee6c 9f3d 664a 823e 16fa 823e e8c8 223e
00000060: 721d 3f3e d349 073e 2083 7e3e 8060 963e
00000070: 6d2f 063e 3528 4c3e 4ee6 f13d de93 4d3e
00000080: 329a 5e3e 8887 4a3e a0a0 c73d 2863 4e3e
00000090: 5952 c23d 588c 923e 0dc1 693e 2023 993c
000000a0: c564 f43d 663e 763d 6a85 0f3e 4e62 5f3e
000000b0: f1f2 cd3d 236d 863e cc7d 973e 630b 3c3e
000000c0: ea23 4b3e 780a e73d b11c 713e 5d05 a53d
000000d0: 817a 523e b0f3 4b3d c14a 873e 87d2 853e
000000e0: 0b0b 513e f668 f23d 8dc0 aa3d 38e3 b73c
000000f0: 9625 5a3e 45ef 723d 62ad b43d 7be6 033e
00000100: fe8f a13e e779 353e 7995 693e d93e 413e
00000110: c11b 063e 7dad 36bd 683b d23d 298b cc3d
00000120: de86 573d 836f 5b3e 0394 4e3e 643e 393e
00000130: 9c77 903e ade3 8a3e 2d42 783e 1bc3 6e3e
00000140: 06d8 573c 8624 fb3d 094f 5b3e c9df 7f3e
00000150: d29a 0d3c 209b 6f3e 81e7 1a3d 46ec 5b3e
00000160: ec9d cc3d 375f 793e 73bd f83d 5d34 393e
00000170: 2e41 563e 3d9a 9d3e a7f4 4f3e 8677 523e
00000180: 87ce e2bd b2fc 6a3e 1979 513e 93e3 5e3e
00000190: c470 4e3e 9831 6b3e 3b57 603e 56b7 2d3e
000001a0: b8e2 353e 5d06 5c3e 7914 b33d 2787 a73d
000001b0: 1822 443e 134b 823e fb5c d33d 3819 143e
000001c0: 9f67 523e c2a1 443e 4abf 1c3e c4ae 1c3e
000001d0: 8310 143d ebce ea3d cbf1 d33d 5297 223e
000001e0: b3ab e63c dd26 f83d 9e99 253e f5da 163e
000001f0: ed42 403e f42a a13e 6317 083e e71f b83d
0.22624488 0.22156002 0.08115344 0.22391161 0.15446736 0.15408997 0.26587212 0.17087524
0.15047878 0.18194279 0.28133613 0.21100529 0.20380953 0.18366867 0.08616237 0.2041349
0.033003945 0.2664905 0.23738213 0.059076495 0.077844486 0.25447387 0.25581425 0.15896952
0.18663576 0.13211755 0.24854708 0.293705 0.13104029 0.19937213 0.11811505 0.20075938
0.21738508 0.19778264 0.09747434 0.20155013 0.09488363 0.286227 0.2282755 0.018693507
0.11933283 0.0601181 0.14015737 0.21814844 0.10056103 0.2625514 0.29588163 0.18363719
0.19837919 0.11281294 0.23546101 0.080576636 0.20554544 0.049792945 0.2642422 0.26137182
0.20414369 0.11836426 0.083375074 0.022447214 0.213034 0.059310216 0.08822133 0.1288089
0.3155517 0.17722283 0.22810926 0.1887163 0.13096525 -0.044599045 0.10265237 0.0998748
0.052618854 0.21429257 0.2017365 0.18090206 0.28216255 0.27126828 0.24243994 0.23316614
0.013174063 0.12262826 0.21416868 0.24987711 0.008642869 0.23399019 0.037818436 0.2147685
0.09991059 0.24352728 0.121455096 0.18086381 0.20923302 0.30781737 0.20308171 0.20553407
-0.11074548 0.22947958 0.20456351 0.217665 0.20160204 0.22968137 0.21908276 0.16964468
0.17762268 0.21486802 0.08744139 0.08180075 0.1915363 0.25447902 0.10320469 0.14462745
0.20547341 0.1920233 0.15307346 0.15301043 0.03614856 0.11465248 0.10348853 0.15878037
0.028158044 0.121167876 0.16171882 0.14731963 0.1877553 0.31478083 0.13290171 0.0899046

encoders.1.weight f4 [128, 128]
00000000: 5c8a e3bd d691 babd f9e8 2f3d f8d4 95bd
00000010: d995 533d c29a 8dbd 64b1 893d 241f 96bd
00000020: 9579 b0bd a043 3a3d 4ad6 82bd 0dbc 703d
00000030: f310 febc 081e 2cbd b320 bbbd d1a2 6e3b
00000040: 762a 25bc 6467 373d 6092 59bc ec03 023d
00000050: 3fe9 a2bd 4e97 873d 5ac7 cbbd 3243 4dbd
00000060: 4413 c73c 1bf2 623d 12cb 3c3d 4af0 14bd
00000070: 8904 32bd 74fe 3bbc 3280 3ebd dde0 d43c
00000080: 7741 c9bd da7b d5bc 42ce 03bd ab4b 853c
00000090: 1c02 c0bd 9bdd 57bc 434e 8dbb 8bfd 00bd
000000a0: fd21 c63c e738 493c d5c3 64bd a13c 02bc
000000b0: 9479 8abd b2e8 c1bc 48f8 86bd 4e15 cbbd
000000c0: ecf9 d239 8bcd 2f3d 4e61 bc3b ffde 893d
000000d0: 3284 7bbc 303f e83c a958 823d 8808 19bc
000000e0: a1da 75bd bbfb a7bd bba7 3f3c a4aa 003d
000000f0: 5d8c 90bd 947f 3cbd 7ad4 b6bb bfcb a13c
00000100: 51d9 15bd 4f3a c5bd cce0 b1bc 7750 77bd
00000110: 0612 afbc a11e 903d 08b8 61bd 5db1 373d
00000120: 2f0d 51bd 2961 d1bd f3f1 793d a2ad 2abc
00000130: 41ea 89bc 1e46 2abd 7e10 533c b65e a9bd
00000140: 448c 26bd 8bb1 1c3d aa70 333d 6f80 e83c
00000150: d60d 713c a777 843c f852 d8bc 2084 6dbd
00000160: c633 723d 735e ddbc e2de d53c b52c c9bb
00000170: 7b52 b5bd c4dc f83c 6975 bb3c 9210 b33b
00000180: 096f 1e3d 90ff 17bd e661 793d 0543 4cbd
00000190: 8957 b0ba 7df6 16bd 24d4 2dbd 3658 babd
000001a0: c511 0b3d ddb8 f03b 36b7 9dbd f789 7abd
000001b0: 1562 d0bd 9e16 323d fb66 14bd 2985 73bd
000001c0: 3e2e 063d 18a2 b6bd 0a89 783d e642 c5bd
000001d0: 0557 1e3d 8a43 98bc e903 a6bc b032 47bd
000001e0: 8ee7 7bbb 52ae 52bd 03f1 2bbd a69b 45bd
000001f0: 0a00 b1bd 3b88 323a 7763 c5bd 1202 773c
00000200: 9b54 b2bd b091 cfbd f11d 02be 1a2e 8dbd
00000210: 00bf 19be 180a 01bd d6c2 d4bd 4848 1bbe
00000220: c277 1abe d162 9bbc 488f 8ebd a8f8 5cba
00000230: 5bdc 78bd 40d5 01bd 6de1 40bd 6500 03bc
00000240: f8ec 49bb edd8 64bd 384b 4dbd 9351 18be
00000250: 1abe e6bc 86bb 00be 978e 01be 4745 c8bd
00000260: 6be8 93bd d1c6 efbd 83cc daba e64d 0dbd
00000270: d834 a8bd 2968 0cbc f3f2 21bc 9781 1dbe
00000280: f931 8ebc b4f8 e2bc c8b9 e5bd 9aab a23c
00000290: 5d13 cfbd 7c9c 0bbe e836 18be bc70 e9bd
000002a0: bf17 eebc 9b49 0c3c 1e33 97bd c989 b4bc
000002b0: fe0d 99bc 6e9e adbd 8a87 143c 65ef ff3b
000002c0: acf1 c7bd b148 943b eca2 72bd 9116 04be
000002d0: 79cc 10bd 3077 81bc 2fb2 04be 779f b6bd
000002e0: 51c9 80bd 6944 8fbc e3a9 943c 133e a13c
000002f0: 2478 88bd 053b 453c b30a a9bc 47c7 51bc
00000300: d414 173c ee9c 84bd bf19 583c 21be b3bd
00000310: 1e21 a3bd 7327 64bd 368e e7bc c8f1 dfbd
00000320: 752a 1ebe aa2d 1cbe dbc4 46bd 3361 26bd
00000330: 353d 56bd 0aa9 28bd 94e4 0bbe c3a5 bcbc
00000340: 5999 b6bd 8a42 16bd 19ab 82bd 8ac2 a03c
00000350: 63d3 d2bd 8ced b4bd 6422 e1bc 7e01 afbd
00000360: 4003 0abd 53c4 a7bd 8ed6 d4bc 006f c4bc
00000370: 8373 06be 0a1f f4bd 7f14 00bd e1c4 83bd
00000380: eb20 d8bd d069 b53c ce4f 46bd fdd5 30bd
00000390: 868f 1a3c fb5f c43b 194a e9bd 8a54 01bd
000003a0: cb42 11be b4ba 01be 01c8 b0bd d4df 91bc
000003b0: 0564 02be 2493 eabd 6b8c 97bd de55 b1bd
000003c0: 1ef9 903b a7a1 f6bd 9aea c8bd e7d3 29bd
000003d0: 5724 c3bd fb15 c2b9 e73b dd3a 06c4 f4bd
000003e0: 8a1f a2bb 5229 83bd 0e97 34bc 4ae5 56bc
000003f0: 5e6f 9d3c 8c94 303c a0a3 09bd ffae 88bd
-0.11110374 -0.09109847 0.04294679 -0.07316011 0.051656578 -0.06914283 0.06723288 -0.07330158
-0.0861694 0.04547465 -0.06388529 0.05877309 -0.031013941 -0.042020828 -0.09137096 0.0036412964
-0.010080924 0.044776335 -0.013279527 0.03174202 -0.079546444 0.06620656 -0.09950133 -0.05011291
0.024301179 0.05540667 0.0460921 -0.03636197 -0.043461356 -0.011474241 -0.046508975 0.02598613
-0.098269396 -0.026060034 -0.032179125 0.016271433 -0.09375402 -0.013175393 -0.004312308 -0.031491797
0.024186129 0.012281633 -0.055850822 -0.007949025 -0.067614704 -0.023670528 -0.06590325 -0.09916173
0.00040240528 0.04292063 0.0057489043 0.06731986 -0.015351342 0.028350443 0.06364567 -0.009340413
-0.060022954 -0.08202311 0.011697705 0.031412736 -0.07058022 -0.046020105 -0.0055795284 0.019750474
-0.036584202 -0.09630262 -0.021713637 -0.06037947 -0.021370899 0.07037092 -0.055107147 0.04484688
-0.051037963 -0.1022361 0.061021756 -0.010417374 -0.016835334 -0.041570775 0.01288235 -0.08270018
-0.04066111 0.038255256 0.043808617 0.028381554 0.014712771 0.016170336 -0.02640675 -0.057987332
0.059131406 -0.027022576 0.026107255 -0.0061393627 -0.088536225 0.030378707 0.022883134 0.005464622
0.03868011 -0.037108958 0.06088438 -0.049868602 -0.0013453822 -0.036856163 -0.04243864 -0.09098856
0.033952493 0.007346256 -0.0770096 -0.06116673 -0.10174958 0.0434786 -0.036231022 -0.059453163
0.032758944 -0.08917636 0.060677566 -0.096319005 0.038657207 -0.018586893 -0.020265536 -0.048632324
-0.0038437578 -0.051435776 -0.041977894 -0.04824414 -0.086425856 0.0006810461 -0.09638112 0.015076177
-0.087075435 -0.101352096 -0.12706734 -0.06893559 -0.15014267 -0.031503767 -0.103887245 -0.15164292
-0.15084746 -0.018968018 -0.069609225 -0.00084293867 -0.060757022 -0.03169751 -0.047089983 -0.0079956995
-0.003081141 -0.05587094 -0.050120562 -0.14874868 -0.02816682 -0.12571535 -0.1265205 -0.097788386
-0.072220646 -0.11707843 -0.0016693029 -0.034498118 -0.08213204 -0.008569756 -0.009884584 -0.15381466
-0.017357813 -0.027706482 -0.112170756 0.019857217 -0.10111115 -0.13633913 -0.14864695 -0.113984555
-0.029064057 0.008562471 -0.07382797 -0.022038357 -0.01868343 -0.08477484 0.009065518 0.0078105205
-0.09762892 0.004525267 -0.059237406 -0.12899233 -0.03535125 -0.015803903 -0.12958597 -0.08917134
-0.06288398 -0.017488675 0.018147415 0.01968292 -0.0666354 0.012037997 -0.020634985 -0.012803859
0.009221274 -0.064752445 0.013189732 -0.087764986 -0.07965301 -0.055701684 -0.028266054 -0.10934788
-0.15445884 -0.15251794 -0.04852758 -0.04062004 -0.052304465 -0.041176833 -0.13661414 -0.02302826
-0.089159675 -0.03668455 -0.063802905 0.019624013 -0.10294225 -0.08834371 -0.027482219 -0.085452065
-0.033694506 -0.08191743 -0.025981214 -0.02397871 -0.13130002 -0.11919983 -0.031269547 -0.06434036
-0.105531536 0.022145182 -0.04841595 -0.043172825 0.009433633 0.005992887 -0.11391086 -0.031574763
-0.14185636 -0.12668878 -0.08631898 -0.017806925 -0.12733467 -0.11453846 -0.073998295 -0.08658956
0.0044242283 -0.120425515 -0.09810372 -0.04146185 -0.09528416 -0.0003701894 0.0016878814 -0.11951451
-0.0049476074 -0.064043656 -0.011022342 -0.01311619 0.019218143 0.010777604 -0.03360331 -0.06674003

encoders.1.encoder.conv.bias f4 [128]
00000000: 20f1 0dbd 6365 2f3c cafc 813c a432 36bb
00000010: 469d 6abb 1113 39bd deca c23d 20b2 e83c
00000020: 5ee9 69bb c5df 273d 7bd1 813c fa6d 223c
00000030: 42dd 603c 981b 89bd ca60 1bbd 0bf3 a3bb
00000040: a74c 5e3c 7084 803d b08d 14bc 3cd2 babc
00000050: 6c7d 863c fb7d 9cbc 2bb2 e1bc 0255 71ba
00000060: 8a9d ee3c 52a5 e7bc d7d8 afbc 9e5f 80ba
00000070: 1376 d83b 8ba4 9abc bae1 17bc 5a04 f9bb
00000080: 3e52 05bd 2c39 1b3c ed7f 8dbc 41b5 ed3c
00000090: d026 d3bb da52 a13c 056e 87bc 17a1 ad3c
000000a0: ed57 e63c 5f63 48bd 2030 e4bc 7e53 c53a
000000b0: a2db 84bc 20ae 22bc d249 213d e767 073b
000000c0: e757 3ebc 3784 233b 16fa 7d3c 1d06 6bbd
000000d0: 15eb 80bd 670c d33b 51dc 6739 aa6d 17bc
000000e0: 2e7f 073c 9d82 f6bb dc84 61bc 4a4c 153d
000000f0: 1cc6 b5bc 0b3c 17bc 7888 e03b 3af7 46bc
00000100: 6b6d 913c f77b 43bc 3292 623d 23c6 1ebd
00000110: f8ed a63c f0a1 1e3b 199b 2dbc e67d 54ba
00000120: 1a73 80bd f6cf 12bd 9477 75bc 3ac5 573b
00000130: 451f 6cbc 994a 19bd b32e 283d b39d 953c
00000140: 8a62 23bd 7861 adbc 6c39 8ebd 0d64 4b3d
00000150: 3392 943c 28da 5f39 9624 af3c fa62 39bc
00000160: 3221 e2bc b723 7b3b fd51 4a3b e969 1dbd
00000170: 9050 bbbc 2e7d cd3c 0350 2b3d 6f53 10bd
00000180: 3e87 08bd 2413 1bbd bd9d 25bc 0fee 0dbd
00000190: 9598 07bd 9f53 16bd efd0 cdbc 7a2f dcbc
000001a0: 01b6 1c3a 9fa0 1dbd 1b5d e9bc 1a90 34bd
000001b0: b088 18bd 3ef2 0dbd 5eb2 cfbc 780b bcbc
000001c0: 722d cd3c bdd9 863c 6350 b0bc 8dd6 453d
000001d0: 08ea 0d3c 3f73 f5bc b055 efbc 8380 6b3d
000001e0: 98f3 85bc 03a8 a73c e801 3aba d4ee 74bc
000001f0: 944c bf3c 43b2 f53b ccde c9bc 32bc 81bc
-0.034653783 0.010705325 0.01586761 -0.002780118 -0.0035799309 -0.0451842 0.0951135 0.02840525
-0.0035692076 0.040984888 0.015846958 0.009913916 0.013724627 -0.06694716 -0.037934102 -0.005003338
0.01356808 0.062752604 -0.009066984 -0.022805326 0.016417228 -0.01910304 -0.027550777 -0.00092060876
0.029127855 -0.028277073 -0.021465702 -0.0009794121 0.0066058724 -0.018877288 -0.009270126 -0.0075993957
-0.032549135 0.00947408 -0.017272914 0.029017093 -0.006443836 0.019692827 -0.016531954 0.021194978
0.028118098 -0.048922893 -0.027854979 0.001505479 -0.01621801 -0.00992921 0.03937704 0.0020661296
-0.011617637 0.0024950632 0.01550152 -0.057378877 -0.06294838 0.0064406875 0.00022111951 -0.009242455
0.008270068 -0.0075228945 -0.013764586 0.036449708 -0.022189192 -0.009230624 0.006852206 -0.012143904
0.01775237 -0.011931411 0.055315204 -0.038763177 0.020377144 0.002420541 -0.01059606 -0.00081059185
-0.06271954 -0.03584286 -0.014982123 0.0032923953 -0.014411752 -0.037424657 0.04106016 0.018263673
-0.039888896 -0.02116464 -0.06944546 0.049655963 0.01813612 0.00021348207 0.02137975 -0.011315102
-0.02760372 0.0038320848 0.0030871623 -0.038431082 -0.022865564 0.025084104 0.041824352 -0.03523582
-0.033332102 -0.03786005 -0.0101084085 -0.03465086 -0.033104498 -0.03670084 -0.025124041 -0.026878107
0.00059780484 -0.03848326 -0.028486779 -0.04408274 -0.03723973 -0.03465485 -0.025353607 -0.022954687
0.025046084 0.016461248 -0.021522706 0.048300315 0.008661754 -0.02996218 -0.029215664 0.057495605
-0.016351506 0.020465856 -0.0007095621 -0.014949519 0.023351945 0.007498057 -0.02464237 -0.015836809

encoders.1.encoder.conv.lin.weight f4 [128, 30]
00000000: b4c1 34be 4f16 373d fd8f cebd 8b10 bfbd
00000010: 8ffe 2bbe 7988 53be 8b8e d33a 9631 c13d
00000020: 1a29 253e f2b7 b5bd 773f c8bd 3d03 2fbe
00000030: eee6 20be 679a 233e 3180 863d ea58 1ebd
00000040: 41cd c43d 1c7b 4fbe eee3 31bc ca71 073d
00000050: 1039 36be 581d 3b3e 7295 28be 35d3 1e3e
00000060: 9fce c93d c015 e2bc 0386 b7bc 3154 b9bd
00000070: 2f98 33bd 4c72 603d 2936 303e eed1 e13d
00000080: 641a 623e 831b 06be dab8 cd3d 6ff2 d63d
00000090: 1d4e d1bd 3458 ac3d 2eb4 0abe 87e4 2d3e
000000a0: 275d f6bc 995c 78be b2f6 adbd d687 bcbd
000000b0: 7e58 53be f550 103e 54e3 433e e2d1 cabd
000000c0: 8d8c 73be 56d2 4fbd cf2b 25be df9f 823d
000000d0: 063f 03be 75ad 393d 2ad2 f63d 9bce 513e
000000e0: 8bee 57bd 75a5 853c 1b33 20be 4f5c 4e3e
000000f0: 1df9 183e bcaa 013e 23a6 273e b0fb 343c
00000100: 8879 363e fa68 473d fad8 13be 5d73 1cbd
00000110: 0b3c 35be 0c13 03be ccab f23d b779 ac3c
00000120: 35db 653e c7b2 963d 1da4 b03d 0f72 b8bd
00000130: 0c56 2d3e 7ae9 783d 7721 1a3e 155a 08be
00000140: 8f68 2bbe a7c4 16be 3e7e 23be d1c9 c9bd
00000150: 7bf1 963c 1bbe ee3d c11e 6a3d 2bc9 71bc
00000160: ed08 3fbd cd63 783c 5a64 cf3d fde2 563d
00000170: 3b61 6b3d 1ef3 ba3c 4a09 bcbd 8834 863d
00000180: a30d cc3d c70b f03d 9fac cbbc 6f5d afbe
00000190: adc0 71bd 9a50 c43d 4357 0ebe c9fe 433c
000001a0: 2f64 963d 7c2c bbbd f8a1 13be cbb7 4abe
000001b0: 6f9a 743e 1059 4dbe 21c1 1e3e 802a 253e
000001c0: 4302 ebbc 51a8 dabc 066b 95bc e071 083e
000001d0: 6f79 a23d a1aa 90bd 487e 80bd d7aa babd
000001e0: f952 383e 454d 47be eca8 f5bd cd3f 973d
000001f0: 0fcd c5bd 9e06 d7bd d5db 30be 6ac2 c63d
00000200: 1c33 d43d f293 89bd 0297 d5bc b81f 14be
00000210: fcf8 e03d b378 45be 2451 053d 42b3 abbd
00000220: 0bc6 dd3c 25a0 21be 9888 35be 8d89 0cbe
00000230: b4ca 12be 3f84 06be e91e 243e 7321 363e
00000240: cf7f 69bd f574 5d3c 36ff e73d 4a82 26bd
00000250: 6d7c 6b3e 6f80 f93d 107e 9f3d 1afb 39be
00000260: 945a 0b3e bf57 91be d9df e9bc 79be b83d
00000270: b3ef bfbd 3648 e93c bf7c 97bd 0129 003d
00000280: d432 033e 14e6 48be cd27 b33d 128f 0a3d
00000290: 8fe6 dcbd 7eb6 89be 547f ca3d 0f00 0cbe
000002a0: 3cc2 30be 50b3 6a3e c347 03bd 8e8c de3c
000002b0: 6309 b33d 3634 443e 42f1 0f3a dc32 043e
000002c0: 7393 d0bc a075 5fbd 5053 0e3d 5936 4d3a
000002d0: f5b7 99bd bfb6 aa3b 6d68 cfbd 70fa ebbd
000002e0: cd89 153e 5be0 1bbc b482 2a3e 9c93 2dbe
000002f0: 8dd4 c13d 7d9a f93d 1a91 e43b ca16 bdbd
00000300: d576 0c3e 8626 923d c332 593e 270b 013e
00000310: 1e2f 073e ce97 a63c d5d7 e4bd 9576 9cbd
00000320: 06bc c13d 1197 98bd 607b f13d 7e32 f73c
00000330: 3d2d 0c3e 0994 c2bd ab7c 11bd 1ff5 903d
00000340: 1a39 a93d ad41 e73d ae00 363e b262 2fbe
00000350: 60cf 64be 9206 cc3d 4a27 a9bd b18e 10be
00000360: 7de7 0d3e 4d9a 323e 43a8 113e 5afa 54be
00000370: 4f10 cb3d 1f1d 993d 19a3 41be 5993 9a3d
00000380: f5d2 0dbe d01a 433e 66fb 24bd 3ce4 4dbd
00000390: 3cce 6a3e 8ca7 c9be b3df 853c 2cca 96bd
000003a0: 93f1 283e 3f74 f43d 7b56 1abe 6034 87bd
000003b0: 7618 353d 1c18 3d3e 1510 173e fa28 84bc
000003c0: ee9d 51bc 6352 c8bd 8f39 3ebe f4ce dcbd
000003d0: e626 19bc 8db3 173d 66f5 04be 3848 653c
000003e0: 376b 1b3e d138 f03c 0446 253d 7a3f 323e
000003f0: bacd 47bd 26c5 26be 7877 2f3d 16ca 24be
-0.17652017 0.04469901 -0.10086057 -0.09329327 -0.16796325 -0.20657529 0.0016140504 0.09433286
0.1612896 -0.088729754 -0.0977773 -0.17091079 -0.15713093 0.15976869 0.06567419 -0.038659014
0.096094616 -0.20261806 -0.010857565 0.033067502 -0.17795205 0.18272913 -0.16463259 0.15510257
0.09853863 -0.027598262 -0.022402769 -0.09049261 -0.043846305 0.054796502 0.1720816 0.11026369
0.2208038 -0.13096432 0.10045023 0.10495459 -0.10219977 0.08415261 -0.13545296 0.16981708
-0.030073715 -0.24254073 -0.08494319 -0.09205596 -0.20639226 0.14093383 0.19129688 -0.09903313
-0.23784085 -0.0507377 -0.16129993 0.06378149 -0.1281701 0.045331437 0.12051804 0.2048897
-0.052717727 0.016314248 -0.15644495 0.201524 0.14938779 0.12662786 0.1637197 0.011046335
0.17819798 0.048684098 -0.14438239 -0.038195956 -0.17698686 -0.12800235 0.11849174 0.021054132
0.22446902 0.07358318 0.08625052 -0.0900613 0.16927356 0.060769536 0.15051828 -0.13315614
-0.16739105 -0.14723454 -0.15966126 -0.098529465 0.018425694 0.116573535 0.057158235 -0.014757435
-0.04663937 0.015160513 0.101265624 0.052462567 0.057465773 0.022821005 -0.09181459 0.06552988
0.099635385 0.11720996 -0.024862586 -0.34250972 -0.05902164 0.09585686 -0.13900475 0.011962601
0.07343327 -0.09139344 -0.14417255 -0.19796674 0.23887037 -0.20053506 0.1550336 0.16129494
-0.028687602 -0.026691588 -0.01823951 0.1332469 0.07933318 -0.07063795 -0.06274086 -0.09114616
0.18000402 -0.1946307 -0.1199511 0.07385216 -0.096582524 -0.10499309 -0.1727136 0.0970505
0.10361311 -0.067176715 -0.026072983 -0.14465225 0.1098499 -0.19284324 0.032548085 -0.083838
0.027071973 -0.15783747 -0.17727888 -0.13724346 -0.14335138 -0.13136385 0.16027416 0.17786197
-0.057006653 0.013516654 0.113279745 -0.040651597 0.22996683 0.121827 0.077877164 -0.18162194
0.13608772 -0.28387257 -0.028549122 0.09020705 -0.09371891 0.028476816 -0.0739684 0.031289104
0.12812358 -0.19619018 0.08747826 0.03382785 -0.10786163 -0.26897043 0.09887567 -0.13671897
-0.17261595 0.22919965 -0.03205086 0.027166631 0.08742025 0.19160542 0.00054909673 0.12910026
-0.025460934 -0.054555535 0.03474742 0.0007828228 -0.0750579 0.0052097733 -0.101273395 -0.115223765
0.14603348 -0.00951394 0.16651422 -0.1695084 0.09464369 0.121876694 0.0069753053 -0.09232862
0.13717206 0.07136254 0.2121077 0.1260191 0.13201568 0.020336058 -0.11173979 -0.07639805
0.09459691 -0.07450689 0.1179111 0.030175444 0.13689132 -0.09500892 -0.035519283 0.07078003
0.082628444 0.112918235 0.17773697 -0.17127493 -0.22344732 0.09962191 -0.08259447 -0.14116932
0.13857837 0.17441674 0.14224343 -0.20798627 0.0991522 0.074762575 -0.18909873 0.075476356
-0.13850005 0.19053197 -0.040278815 -0.05026649 0.22930235 -0.3938564 0.01634202 -0.0736278
0.16498403 0.11936235 -0.15072052 -0.066017866 0.04421278 0.18466228 0.14752229 -0.01613282
-0.012794001 -0.09781339 -0.18576644 -0.10781661 -0.009347653 0.037036467 -0.12984237 0.013994269
0.15177618 0.029323967 0.040349975 0.17407027 -0.04878018 -0.16286144 0.042838544 -0.16092715

encoders.1.encoder.prelu.weight f4 [128]
00000000: b63d 4c3e 910f 383e 1228 583e efd2 eb3d
00000010: 7057 553e 3012 6b3e 3a1b 9f3e ba5f 193e
00000020: be4d 793e b8bf 713e d1fc 8f3e d8a8 893e
00000030: cee9 9a3e feb6 003f b91d ea3e d7be 413e
00000040: 1794 403e f341 903e a206 2e3e c22e 2d3e
00000050: 6f51 8c3e 5e16 7f3e 6044 413e 0000 713e
00000060: 4791 c23e bc8a 6c3e f9aa 883e 8d03 103e
00000070: a1e0 763e e80f 6c3e cd3b 773e 0e7c 723e
00000080: 0e7b e43d e4b0 423e 2e6f 733e a567 983e
00000090: 4cdb c73e fb79 2a3f e8f6 2e3e a0ff 983e
000000a0: a93c 503e 6bb9 5f3e 4a6e 793e befa 713e
000000b0: 1eff 403d d832 3a3e 519d 2a3e ef14 623e
000000c0: 9b89 533e ceaf 1e3e de5b 8a3e 5308 8c3e
000000d0: b763 e73d ecb5 2f3e 81b7 b73e 58f9 2d3e
000000e0: b9a0 1f3e d311 7c3e 1223 493e 63ed 863e
000000f0: b0b7 b63d e974 553e 06ca 593e 6343 733e
00000100: 7636 7e3e dffb 753e 2fad 593e bb14 593e
00000110: c4ee 643e 896c 553e d3d7 343e 96a4 e33d
00000120: d1be 523e 3bc5 513e ea87 5e3e 9339 643e
00000130: d8d1 343e 5b60 903e 2156 483e f04e 703e
00000140: 9a05 8f3e cd7c 8e3e 5ffc 093f ecbe 653e
00000150: a8ae 243e 26de 013e 238d 753e 582d 443e
00000160: 6efb bf3c 4f18 5f3e 6cd6 193e 48c5 8b3e
00000170: d05c 6c3e 5f7b 3b3e 4cf4 5e3e b128 843e
00000180: aa85 863e a4af 5f3e e9e0 303e 025a 1e3e
00000190: acc3 043e 16c3 4b3e 1a83 4f3e 273f 7c3e
000001a0: a855 603e 0790 823e 3d6e 553e 0660 603e
000001b0: f83f 363e 1bbe 983e 7af5 9b3e d473 5c3e
000001c0: 62a9 6c3e 3ab4 f33d 1ee2 433e bc7f 843e
000001d0: aba0 433e 2727 8f3e 7119 2c3e d3f7 863e
000001e0: e76c 5f3e 07fa 8b3e 7077 523e 0747 3f3e
000001f0: 86f3 4c3e 11b6 923e cc5d 383e d510 703e
0.19945416 0.17974688 0.21109036 0.11514842 0.20834136 0.22956157 0.3107546 0.14977923
0.24346063 0.23608291 0.2812257 0.2688663 0.30256504 0.50279224 0.45725802 0.18920456
0.18806492 0.28175315 0.16994718 0.16912368 0.2740588 0.24910876 0.18873739 0.23535156
0.38001463 0.23099798 0.26692942 0.14063855 0.24109127 0.23052943 0.24143906 0.23680136
0.11156283 0.19012791 0.2377288 0.29766575 0.39034498 0.6659238 0.17086375 0.29882526
0.2033564 0.21848075 0.24358478 0.23630807 0.0471183 0.18183458 0.16661574 0.22078298
0.20657961 0.15496752 0.27023214 0.273501 0.11298316 0.17159241 0.3588219 0.16989648
0.15588655 0.24616174 0.19642285 0.26352987 0.08921754 0.20845379 0.21268472 0.23756175
0.24825463 0.24021862 0.2125747 0.21199314 0.22356707 0.20842184 0.17660455 0.11115377
0.20580603 0.20485394 0.21731535 0.22287588 0.17658174 0.28198513 0.19564106 0.23467612
0.2793396 0.2782959 0.5390071 0.22436112 0.16082251 0.12682399 0.2397962 0.19157922
0.02343532 0.21786617 0.15023202 0.2729895 0.2308228 0.18308781 0.2177288 0.25812295
0.26273853 0.21844345 0.17273296 0.15464023 0.12965268 0.19898638 0.20264855 0.24633466
0.21907675 0.2550051 0.20842834 0.2191163 0.1779784 0.2983254 0.3046072 0.2152856
0.2311149 0.1189961 0.19129226 0.25878704 0.19104259 0.27959558 0.1680658 0.2636095
0.21818887 0.27339193 0.20553374 0.18679439 0.20014772 0.2865453 0.1800453 0.23443921
