model_zoo/model_Tonsil_2023_10_12_16_48.pth (torch, 485903 bytes, 66 tensors)

encoders.0.weight f4 [128, 128]
000000 a0 6c e4 3c 0a 50 95 3d 6d a8 15 3d 8c 7d 99 3c
       0.027883828 0.07290657 0.036537576 0.018736623
000010 8e 75 aa 3d 7d 52 31 3d eb da 84 3d 50 5a 04 bd
       0.08323203 0.043291558 0.06487068 -0.03231269
000020 7e 89 3f bd cf ff 83 bd db 8b 32 bd 76 46 62 3d
       -0.046761982 -0.06445276 -0.043590408 0.055242978
000030 41 0e 82 bc 61 7e 71 bd 01 2f 1b bd f7 b3 95 3d
       -0.015875937 -0.058958415 -0.037886623 0.07309716
000040 4d 93 54 bd 15 5c d2 bc e9 70 32 3c 57 7b b0 3d
       -0.05189829 -0.025678674 0.010891178 0.08617275
000050 22 e0 2e 3d 0c 06 15 3d b9 91 ae 3c ba 5e 2f bd
       0.04269422 0.03638272 0.02130972 -0.042814948
000060 68 cb a8 3c 81 98 96 3d f5 45 83 3d 17 83 9e 3c
       0.020604804 0.073533066 0.064098276 0.019349618
000070 9e e2 37 3c 47 77 9c 3c e4 dd 54 3d a2 60 a8 bd
       0.011223463 0.019099845 0.051969424 -0.08221556
000080 b1 eb 82 3d 4d 37 98 3d 6e d8 39 3d c4 61 7b 3d
       0.06392611 0.07432423 0.04537242 0.061372533
000090 c3 2e 6f 3d 16 ba d1 bc 84 84 85 3d 7e e9 fa bc
       0.058394205 -0.025601428 0.06519416 -0.030628916
0000a0 0d 39 9b 3d 45 cf 5b 3d 5e 7f 0b bb dc ed 4f bd
       0.07579241 0.053664465 -0.0021285634 -0.05076395
0000b0 53 c0 97 bd 98 f6 04 bd 3a c0 1d 3d 96 c2 87 bd
       -0.0740973 -0.032461733 0.0385134 -0.06628911
0000c0 cf b8 a8 3d ef 02 cb ba c6 c8 86 bd 42 0f 74 bd
       0.082383744 -0.0015488545 -0.06581263 -0.059584863
0000d0 52 40 4f 3d 95 50 36 bb 53 c8 8b 3d 3d c8 88 3c
       0.05059845 -0.0027819027 0.06825318 0.016697044
0000e0 34 37 19 bd 3c 65 a8 3d a1 83 27 bd 34 54 3b bd
       -0.03740616 0.08222434 -0.040897015 -0.0457346
0000f0 54 ac cb bc 31 32 c8 3c a6 44 8b bd d6 3b 57 bc
       -0.024862446 0.024437996 -0.06800203 -0.013136825
000100 88 b7 71 bc c9 6e 86 3d e3 11 6c bd 2e f3 eb 3c
       -0.01475323 0.06564099 -0.057634246 0.02880248
000110 21 92 24 3d bb 6b 44 bd 4b a4 2c 3c 24 88 8b bc
       0.040178422 -0.047954302 0.010537217 -0.01703269
000120 ad 5e 2a bd d0 7c 89 3c de c2 6b bd 04 22 14 bd
       -0.041594196 0.016783148 -0.057558887 -0.036165252
000130 b1 fa 5b bb 2b 94 4b 3d 91 25 5f 3b 7a ec 77 3d
       -0.0033566172 0.04970185 0.003404949 0.060528256
000140 ed 6b 32 bd 4c 31 98 3c 40 4b 35 bd 91 5e 3f 3d
       -0.043559957 0.018578194 -0.044261217 0.046721045
000150 8f 77 c3 bb 49 07 84 bd cd 0e 27 bd 33 7c 58 3d
       -0.00596518 -0.06446702 -0.0407856 0.05285282
000160 24 4a e2 3c 0e 28 8e 3d 28 b6 20 bd 66 d9 7d bd
       0.027623244 0.069412336 -0.039236218 -0.061974905
000170 3d ba 87 3d e2 f6 7a bc 9e 58 6e bd 53 f8 3a 3d
       0.06627319 -0.0153176505 -0.05818998 0.045646977
000180 57 35 ad 3d 83 1c 16 bc 8e e1 5b bd 34 b5 14 bd
       0.084574394 -0.009162071 -0.053681903 -0.03630562
000190 e2 85 38 3d 69 90 c5 bc 7c 45 e5 bb a8 60 17 bd
       0.045049556 -0.024116712 -0.0069968086 -0.036957413
0001a0 c5 62 98 bd 1b f2 ff 3b 64 fc 09 bd ef 77 11 bd
       -0.07440714 0.0078108436 -0.033687964 -0.03551477
0001b0 3a f0 0d 3d 67 d1 09 bc ff b0 9a 3d 61 1e 75 3d
       0.034652926 -0.008411742 0.075532906 0.059843425
0001c0 5c 2b f7 3b b8 e2 6f 3c 87 c5 92 bd 16 fa a7 3d
       0.0075430106 0.014641456 -0.071665816 0.08201997
0001d0 66 55 ed bc ba bb 50 bd e7 b2 38 3d 5f 9b 49 bd
       -0.028971385 -0.05096028 0.04509249 -0.04922044
0001e0 44 e0 93 bd 7e 40 43 3b 0c a3 82 3d b4 68 c0 bb
       -0.0722051 0.002979308 0.06378755 -0.0058718566
0001f0 ec 12 8e bc bd 3a 30 bd 7d 29 15 3c ec 1a 85 bd
       -0.017343007 -0.043024767 0.00910413 -0.064992756
000200 94 0a 89 bd e7 26 63 bd d7 7e d2 ba 62 34 19 ba
       -0.06691471 -0.055457022 -0.001605953 -0.00058442925
000210 93 df 14 bd 2c 1f 58 bc 3e aa 81 3b f9 89 97 3d
       -0.03634603 -0.013191026 0.003957062 0.07399363
000220 93 05 12 bd 83 b4 8f 3c 99 67 2b bd c0 e4 13 bc
       -0.035649847 0.01754213 -0.041846845 -0.009026706
000230 35 b0 9c 3d 4b 06 36 bc f5 08 31 3d 0e ec a6 3c
       0.07650796 -0.011109899 0.043221433 0.020376232
000240 13 7c 20 bd 30 86 65 bd 48 13 82 3d 53 9f 4d bb
       -0.039180826 -0.056036174 0.06351334 -0.0031375482
000250 fc bb cd 3c ed 3a 2a bd 51 ab 8b bc d2 fd a4 bd
       0.025114052 -0.041560102 -0.017049463 -0.08056225
000260 0e 2f 6c bd af a8 47 3b ae 74 3e bd 9b dc 1a 3c
       -0.057662062 0.0030465533 -0.046497993 0.0094520105
000270 5b 6c 69 bd 6c 62 93 bc 6b 80 8c bd 40 1a b4 3d
       -0.0569881 -0.017991267 -0.06860431 0.08794069
000280 38 56 68 3d 3b 5d ac ba a9 04 7b 3d b8 ea 85 bd
       0.05672285 -0.0013150343 0.06128374 -0.0653891
000290 76 b9 1e bd f6 67 d8 bb ba 72 ec bc 04 85 97 3d
       -0.038751088 -0.00660419 -0.0288633 0.073984176
0002a0 d3 db 52 3b 12 62 30 3d 79 9a 32 3d 2d d0 87 3c
       0.0032174482 0.043062277 0.043604348 0.016578758
0002b0 2d 3c a5 bd ea 17 9b 3c f0 11 1f 3d dc 33 84 bd
       -0.08068118 0.018932302 0.038835466 -0.06455204
0002c0 ac 63 8c 3c f0 b8 9a bb ef e9 99 3c 80 2b 50 3c
       0.017137371 -0.0047217533 0.018788306 0.012705684
0002d0 7b 71 84 3d 90 13 25 3d d4 97 6e bd 45 0f 52 3d
       0.06466957 0.04030186 -0.058250263 0.051284093
0002e0 3a 69 8e 3d 15 72 92 bd bf 88 68 bd 28 98 a9 3d
       0.06953664 -0.07150666 -0.056771036 0.082809746
0002f0 85 25 03 bd 32 a9 2b bd d3 8f 36 bc f5 9b a4 bd
       -0.032018203 -0.041909404 -0.011142689 -0.08037559
000300 79 ee df 3b 60 ee e5 3c 09 fc 64 3b c8 8b 95 3d
       0.006833848 0.028067768 0.0034940264 0.07302052
000310 8f dc 38 3d 50 c8 a6 bd 02 03 5c bd 32 18 a3 3d
       0.045132216 -0.08143675 -0.053713806 0.07963599
000320 7a 9a 42 3d cc e8 30 bd 78 ea 81 bd 13 82 7a 3c
       0.0475106 -0.043190762 -0.063435495 0.015289801
000330 f2 d4 ad 3d be 7b af bd f5 37 77 bd 93 a0 14 bd
       0.08487882 -0.08568524 -0.0603561 -0.036285948
000340 de d6 cb 3c 24 f6 b9 3c 96 35 50 3d 66 f2 0e 3d
       0.02488273 0.022700377 0.050832354 0.034899138
000350 02 ae 1b bd aa 5c b7 3b 92 11 ae bd 2c c0 21 3b
       -0.038007744 0.005595763 -0.08499445 0.0024681194
000360 5f 6d 2a bc 97 aa 39 bd 75 28 86 3d cf b2 df 3c
       -0.010402053 -0.045328703 0.06550685 0.027306942
000370 54 a5 b1 bd 2e 72 41 bd 5a ed de bb 6d 1d 69 3d
       -0.08674112 -0.04722803 -0.006803197 0.05691283
000380 d8 20 51 bd 53 08 49 3d a1 9a 8d 3d 38 1b dc 3a
       -0.051056713 0.049080204 0.06914259 0.001679278
000390 79 ba 83 bd 32 7a 6a 3d 54 f0 a2 3d 52 44 79 3b
       -0.06432051 0.05724544 0.07955995 0.0038035107
0003a0 32 3e 50 b8 a1 1b a7 bc 5d 55 9d bd 3b e4 26 3c
       -4.964899e-05 -0.020398917 -0.076822974 0.01018625
0003b0 f8 a1 6e 3d 7f 02 b0 3d 93 c0 55 bd bb c4 65 3d
       0.058259934 0.08594226 -0.052185606 0.05609582
0003c0 39 eb f8 bc 83 b8 a4 bd 23 bc b0 bc ab 2a a1 3d
       -0.0303856 -0.08043005 -0.021574086 0.078694664
0003d0 39 00 22 bd 39 8f 26 3d 1d c4 ab bd b9 cc 69 3d
       -0.039550994 0.04066393 -0.08387015 0.057080004
0003e0 ac fe 95 bd f9 fc b1 3d bf be f3 3c 7e 6c 99 bd
       -0.073239654 0.08690829 0.02975404 -0.07491396
0003f0 2c 35 fb bc 44 d5 49 bc 34 48 b7 3c d3 f5 32 bd
       -0.030665003 -0.012318913 0.022373296 -0.043691467

encoders.0.encoder.conv.bias f4 [128]
000000 9f f5 10 bc 46 ad d8 3c 80 34 46 3d a3 4c e7 3c
       -0.008847623 0.02644981 0.04838991 0.028234785
000010 b0 e3 64 3c 6d c6 34 3d a3 05 59 3d 84 af ea 3c
       0.013970301 0.044134546 0.05298389 0.028648145
000020 47 53 5c 3d fa d7 45 3c 43 7e 09 3d 7c 36 2f bb
       0.053790357 0.012075419 0.03356768 -0.0026735356
000030 87 83 04 3d d3 8a b3 3c dd 7a 7d 3d 6a ae d4 3b
       0.032351997 0.021916782 0.06188475 0.0064905183
000040 ab e2 75 3b ee 76 3d bc 5c df b7 bb d3 44 7e 3d
       0.0037519138 -0.011564 -0.0056113433 0.062077355
000050 96 8d 9e 3c aa 8d 23 3d 8f de f9 3c 17 dd f3 3c
       0.019354623 0.039930023 0.030501632 0.02976851
000060 73 b2 c6 bc 3b 8d 1f 3d 48 26 30 3c 11 07 fe 3a
       -0.024255013 0.038953047 0.010751314 0.0019380768
000070 9a 83 29 3c ba 89 54 bc 5c 94 a5 3c 76 d7 8f 3c
       0.010346318 -0.01297229 0.020212345 0.017558794
000080 73 e8 09 bc c5 71 40 3d 67 5f 8c 3c 69 b5 77 bd
       -0.008417237 0.0469835 0.017135335 -0.06047574
000090 bb a4 3b bc de c9 0c 3c 2b 7f f4 bc a2 05 c8 3c
       -0.011452849 0.008593051 -0.029845795 0.024416748
0000a0 93 94 92 3c 13 73 87 3d e4 5e 93 bb 0d 21 d0 3c
       0.017893111 0.066137455 -0.004497396 0.025406385
0000b0 c0 bf 6f bc a7 37 5f 3d 17 4f 4f 3c f1 30 c1 3c
       -0.014633119 0.054496434 0.012653134 0.023582907
0000c0 a5 5e 50 3d 04 fc 77 bc d0 d3 7a 3d 51 65 23 3b
       0.05087151 -0.015135769 0.061237156 0.0024932215
0000d0 3c 58 47 3d bc 4b 6f bc 59 0d 8a 3c c0 08 ab 3b
       0.04866813 -0.014605459 0.016852068 0.005219549
0000e0 91 98 b3 3c 1a aa 0d 3d fd c1 6a bc 9c 10 87 bc
       0.021923335 0.03458605 -0.014328477 -0.016487412
0000f0 e6 8a ee 3c 46 18 17 3c 25 2e c9 bc 33 ca 86 3c
       0.029118966 0.009222096 -0.024558136 0.016453838
000100 b7 3f c8 bb c0 cb 6c bc 1b a5 bf 3c 4c 69 7c 3d
       -0.006111111 -0.014452875 0.023394158 0.061623856
000110 8b 29 16 3d 8d 19 e0 ba 96 26 81 3c ad 09 1e 3d
       0.036660712 -0.0017097458 0.01576547 0.038583446
000120 6d a3 e3 bc 15 8c bb bc f6 25 cb bc d2 08 cb bc
       -0.027787888 -0.022893945 -0.024798375 -0.02478448
000130 d4 d4 dd 3c 88 95 59 3c 8c c1 3f 3c 78 4a f4 ba
       0.027079023 0.01328028 0.01170386 -0.0018637916
000140 a6 f8 03 bc 49 b4 39 bb 08 6d 98 3d 9a 02 e6 ba
       -0.008054888 -0.0028336218 0.07442671 -0.0017548383
000150 47 3d 09 bd f8 d3 1c 3d 74 bd 23 3d b7 10 f1 bc
       -0.033505704 0.038288087 0.0399756 -0.029426916
000160 3f d3 67 3c 39 34 81 bb 1f 41 74 3c a7 d5 af 3c
       0.014149486 -0.003942993 0.014908104 0.021464182
000170 0c d4 d8 3b 3f ac 70 bb 7b f1 9a b7 a3 c7 21 3c
       0.006617075 -0.003672376 -1.8470679e-05 0.009874257
000180 4e e9 21 3d b7 a8 dc 3c 02 c9 93 3c 46 e3 91 3c
       0.039529137 0.026935918 0.018040184 0.017808568
000190 f0 14 44 3d f1 9f e9 3c c2 52 e1 3c 43 2e 11 bc
       0.04787153 0.028518649 0.027505282 -0.008861127
0001a0 87 08 6b 3c 27 4f 94 3c 14 1a 6d bd e0 1c 2a 3d
       0.014345295 0.018104149 -0.0578862 0.041531444
0001b0 18 90 14 3c 44 f5 ed 3b 01 b1 3f bb 44 8b 37 bd
       0.009067558 0.007261904 -0.002924979 -0.04481055
0001c0 6a 86 a1 3c 4d ab 10 3c 4d 90 66 bc d1 ad 0e 3d
       0.019717414 0.008829904 -0.01407249 0.034833733
0001d0 37 89 97 3c 60 03 29 3a 2a b6 d8 b9 cf e8 a4 bc
       0.018498046 0.00064473413 -0.00041334453 -0.020130543
0001e0 63 92 db 3b 62 58 cd bc ac 9a 91 3c 58 a5 eb bb
       0.0067008003 -0.025066558 0.017773949 -0.0071913414
0001f0 20 3a ac 3c 74 b7 7d 3d 86 8e d7 3b 50 cd 59 3b
       0.02102381 0.061942533 0.0065782694 0.0033233948

encoders.0.encoder.conv.lin.weight f4 [128, 16]
000000 60 44 94 3c 8a 76 de bd 14 34 bd bd d2 e8 94 3d
       0.01809901 -0.10862453 -0.09238449 0.072709695
000010 70 92 b1 3d 9b 17 17 3e d3 f0 1d 3e 55 0b 46 3e
       0.08670509 0.14755099 0.15423898 0.1934026
000020 87 37 cf 3d 55 88 32 be a9 8f e1 3c fd 99 35 3d
       0.10118013 -0.17434819 0.027534323 0.044336308
000030 fe 34 bd bd 89 2f bd bc 7e db 4a 3d 25 cb 2c 3e
       -0.09238623 -0.023093956 0.04952573 0.16874368
000040 53 9a f6 bd 8b 09 48 be d9 ac 29 be 82 18 24 3e
       -0.12041154 -0.1953489 -0.16569842 0.16024974
000050 93 83 1f 3e 00 c0 c4 bd ac 43 bc bd e8 7c 89 3d
       0.15577535 -0.096069336 -0.09192595 0.06713277
000060 10 41 f6 3d e6 55 be 3a d1 b4 d5 bd 33 1b a5 3d
       0.120241284 0.0014521449 -0.104348786 0.080618285
000070 95 62 e5 bc 7b 1c 16 bd 1a dc 05 3e b8 fa 53 bd
       -0.02800111 -0.036648255 0.13072243 -0.051752776
000080 4f 47 6b 3d a8 b2 37 be a3 17 23 bd 64 fb 33 3e
       0.057441052 -0.17939246 -0.039817464 0.17576367
000090 84 8a a8 bd d7 4a 45 3e b9 1e da 3d 0d b3 c4 bd
       -0.08229545 0.1926683 0.10650391 -0.09604464
0000a0 7d 63 01 3e c5 23 f5 bd 2f 89 0f 3e 79 02 7b b9
       0.12635608 -0.11969713 0.14017175 -0.00023938146
0000b0 ef ef 9b 3c 74 8d 21 3e 4a 79 e8 3d fd 90 3a 3e
       0.019035308 0.15776616 0.11351259 0.18219371
0000c0 61 bc 3d bd 7f 79 e0 bd 8d 6d 2a be 45 eb d8 bd
       -0.04632223 -0.109606735 -0.16643353 -0.10591749
0000d0 19 b6 c8 bd d5 b4 45 be e9 c8 ea bc ac 7c 21 be
       -0.09800357 -0.19307263 -0.028660255 -0.15770215
0000e0 d3 5d 19 3e bf 40 b4 3b c7 f3 74 3d a8 de f9 bd
       0.14977197 0.0055008824 0.059802797 -0.122006714
0000f0 cf 7d 13 be f2 ef a0 bd cc b3 f1 3d 98 d0 39 be
       -0.14403461 -0.07858266 0.11801872 -0.18145978
000100 11 57 03 be ce 9a 7d 3d 55 72 27 3e 3a 73 df 3c
       -0.12826182 0.06191521 0.16352208 0.027276624
000110 7b bf bf ba 74 fc 8a bc 4c 25 8d 3d 32 87 eb bd
       -0.0014629209 -0.016966082 0.068918794 -0.11500396
000120 78 41 31 be 69 92 e9 bd b7 ef 25 3e 8f 60 a5 3d
       -0.1731013 -0.11404879 0.16204725 0.08075058
000130 89 ec 2c 3d 2e c2 48 bd 4f d8 1a 3e ec bc 66 3e
       0.042217765 -0.04901331 0.15121578 0.22533005
000140 7f 23 aa 3d ce 77 87 3d b8 94 46 bd 84 4d 2d be
       0.083075516 0.06614648 -0.048481673 -0.16924101
000150 d5 82 cf 3d 09 3e 2a be 41 fe 3f bd 1b b4 68 3e
       0.10132376 -0.16625227 -0.046873335 0.22724955
000160 d5 69 d2 3d bd d9 dc bc 4d 72 4d bd 3c a5 1b 3e
       0.10274092 -0.026959294 -0.050157834 0.1519975
000170 1d 4d 0c be 22 02 b2 3d 6f b1 2d be 2d 7a 8d 3d
       -0.13701291 0.08691813 -0.16962217 0.06908069
000180 d0 1d 8b 3d d4 aa 94 bd 41 74 21 be 54 f4 39 3d
       0.06792796 -0.072591454 -0.15767004 0.045399025
000190 2c f6 aa bd 19 4e 65 bd f4 3d 4c 3e f2 5c 0f bd
       -0.08347735 -0.055982683 0.19945508 -0.03500075
0001a0 0e bb 57 bd 10 0b d1 3d c3 5a 0a 3d 3f 34 ef bd
       -0.052668624 0.10207188 0.033777963 -0.11679887
0001b0 45 43 3a 3e 8a 8f d1 3d 0d a8 11 3e e1 c2 bf 3d
       0.18189724 0.10232456 0.14224263 0.09363342
0001c0 d1 5c 62 3e 43 34 53 3e 9e 56 e7 3d 9a a6 0f 3d
       0.22105719 0.20625405 0.11295818 0.035070993
0001d0 09 76 34 be d6 98 c4 bd 6c b4 02 be f2 51 2d be
       -0.17623152 -0.09599464 -0.12764138 -0.16925791
0001e0 b5 15 c5 3d bd b5 ce bd ec 81 43 be 80 e0 54 be
       0.09623281 -0.100932576 -0.1909253 -0.20788765
0001f0 98 41 03 be dd 7e c3 bc dc 61 9a bc 60 11 1f bb
       -0.12817991 -0.023864204 -0.018845491 -0.002427183
000200 2a f7 a9 bc e2 1f 69 3d f2 00 4d be c7 44 e8 3c
       -0.02074774 0.05691517 -0.20019892 0.028353108
000210 47 51 03 3d 10 63 20 be 65 f4 5a bd 6a 60 16 3d
       0.032059934 -0.1566279 -0.05345573 0.03671304
000220 a5 ce 44 3e 3f 42 18 3e d2 b6 f3 bd 7b aa 3b bc
       0.19219454 0.14869021 -0.119001046 -0.01145422
000230 32 27 25 be 15 6b 4e be de 94 59 bd a9 6e 8f 3b
       -0.16128233 -0.20158036 -0.053120486 0.0043772054
000240 20 7a 63 bd 1d 69 91 3d c9 57 1c be 01 cc ed 3d
       -0.05553639 0.07100127 -0.15267862 0.11611176
000250 ab 60 9d bd 44 6f be 3c 62 18 10 bd 8f 83 1e 3e
       -0.076844536 0.023246415 -0.035179503 0.15479873
000260 01 01 c7 bd 2b a1 8e bd d1 32 d4 bb d2 3e ad 3c
       -0.09716988 -0.06964334 -0.0064757844 0.02114812
000270 b3 23 04 be a4 a6 ba bc 21 ae f5 3b 29 2b 2a 3e
       -0.12904243 -0.022784539 0.0074975644 0.16618027
000280 05 dc 32 3e 66 27 4c 3c 07 9e 1e 3e 1f b8 ec bd
       0.17466743 0.012460565 0.1548997 -0.11558556
000290 8a 10 bc 3c a4 60 4f 3d e0 79 0c 3b 57 e2 40 be
       0.022957105 0.050629273 0.0021434948 -0.18836342
0002a0 08 cb e7 3d f9 e9 90 bd d9 fc 9e bc 68 f8 aa 3c
       0.11318022 -0.07075877 -0.019407677 0.020870402
0002b0 31 32 0b be 14 e7 12 be de e7 45 be e2 db 24 3e
       -0.13593365 -0.14345962 -0.19326732 0.16099504
0002c0 55 0c cf 3d 02 19 fb bd fa 1e 12 3d ad b2 f8 3d
       0.10109774 -0.12260629 0.035674073 0.12143455
0002d0 f6 f1 90 bd 55 82 4c be 39 c8 01 3d 85 d8 2e be
       -0.070774004 -0.19971593 0.031685088 -0.17074783
0002e0 a9 c7 ee 3d 21 21 e3 3d d1 5d a4 3d ce 65 35 3e
       0.11659176 0.11090303 0.080257066 0.17714617
0002f0 15 e5 6b be b3 a7 13 be e9 ed 36 be 58 6f 97 bd
       -0.23036607 -0.14419441 -0.17864193 -0.07394284
000300 60 a1 28 3e bd 49 fd 3d 59 e4 b0 3d a1 a7 52 3e
       0.1646781 0.1236758 0.08637304 0.20571758
000310 f0 23 33 be 6d 29 19 be 7d eb 0a 3e f7 2e 8e bd
       -0.17494178 -0.14957209 0.13566394 -0.069425516
000320 19 e6 bb bd d7 b7 5e bd 52 8b a6 3d 3e 83 dd 3d
       -0.09174747 -0.054374542 0.08132042 0.10816048
000330 8d a3 f4 3c 2d 3c c0 3d 86 67 8d 3c e8 f5 f1 bd
       0.029863143 0.093864776 0.017261278 -0.11814481
000340 6c b6 03 be 49 a2 b9 3d ba 94 b4 3c a4 ce 11 be
       -0.12862557 0.090641566 0.022043575 -0.14238983
000350 bf b6 02 be 75 17 82 3c 31 8a 39 3e ab 13 0c 3e
       -0.12765025 0.015880326 0.18119122 0.13679378
000360 ae 37 49 bd 92 47 b5 bc 50 07 50 bc 2e c2 a0 3d
       -0.049125366 -0.022128854 -0.012697056 0.07849537
000370 88 0f ad bd 65 19 74 bd df 87 7a bd 31 2b d1 bc
       -0.08450228 -0.05959453 -0.061164733 -0.02553329
000380 ce e9 95 3d e9 df 21 be e5 cf 1c bc 02 4e 44 bc
       0.07319985 -0.15808071 -0.00957105 -0.011981489
000390 3b 7e 15 3e 97 b9 0e be 3d fc 01 bd f3 df 98 3d
       0.14598934 -0.13937984 -0.031734694 0.0746459
0003a0 52 14 f0 3d 61 9b d3 bd bb 5b c7 bc a8 01 36 3e
       0.11722626 -0.103323705 -0.024335733 0.1777407
0003b0 e2 55 08 bd 6f 95 46 3e ad 2d 4b be 6d 51 ad bd
       -0.03328503 0.19392942 -0.19841643 -0.08462796
0003c0 76 0e 26 be d3 b0 0b 3e 49 75 83 3e 36 5b 1a 3e
       -0.16216454 0.13641672 0.2567542 0.15073857
0003d0 b4 5d 08 be 36 8c 14 3e 26 5b af 3d 65 9d ec 3d
       -0.13316995 0.14506611 0.08562307 0.11553458
0003e0 91 e9 47 be 36 95 21 be 18 9b df bd 53 50 e6 3d
       -0.19522692 -0.15779576 -0.10918254 0.112457894
0003f0 67 52 32 3e 96 16 b0 bc e0 cc 2b 3e 30 b1 6f 3d
       0.17414246 -0.021495145 0.16777372 0.05851859

encoders.0.encoder.prelu.weight f4 [128]
000000 67 1c 76 3e c3 fd 8a 3e fd eb 7a 3e b4 df 9b 3e
       0.24034272 0.2714673 0.24504085 0.3044411
000010 e9 66 35 3e b4 0e 86 3e a6 2f 82 3e 4d 7c 83 3e
       0.17715038 0.26183093 0.25426978 0.2568077
000020 b6 4c 89 3e 39 e9 7a 3e a4 6a 80 3e 7d ac 92 3e
       0.26816338 0.2450303 0.2508136 0.28647223
000030 6a 63 57 3e f2 21 81 3e cd 59 87 3e f7 26 88 3e
       0.21034017 0.2522121 0.264357 0.26592228
000040 93 f9 86 3e aa 9e 7a 3e 69 38 84 3e 9a 64 84 3e
       0.26362285 0.24474588 0.25824288 0.25858003
000050 ec e9 86 3e 83 87 60 3e a2 39 82 3e cc b2 73 3e
       0.26350343 0.21926694 0.25434595 0.23798674
000060 a0 67 7b 3e 0d 46 80 3e 81 30 8b 3e 9c 0e 7d 3e
       0.24551249 0.25053445 0.27185443 0.24712604
000070 d5 ac 83 3e 5c 43 6e 3e f8 78 90 3e 8a c2 8c 3e
       0.25717798 0.23267883 0.28217292 0.27492172
000080 a5 4d 84 3e d4 93 85 3e 4a ff 82 3e ad 02 80 3e
       0.25840488 0.26089346 0.25585395 0.2500204
000090 bc f5 5f 3e 4f 53 85 3e cf b8 71 3e 33 0b 58 3e
       0.21871084 0.26040122 0.23605655 0.21098022
0000a0 54 94 89 3e dc 94 64 3e 69 b4 71 3e 4f 8c 81 3e
       0.26870978 0.2232241 0.23603977 0.2530236
0000b0 02 6e 8b 3e df 9b 77 3e 82 ee 87 3e a4 50 7f 3e
       0.27232367 0.24180554 0.26549155 0.24933106
0000c0 43 ba 81 3e 4d a6 49 3e 21 96 6e 3e 20 6e 7f 3e
       0.2533742 0.19692345 0.23299457 0.24944353
0000d0 60 df 88 3e d0 a4 7f 3e 4b 82 5e 3e 76 e9 7a 3e
       0.26732922 0.24965215 0.2172939 0.24503121
0000e0 df 57 6b 3e bb 22 8a 3e c4 44 8a 3e 10 a5 8d 3e
       0.22982739 0.26979622 0.2700559 0.27664995
0000f0 6e 84 82 3e 45 74 7d 3e 3d cd 75 3e eb b1 71 3e
       0.2549166 0.24751385 0.24004073 0.23603027
000100 ed 99 64 3e c0 42 67 3e cf 1e 7a 3e 8f 5d 64 3e
       0.22324343 0.22584057 0.24425815 0.22301315
000110 1c 9e 98 3e 6b fa 88 3e 3a e0 74 3e 7d e2 8f 3e
       0.29808128 0.26753554 0.2391366 0.28102484
000120 91 4c 81 3e b2 62 8b 3e 1f a8 56 3e 7e 02 7d 3e
       0.25253728 0.27223736 0.2096257 0.24707982
000130 43 41 71 3e 6b 88 4e 3e b5 b3 52 3e 3d 1d 72 3e
       0.23560052 0.20169227 0.20576365 0.23643966
000140 c5 48 76 3e 35 e3 80 3e 47 d8 94 3e 85 1e 5c 3e
       0.24051197 0.25173345 0.29071257 0.21496017
000150 c1 21 78 3e 67 bf 8b 3e 60 06 90 3e 6c 08 9e 3e
       0.24231626 0.27294466 0.28129864 0.308658
000160 1a b3 80 3e a0 da 65 3e a2 f4 81 3e d6 14 8a 3e
       0.25136644 0.2244668 0.25381953 0.26969022
000170 b0 4b 86 3e 0c b1 7a 3e c2 41 55 3e d5 50 73 3e
       0.2622962 0.244816 0.20825866 0.23761304
000180 db fc 8f 3e 6f b9 86 3e bd 37 63 3e bd ca 5b 3e
       0.281226 0.2631335 0.22189231 0.21464057
000190 d4 c2 75 3e 31 a6 8d 3e ee 92 62 3e 08 4e 64 3e
       0.24000102 0.27665856 0.22126362 0.22295392
0001a0 12 06 76 3e 0b fc 8a 3e 29 05 84 3e d6 cd 85 3e
       0.24025753 0.2714542 0.25785187 0.26133603
0001b0 23 4c 63 3e c0 23 67 3e 20 e2 95 3e e7 d8 76 3e
       0.22197013 0.22572231 0.29274082 0.24106179
0001c0 35 84 83 3e d2 e8 90 3e 62 9e 89 3e 12 ae 76 3e
       0.25686803 0.28302628 0.2687865 0.2408984
0001d0 46 b3 89 3e a0 9b 7c 3e 0f 65 74 3e e8 02 7f 3e
       0.26894587 0.24668741 0.23866676 0.24903452
0001e0 82 df 8b 3e 6a a6 79 3e 88 10 72 3e 5f 4f 70 3e
       0.2731896 0.24379888 0.23639119 0.23467778
0001f0 31 5e 68 3e a1 b2 8b 3e 7d d6 7e 3e 65 70 72 3e
       0.22692181 0.2728472 0.24886508 0.23675688

encoders.0.encoder.conv2.bias f4 [128]
000000 74 d9 69 3c 3d 38 f1 3c 30 a4 08 3d 30 cc bb 3b
       0.014273036 0.029445762 0.033359706 0.005731128
000010 88 04 c5 3c e3 93 05 3d c8 23 a4 3b d1 69 e0 bb
       0.024050012 0.03261174 0.0050091483 -0.006848552
000020 52 7b 20 3c 7a 7b a1 3c f2 58 d4 3b ca a6 18 3c
       0.009795027 0.019712199 0.0064803297 0.009317109
000030 9d d8 9a 3b 20 49 63 bc 98 2e 69 bb 48 30 e5 3a
       0.0047255293 -0.013872415 -0.003558075 0.0017485702
000040 c7 72 23 3c 3d 5b 15 bd 4d 00 75 bc 07 e6 b9 3b
       0.0099760955 -0.036463965 -0.014953685 0.0056731733
000050 03 fb 21 bc 1d c1 8b bc d4 27 fb 3c cf fd 9b bc
       -0.009886506 -0.017059857 0.03065864 -0.019041924
000060 d2 7f 43 3d 76 3c 7e 3d 4d 97 be 3c 07 52 09 3c
       0.04772932 0.06206938 0.023265505 0.008381373
000070 36 ed 0a 3c 1d ba 5b 3b 7a 18 9f 3c 63 4b 90 3c
       0.008479407 0.003352768 0.019420851 0.017614072
000080 d9 cf d0 bc 42 16 c0 3c a6 a2 0f 3d 11 31 9a 3c
       -0.025489734 0.023448113 0.035067223 0.018822225
000090 ef f7 18 bc d9 7d f3 bb 2c 95 d6 3c de 95 1a 3d
       -0.009336456 -0.0074307737 0.026194178 0.03774058
0000a0 9a c1 21 3d 4e b0 ae 3c 76 0b 80 3b 78 10 88 3c
       0.039491273 0.021324303 0.0039076163 0.016609415
0000b0 41 65 4e bd 93 f7 f7 b5 5e 8b 34 3b 2e 51 94 3c
       -0.050389532 -1.8474988e-06 0.002754889 0.018105116
0000c0 ab 41 c6 3c 3f 8d 10 3d d4 75 37 3c 41 3c 3b 3d
       0.024201235 0.035290953 0.011197526 0.04571176
0000d0 0a 78 2e 3d 25 35 34 3c 2c 08 27 bc 0e 4f 91 3c
       0.042594947 0.010998999 -0.010194819 0.017737892
0000e0 a0 de ac 3c 24 7a a6 3c fd aa b9 3c 7e 67 81 3d
       0.02110225 0.020321913 0.022664541 0.06318568
0000f0 db bf 92 3c 41 ce ef 3c 7b 03 3e 3d c4 8e de 3c
       0.01791375 0.029273154 0.046390038 0.027167685
000100 1b 8d 40 3d 6d ae 78 3c cc a5 17 3d 3a cc 83 3c
       0.04700957 0.015178305 0.03702335 0.016088594
000110 56 43 92 3c 0c 44 32 3d b0 d0 0a 3d 8d fd 08 3d
       0.017854374 0.043521926 0.033890426 0.03344493
000120 bd c8 57 3d 3f 15 a9 3c 66 51 2c 3c 05 de 5b 3d
       0.052681673 0.020640014 0.010517454 0.05367853
000130 e4 4b 14 3c ef 80 82 3c 49 e1 24 3d 87 5d a3 bc
       0.009051297 0.015930621 0.04025391 -0.019942058
000140 da ed 4f bc c5 85 20 3d ec 03 37 3c dc 7b 05 3c
       -0.012690986 0.039190073 0.011170369 0.008147206
000150 b3 7d b8 bc b2 0b 1c 3c b7 e3 19 3d 8c bd ab 3c
       -0.022520876 0.009524273 0.03757068 0.020964406
000160 7a d9 8b 3c d8 71 dd 3b 5c 60 95 bc fa e6 7a bc
       0.017071474 0.006757956 -0.018234424 -0.015313858
000170 23 41 b4 3b 51 20 60 39 2e f8 66 3d b5 b1 02 bc
       0.005500929 0.00021374343 0.056389026 -0.007976939
000180 97 27 cf 3a 26 74 a5 3c 31 87 0d bd 89 15 15 3d
       0.0015804645 0.020196985 -0.034552757 0.03639749
000190 b9 78 df bb 23 4d a5 3c 30 9e 82 3c 28 34 35 bb
       -0.006819811 0.020178383 0.01594457 -0.0027649496
0001a0 08 5d 85 3d 73 ff 3f 3d 65 7d c3 bb 86 4c 87 bb
       0.06511885 0.046874475 -0.005965876 -0.0041289954
0001b0 d0 e0 34 bd ad 7e 30 bb 2d 20 79 bc 71 36 4c 3d
       -0.04415971 -0.0026930973 -0.015205425 0.049856607
0001c0 89 e7 09 bd 6e 5d c4 bc 9f 7d 36 bb 23 22 90 3d
       -0.033668075 -0.023970332 -0.0027845872 0.07037761
0001d0 2e 12 40 3d 0f 20 1b 3c d5 ac 9c 3d 5e 40 ac bc
       0.046892338 0.009468093 0.076501526 -0.021026786
0001e0 9a 85 cd 3c 0b 56 c4 3c 90 29 f4 ba 49 73 0e 3d
       0.02508812 0.02396681 -0.0018628109 0.034777913
0001f0 0b cd eb 3b e1 a0 9d 3c cb a8 5b 3c 65 fa 96 3d
       0.007196074 0.019241752 0.013406943 0.07371978

encoders.0.encoder.conv2.lin.weight f4 [128, 128]
000000 e2 6c 85 bd cc e7 d8 bc 69 27 09 3e f4 1c 19 3e
       -0.065149084 -0.026477717 0.1339394 0.14952451
000010 a1 1e ec 3d 6f 3d bf 3d 29 90 a3 3d 13 4c 4c 3c
       0.115292795 0.093378894 0.07986481 0.012469309
000020 cb fb 5d bb 96 fb 97 3d 40 9b e0 bd 9b a7 d4 3c
       -0.0033872004 0.07421033 -0.109671116 0.025958827
000030 eb 90 0b be 50 19 b1 bc 85 a3 ca bb d0 af c6 3d
       -0.136295 -0.021618515 -0.006184044 0.09701502
000040 35 fc f9 bd 27 aa 0f 3d a3 35 25 be d6 c5 96 3d
       -0.12206308 0.03507438 -0.16133742 0.07361953
000050 9d ac 42 3e 32 e7 cd 3c 8d 98 d2 3d af 3b fe bc
       0.19011159 0.025134657 0.10283003 -0.031034319
000060 62 62 a4 bd 1e 89 c0 bd 3c b8 13 3e 30 33 1e 3e
       -0.080265775 -0.09401153 0.14425749 0.15449214
000070 e7 49 0d be de e1 60 bd 9f e7 d1 3d 4b 15 c0 3d
       -0.13797723 -0.054902904 0.10249256 0.09379061
000080 4f 36 8e bd c6 de cf 3d 56 7d 55 bd 4b 23 9f bd
       -0.06943952 0.101499125 -0.052121483 -0.077704035
000090 4b 67 c6 bc 41 93 9c 3a ac b8 c2 3d 4f b2 3f 3d
       -0.024219176 0.001194574 0.095078796 0.046800908
0000a0 50 a9 f4 bd 1e b3 1a bd 04 6f f9 3d ee 91 9f 3d
       -0.11946356 -0.037768476 0.12179378 0.07791506
0000b0 58 49 18 3d eb 6f 3b bd e3 91 7b 3d 10 48 89 bc
       0.03717932 -0.04576103 0.061418425 -0.016757995
0000c0 c5 3d 0c 3e 6d 14 04 be 1d a2 90 3d 18 c2 9d 3d
       0.13695438 -0.12898417 0.07062171 0.07703036
0000d0 fb 7f 6b 3d 05 db 7a 3d 90 26 0f 3d eb 29 be 3d
       0.0574951 0.06124403 0.034948885 0.09285339
0000e0 42 2a 86 3c b2 12 b8 bd 1d af a0 3d 73 21 13 be
       0.016377572 -0.08987941 0.078459 -0.14368229
0000f0 5d 61 62 3d dc 19 eb bd bc ca 91 3c 0a ab e5 3d
       0.055268634 -0.11479542 0.017796867 0.11214264
000100 78 2a 18 be 9e bb 6f 3d 8f 2f ff 3d 85 c8 9f 3d
       -0.1485995 0.058528535 0.12460243 0.07801918
000110 84 56 98 bd bc 5c c3 3d e7 c1 04 3e 24 67 1e be
       -0.074383765 0.09539172 0.12964593 -0.15469033
000120 a5 ed a2 bd a7 db a0 bc 22 43 e6 3d 09 37 a2 bc
       -0.07955483 -0.019635988 0.11243273 -0.019801633
000130 e2 ec 0b bd a2 dc 6d 3d e0 92 c2 ba 2a 2b c6 3d
       -0.034161456 0.05807174 -0.0014844798 0.09676202
000140 38 fd 83 bd 9e 50 4a 3d a2 15 22 3d 20 f6 61 3d
       -0.06444782 0.04939329 0.039571412 0.055166364
000150 20 f2 1c be 8d 04 d0 3d ad fb d1 3d 72 d8 05 3e
       -0.15326738 0.10157118 0.102530815 0.13070849
000160 51 44 3b 3d ed 39 95 bd fe 51 c5 bd e2 16 2f 3e
       0.04571945 -0.07286439 -0.096347794 0.17098573
000170 4f 7d ae bd 35 5b ec bd 29 d3 19 3e 46 26 38 bd
       -0.085199945 -0.11540834 0.15021957 -0.044958375
000180 6f e5 0b 3e 6a 56 fc 3d 1b 85 da 3d 8d 5c 06 be
       0.1366174 0.1232117 0.10669919 -0.13121243
000190 ed 83 05 3e 3c f1 88 bd 51 bd 0f be 72 be b1 3a
       0.13038607 -0.06686637 -0.14037062 0.0013560785
0001a0 6a 92 c3 bd 71 5e 2c 3d 11 ad fb 3c 3b a2 dd bd
       -0.09549411 0.042082254 0.030722173 -0.10821959
0001b0 bf 82 17 bb 7d 24 e2 3d e5 6f 21 be 40 3d 07 be
       -0.0023118702 0.11042116 -0.1576534 -0.13206959
0001c0 55 9f e5 bd ce 8e c9 bc fa f5 07 be c2 67 84 bd
       -0.11212031 -0.024604227 -0.13277426 -0.06465103
0001d0 f0 18 36 bd 59 8d 4e bd 7d bd 3b 3d 44 bb a2 bd
       -0.044457376 -0.05042777 0.045835007 -0.07945874
0001e0 c5 88 16 bb 9f e9 30 bc 5e c1 6b bc 23 75 8d 3c
       -0.0022969705 -0.010797887 -0.014389364 0.01726777
0001f0 ee 0f 9f 3d 7c dc 87 bd c9 bc 9d 3d 95 72 39 bc
       0.0776671 -0.06633851 0.077020235 -0.011318822
000200 62 b1 74 bd 36 d3 97 3d 12 98 08 be 29 a6 8f bd
       -0.059739478 0.07413332 -0.1333926 -0.070141144
000210 c7 ff 09 3d f2 b2 ad bb 78 5d fa bd 32 13 32 3d
       0.033691194 -0.005300873 -0.12224859 0.043475337
000220 e4 ce 9d 3c 6f 9c 32 bd 21 9b 12 be ca a5 8e bc
       0.019263692 -0.043606218 -0.1431699 -0.017413039
000230 e9 02 c4 bd 59 a6 0b 3d 97 06 3e 3e 3a 9d 04 bc
       -0.095708676 0.03409419 0.18557201 -0.008094126
000240 72 a6 f0 bc 7e d2 f5 3b ac d3 ea bd a6 fa 4b bd
       -0.029376242 0.0075018993 -0.114661545 -0.049799584
000250 fb 44 a6 3d 71 92 81 bd 8a 19 19 3e de 0c 47 3c
       0.08118626 -0.063267596 0.14951149 0.012149064
000260 9e 2c ee bd e8 8c a6 3d 43 5e fd bd 91 4c 36 bd
       -0.11629604 0.081323445 -0.123714946 -0.044506613
000270 cf 73 aa 3c 56 f6 57 3c 84 d6 7f 3d 0c 30 03 bc
       0.020807175 0.01318129 0.062460437 -0.008007061
000280 34 65 ff bd 88 bd 8e 3d 49 d9 05 be a2 7d 94 bd
       -0.12470475 0.06969744 -0.13071169 -0.07250525
000290 73 1c fe 3c 81 14 d0 bd a4 64 15 3e 03 53 ae bd
       0.031019425 -0.10160161 0.14589173 -0.08511927
0002a0 7c 27 21 be ca 71 b5 3c d1 65 b8 3d bf 08 30 bc
       -0.15737718 0.022148985 0.09003795 -0.010744273
0002b0 59 b8 12 be bc 3a cb bd cc 92 c6 bd 73 12 78 3d
       -0.14328136 -0.09923312 -0.09695968 0.06056447
0002c0 96 2d 11 3e 82 57 ca bd 4a 44 0f 3e 70 69 07 3e
       0.14177546 -0.09879972 0.13990894 0.13223815
0002d0 40 1a b2 3d 02 29 f1 bc 62 45 94 bd 00 7d de 3c
       0.08696413 -0.0294385 -0.07239796 0.027159214
0002e0 73 77 28 3c a3 39 08 3e b0 5e 82 3d 69 88 17 3e
       0.010282385 0.13303237 0.063657165 0.1479813
0002f0 c4 49 b9 bc 18 ae 4b 3c 40 bb df bb 9f cc be bd
       -0.022618182 0.012431644 -0.006827742 -0.09316372
000300 b9 ee 02 3e f3 14 63 3d d9 06 1d 3d e1 4e 15 be
       0.12786378 0.0554399 0.03833661 -0.14580871
000310 0c 62 b5 bc 55 3e 1c 3e ec 2c 86 3d 79 81 59 3d
       -0.022141479 0.15258153 0.06551537 0.05310199
000320 39 7c e0 bd bb 55 a3 bd b6 77 ac bd b5 99 17 be
       -0.109611936 -0.07975336 -0.084212705 -0.14804728
000330 73 9d fa 3d 3b 5d 45 3d 79 d4 f4 bc e7 17 81 bd
       0.12237062 0.048184615 -0.029886471 -0.06303387
000340 24 70 94 bd 7a f8 3f 3d 5e f3 e9 3d 44 f3 84 3d
       -0.072479516 0.046867825 0.11423372 0.06491712
000350 85 c9 89 bc ae 1e 98 3d 2a f1 ea bc f0 53 bf 3d
       -0.016819725 0.07427727 -0.02867945 0.09342182
000360 a9 cb cc bd eb 64 bb bd ee 66 57 bd d1 ba d6 3d
       -0.099997826 -0.09150108 -0.052588396 0.10484851
000370 a7 df cb 3d 69 93 d5 bc fb b7 15 3d b6 23 e8 bd
       0.09954768 -0.026071267 0.03655241 -0.11334936
000380 cc b5 ca bb ad 64 b1 3d 00 86 94 3c e3 a2 f3 bd
       -0.0061862227 0.086617805 0.018130302 -0.118963026
000390 57 bf 35 bd 95 cc 1d 3e f0 86 0e 3d a1 ff 59 3d
       -0.04437193 0.15410073 0.034796655 0.053222302
0003a0 83 1f 81 3d 62 a0 c8 bd 1e 65 f0 3a bc d8 cc 3d
       0.063048385 -0.097962156 0.0018340682 0.10002276
0003b0 68 f8 38 bd a3 46 7e 3b 37 21 93 bb dc c7 d1 3d
       -0.045158774 0.0038799427 -0.0044900435 0.10243198
0003c0 48 fb 9d 3d 07 9d 6a bd e5 21 de 3d 18 72 23 3e
       0.07713944 -0.05727866 0.108463086 0.15961492
0003d0 a7 0c 94 bd 61 c0 ae bd a6 f7 a1 bd fb 15 09 be
       -0.07228976 -0.08532787 -0.07908563 -0.13387291
0003e0 1a 32 b4 bd 25 ec b5 3d 09 7a a5 bd 2a f5 e7 3c
       -0.087986186 0.088829316 -0.08079917 0.028315146
0003f0 b2 5f 34 3d c5 4c 08 3e 65 29 94 bd 94 13 f0 bb
       0.044036575 0.13310535 -0.07234458 -0.0073265526

encoders.0.encoder.prelu2.weight f4 [128]
000000 a6 ca 79 3e 2d 4d 87 3e 42 d4 85 3e d8 6c 59 3e
       0.2439371 0.26426068 0.26138502 0.21232927
000010 b8 b6 67 3e a0 e9 9e 3e ae 7d 82 3e ea 9c 8a 3e
       0.22628295 0.31037617 0.2548651 0.2707284
000020 04 de 63 3e 95 0e 6c 3e 2b c0 84 3e 7c 8e 6c 3e
       0.22252661 0.23052438 0.25927863 0.23101228
000030 3d 47 6d 3e d7 85 7c 3e 9e 2c 7e 3e f0 6f 6d 3e
       0.23171706 0.24660431 0.24821708 0.23187232
000040 98 58 86 3e cd 38 99 3e fc a5 65 3e c4 da 55 3e
       0.26239467 0.29926148 0.224266 0.20884234
000050 7b 84 8e 3e 7c d8 3d 3e a4 54 81 3e 3f 74 5c 3e
       0.2783545 0.18539613 0.25259888 0.2152872
000060 ca d8 88 3e b4 22 94 3e 2e 8a 84 3e 1b e7 7d 3e
       0.26727897 0.28932726 0.25886673 0.24795191
000070 d3 c7 85 3e a6 8a 7c 3e 82 22 7c 3e 72 dc 68 3e
       0.26129016 0.24662265 0.24622539 0.22740343
000080 be b1 76 3e e4 3f 80 3e de eb 87 3e 7e db 58 3e
       0.24091241 0.25048745 0.2654714 0.2117748
000090 e6 9d 79 3e c9 d8 7e 3e ba 28 7e 3e 7b 3e 73 3e
       0.2437664 0.24887384 0.24820223 0.23754303
0000a0 f1 1c 7e 3e ad 85 78 3e 0b 14 64 3e 93 4f 78 3e
       0.24815728 0.24269743 0.22273271 0.24249105
0000b0 3a 2e 39 3e 47 14 7c 3e 34 7a 76 3e 00 8e 88 3e
       0.1808404 0.2461711 0.24070054 0.26670837
0000c0 c5 b6 8a 3e 80 98 85 3e 73 58 8b 3e 4c 61 6b 3e
       0.27092567 0.2609291 0.2721592 0.22986335
0000d0 ee 50 6d 3e 1c 77 73 3e 8d f3 8d 3e 26 33 87 3e
       0.23175403 0.23775905 0.27724877 0.2640621
0000e0 96 09 88 3e c1 cc 8c 3e 62 df 6f 3e 95 20 96 3e
       0.26569813 0.27499965 0.23425058 0.29321733
0000f0 bb 6d 6c 3e 68 7d 82 3e 6e e2 78 3e e0 7e 6d 3e
       0.23088734 0.25486302 0.24305126 0.2319293
000100 b2 ac 81 3e 01 8f 70 3e 3d fc 76 3e 6d d2 83 3e
       0.2532707 0.23492052 0.24119659 0.2574648
000110 ca 96 81 3e 17 3d 83 3e 66 a1 63 3e 4c 7f 79 3e
       0.25310355 0.25632545 0.22229537 0.24364966
000120 7d ff 9d 3e ce c7 81 3e 31 42 70 3e 37 dd 77 3e
       0.30858985 0.2534775 0.2346275 0.2420548
000130 60 b4 77 3e d1 45 8c 3e d0 13 4b 3e ee 88 59 3e
       0.24189901 0.27397016 0.19831777 0.21243641
000140 23 dc 60 3e 30 a5 86 3e 9e a7 82 3e fa 43 8b 3e
       0.21958975 0.26297903 0.25518507 0.272003
000150 69 68 61 3e 6b 84 7a 3e 55 a4 82 3e 80 05 84 3e
       0.22012486 0.24464576 0.25516 0.25785446
000160 55 90 7c 3e f7 a5 88 3e 1c e9 4d 3e 21 6a 73 3e
       0.24664433 0.2668912 0.20108455 0.23770954
000170 52 51 7d 3e aa 5f 77 3e a7 0f 70 3e 94 d9 6b 3e
       0.24738052 0.24157587 0.23443471 0.23032218
000180 6d 09 63 3e 59 aa 77 3e 66 07 3b 3e 07 f9 80 3e
       0.22171564 0.24186076 0.18264541 0.25189993
000190 36 82 73 3e ac d8 6e 3e cc c8 87 3e c6 4c 91 3e
       0.2378014 0.23324841 0.26520383 0.28378886
0001a0 29 8c 9b 3e 9e 52 8b 3e c7 ac 87 3e a0 37 50 3e
       0.3038037 0.2721147 0.26499006 0.20333719
0001b0 95 e5 1a 3e 90 07 74 3e 5b 34 56 3e 5b 0b 64 3e
       0.15126641 0.2383101 0.2091841 0.22269957
0001c0 c4 93 66 3e c6 38 83 3e 14 b7 68 3e 32 91 7e 3e
       0.22517306 0.25629252 0.22726089 0.24860075
0001d0 60 db 7b 3e 66 88 74 3e 38 ad 9d 3e 5e 16 81 3e
       0.24595404 0.23880157 0.30796218 0.25212377
0001e0 07 30 81 3e 3d b1 75 3e ae 8d 4e 3e 43 1d 89 3e
       0.25231954 0.23993392 0.20171234 0.26780137
0001f0 b3 e2 83 3e ed 84 51 3e 03 06 68 3e 04 29 91 3e
       0.25758895 0.20460863 0.22658543 0.28351605

encoders.1.weight f4 [128, 128]
000000 29 ee a3 3d 62 ec 98 3c 1b ef 8d 3c 50 d2 bf bb
       0.0800441 0.018667404 0.017325928 -0.0058539286
000010 5e 69 f5 3c 76 e0 33 3a 2a 45 31 3d 77 41 99 bd
       0.02995747 0.00068617554 0.04327885 -0.074831896
000020 51 a5 f4 bc 38 ae a8 3c b0 e2 a7 bc aa ae aa bc
       -0.029863985 0.020590886 -0.020493835 -0.02083524
000030 09 be b5 3d a6 9d 91 3d dd 58 de 3b ef 4a 26 3d
       0.08874137 0.07110147 0.0067854957 0.040598806
000040 85 8d 85 bd 08 43 a6 3d 90 c3 23 3b c1 dc b5 3c
       -0.06521133 0.08118254 0.002498839 0.02219999
000050 ad 71 b9 3d a2 40 33 bd fe 29 a1 3d fb 2a 73 bc
       0.09054885 -0.04376281 0.078693375 -0.01484179
000060 41 a4 b1 bc a3 59 7a bd 9f 9b 41 3d 8a 49 32 3d
       -0.021684768 -0.06112064 0.047267552 0.043527164
000070 b6 b5 96 bd 2a 42 69 3c a1 6b 6e bc 9c 3b 1e 3b
       -0.07358877 0.014236966 -0.014552028 0.0024144417
000080 c9 0d 32 3d 8f 6d 4a bd 4f 17 6b bd d5 f3 ae 3d
       0.043470178 -0.04942089 -0.057395276 0.08542601
000090 fe 74 a6 bd b4 7d bc 3c 52 6b 8c 3c f2 2e bc 3d
       -0.08127783 0.023009159 0.017141018 0.091886416
0000a0 2a 2f 25 3d 0e 9c 34 bc 3e 56 4f bd 08 ce 59 3d
       0.040328182 -0.011023534 -0.050619356 0.053175002
0000b0 4a 4e de bc a4 43 a7 bd 0c 3b 45 3d e1 f8 0d bd
       -0.02713694 -0.08167198 0.048152015 -0.034661178
0000c0 d0 e0 8c bd 20 99 83 3d 04 7e 02 3d 98 5e a7 3c
       -0.06878817 0.06425691 0.03185846 0.020430848
0000d0 17 66 9c bd 9b 54 9c 3d 11 25 ab bb 62 93 4f 3d
       -0.076366596 0.07633325 -0.0052229245 0.050677665
0000e0 5b 9f 39 bc 79 62 76 bd fe d8 61 3c 6e cd 45 bd
       -0.011329497 -0.060152505 0.013784645 -0.048291616
0000f0 d7 19 be 3d c3 c0 88 bc 2a 74 8a bd fa 74 bc 3d
       0.09282272 -0.016693478 -0.06760438 0.09201999
000100 3a 46 2e 3d d5 7f b4 3b 06 08 a2 3d c3 2f 9c 3d
       0.042547442 0.005508403 0.079116866 0.07626297
000110 c4 6e 6c 3d e1 a2 6c 3c 39 b0 20 bc c0 12 53 bc
       0.05772282 0.01444313 -0.00980764 -0.012882888
000120 44 28 3f bd 4c 0a b7 3d b3 6d 03 3d 23 82 62 3d
       -0.04666926 0.08937511 0.03208704 0.05529989
000130 ea aa c4 3c 0b 36 7d bd 64 82 23 3d 2d dd 88 bd
       0.02400728 -0.061819118 0.039919272 -0.06682811
000140 88 d3 7d bc 76 7a 8c bd 46 82 1f 3d 97 6a b7 3d
       -0.0154923275 -0.06859295 0.038942598 0.08955877
000150 98 dd 46 bd 62 c2 dd 3c ae d3 85 3d 3b c3 8d bc
       -0.048551172 0.027070228 0.06534515 -0.017305007
000160 40 d5 df 3c b0 44 a6 bc 9e 2a 4e bb 4f 0b 5a bd
       0.027323365 -0.020296425 -0.0031458507 -0.05323344
000170 44 cb 6d 3d f7 e6 67 bd e3 64 fc 3c 96 25 f2 bb
       0.058055177 -0.05661675 0.030809825 -0.0073897345
000180 45 ee 0a 3d a6 13 9e 3d cf 9f aa 3d cf 53 4e 3d
       0.033918638 0.077185914 0.08331262 0.050372895
000190 b2 dd 8f 3c 79 2a 01 bd 19 6a ea b9 96 03 86 bb
       0.017561767 -0.031534646 -0.00044711007 -0.004089783
0001a0 d8 98 61 bc 06 c2 3a 3d 70 6a a6 3d d7 82 5c bd
       -0.013769351 0.04559519 0.0812577 -0.053835716
0001b0 f9 07 90 bb 2f 75 e0 bc f0 a4 5f 3d 04 cf 63 bd
       -0.0043954817 -0.027399627 0.054600656 -0.055617347
0001c0 69 a2 5a 3c 15 10 96 bd 2f 56 90 bd 36 b9 11 bd
       0.013344386 -0.07327286 -0.07047688 -0.03557702
0001d0 cb a7 61 bd a0 18 a7 3d 12 59 3e bd 99 ca 46 bd
       -0.05509166 0.08158994 -0.046471663 -0.048533056
0001e0 1b b4 f2 bc 2d ad 93 bd 31 55 67 bd 5a 31 4e 3d
       -0.029626897 -0.07210765 -0.05647773 0.050340034
0001f0 bd 94 6c bd d9 6e 05 3d 85 73 d2 bc 6d af 39 bd
       -0.057759035 0.032576416 -0.02568985 -0.045333315
000200 dd b1 02 3d 93 d9 a9 3c b8 e0 26 bd 7d 0a 97 bd
       0.031907905 0.02073363 -0.040741652 -0.07375047
000210 4a e8 f9 3c f0 dd 87 bd e1 24 08 bd 67 45 00 bd
       0.030506272 -0.06634128 -0.033238295 -0.031316187
000220 8f 1b 67 3d c3 8c d0 3c f5 d1 8b 3d 46 4d 12 bd
       0.056422766 0.025457745 0.068271555 -0.035718225
000230 81 07 a6 bd 3e 40 92 bd 46 d5 53 3d 78 8b 8c 3d
       -0.081069 -0.071411595 0.051717065 0.06862539
000240 f3 9c 22 bc 69 ed f0 3c 06 ff 5f bd ba 33 93 3d
       -0.009925115 0.029410081 -0.05468657 0.071876004
000250 c8 42 a1 bd 38 42 d2 bd f9 4e ae 3b 89 51 7c bd
       -0.07874066 -0.102665365 0.005319473 -0.061601195
000260 3c 8a b8 bd de 01 10 bd a7 18 fb bc 5a eb d9 3c
       -0.09010741 -0.03515803 -0.030651404 0.026601482
000270 a2 10 ec bc 5f b5 85 3c 8c a1 22 bd 42 7a 53 bc
       -0.028816525 0.016321836 -0.039704844 -0.0129075665
000280 e7 fb 59 bd c9 5d 97 bc a7 ea 6a 3d 70 a2 cb 3b
       -0.05321875 -0.018477337 0.05735269 0.0062144324
000290 c2 44 3e 3d 9f e4 0a 3d e3 33 92 3d 77 06 82 3d
       0.04645229 0.033909436 0.07138803 0.06348889
0002a0 ca 31 82 3d 8f af be bc 75 70 92 bd 1c 15 87 bd
       0.06357153 -0.023277072 -0.07150356 -0.06595823
0002b0 69 bb 72 bd cc da ca 3c 2c 1d c8 bd 81 d1 94 3d
       -0.05926076 0.024762534 -0.09771189 0.07266522
0002c0 41 5b 83 bd c3 79 dc bc c9 75 b1 bd 6c c1 52 3d
       -0.0641389 -0.02691353 -0.08665044 0.051453993
0002d0 0e 1b 1a bd 7f a9 cb bd 9d 94 c1 3c 7c 0e 88 3c
       -0.037623458 -0.09944438 0.023630435 0.01660847
0002e0 ca 1c b9 bc d0 0a be bd 7c 18 05 3c 43 c0 71 3d
       -0.022596736 -0.09279406 0.008123513 0.059021246
0002f0 6d 14 8e 3d 6e 35 d6 bd 79 99 f8 bc c2 6b 65 bc
       0.0693749 -0.1045941 -0.030346619 -0.014002742
000300 94 36 91 bd 9e e2 51 3d bf 97 c8 bd 48 e5 7d 3d
       -0.07090488 0.05124151 -0.09794568 0.061986238
000310 7b 04 90 3d a3 b3 6c 3d 71 63 9f bd 3b 8b 9d bd
       0.070321046 0.057788502 -0.07782639 -0.07692572
000320 ae e9 6d 3d 95 e8 ba bd 9a 03 3d 3d 0a 21 44 bd
       0.058084182 -0.09126393 0.046146013 -0.04788307
000330 4d de 72 3c 4f 79 6b 3d 98 35 18 3d 6d ea 04 3d
       0.014823508 0.057488736 0.037160486 0.03245013
000340 3a d6 9c bd e6 60 99 bc 75 92 76 3c 70 a2 00 3d
       -0.07658048 -0.018722963 0.0150495665 0.031404912
000350 a8 2e d3 bd 0d 13 af bd 83 64 f4 bc f9 54 b0 bc
       -0.10311633 -0.085485555 -0.029833084 -0.021524893
000360 fd e4 56 3d 2a 9a cc bc 04 a6 ad bc f1 8e 15 bd
       0.052464474 -0.024975855 -0.021197326 -0.036513273
000370 61 cb 85 bc a3 96 fe bc d0 2f c9 bd 39 cc 4b 3c
       -0.01633233 -0.031077689 -0.09823573 0.012438827
000380 7b b1 7f 3b ac 67 e3 3c 68 59 89 3c 9b 57 24 3d
       0.0039015699 0.027759396 0.016766265 0.04012261
000390 7b ec d6 bc 6a 0b ff bb 69 e8 9b bd ff ec 19 bd
       -0.02623581 -0.007783343 -0.07612688 -0.037579533
0003a0 67 16 e5 3c ee 63 83 3d 35 52 cb bd 9b d8 c7 bd
       0.027964784 0.064155445 -0.09927789 -0.09758111
0003b0 27 ff f5 3c e1 6f 0f bd f9 c8 fc bb 4f a9 75 bc
       0.030028893 -0.035018805 -0.0077143875 -0.01499398
0003c0 1a 2b b1 bd d3 39 2b bc 50 3f 40 3d b4 e8 71 bd
       -0.08650799 -0.010450798 0.04693538 -0.059059814
0003d0 27 9e d3 bd f7 6a f4 3c 91 08 c5 bd 74 8d 8d 3d
       -0.103328995 0.029836161 -0.096207745 0.06911746
0003e0 d8 e8 b9 3c 5e 7c b9 bd d7 65 8d 3d c4 96 d7 bc
       0.022694036 -0.09056924 0.0690419 -0.026317008
0003f0 07 cd b1 bc af 3c bb bd e3 0f 95 bd b3 1e eb bb
       -0.02170421 -0.09142434 -0.07278421 -0.0071752905

encoders.1.encoder.conv.bias f4 [128]
000000 59 43 35 3c eb d7 b6 ba a6 55 3c bb 79 58 0e 3c
       0.01106342 -0.0013949847 -0.0028737574 0.008688086
000010 ed d0 33 bc 84 49 ba 3a 11 e7 16 bc 4c 69 04 bc
       -0.010975105 0.0014212583 -0.009210364 -0.008081745
000020 ea 82 85 bc 05 76 0d 3d 95 d5 57 bc 1b 53 19 bc
       -0.016297776 0.03453638 -0.0131734805 -0.009358193
000030 32 c0 4a bb 37 72 fa 3b 58 ca bc b8 6e e2 88 bb
       -0.0030937311 0.00764301 -9.002228e-05 -0.004177383
000040 d5 dc f4 3c 16 74 16 3c d1 94 e0 bb 31 45 09 bd
       0.029890457 0.0091829505 -0.006853678 -0.03351325
000050 57 85 da ba 31 ac 11 bd 51 82 e3 bb 23 13 e8 bb
       -0.0016671818 -0.035564605 -0.006943025 -0.0070823594
000060 fc f7 57 bb 5a d5 c6 3b 6a 2d ed 3b fd 31 04 bc
       -0.0032954207 0.006067914 0.00723808 -0.008068559
000070 29 33 a4 3c eb a2 3b bb ce 31 a2 bc a0 67 8a ba
       0.020043926 -0.0028631042 -0.01979914 -0.0010559447
000080 a9 03 ee 3a 52 8d 3e bc e8 0f ce bb 00 e6 b0 bc
       0.001815905 -0.011630373 -0.0062885173 -0.021594048
000090 fa 96 8b bc 27 6a b5 bb df cf b5 3c a4 67 22 3c
       -0.017039765 -0.005536336 0.022193847 0.009912405
0000a0 78 5d a5 3b 11 33 b9 3c 43 64 a5 bb 79 f2 17 3a
       0.0050465427 0.022607358 -0.0050473525 0.0005796324
0000b0 f8 b3 35 3b c9 59 a7 3c fa d8 58 bb 85 e5 d7 ba
       0.0027725678 0.020428555 -0.0033088312 -0.00164716
0000c0 0f c7 9e 3b 74 f5 b2 3c d6 6c d4 bc b1 08 32 3c
       0.004845507 0.021845557 -0.025930803 0.01086633
0000d0 23 8c db 3b 9e 9c 34 3b a3 3d 02 bc a7 71 ba 3b
       0.006700055 0.0027559171 -0.007949266 0.005689818
0000e0 cb fa bd 3c ad c0 5c bc c6 6f cd 3c 6c 73 bb 3b
       0.023190876 -0.013473672 0.025077712 0.0057205465
0000f0 6e b0 1c 3c 0a d5 b2 3c 4b 7e 6d bc 35 dd dd 3c
       0.0095635485 0.0218301 -0.014495443 0.027083019
000100 59 36 02 bc 8a 46 95 bc e7 cd 0c bc ab 75 65 3c
       -0.007947528 -0.018222112 -0.008594013 0.014005105
000110 30 47 37 bc 5d 62 02 3c 55 85 e9 bc a4 34 2f 3c
       -0.011186406 0.007958022 -0.02850596 0.010693703
000120 69 bd f8 3b 66 4a 99 bc 23 93 94 bc af 9d 49 bc
       0.007590939 -0.018712234 -0.018136567 -0.012305661
000130 d0 8d 16 bd 4a 8f d4 3b 25 09 10 bc bf 86 22 3c
       -0.036756337 0.006486808 -0.008791243 0.009919821
000140 e9 c5 31 3b 0c b9 c5 bb 42 ac 0f bb 72 1f d0 3b
       0.002712602 -0.006034022 -0.0021922742 0.006351405
000150 9f 10 06 3d 44 a1 cc 3c 34 74 8a bc d6 4f 7a 3c
       0.032730695 0.024979241 -0.016901113 0.015277823
000160 5c a2 5e ba ed 02 43 3c 2b 2b ac 3c 11 9e 83 39
       -0.00084928214 0.011902553 0.021016678 0.00025104036
000170 2f 5f f1 bc 72 cd 72 3a 7a 56 bb bc f2 3c f4 bb
       -0.029464332 0.0009262181 -0.022868384 -0.0074535543
000180 7f f2 0f bc 2f d3 92 ba c9 93 e6 3b cd 4d b0 bc
       -0.008785843 -0.0011201854 0.0070366603 -0.021521473
000190 b9 d8 3d bc 96 4e 98 3c 08 f0 b2 39 e8 1d 51 3c
       -0.011587315 0.01859216 0.00034129643 0.012763478
0001a0 f7 b0 ad 3c 68 c6 5c 3d 92 d0 0f ba 12 0a 8b 3a
       0.021202547 0.053900152 -0.00054860965 0.001060786
0001b0 f3 d1 4c bb 9a 32 1f 3c 03 f2 53 bc b2 ec ad 3c
       -0.003125307 0.009716654 -0.012936118 0.02123103
0001c0 ae 71 8f bc 89 b9 8c 3c 59 90 33 3b a0 59 57 3c
       -0.017510261 0.017178314 0.002739927 0.013143927
0001d0 60 62 46 3c 82 94 43 3d 4d dd 4c 3c 7f a1 65 3c
       0.012108415 0.04774905 0.012503934 0.014015554
0001e0 93 9e 3f 3b 56 f6 05 3d a0 29 8d bc a1 f0 bf 3c
       0.0029238805 0.032705627 -0.017231762 0.02343017
0001f0 d2 28 e8 3c 47 18 84 bc 80 6d ae 3b 0f 50 fe 3b
       0.028339777 -0.016124858 0.005323112 0.0077610086
