model_zoo/model_Tonsil_2023_10_13_00_15.pth (torch, 485903 bytes, 66 tensors)

encoders.0.weight f4 [128, 128]
000000 27 7d 47 3d 7d 17 c6 3c 5c 41 83 ba 18 d5 cc 3b
       0.04870334 0.024181122 -0.0010013985 0.0062509887
000010 8b 98 92 bb d1 5a 4f 3d bb 89 22 bd 61 43 f3 3c
       -0.004473751 0.05062372 -0.03968213 0.029695215
000020 c9 44 5b 3d c8 cd 88 3d bc 47 fb 3c 63 df 16 3d
       0.053532396 0.06679875 0.030673854 0.036834132
000030 ec b6 97 3c 8b c3 a7 bc 35 ef 66 3d e8 d2 69 bd
       0.018519841 -0.020478984 0.05638047 -0.0570859
000040 dc bb 22 3c 37 37 1b bd 68 34 3b bd 03 a5 63 3d
       0.0099324845 -0.037894454 -0.045704275 0.05557729
000050 87 67 30 bd 56 70 25 3c 9c 32 83 3d 5e ac b3 3c
       -0.04306748 0.010097584 0.06406137 0.021932777
000060 5f ee 5d bd 02 27 53 bd 97 27 69 bd d4 89 20 3d
       -0.054182407 -0.051550873 -0.05692252 0.039193943
000070 45 45 8c 3b ec 19 ce 3c a1 4c 6c bb 2d 02 5b bd
       0.0042807185 0.025158845 -0.0036056417 -0.05346887
000080 23 96 a2 3c 07 ad 75 bd 81 1b 02 bd eb c4 f6 bb
       0.019846981 -0.059979465 -0.03176451 -0.0075307987
000090 b4 e7 8c bd b4 6a 57 3d d8 ee aa 3d 21 fe 3f bd
       -0.06880131 0.052591994 0.08346337 -0.046873216
0000a0 44 1e 41 bd e6 7d 80 bb d1 e0 35 3d 3f a8 55 3d
       -0.047148004 -0.0039212583 0.044403855 0.052162405
0000b0 c1 c2 2a 3d 86 25 94 3d 5d f2 13 bc e0 d3 92 bd
       0.041689638 0.072337195 -0.009029952 -0.07169318
0000c0 3b 12 3d bd ce b9 72 bd cf 6d 40 3d 23 f0 97 3d
       -0.046159964 -0.05925923 0.04697972 0.07418849
0000d0 a4 a2 a9 3d 45 63 9f bd c5 63 17 bc 6e 6d b4 3d
       0.08282974 -0.07782606 -0.0092400955 0.088099346
0000e0 82 3e b4 3d 1f 25 03 bc 93 b1 90 3d 81 10 44 3d
       0.08800985 -0.008004456 0.070651196 0.0478673
0000f0 28 71 7b 3d 36 e3 9e 3d f9 47 63 bd 7b cb 91 3d
       0.06138721 0.07758181 -0.05548856 0.07118889
000100 95 79 9b 3c 62 00 2d 3d ba f2 e1 bc e6 43 88 bc
       0.018978873 0.042236693 -0.027581561 -0.016633939
000110 58 97 50 3d 4c 42 8e 3b a5 7a 49 3d ab d0 86 3d
       0.050925583 0.0043413993 0.04918923 0.06582769
000120 5b a1 17 bd 59 02 b0 3c 56 25 92 bd b8 c2 5b bd
       -0.037019115 0.021485494 -0.071360275 -0.053652495
000130 2b 93 91 bd 9a 65 46 bd 5e f6 68 3d 93 6b 5a bc
       -0.07108148 -0.04843674 0.05687558 -0.013331312
000140 a5 43 b4 bb 12 8c 4f bd 27 23 e8 bc 23 da 64 bc
       -0.005501228 -0.05067069 -0.028337074 -0.0139680235
000150 30 fd db 3c 03 cd 10 bc 87 7f bc 3b 4f 6a 8f 3b
       0.026854128 -0.008837941 0.005752507 0.0043766866
000160 03 23 a1 3d b0 30 d5 bc f8 ac e0 3c 3c 4e 5d bd
       0.07868006 -0.026024193 0.027426228 -0.05402969
000170 72 de 75 3c 3c 41 30 3d da 15 5b bd 8c 64 5a 3d
       0.015006648 0.043030962 -0.053487636 0.053318545
000180 48 6f 8e bd ec 92 87 3d 74 9a 4b 3d a1 4c 93 bd
       -0.06954819 0.0661982 0.049707845 -0.0719235
000190 b0 8c 36 3d bd 62 79 bd 19 9c c9 3c 27 dd 5a bc
       0.044567764 -0.06088518 0.024610566 -0.013358391
0001a0 a0 44 47 bc 05 cf b0 3d f8 dc 33 3d c1 8a 8f 3d
       -0.012162358 0.08633236 0.043911904 0.07008887
0001b0 4a 35 7e 3c 50 fe 9d 3d 6a 58 41 bc a1 d6 4e 3c
       0.015515635 0.07714522 -0.011800865 0.012624414
0001c0 63 68 67 bc 7e 67 d4 bc 21 96 56 3d cd 98 9b bd
       -0.014124009 -0.025928255 0.052389268 -0.07597504
0001d0 34 a5 92 bd 56 aa 7a bd 77 bc 97 3d 5b b6 85 3d
       -0.07160416 -0.0611976 0.07408994 0.06528922
0001e0 de 47 9b bd f2 57 6e bd 0b ca 8b bd 87 97 51 3c
       -0.07582067 -0.05818934 -0.06825646 0.012792475
0001f0 18 ba 2e bd a6 72 5d 3d ab 1d b2 3d 6a 4e c7 3c
       -0.04265794 0.054064415 0.08697065 0.024329383
000200 de 57 98 3d fa c0 7e bd 8d 80 fe bb d3 08 3c 3d
       0.07438634 -0.062195756 -0.0077667893 0.045906853
000210 e7 4c 60 bd c7 dc 27 bc 9b 84 76 3d 23 da 6f bd
       -0.05476084 -0.0102455085 0.060185056 -0.05855764
000220 f6 49 17 3c 95 69 86 3a 32 d9 a8 bd d7 2c a4 bd
       0.009233942 0.0010254855 -0.08244552 -0.08016365
000230 00 5f 86 bd 58 57 a2 bd 08 b0 93 bd 42 f3 e5 bb
       -0.065610886 -0.07926816 -0.0721131 -0.007017524
000240 66 62 a3 bd cc 5c 24 3d 23 95 d2 3c d4 f1 9d bd
       -0.079777524 0.04012756 0.02570588 -0.07712141
000250 54 96 54 3d 5c bc 67 3d 1b 9c 13 3d 99 89 9b bd
       0.051901177 0.056576118 0.036037546 -0.07594604
000260 85 b7 1f bd 80 24 66 bd 35 33 ad 3d e1 6f 19 bd
       -0.038993377 -0.056187153 0.084570326 -0.03746021
000270 22 6e 52 bd be d5 92 3d e8 0a 3f 3d ed b5 90 3d
       -0.051374562 0.07169674 0.04664126 0.070659496
000280 ce be 9c 3d 3e a6 49 3d c1 f6 92 3d 53 82 d3 bc
       0.076535806 0.049230807 0.07175971 -0.02581898
000290 58 3b 78 bd 6e 34 4b bd da 59 a3 bb 6b 05 b0 bc
       -0.06060347 -0.049610548 -0.0049850764 -0.021486958
0002a0 c8 83 79 3d 5a 1d 8c 3d 26 cc c3 bb 31 61 dd 39
       0.060916692 0.06841536 -0.005975264 0.00042224818
0002b0 4a b8 5f 3b aa 6c d4 3b 77 fa 75 bc 31 c2 45 bd
       0.0034136944 0.0064826803 -0.015013329 -0.0482809
0002c0 16 b4 cf 3c 6d c1 0d 3b 98 4f 90 3d 1a d2 67 bd
       0.025354426 0.0021630183 0.07046431 -0.056596853
0002d0 5b 8a 7b 3d c6 33 26 3d 9b 13 23 3d 89 86 40 3d
       0.061411243 0.04057672 0.03981362 0.047003303
0002e0 42 ec be bc e8 a6 90 bd 0e dc 17 bd d8 13 a0 bd
       -0.023306016 -0.07063085 -0.037075095 -0.07816285
0002f0 5d e4 3f 3d 04 dc 38 bd 82 f0 85 bd dd 46 aa 3d
       0.046848644 -0.0451317 -0.06540014 0.08314297
000300 41 67 79 bd 42 6e 71 bc e7 5b 4e 3d 14 04 72 bd
       -0.060889486 -0.01473576 0.050380614 -0.05908592
000310 bb 84 9a bd 59 86 5d bd 4b de 93 3d db 2b 81 3d
       -0.075448476 -0.054083202 0.072201334 0.06307193
000320 fb 34 93 bd d3 f9 f9 3c ba 1a e1 ba 84 47 20 bd
       -0.071878396 0.030514633 -0.0017174103 -0.039130703
000330 75 55 05 b8 3e 2b 31 bd c6 32 b4 bd 41 69 6d 3d
       -3.178926e-05 -0.04325413 -0.08798747 0.057961706
000340 81 80 9a 3d 1d a6 74 bd 35 75 60 3d ac 22 9b bc
       0.075440414 -0.05972873 0.054799277 -0.018937431
000350 f2 2e 26 bc cf a5 49 3d 45 67 9e bc 87 ce a8 3d
       -0.010143029 0.049230393 -0.019336352 0.08242517
000360 4e a9 d3 3c df b7 84 bd 94 3b a3 3c 78 1d b0 3d
       0.025837567 -0.06480383 0.01992587 0.08599371
000370 b0 66 f8 3c 90 b4 96 3d 5f 8c 3b bb fc 4e 72 bc
       0.030322403 0.07358658 -0.0028617603 -0.014789339
000380 c7 75 78 3d 74 67 b1 3d 7f a1 a6 3d ae 68 9f 3d
       0.060659196 0.0866231 0.08136272 0.07783638
000390 17 9c 64 bd 52 98 9e bd 13 c1 bf bc 35 1d 12 bd
       -0.05581292 -0.077438965 -0.023407495 -0.035672385
0003a0 c6 8b 1a bc bf 7e 9f 3d b9 fd 8c bd f7 c7 ee 3c
       -0.009432739 0.07787847 -0.06884331 0.029148085
0003b0 6b 0f 8f bd bf af 9d 3d 0f 2f 7e 3c d4 d6 0f 3d
       -0.069853626 0.076995365 0.015514149 0.035116985
0003c0 6f b3 a3 3c 00 ff e3 bc 89 9e 39 bd 40 18 8a bd
       0.019983022 -0.027831554 -0.045317207 -0.067429066
0003d0 3e 1e 9b 3d 38 8c 76 3d 9c 4f 49 3d f5 a2 99 bd
       0.075741276 0.060192317 0.049148187 -0.07501785
0003e0 c9 a7 3f bd d3 f8 50 bd 33 7a 90 3d 83 b9 68 bd
       -0.04679087 -0.051018547 0.07054558 -0.056817543
0003f0 d5 c6 da 3c 3e 40 1f bb 7c 86 65 3d d5 04 19 bc
       0.026706139 -0.0024299766 0.056036457 -0.009339531

encoders.0.encoder.conv.bias f4 [128]
000000 fb 04 9b ba 30 e5 57 3c 39 e8 83 3c 08 60 87 bb
       -0.0011827046 0.013177201 0.016101943 -0.004131321
000010 23 29 39 3d e0 19 9f 3c 9c 6e 8e 3d 0f 7b a4 3c
       0.045205247 0.019421518 0.06954691 0.02007821
000020 a2 6c 0c 3c ac f6 7c 3d 00 e2 5f bc e3 dc 6a 3d
       0.008570822 0.061758682 -0.013664722 0.05733956
000030 fc 07 35 bc 1b 91 33 3c 30 69 29 bc 84 30 ae 3c
       -0.011049267 0.010959889 -0.01034002 0.021263368
000040 b9 49 8e 3c bb f2 d9 3c 15 6a ae bc c4 62 0f 3d
       0.017369138 0.026605 -0.021290818 0.0350063
000050 c3 ac 60 ba 1d cf e7 3c dc 61 2e bc 29 be c7 3c
       -0.00085706654 0.028297001 -0.010643449 0.024382668
000060 73 02 82 3d d9 fe b0 3c 5e 85 d5 bc 46 cf a7 3c
       0.063481234 0.021605896 -0.026064571 0.020484578
000070 79 c8 ae 3c cb 20 eb bb 15 cf a5 3c 0d 80 86 3c
       0.021335827 -0.00717554 0.020240346 0.016418481
000080 b3 a5 73 3a ef ee 3a 3d 97 81 9b bc 80 67 5f 3c
       0.00092944055 0.04563802 -0.018982692 0.013635516
000090 7e 32 50 3c ef d6 dc 3c 56 0a 18 3b 74 4b 3e 3d
       0.012707351 0.026957957 0.002319952 0.046458676
0000a0 63 db 99 3d 07 eb 6a 3d 4a 65 97 bc ae a6 13 3d
       0.07512548 0.057353046 -0.018480916 0.03604763
0000b0 7b 8d d2 3c de 98 04 bd 7f 47 ba 3c b8 9c a6 3c
       0.025702229 -0.032372348 0.02273917 0.020338401
0000c0 d2 c0 15 3b 31 6c 06 3d 2e db 50 3d 06 53 98 3c
       0.0022850526 0.032818023 0.050990276 0.018594276
0000d0 9f 9e ce 3c 64 57 fd ba 68 95 d9 3a 95 79 93 bc
       0.02522212 -0.0019328413 0.0016600313 -0.01800231
0000e0 e6 e5 30 bd 51 6f 3f 3d 9e d8 ae bb 9d 22 de 3c
       -0.043188 0.04673702 -0.0053358814 0.027116114
0000f0 42 b4 3e 3d 58 dc a9 3c bf 31 0f bc 8c 38 4a bc
       0.046558626 0.02073495 -0.008739888 -0.012342583
000100 f1 8d 86 bc 29 0a 03 3d 16 fc 7d 3d c2 a3 9d 3b
       -0.016425105 0.03199211 0.062007986 0.004810781
000110 4d 67 ef bc ea 6d b0 3c 8a 4e cd 3b d1 5a 7d 3c
       -0.029224062 0.021536786 0.006265466 0.015463547
000120 34 85 30 bd 84 ce 2d 3d b4 36 86 3c be e3 57 3d
       -0.043095782 0.042433277 0.016383506 0.052707426
000130 9d 9d f9 3c 0e 38 20 3c e9 b9 a1 bc 3f 2d 91 3d
       0.030470664 0.0097789895 -0.01974197 0.07088708
000140 24 85 e0 3c 39 a1 0f 3d 1d c4 64 bb 15 7f da 3c
       0.027407236 0.035065863 -0.0034906932 0.026671926
000150 5d 92 0c 3d 5f 99 a2 b8 69 53 ef 3c bc f0 89 3c
       0.03431927 -7.7533296e-05 0.029214578 0.016838424
000160 85 67 57 3d c2 1b f5 3b e2 67 a0 3c 87 04 f4 bc
       0.05258896 0.0074801156 0.019580785 -0.029787315
000170 d0 ff af bb 97 bd 8a 3c eb 11 41 bc 7c ea 29 3c
       -0.0053710714 0.016936107 -0.011784057 0.010370847
000180 5b e7 06 3d ba bf 12 bc d2 2c e5 3c 3f 4f 01 bd
       0.03293548 -0.008956844 0.027975474 -0.031569716
000190 c7 bb 18 3c 7e 31 44 bd 8f 54 ae 3c 33 ca ed 3b
       0.009322113 -0.047898762 0.021280555 0.00725677
0001a0 a0 0f 78 3c 07 b6 97 3d fb 31 95 3d fd f3 03 3c
       0.015140444 0.07407766 0.07284924 0.008053777
0001b0 aa dc 1b 3d ca ed b4 3b 2d 53 cf 3c 97 00 08 3d
       0.03805224 0.0055215107 0.025308216 0.033203688
0001c0 8e f8 74 bc ee 64 d7 bb 86 ef 10 3d a4 36 33 3d
       -0.014951838 -0.006573311 0.035384677 0.04375328
0001d0 f3 a6 a0 3c cd d5 92 3b 8f 03 f4 3c cd cd 59 39
       0.019610858 0.0044810534 0.029786853 0.000207714
0001e0 ac 50 f5 bb 17 56 3d ba 7e 85 d0 3c ae e8 2b 3d
       -0.0074864235 -0.0007222606 0.025454279 0.041969948
0001f0 41 ea 28 3d bb d0 22 bc d8 87 21 3d b6 ee ca bc
       0.041239027 -0.0099374605 0.03943619 -0.02477203

encoders.0.encoder.conv.lin.weight f4 [128, 16]
000000 b2 0e 59 3d bd 71 89 bd 2c a7 40 be a5 5a 08 be
       0.05299253 -0.06711147 -0.18813771 -0.13315828
000010 6e 14 48 bd d0 b4 37 be f7 8f 60 3d ab fc a4 bd
       -0.04884761 -0.17940068 0.054824796 -0.08056005
000020 ca d3 f2 3d 7b 9e 1e 3e 1f 53 cc 3d 84 41 2b be
       0.11856802 0.15490143 0.099767916 -0.16724211
000030 ea 0b 92 3c 9a e1 d3 3d 56 24 03 3e 09 df 60 3d
       0.017827947 0.103457645 0.1280683 0.054900203
000040 fb a8 04 bb 88 16 26 bd 9a c0 fd 3c f7 df fd bd
       -0.0020242322 -0.04054883 0.030975629 -0.123962335
000050 c8 75 2e bb 3a 36 1c 3d 25 3e 6b bc bf a0 20 bd
       -0.0026620496 0.038137652 -0.014358078 -0.0392158
000060 07 5a cc 3d cd a0 6d be fd c7 b6 3d a0 aa 8b bd
       0.09978109 -0.23205872 0.089248635 -0.068196535
000070 db 90 fb bc 1d 5d 46 be d6 b0 16 be 20 75 51 bc
       -0.03070872 -0.19371457 -0.14715895 -0.012784272
000080 64 79 90 3d 68 37 2f be ba d6 11 3e 15 1f c4 3d
       0.070544034 -0.1711098 0.14242068 0.09576241
000090 96 fe be 3d 55 03 12 3e c8 b2 cd bd ad 1a e3 3d
       0.09325902 0.14259084 -0.100438654 0.110890724
0000a0 1a 73 46 3d 0d 04 3e be b0 93 9c bd f2 48 b3 bd
       0.048449613 -0.18556233 -0.07645357 -0.087541476
0000b0 05 f6 d1 3c f5 2d c7 3d 6b 90 bd 3d 55 8d 90 3d
       0.025630007 0.097255625 0.09256061 0.07058207
0000c0 ab 09 55 3e 4e 3b 27 3d 1c dd f1 3b a9 77 ee 3c
       0.2080447 0.04082804 0.0073810946 0.029109793
0000d0 4e 73 1d 3e 09 4d 30 be bf 08 42 be 75 b8 e8 bd
       0.15376016 -0.17216887 -0.18948649 -0.113633074
0000e0 c4 59 4f 3e 57 a8 20 3e c2 8a 52 bd 10 c9 9c bd
       0.20249087 0.15689217 -0.05140186 -0.07655537
0000f0 16 21 5c be 89 c5 9d bd 1b ba dc 3d 75 fa 2d be
       -0.21496996 -0.077036925 0.10777684 -0.16990073
000100 86 78 2b 3e 9f 94 3d be f1 6e 2b 3e a0 f5 3a be
       0.16745195 -0.18513726 0.1674154 -0.18257761
000110 67 bf ad bd 17 e4 0b 3d 5e 8c 69 3d 06 ab 4a 3e
       -0.08483773 0.03415307 0.05701863 0.19791803
000120 da 6e 5b 3e c3 e7 05 be 61 2c 44 3e 30 ae 83 3d
       0.21429005 -0.13076691 0.19157554 0.06429708
000130 99 93 35 be 8a 58 04 be 79 11 42 3d cf 9c ab bd
       -0.17732085 -0.129244 0.047379944 -0.08379518
000140 8b 2a fa 3c a5 e8 12 3e 5e aa ea 3c 02 f3 98 bd
       0.030537864 0.1434656 0.02864569 -0.07468225
000150 55 b3 e3 3d 52 10 1f 3e ab 30 31 3e f6 5e 20 3e
       0.11118189 0.1553357 0.17303722 0.15661225
000160 48 a4 a7 3d 8e 68 81 3d 5e f1 ba bd 0a c1 52 be
       0.08185631 0.0631877 -0.091280684 -0.20581451
000170 41 42 17 3d 00 0e f3 bd 4b a1 29 3e 13 ca 1f 3e
       0.03692842 -0.11867905 0.16565435 0.15604429
000180 f4 9f d0 3d 78 73 8d bd e5 82 25 bd 1a ad 33 3e
       0.10186759 -0.069067895 -0.040408034 0.17546502
000190 cb 99 55 3d d7 f3 50 be ef 7c 06 3d fe 16 6d 3c
       0.05214862 -0.20405518 0.03283399 0.014470814
0001a0 01 64 b4 bd da 46 cd 3d a3 21 14 3e f0 88 b3 3b
       -0.08808137 0.100232795 0.14465956 0.0054789707
0001b0 6c 05 1e 3e 50 e7 36 be d2 1f ec 3d db 75 2a bc
       0.15431756 -0.17861676 0.11529507 -0.0104040755
0001c0 cf 6b e5 3d 4a 20 a6 3d 8e 10 a9 bc ef 6f 42 3e
       0.112022035 0.081116274 -0.020637777 0.18988012
0001d0 70 b3 cf bd f3 21 18 be ae 56 53 3d c8 37 10 be
       -0.10141647 -0.148567 0.051596336 -0.14083779
0001e0 0f 58 27 be 5c 79 11 be 66 29 1e be bf 2f 21 3e
       -0.16342185 -0.14206451 -0.1544548 0.1574087
0001f0 cf 59 e9 3d b6 cf 0b 3e 3b 54 1a be fa 8f 16 3e
       0.11394083 0.13653454 -0.15071194 0.1470336
000200 95 64 65 3e 48 67 e3 bd 51 0a b3 bd 55 23 38 3e
       0.2240165 -0.11103684 -0.08742202 0.17982228
000210 96 84 08 3c 6d 7f 3e be e8 95 8e bb b4 34 32 3e
       0.008332392 -0.18603297 -0.0043513663 0.17402917
000220 2c 97 31 3d 2b e8 37 3e a7 7c dd bd 41 4e 38 3e
       0.04335706 0.17959659 -0.10814791 0.17998601
000230 af e1 8d bd da 54 83 bd 7e e8 1b be 8d f7 46 be
       -0.06927811 -0.064126685 -0.15225407 -0.1943037
000240 67 50 b0 bd de 97 ea 3c 6f 0e 54 3e f0 6f 5d 3e
       -0.086090855 0.028636869 0.20708631 0.21624732
000250 df 2c ad 3d c8 d2 a7 bd b4 67 33 be 88 43 3a bd
       0.08455824 -0.081945 -0.17520028 -0.04547456
000260 78 ed a8 bd f2 e0 f2 3d e6 76 bf 3a ef cd 2f 3d
       -0.082484186 0.11859311 0.0014607578 0.042921003
000270 1f 28 d2 3d ed ab 13 3d d3 5c 5d bd 8e d2 17 be
       0.10261559 0.036052633 -0.054043602 -0.14826414
000280 c9 1e 1f bc 9e 47 46 bd 61 6a 3f 3e 4e 49 07 3d
       -0.00971193 -0.048408143 0.18692924 0.033028893
000290 8c 2e ad 3c 9d 07 6c bb f7 68 43 be e2 eb 38 be
       0.02114036 -0.003601528 -0.1908301 -0.18058732
0002a0 34 a8 33 3e e7 a7 8a bd 83 d3 8e 3d 2a a0 b6 3b
       0.17544633 -0.06770306 0.069739364 0.0055732923
0002b0 6e c9 3b 3c 4c 61 98 3c cc 1a d0 3d 2a 94 e2 3c
       0.011461599 0.018601082 0.10161361 0.02765854
0002c0 08 75 0e 3e 60 52 4b 3e 8f 82 73 3d 71 d9 40 3e
       0.13911831 0.19855642 0.059450682 0.18832947
0002d0 c1 9e 30 be 79 43 0d be 98 cb a4 3d 20 de 0a bc
       -0.1724806 -0.1379527 0.08046645 -0.00847581
0002e0 a7 a8 19 3e 6a e3 fb 3d a6 ad 17 3d db ca 5d be
       0.15005742 0.12299235 0.03703084 -0.21659414
0002f0 14 36 01 be 22 5a 66 3e 6e bb 1e be c8 80 df bc
       -0.12618285 0.2249532 -0.15501186 -0.027283087
000300 af b0 3a 3e 7c b8 2b be 63 88 3c be 09 51 e9 3c
       0.18231462 -0.16769594 -0.18411402 0.028481023
000310 6a 4b 06 3e 73 c2 30 3e fd 2f e5 bd f2 5c da bd
       0.13114706 0.17261676 -0.11190794 -0.10662259
000320 75 e4 f5 ba db 97 4b bd d6 ad b9 bc a3 e5 39 be
       -0.0018760102 -0.049705368 -0.0226659 -0.18154006
000330 1e 0f b5 bd 7e 06 4e 3c f4 31 82 3d 5b 7a 6a 3e
       -0.08840774 0.01257479 0.06357184 0.22898237
000340 ef 98 04 3d 89 52 f1 bc 0f 9e 0e be 6b 02 ad bd
       0.03237241 -0.029458301 -0.13927482 -0.08447727
000350 01 c8 94 3d aa d3 31 bd 52 3a 90 3d 54 38 7f 3d
       0.0726471 -0.04341475 0.07042374 0.062309578
000360 c8 54 05 3d ca e1 4a bb c9 0e 34 be 74 60 15 bd
       0.032551557 -0.0030957335 -0.17583765 -0.036468938
000370 13 45 47 be 70 87 27 3e 25 21 95 bd be 2e 01 be
       -0.19459943 0.16360259 -0.072817124 -0.12615487
000380 94 61 34 be 34 cd 23 3e 1c 8a bb 3d 33 f7 e4 3c
       -0.17615348 0.15996248 0.09157202 0.027949905
000390 0b 09 59 bd 59 95 5c 3e 6b e4 76 bd 42 b2 3c be
       -0.05298714 0.21541347 -0.06027643 -0.18427375
0003a0 3e 9f 2c be a0 82 62 3d fa c2 a3 bd 86 75 08 3e
       -0.16857621 0.055300355 -0.07996173 0.13326082
0003b0 84 7e 3a be 02 d0 28 3e d6 0c f8 bc f4 17 dc bd
       -0.18212324 0.16485599 -0.030279558 -0.10746756
0003c0 45 e8 61 3e 31 f2 de bd 62 89 d2 bd 74 c7 a4 3d
       0.2206126 -0.10886038 -0.1028011 0.08045855
0003d0 17 b2 59 be 91 12 1e 3e a2 e3 b9 bd 95 02 10 3d
       -0.21259342 0.1543677 -0.09076621 0.035158712
0003e0 d6 a4 8c bd 2b 5e 50 be d2 b2 a4 3c 9e a6 c9 bd
       -0.068673775 -0.20348422 0.0201048 -0.09846233
0003f0 39 6e 71 bd 7c e6 12 bd de 42 21 be b2 b0 de bd
       -0.058943007 -0.03586434 -0.15748164 -0.10873546

encoders.0.encoder.prelu.weight f4 [128]
000000 41 87 70 3e f8 c0 9f 3e 99 86 7d 3e 4e 6d 76 3e
       0.23489095 0.3120191 0.24758376 0.24065134
000010 09 12 8e 3e 67 3c 6d 3e 36 43 7b 3e 47 1f 74 3e
       0.27748135 0.23167573 0.24537358 0.23840056
000020 f0 be 7f 3e 1c 05 88 3e 92 23 5a 3e a7 01 8b 3e
       0.2497518 0.26566398 0.21302631 0.27149698
000030 52 9b 67 3e a8 77 6e 3e 07 86 8a 3e b8 f9 7a 3e
       0.22617844 0.23287833 0.2705538 0.24509323
000040 be b8 8a 3e 4e 27 81 3e 58 76 79 3e b1 b1 8c 3e
       0.27094072 0.252253 0.24361551 0.27479318
000050 bf 3e 60 3e 9d db 82 3e 4e 24 7d 3e a6 09 5c 3e
       0.21898936 0.25558177 0.2472088 0.21488056
000060 84 37 8b 3e 2e 4b 83 3e 7d 78 66 3e 63 83 77 3e
       0.27190793 0.25643295 0.225069 0.24171214
000070 8d 6f 86 3e 53 71 76 3e 6b 22 7f 3e 37 3c 7a 3e
       0.26256981 0.24066667 0.24915473 0.24437033
000080 76 9b 8c 3e 29 eb 89 3e e1 68 90 3e e8 ba 76 3e
       0.27462357 0.26937225 0.28205016 0.24094737
000090 cc d6 91 3e a6 da 79 3e 00 d9 73 3e 3e 12 86 3e
       0.2848419 0.24399814 0.23813248 0.26185793
0000a0 a7 4f 97 3e c4 36 8c 3e e8 58 86 3e 0b 03 85 3e
       0.29552957 0.27385533 0.26239705 0.25978884
0000b0 5a 01 7a 3e 41 94 89 3e 54 23 86 3e 68 88 68 3e
       0.24414578 0.2687092 0.26198828 0.22708285
0000c0 a5 80 83 3e fc 0d 77 3e 07 f5 7b 3e 5b 5c 8c 3e
       0.25684085 0.24126428 0.2460519 0.27414212
0000d0 63 a9 81 3e 87 29 61 3e 24 8d 91 3e 51 95 7c 3e
       0.25324544 0.21988498 0.28427994 0.24666335
0000e0 0e cc 85 3e 0d 5c 74 3e 10 4f 65 3e c9 1f 97 3e
       0.26132244 0.2386324 0.22393441 0.29516438
0000f0 78 87 6f 3e 09 a6 6d 3e 7c 42 83 3e f8 2c 7f 3e
       0.23391521 0.23207869 0.2563666 0.24919498
000100 32 51 88 3e db b0 7b 3e 87 37 76 3e b1 21 7f 3e
       0.26624447 0.24579184 0.2404462 0.24915196
000110 51 89 80 3e c1 6e 82 3e 77 1f 5a 3e 80 77 7b 3e
       0.25104764 0.25475124 0.21301065 0.24557304
000120 7c 0e 5d 3e 44 ce 8a 3e cb 8c 90 3e e3 73 85 3e
       0.21587557 0.27110493 0.28232417 0.26064977
000130 b8 23 76 3e 7f 8e 8b 3e 6a cd 7c 3e 5a 09 89 3e
       0.24037063 0.27257153 0.24687734 0.26764947
000140 ef 73 7d 3e 5c ee 80 3e 9b 53 48 3e 03 67 79 3e
       0.24751256 0.25181854 0.19563143 0.24355702
000150 6c 39 8f 3e 1a 88 66 3e 61 47 97 3e fc 97 82 3e
       0.27973497 0.22512856 0.29546645 0.2550658
000160 46 b2 85 3e e3 75 6f 3e f2 5c 58 3e d4 07 74 3e
       0.26112574 0.23384814 0.21129206 0.23831111
000170 e2 3a 59 3e 62 59 80 3e 57 bf 5f 3e 01 cb 6f 3e
       0.21213868 0.25068194 0.21850334 0.23417284
000180 9a 69 88 3e b1 33 61 3e 68 1c 7c 3e 10 e7 68 3e
       0.26643068 0.21992375 0.24620211 0.22744393
000190 df 18 63 3e b8 58 6c 3e 02 20 a1 3e 1f 9d 83 3e
       0.22177456 0.23080719 0.31469733 0.2570581
0001a0 13 a8 8c 3e b7 b4 78 3e 5f 66 84 3e 36 31 81 3e
       0.2747198 0.24287687 0.25859353 0.25232857
0001b0 ad 94 64 3e 62 c1 86 3e 8e 18 83 3e 75 9e 7c 3e
       0.2232234 0.26319414 0.2560467 0.24669822
0001c0 c8 c7 80 3e 10 2a 4e 3e 29 47 87 3e 06 9f 83 3e
       0.2515242 0.20133233 0.26421478 0.25707263
0001d0 6a 99 85 3e c9 47 5e 3e f9 48 85 3e 40 11 7a 3e
       0.26093608 0.21707071 0.26032236 0.24420643
0001e0 bc 29 6d 3e 3b 09 86 3e c4 8f 78 3e c9 e0 7b 3e
       0.23160452 0.26178917 0.24273592 0.24597467
0001f0 df 80 73 3e 3b c5 88 3e 36 96 86 3e 3e 3a 71 3e
       0.23779629 0.26712975 0.26286477 0.23557374

encoders.0.encoder.conv2.bias f4 [128]
000000 a9 2f 07 3d 89 ac 74 3c 9e 8a 81 3d 9d bb 98 3b
       0.033004437 0.014933714 0.06325267 0.004661037
000010 80 50 14 3c 4b 6a eb 3c bd 60 09 3c c5 b2 20 3c
       0.009052396 0.028737208 0.008384881 0.009808247
000020 a4 73 bd bc 27 88 1d 3d 42 eb f9 3c 08 57 8d 3c
       -0.02312643 0.038459923 0.030507687 0.017253414
000030 25 6e 85 3c 1d 2f c2 bc 29 62 0a bd 85 49 ec 3b
       0.016287873 -0.023704106 -0.03378502 0.0072109126
000040 1f 36 3b 3d d4 fd e7 ba ce 42 35 3d f1 5d e3 3c
       0.04570591 -0.0017699548 0.044253163 0.027754756
000050 ca a7 e3 3c c9 b4 04 3d 58 4b 03 3d 4c 30 85 3b
       0.027789969 0.032398973 0.032054275 0.0040645953
000060 a4 6f a1 3c 8d 12 42 3b e4 f0 e7 3b 40 48 b8 3c
       0.019706555 0.0029613108 0.007078277 0.022495389
000070 48 30 aa 3c 8d 49 c8 3c 79 98 85 3c 88 33 17 3d
       0.020774975 0.024449134 0.016308056 0.03691438
000080 49 d5 49 3d c2 c9 8f 3b 4e 2d 8e 3d 1f f6 21 3d
       0.04927567 0.004388065 0.06942235 0.03954136
000090 77 d0 19 3d e8 e2 82 3c 91 43 07 3d 51 91 4d 3d
       0.037552323 0.015977338 0.03302342 0.050187413
0000a0 c2 b5 01 bb 02 47 8c 3c 24 f3 7e 3c 74 53 34 3d
       -0.0019792174 0.017123703 0.015560899 0.0440249
0000b0 b8 2a 52 3b 32 07 cb bc ab a9 1e bc fe 6f 2f 3d
       0.003206892 -0.024783704 -0.009684007 0.042831413
0000c0 9c 3f 36 3d 17 fd 1c 3d 3b 8d 75 3d e2 1c 8e 3a
       0.044494256 0.038327303 0.05994914 0.0010842348
0000d0 e3 03 fd 3c 81 ba cc ba 4b df 47 3d a4 a8 51 3c
       0.030885642 -0.0015619547 0.048796933 0.012796555
0000e0 ec 93 58 3c a5 da 76 3a 63 10 14 3d 4c 23 12 3d
       0.013218861 0.0009416736 0.03614844 0.035678193
0000f0 ec 07 80 3b b2 11 ab 3c 66 71 aa 3c d8 e3 b9 bc
       0.0039071944 0.020882461 0.020806026 -0.022691652
000100 01 7c 00 3d ca 08 1d 3d 31 78 a6 bb 34 08 89 3c
       0.03136826 0.03833846 -0.005080246 0.016727544
000110 f6 72 f0 3c ad 9d eb bb 0b 4d 99 3c cc b0 ae 3c
       0.029351693 -0.0071904273 0.018713495 0.021324538
000120 23 cf 97 3c 7f 2c e9 bc 83 27 01 3d 35 cd 3f 3d
       0.018531388 -0.0284636 0.031531822 0.04682656
000130 b3 41 df 3c 70 af d6 3c e1 4a 2d bc d4 75 d8 3c
       0.027253008 0.026206702 -0.010576935 0.026423372
000140 3e 61 10 3d bd be 27 3d fd 26 53 3c f6 6e 61 3c
       0.035248987 0.040953387 0.0128877135 0.013759365
000150 14 33 f5 3b 4c 65 e7 bb cd 47 cf 3c a4 e3 02 3d
       0.0074828956 -0.007061636 0.025302792 0.031955376
000160 d4 e8 24 bd 45 8c 57 3d 8c 28 e4 3b b7 ae 98 ba
       -0.040261105 0.052624006 0.0069628414 -0.0011648749
000170 83 94 50 3c ec fb f3 3c c7 48 93 bc ba d8 97 3c
       0.01273072 0.029783212 -0.017979039 0.01853596
000180 66 16 32 3d 09 ef 77 3c 27 b2 4d bc cc d4 e1 bc
       0.043478392 0.015132674 -0.012554682 -0.02756729
000190 10 b4 27 3d 12 18 05 bc cb de c3 3a 64 c8 72 3b
       0.040943205 -0.008123415 0.0014943717 0.0037045712
0001a0 ba 4f 4c 3b d3 86 67 bc 5c 8b 9e 3c 41 f4 9b 3a
       0.003117545 -0.014131266 0.019353561 0.0011898355
0001b0 5b be 9c ba 41 07 dd 3c 04 c8 74 3d a5 30 72 3c
       -0.0011958586 0.026980998 0.059761062 0.014782106
0001c0 c2 a2 b8 3c 74 f4 39 3a 02 ea ad 3d b3 7b 33 3d
       0.022538546 0.00070936163 0.08491899 0.04381914
0001d0 b4 1d 1b 3a 4f d2 9a 3c 04 c2 59 3d 21 0c 16 bc
       0.0005917207 0.018899111 0.053163543 -0.009158165
0001e0 14 de a6 bc e0 86 01 3d 36 4a 05 3d 2f 33 fe 3a
       -0.020369567 0.031622767 0.032541476 0.0019393916
0001f0 87 21 bb 3c 74 5e d9 bc 7d e6 fc 3c 6b 99 19 3d
       0.022843136 -0.026534297 0.030871624 0.037499826

encoders.0.encoder.conv2.lin.weight f4 [128, 128]
000000 4c 11 a6 3c 2c 9e bf 3d 14 fa f8 bd 13 e4 c2 3c
       0.02027192 0.09356341 -0.121570736 0.023790395
000010 11 e0 86 bd d1 b9 01 be b5 0b 06 3e c2 74 86 3d
       -0.06585706 -0.1266854 0.13090403 0.065652385
000020 40 45 a1 bd 85 be a4 3d 47 92 a5 3d cd c6 f8 bd
       -0.078745365 0.08044151 0.08084541 -0.12147293
000030 0b 37 4e bd 0f 9c de bd 32 c4 f8 bd e5 89 85 bb
       -0.05034546 -0.108696096 -0.12146796 -0.004075276
000040 fd c4 01 bd b5 88 9d 3d f2 4a 24 3e f1 4b 36 3d
       -0.031682003 0.076920904 0.16044214 0.044506017
000050 d2 13 24 3e 64 1d d4 3c 92 f3 8d 3d 47 f9 04 bd
       0.16023186 0.02589292 0.06931223 -0.032464292
000060 c9 4c e0 bd 3a 55 d1 3d e2 5a 6d 3d 49 7c 8f 3c
       -0.109521456 0.10221334 0.057948 0.017515318
000070 a3 bc 0b 3e 04 57 8a bc ed ec a3 3d 81 5d e7 bd
       0.13646178 -0.016887195 0.080041744 -0.11297131
000080 83 3c 48 3d c2 40 86 3d ba ea b5 bc cf 39 7a bd
       0.048885833 0.0655532 -0.022206653 -0.061090287
000090 82 f7 b5 3c 3a 27 1a bd 62 5f aa 3d 80 1c 19 3d
       0.022212747 -0.037635066 0.08318974 0.037380695
0000a0 a8 b3 ae bd 67 97 89 3c 02 ea f2 3b 28 4a 66 3d
       -0.085303605 0.016795827 0.00741315 0.056223065
0000b0 33 40 b0 ba 53 6f 81 3c 4a 96 83 bc 83 6b da 3d
       -0.0013446867 0.015800154 -0.016062874 0.106650375
0000c0 6d b2 12 3d 24 df a4 3d 8b 91 e5 3d 63 9f f6 3d
       0.03581469 0.08050373 0.11209401 0.12042119
0000d0 6a 4d cb 3d 7c 49 66 bb 5a 6e 33 be 9d 81 2c bd
       0.09926875 -0.0035139015 -0.17522565 -0.042115796
0000e0 80 ca 7b 3c dd a2 ff bd 53 82 1f 3d 7e 06 fa bd
       0.015368104 -0.124822356 0.038942646 -0.122082695
0000f0 65 ff 1c be f5 d8 e0 3d f9 d0 49 bd dd 17 08 be
       -0.153318 0.10978881 -0.049271557 -0.13290353
000100 a1 10 b1 3c 58 34 d4 3d aa 11 39 bd dd c9 1c be
       0.021614375 0.10361546 -0.04518286 -0.1531138
000110 a6 d0 b8 bd 80 94 da bd 5b 6f a8 bd c1 66 c3 3b
       -0.090241715 -0.106728554 -0.08224364 0.005963177
000120 2a 42 c6 bc 26 b8 11 3e 90 32 0d be c5 06 0f 3c
       -0.024201471 0.14230403 -0.1378882 0.008729641
000130 f6 74 a1 3d db 07 26 3d d0 42 06 bc e1 e9 ba 3d
       0.07883637 0.040534835 -0.00819464 0.0912664
000140 74 1c 0f 3d e3 7c 46 3d 57 8c a6 bd 27 01 6d 3d
       0.034939244 0.048458945 -0.081322365 0.057862427
000150 64 3b 27 3e 02 d7 e3 bc 44 dd 2e be 47 66 1f be
       0.1633125 -0.027812485 -0.17076594 -0.1556636
000160 b4 2e 85 bd a2 5b 5e bd 4b 4b 55 bd 30 3e 8b 3c
       -0.065030485 -0.054286607 -0.052073758 0.016997427
000170 3e 49 a7 bd b8 e5 97 bd 65 c0 e1 bd 76 09 7b 3d
       -0.08168267 -0.07416862 -0.110230245 0.06128832
000180 de 2f d6 3d ec d0 95 bd e4 12 f1 bb ca f3 13 be
       0.10458349 -0.07315239 -0.0073569883 -0.14448467
000190 af 0c 24 3c fc b6 f8 bd cd 5a 16 be 76 f9 3f 3c
       0.01001279 -0.121442765 -0.14683075 0.011717191
0001a0 98 fe 2b be d9 6e 9d bc 2b a8 94 3d 53 83 e4 bd
       -0.16796339 -0.019217895 0.07258638 -0.111578606
0001b0 a7 b8 01 3e 8a 44 05 be 52 e2 62 bb b7 11 c3 3d
       0.12668096 -0.13014427 -0.003461976 0.09524863
0001c0 59 ab aa bd 40 39 98 3d 66 31 d8 bd ba 5a 73 bb
       -0.08333463 0.074327946 -0.10556297 -0.0037132935
0001d0 be ea 27 3e 87 4f 17 bd 4b 82 86 3d 77 2f a7 bd
       0.16398141 -0.036941078 0.0656782 -0.0816335
0001e0 39 f5 34 bd 01 7e ba bd 09 7a 48 3c cd 06 88 3d
       -0.044179175 -0.091060646 0.012236127 0.06641922
0001f0 be 75 a8 bc 3f cc 3b 3d 9f cf 0b be cb 73 3e 3d
       -0.020563956 0.04584908 -0.1365342 0.046497148
000200 31 c2 f3 3d 1c 68 96 3b 05 6b 6d bd 14 0a 03 3e
       0.119022734 0.0045900475 -0.05796339 0.12796813
000210 47 65 69 bd 82 14 d9 3c 97 4e 13 3d 29 4e 88 bd
       -0.05698135 0.026499037 0.03596362 -0.06655533
000220 85 c6 d6 bb 07 ba 9f bb fe 8e fd 3c cf 53 31 3b
       -0.006554427 -0.004874471 0.030951973 0.002705801
000230 9c d1 8c 3d d6 b8 6c 3d 8d e8 a0 bd 6b 13 1a 3e
       0.06875917 0.05779346 -0.078568555 0.1504647
000240 7a 2b cd 3d 57 05 0a 3e f6 1b e1 bd f3 77 77 bd
       0.10018058 0.134786 -0.10991661 -0.060417127
000250 19 1d 1c bd a8 4a e6 bd 0f c6 f3 bc bd 19 18 be
       -0.038113687 -0.11244708 -0.029757528 -0.14853568
000260 ae d8 6b bd d5 b7 19 bc 0b 5c b7 3d a7 67 9f bb
       -0.05757969 -0.009382208 0.08953103 -0.0048646512
000270 35 64 64 bd 9d a3 18 3e 94 e0 0f be 78 d8 07 3e
       -0.055759627 0.14906164 -0.14050514 0.1326617
000280 c4 31 80 3d 6b 85 1e 3e 97 55 26 be 85 d8 b4 3d
       0.06259492 0.15480582 -0.16243587 0.0883036
000290 5f 6e ce bc a7 55 91 3c e8 96 64 3d e2 13 22 bd
       -0.025199113 0.017741038 0.055807978 -0.039569743
0002a0 97 45 ce 3d 96 3f 23 3e f2 bc 3c bd ca 44 d8 3c
       0.10071867 0.15942225 -0.04607863 0.026399989
0002b0 25 55 04 bc af 02 5a bd 55 17 7a 3d 46 81 e5 3c
       -0.008076941 -0.053225216 0.061057407 0.028015744
0002c0 0c ee 5a bd 24 7c 90 bd 32 f4 98 bd de 16 74 3c
       -0.053449675 -0.07054928 -0.074684516 0.01489803
0002d0 8a b3 41 3d b0 d9 15 be d0 df 20 3e db 97 1a 3d
       0.047290362 -0.14633822 0.15710378 0.037742477
0002e0 4c 62 56 bd e0 61 98 bd 1d c3 4d 3d 84 9d 0c 3b
       -0.052339837 -0.07440543 0.050234903 0.0021456191
0002f0 70 b7 08 be f7 04 1f bd fc 84 83 bc c6 e5 8b bd
       -0.13351226 -0.038823094 -0.016054623 -0.06830935
000300 3d 4c ac bd 6c 61 ae bc 23 35 42 bd 1a d6 1f be
       -0.08412979 -0.021286689 -0.047413956 -0.15609017
000310 a5 30 3b bd 28 b8 a7 3b 57 e9 73 3d ff 08 ef 3d
       -0.045700688 0.0051183887 0.059548702 0.11671638
000320 5c ff 8e 3b ea 95 00 3e 0e 01 31 bd 57 9a 79 3d
       0.0043639373 0.12557188 -0.043213896 0.060938206
000330 81 ab 4b bd 2d 48 d4 3d 2b 9e d4 bc 8c ef 9a bb
       -0.049724106 0.10365329 -0.025954327 -0.0047282632
000340 a9 39 e6 bd 97 00 0b 3e 1a 13 ad 3d 47 2d 90 bd
       -0.112414666 0.13574444 0.08450909 -0.07039886
000350 da 5e a8 bd 28 4b 14 be 30 31 1d 3e 99 ab 8f 3d
       -0.082212165 -0.14481795 0.15350795 0.070151515
000360 bc 4b 9a 3b eb 28 aa 3d d7 05 d9 bd 73 c1 b6 3c
       0.0047087353 0.08308586 -0.10596817 0.02230904
000370 40 2a 15 be 19 65 28 bd 67 61 24 bd 6d e2 da 3c
       -0.14566898 -0.04111204 -0.040131953 0.026719296
000380 dd 3b 23 3e 26 8d a1 bd 17 8d 96 bd a0 36 dd 3d
       0.15940805 -0.0788825 -0.073511295 0.108014345
000390 cf dd 77 3b 00 1a 05 be 1b 7f ef 3c 15 52 d2 bd
       0.0037821417 -0.129982 0.029235413 -0.10269562
0003a0 75 f0 27 be c2 d2 dd 3d d3 56 23 3e d1 70 2b bc
       -0.16400321 0.108312145 0.1595109 -0.010463909
0003b0 e3 47 44 3a 83 a3 5c bd 5c d8 dd bb 96 0f 96 bd
       0.00074875186 -0.053866874 -0.006770177 -0.073271915
0003c0 cb 8a 3f bd 53 b5 1d 3d 02 37 8a bd 2b 52 15 3d
       -0.046763223 0.038503002 -0.06748773 0.036455315
0003d0 a2 fb cf bd 6d a4 bd 3d 77 d6 db 3d e9 0b bd 3d
       -0.10155417 0.09259877 0.10734265 0.09230787
0003e0 e3 e7 28 be 59 5d 22 3d fd ae 44 bd 0d 66 db 3c
       -0.16494708 0.039639805 -0.048018444 0.02678206
0003f0 c5 b9 0e 3e 5e f1 30 bb 6a d8 07 3e 9e b7 0f 3e
       0.13938053 -0.0026999335 0.13266149 0.14034888

encoders.0.encoder.prelu2.weight f4 [128]
000000 bb 7b 91 3e b0 ed 80 3e c1 73 89 3e 62 60 66 3e
       0.2841471 0.2518134 0.26846126 0.22497705
000010 40 94 75 3e ea be 6b 3e 8b f4 5a 3e b0 d2 8a 3e
       0.23982334 0.23022047 0.21382348 0.27113867
000020 8c d3 59 3e 89 ab 8d 3e 0f 56 72 3e 20 54 64 3e
       0.21272105 0.27669933 0.23665641 0.22297716
000030 b7 c5 67 3e 4a ce 60 3e e2 21 61 3e 0e d7 62 3e
       0.22634016 0.21953693 0.21985582 0.2215235
000040 35 03 86 3e 1d ea 81 3e 02 3a 90 3e 42 4a 8c 3e
       0.26174322 0.25373927 0.28169256 0.27400404
000050 20 91 4c 3e 15 c6 78 3e 0b ed 83 3e a8 fe 81 3e
       0.19977236 0.24294312 0.25766787 0.253896
000060 f7 ab 67 3e 37 db 60 3e 46 d2 83 3e ca 6d 83 3e
       0.22624193 0.21958624 0.25746363 0.256697
000070 29 32 5a 3e 69 0c 78 3e 43 88 6a 3e c2 00 97 3e
       0.21308197 0.24223484 0.22903542 0.29492766
000080 06 b7 97 3e ee c7 73 3e 7a d4 96 3e 1d 93 86 3e
       0.29631823 0.23806736 0.29458982 0.26284114
000090 90 be 7d 3e dc 0c 79 3e 0c 83 7a 3e 9c be 84 3e
       0.24779725 0.24321312 0.24464053 0.25926673
0000a0 74 af 6f 3e 8f ef 68 3e db 14 78 3e e9 32 72 3e
       0.23406774 0.22747634 0.24226706 0.23652233
0000b0 cd 3e 85 3e d4 05 8e 3e 30 c2 6b 3e 97 cd 84 3e
       0.26024476 0.27738822 0.23023295 0.25938103
0000c0 47 bc 8d 3e ab 4c 85 3e 99 00 8e 3e 3a b0 80 3e
       0.27682707 0.26035056 0.2773483 0.2513445
0000d0 38 23 8b 3e 85 42 54 3e 4b 40 8a 3e fa c3 52 3e
       0.27175307 0.207285 0.27002177 0.20582572
0000e0 59 b9 55 3e e9 6d 5e 3e 33 c0 87 3e 5d 1b 93 3e
       0.20871486 0.21721615 0.26513824 0.28731814
0000f0 87 be 7b 3e a3 3a 85 3e d1 c5 7d 3e 45 3e 61 3e
       0.24584399 0.260213 0.24782492 0.2199641
000100 e6 bc 79 3e 24 1f 83 3e f4 b6 82 3e d0 9e 75 3e
       0.24388465 0.25609696 0.25530207 0.23986363
000110 ad 96 82 3e 57 0c 71 3e cd 18 7f 3e 10 2b 8b 3e
       0.25505581 0.23539864 0.24911804 0.27181292
000120 82 c1 80 3e 8f 92 8c 3e 5b e1 88 3e 92 ce 9a 3e
       0.25147635 0.27455565 0.26734433 0.30235726
000130 bc 9f 88 3e cd d6 89 3e 7e a0 73 3e c9 82 62 3e
       0.26684368 0.26921692 0.23791692 0.22120203
000140 d7 e0 8f 3e df c0 9b 3e 2d a5 72 3e 81 a5 5f 3e
       0.28101227 0.30420586 0.23695822 0.21840478
000150 c7 3e 64 3e 7f 66 58 3e ff 1f 7f 3e b2 e1 80 3e
       0.22289573 0.21132849 0.2491455 0.25172192
000160 0e fa 6c 3e d4 69 8d 3e 79 79 7d 3e 7b 68 72 3e
       0.23142263 0.27619803 0.2475337 0.23672669
000170 ca 66 88 3e 86 c9 66 3e 3f a7 5e 3e 15 1d 63 3e
       0.26640922 0.22537813 0.21743487 0.22179063
000180 56 7a 88 3e 60 ac 8a 3e 14 10 7f 3e 2c 08 91 3e
       0.26655835 0.27084637 0.24908477 0.28326547
000190 b0 06 8c 3e 88 19 83 3e ca 51 4f 3e 7f da 67 3e
       0.27348852 0.25605416 0.20246044 0.22641943
0001a0 0f 66 74 3e 79 f5 69 3e e8 39 7f 3e 87 7f 72 3e
       0.23867057 0.22847547 0.24924433 0.2368146
0001b0 1c 57 80 3e 0a fb 82 3e f7 5e 95 3e 39 67 86 3e
       0.2506646 0.25582153 0.29174015 0.26250628
0001c0 71 ad 7c 3e 34 b4 45 3e 90 13 9b 3e 45 9f 75 3e
       0.24675538 0.19307023 0.30288363 0.23986538
0001d0 1b ef 68 3e 67 cc 7f 3e ca 71 7a 3e 37 92 6e 3e
       0.22747461 0.24980317 0.2445747 0.23297964
0001e0 59 08 86 3e d1 e9 86 3e d8 22 80 3e 43 a4 81 3e
       0.26178244 0.26350263 0.25026584 0.25320634
0001f0 b0 74 8a 3e 25 6e 56 3e 0d 63 76 3e ec 29 83 3e
       0.2704215 0.20940454 0.24061222 0.2561792

encoders.1.weight f4 [128, 128]
000000 58 70 e8 bb 1f eb 15 3d 11 2d 19 bd ab 80 85 3c
       -0.0070934705 0.036601182 -0.037396494 0.016296705
000010 6d 44 c5 bb 7d f1 89 bd 06 d4 ee bc dd 0f 4e bd
       -0.00602012 -0.06735513 -0.029153835 -0.050308097
000020 c7 82 5d bd f5 88 81 3d 62 bb 9b 3d 28 1c 18 3d
       -0.054079797 0.063249506 0.076041 0.037136227
000030 0b 31 59 3d e6 ac 37 3d 53 10 9f bd 20 40 28 bb
       0.053025287 0.044842623 -0.077667855 -0.0025672987
000040 ac 76 86 3d 0d d3 95 bd f3 f8 c9 3c cf 71 a1 3b
       0.065656036 -0.07315645 0.024654841 0.004926897
000050 e8 92 c4 bc e6 a2 9d bc b9 b4 1e 3d c5 82 81 bd
       -0.023995832 -0.019242715 0.03874657 -0.063237704
000060 70 4a 59 bd 78 58 83 3d 02 c7 99 3d bf 67 44 bd
       -0.053049505 0.064133584 0.07508661 -0.047950502
000070 a5 0b ba 3d 93 d2 8f 3d 0c 47 7b bd 95 d7 14 3d
       0.09084252 0.07022586 -0.061347052 0.036338408
000080 87 a1 8b bd a5 fc 5f 3c 21 29 27 3d 51 33 b1 3d
       -0.06817918 0.013671075 0.040810708 0.08652366
000090 5e 16 88 bd 3a e2 d2 bc dd dd 54 bb 9f 78 1a 3d
       -0.06644891 -0.025742639 -0.0032480874 0.03771269
0000a0 6d 00 9e bd 78 46 8a 3c 53 1e 91 bd 83 59 2b bd
       -0.07714925 0.016879305 -0.07085862 -0.041833412
0000b0 6c 8f f5 ba b6 5a 3c bd 00 3b 8a 3c dc 8c 8f 3d
       -0.001873476 -0.045984946 0.016873837 0.07009289
0000c0 9a 7f 7e bc 22 5f 5a bd df 91 f2 3b 4c 6e 49 3d
       -0.015533352 -0.053313382 0.007402643 0.049177453
0000d0 df a5 df bc 35 8b 86 bb ab 47 40 bd 7f 41 21 3d
       -0.027300773 -0.0041059502 -0.046943348 0.039369103
0000e0 44 c4 97 bc 88 05 68 bd 0c 9f 9c bd a5 be 46 bd
       -0.018526204 -0.0566459 -0.07647523 -0.048521657
0000f0 81 47 b6 3d 33 18 67 3d 97 30 22 bd 78 99 11 bd
       0.08900357 0.056419563 -0.03959712 -0.03554675
000100 fb 62 8a bd 89 b1 0b 3d bb 74 bf bc 13 cd 99 bd
       -0.0675716 0.034104858 -0.023371091 -0.07509818
000110 9a 59 ae 3c 7a 68 82 3c ab 72 3c 3c 79 2e 38 bd
       0.02128296 0.015918959 0.011501948 -0.044966195
000120 d3 96 6a 3d b8 13 98 bd 7d df 34 3d b1 d8 86 bd
       0.057272743 -0.07425636 0.044158448 -0.06584299
000130 c1 79 72 bd 3d 9a a6 bd 95 66 65 bd 69 9b 7a 3d
       -0.059198145 -0.08134887 -0.056006033 0.061183367
000140 16 af 02 3d 41 b8 26 bd 5e 92 39 bd ee df 27 3d
       0.031905256 -0.040703062 -0.045305602 0.04098504
000150 15 a5 06 bd 09 f4 20 3c e7 33 21 bd 5c 54 86 bc
       -0.03287228 0.0098238075 -0.03935614 -0.016397648
000160 36 54 de bb c3 a6 94 bd 04 6e 05 bc 28 a2 25 3d
       -0.006784941 -0.0725837 -0.008143906 0.040437847
000170 5a 7c 9e 3d c1 c8 a2 bd 0e fb 3e bc ce dd ff bc
       0.07738562 -0.07948447 -0.011656536 -0.031233694
000180 23 50 c0 3d c5 d4 9d bd c8 b2 1b bd 97 37 0e bd
       0.09390285 -0.07706598 -0.038012296 -0.034720983
000190 af 36 74 bd e4 7c 38 3d 05 84 27 3d 2f d9 92 3d
       -0.059622463 0.04504098 0.040897388 0.07170331
0001a0 0b 79 39 bd f7 2d 85 3d 3f 09 7d bd 9e ef 80 bc
       -0.04528145 0.06502908 -0.061776396 -0.015739258
0001b0 7c 53 47 3d f8 82 77 3d 68 e6 34 bd 29 e8 fd 3c
       0.0486636 0.060427636 -0.044165045 0.030994492
0001c0 5c 46 ce 3c c5 a8 8a 3d 53 90 24 3d ae 58 2f 3c
       0.025180034 0.067704715 0.0401767 0.010702295
0001d0 59 d4 a6 bd 36 21 69 3d 23 fd 92 bc 68 ca 9c bd
       -0.08145971 0.056916438 -0.01794297 -0.076557934
0001e0 d6 57 87 3d 40 86 87 bd 18 27 c1 3d a2 3f 99 bc
       0.0660855 -0.06617403 0.09431285 -0.0187071
0001f0 f3 c8 ac 3b 77 7e 47 3d cb b7 8f bd 6b a4 5b bd
       0.0052729785 0.04870459 -0.070174776 -0.053623598
000200 e4 e5 ec 3c fb 3e 65 3d 3e bc 1c bc 72 b6 3d bd
       0.028918214 0.055968266 -0.009566365 -0.04631657
000210 6b 47 bb 3b 41 13 b1 bc 3e 5f 03 bc 77 93 2b 3d
       0.005715301 -0.021615626 -0.008018313 0.04188868
000220 81 1e 95 3d c1 e9 8f bd b7 4f 92 3d 40 82 41 bd
       0.07281209 -0.07027007 0.07144111 -0.047243357
000230 10 6d 1c 3d ae d7 94 bd 74 41 94 3d 54 38 93 bd
       0.038189948 -0.072677 0.07239047 -0.07188478
000240 ea 82 c2 bd 3b d1 82 bc 72 7e 6e bb 08 63 c6 bd
       -0.09497626 -0.01596891 -0.0036391285 -0.096868575
000250 d9 5f 6e bd 27 31 3c bd c3 1b 67 bd 40 85 54 3d
       -0.058196876 -0.045945313 -0.05642296 0.05188489
000260 4b a6 ba bd fa d9 75 bd e7 2c 50 bd a6 e6 28 3d
       -0.09113749 -0.06002233 -0.050824072 0.04123559
000270 b4 ed a7 bc a0 71 6b bc 64 b7 16 3d 99 dc ba bd
       -0.020499088 -0.014370352 0.03679599 -0.09124107
000280 87 6a 14 3d b1 e9 34 bd ec ff 1f 3d 19 3e e4 bc
       0.036234405 -0.044168178 0.039062425 -0.027861642
000290 dc 22 14 bc 55 b0 a1 3c 24 03 d4 bc cd 0b b9 bd
       -0.009041514 0.019737402 -0.025880404 -0.09035454
0002a0 be e0 8d 3d 8a 7d c7 ba 16 2b 6c bd a8 10 24 bd
       0.06927632 -0.0015219909 -0.057658277 -0.040054947
0002b0 72 86 73 bd 86 b7 60 bd 42 ed 45 3d 51 5b 49 3d
       -0.05945439 -0.05486252 0.04832197 0.04915935
0002c0 39 a1 54 3d bd 2a 83 ba 03 68 08 bd 1f b3 23 bd
       0.051911566 -0.0010007244 -0.03330232 -0.039965745
0002d0 4f f5 c3 bd 43 8d 0a bd c0 4c 68 bd 5b f5 9a 3d
       -0.09568273 -0.033826124 -0.05671382 0.07566329
0002e0 6e 18 6d bd 56 70 99 bd 94 6a aa 3c 08 15 9b 3d
       -0.057884626 -0.074921295 0.020802774 0.07572371
0002f0 f6 ba 36 3c 55 e8 55 3d 75 45 6b bd f7 24 8f 3d
       0.011152973 0.052223522 -0.057439286 0.06989472
000300 82 f8 59 bd 35 9b 3a bd 2a 37 40 39 83 27 8c bd
       -0.05321551 -0.045558173 0.00018331097 -0.06843474
000310 bb 49 6f bd 46 67 6f bd eb 37 ca 3c 96 fd 11 bd
       -0.058419924 -0.0584481 0.024684867 -0.03564223
000320 26 d5 87 3d 78 fc 54 bd a3 85 65 bb e7 00 49 3c
       0.06632452 -0.051998585 -0.003502228 0.012268282
000330 c6 6a ca 3c 6a 2a 44 3d d2 76 37 bd 44 9d e1 bc
       0.024709117 0.04789201 -0.04479105 -0.02754081
000340 d9 07 86 3d 40 94 a9 bd c2 4e 8e bc 6f 5d 99 3d
       0.065444656 -0.082802296 -0.017371539 0.07488524
000350 0c 43 c8 bd 05 47 0b 3d 38 b4 e4 bc 60 5d d1 3c
       -0.09778413 0.034003276 -0.027917966 0.02555722
000360 14 51 80 bd 02 e9 b3 bc 04 15 9d bd bd ae 66 3d
       -0.062654644 -0.021961693 -0.07670024 0.056318987
000370 db 7a 58 bc fa c5 f6 3c f0 2f 68 3d dd 8a a2 bd
       -0.013212885 0.0301237 0.05668634 -0.07936642
000380 b8 ee 94 3d d2 7d 03 3d b9 c8 95 3c 92 76 40 3b
       0.072720945 0.032102413 0.018284189 0.0029367548
000390 77 48 94 3d 95 78 7f bd de ff c5 bd ba 5a 28 bc
       0.07240384 -0.062370855 -0.096679434 -0.010275537
0003a0 e3 6d e9 bb 06 da 8d 3c 7e b1 93 bc 32 e5 15 3c
       -0.007123695 0.017315876 -0.01802897 0.009148883
0003b0 65 cd 66 3c 36 c0 81 bd 15 23 ac bd 15 f6 ab 3c
       0.014087056 -0.063354895 -0.08405129 0.020991364
0003c0 67 7f 9a 3d 92 2d ff bb 94 ed 06 bd 76 c2 0c bd
       0.07543831 -0.007787415 -0.032941416 -0.03436514
0003d0 ea e4 66 bd fb f1 af bd 50 f8 92 bd 35 39 1b bd
       -0.056370653 -0.08591076 -0.07176268 -0.037896354
0003e0 79 88 91 3d 55 89 4f 3d 7a 59 85 3c 46 48 5f 3d
       0.07106108 0.05066808 0.016278017 0.054512285
0003f0 69 09 a3 bd 29 0e 55 bd fd 7a e7 bb f6 16 1c ba
       -0.07960779 -0.052015457 -0.007064222 -0.0005954349

encoders.1.encoder.conv.bias f4 [128]
000000 ab f3 84 bc 12 05 6f bc e9 11 bc 3b 74 17 0e bc
       -0.016229471 -0.014588611 0.0057394397 -0.008672584
000010 4a bf 31 3c f0 54 0d 3c 95 38 b7 ba 03 28 58 bb
       0.0108488295 0.008626208 -0.0013978655 -0.0032982833
000020 2f c5 c6 bc ef 82 1f 3d d8 d3 cf bb 0b f3 9c b9
       -0.024263946 0.038943227 -0.0063423924 -0.0002993572
000030 96 2a 91 3c 31 94 6c bc 06 45 44 3a 83 8f 15 bb
       0.017720502 -0.014439628 0.0007487092 -0.0022821135
000040 ae 56 5c bc bd 23 0f 3b 01 3f 0d 3d 1b d3 9f 3b
       -0.0134484 0.002184137 0.034483913 0.0048774607
000050 1e 47 d6 3b b3 8e cc 3c d3 dc 57 bc 96 73 d2 3c
       0.0065392395 0.024970388 -0.013175207 0.025689881
000060 c0 cd 2a 3c 99 a8 3b 3b 74 f9 7f 3b ae 7a 55 3c
       0.010425031 0.0028634428 0.0039058598 0.013029737
000070 58 d6 7f 3b 1f b7 3a bc 09 a7 da 3c 06 76 00 bc
       0.003903767 -0.0113961985 0.026690977 -0.007840639
000080 8f d7 18 3c 4c d3 1c bc 3d c2 06 bb 76 13 61 bc
       0.009328737 -0.0095718615 -0.0020562552 -0.01373755
000090 32 15 d3 3c 0b b3 0e 3c 05 b1 d1 3c b9 4f 70 3c
       0.025766943 0.008709679 0.025597105 0.014667445
0000a0 fd 80 9a 3b b0 48 05 bc 0f a5 d8 bb b5 e2 a6 bb
       0.0047150836 -0.008135006 -0.0066114734 -0.0050929436
0000b0 e4 7b 23 3d 68 3d c2 3b 04 6c 4b bc dc 35 af 3a
       0.039913073 0.0059277304 -0.01241589 0.0013367492
0000c0 4e 19 f7 3c 2a 56 6c bc 40 f2 1f 3d b9 b0 1a 3d
       0.030163433 -0.01442484 0.039049387 0.037766192
0000d0 e0 f1 96 bb a1 34 59 3c c1 ae 33 bc dc d0 28 3a
       -0.0046064705 0.013257177 -0.010966958 0.0006439814
0000e0 1f b8 83 bc f9 76 1f bc b3 13 a1 3c ce ae c9 3a
       -0.016079007 -0.009732955 0.019662714 0.0015387179
0000f0 0c 60 fb bc 94 55 cd bc 95 bd 10 bd 6d bb 05 3c
       -0.030685447 -0.02506522 -0.03533705 0.008162362
000100 c1 3d c0 bc 37 89 43 bc 93 65 66 bc e9 c1 cf 3c
       -0.023466947 -0.01193457 -0.014062303 0.025361018
000110 96 8c 65 3c 32 66 b0 3b 3a c2 95 bc 12 22 58 bc
       0.014010569 0.0053832764 -0.018281091 -0.013191717
000120 30 2a b5 3b d9 db 8a 3c 2d 8a d1 3c d4 c4 64 bc
       0.005528711 0.016950535 0.025578583 -0.013962943
000130 3f b9 f2 bb 25 fa 81 3c 14 97 3f 3c ff 1a ea bc
       -0.007407337 0.015866349 0.011693735 -0.028577326
000140 fd 8f a5 3c fb 54 28 3d df e7 6b bc f5 43 b9 bc
       0.02021026 0.04109667 -0.014398544 -0.022615412
000150 df 24 46 bc d5 11 50 3c 67 41 8d bc f8 d0 50 3c
       -0.012093752 0.012699564 -0.0172431 0.0127451345
000160 0f ed 78 3c 2b 52 69 3c 97 ea 97 3c c0 ef 47 bd
       0.015193238 0.014240782 0.018544478 -0.048812628
000170 a2 63 65 3c 05 ca f8 bc 5f 3c ec 3b 8e ad f6 3c
       0.014000805 -0.030369768 0.007209345 0.030112054
000180 ad e9 07 3c 81 17 45 3d a9 55 3f 3c 45 cd 11 3c
       0.008295459 0.04811812 0.011678138 0.008899038
000190 bc 56 71 bb c6 ac 25 ba b2 60 13 bc de 94 8e ba
       -0.003682538 -0.0006319996 -0.008995222 -0.0010878106
0001a0 1a f1 3e bc b4 f6 6e 3c 43 17 60 ba 17 1f 1b 3c
       -0.011654163 0.014585186 -0.0008548388 0.009467862
0001b0 1a ea aa bc 65 68 7c 3b 3c 0b 15 bb 9e 2c 7c 3c
       -0.020863581 0.0038514372 -0.0022742292 0.015391497
0001c0 9a ae bc bb f8 a3 9e 3b 93 49 ca bc 19 90 72 3c
       -0.005758119 0.004841324 -0.024693286 0.014804863
0001d0 73 a7 9a 3b 05 25 57 3c 9c 83 ac bc 21 37 c5 3a
       0.0047196685 0.013131385 -0.02105885 0.0015046337
0001e0 7a ef 4b bc a6 02 6d 3c e6 8f cb 3c c4 57 90 bc
       -0.012447232 0.0144659635 0.02484889 -0.017619975
0001f0 fe c1 1c 3c bb 85 8e 3c 05 cc c2 3c 40 00 3c ba
       0.009567736 0.017397752 0.023778925 -0.0007171668
