model_zoo/model_Tonsil_2023_10_02_22_19.pth (torch, 374927 bytes, 66 tensors)

encoders.0.weight f4 [128, 128]
0	0xbca89f63	-0.020583814
1	0x3c3e36f4	0.0116097815
2	0x3cb8f0f4	0.022575833
3	0x3d72ade2	0.05924786
4	0xbcd839fa	-0.026394833
5	0x3b94a76d	0.0045365603
6	0x3c91914d	0.01776948
7	0xbd2cbfa9	-0.04217497
8	0xbda3725d	-0.079807974
9	0xbd7a6ed4	-0.06114085
10	0x3d16d6bc	0.03682588
11	0x3da05a1b	0.07829686
12	0xbd55cf8e	-0.052199893
13	0x3ccd6b33	0.02507553
14	0xbbcadd8c	-0.006190961
15	0xbdb38e9d	-0.08767436
16	0xbd9936a8	-0.07481128
17	0xbda9f5db	-0.08298846
18	0xbc38b26b	-0.011273007
19	0x3d1a72a6	0.037706994
20	0x3d9d28fd	0.076738335
21	0x3cb413df	0.021982132
22	0x3c870b72	0.01648495
23	0xbb39f9da	-0.0028377683
24	0x3d8ba415	0.068184055
25	0xbc6d54de	-0.014485566
26	0x3d5b8909	0.053597484
27	0x3bd50303	0.006500603
28	0xbcf7cff1	-0.030250521
29	0x3d3392fa	0.04384134
30	0x3da26159	0.07928724
31	0x3d234e32	0.039869495
32	0xbcd9dc2a	-0.02659424
33	0x3ce9a9ad	0.02852329
34	0xbcabf532	-0.020990942
35	0xbd87eb90	-0.06636727
36	0x3d9fec79	0.078087755
37	0x3d41b7cc	0.047294423
38	0x3cf6e0c8	0.03013648
39	0xbd1a3a36	-0.03765317
40	0x3c993b31	0.018704982
41	0x3d45242a	0.04813019
42	0xbda823ac	-0.08209929
43	0xbd766754	-0.060157135
44	0x3d900106	0.07031445
45	0x3d953ce1	0.07287002
46	0xbd94657a	-0.072459176
47	0xbd963df4	-0.07336035
48	0x3d3b19e3	0.045678984
49	0xbbb842d4	-0.005623201
50	0xbd9ee02e	-0.07757603
51	0xbc2b01c7	-0.0104374355
52	0x3d0d00d4	0.034424618
53	0xbc005c45	-0.007834499
54	0x3d6417b2	0.05568666
55	0x3d8c2b48	0.06844193
56	0x3d4ec68b	0.050482314
57	0x3d2bd18e	0.041947894
58	0xbd9c7df2	-0.0764121
59	0xbd524a56	-0.051340424
60	0x3dae1e8c	0.0850192
61	0x3d88e21d	0.06683753
62	0x3caccbdf	0.021093307
63	0xbda5b386	-0.08090882
64	0x3d0e684b	0.03476743
65	0x3d2de3f9	0.04245374
66	0x3cc7554f	0.02433267
67	0xbd9c81bb	-0.076419316
68	0x3d244264	0.040102378
69	0xbd10ef3b	-0.035384398
70	0x3d46d2ac	0.048540756
71	0xbccc826e	-0.024964537
72	0x3ba646ae	0.0050743436
73	0x3d3ab00b	0.045578044
74	0xbd9f1e6f	-0.077694766
75	0x3d5b9a80	0.05361414
76	0x395777fc	0.00020548695
77	0xbd231d9b	-0.039823156
78	0x3cefacc8	0.029257193
79	0x3da50d3e	0.08059166
80	0x3ceb7546	0.028742444
81	0x3d167128	0.036729008
82	0x3daf75c2	0.085673824
83	0xbcdb8462	-0.026796523
84	0x3d25e66c	0.04050295
85	0xbdb1506f	-0.086579196
86	0x3d293fdb	0.041320663
87	0x3daa3ae1	0.083120115
88	0x3daba8c8	0.08381802
89	0xbc8b905c	-0.01703661
90	0x3c0ce58f	0.008599653
91	0x3d9256df	0.071454756
92	0x3c799576	0.015233388
93	0x3d378156	0.04480108
94	0xbc174684	-0.009233121
95	0x3d005d79	0.031339142
96	0x3ba45c4d	0.005015886
97	0x3d6af352	0.057360955
98	0x3d2e7532	0.042592235
99	0xbcf3e66f	-0.029772965
100	0x3da56776	0.08076374
101	0x3d0af50a	0.033925094
102	0x3da1c796	0.07899396
103	0xbd9ac60a	-0.07557304
104	0x3b452e3b	0.003008737
105	0xba3bd3f8	-0.00071650697
106	0xbd1900fc	-0.037354454
107	0xbd98c559	-0.07459516
108	0x3d7b906c	0.06141703
109	0x3d8ac510	0.06775868
110	0xbd2bd095	-0.041946966
111	0xbc18c61f	-0.0093245795
112	0xbd228594	-0.03967817
113	0xbcda4a7e	-0.026646849
114	0xba41416f	-0.0007372116
115	0x3d2a0f70	0.04151863
116	0xbcf342a6	-0.029694866
117	0xbd7214e2	-0.059101947
118	0x3c994b36	0.018712621
119	0xbd739559	-0.0594686
120	0xbda398af	-0.079881065
121	0xbd09f8d3	-0.033684563
122	0x3d54ba45	0.051935453
123	0x3b29f4fd	0.0025933378
124	0x3ba37c26	0.004989165
125	0xbcb69d42	-0.022291783
126	0xbd760bc2	-0.060069807
127	0xbd74125d	-0.059587825
128	0x3d824b2f	0.063619964
129	0x3d852ed4	0.065030724
130	0x3d992dd9	0.07479448
131	0xbdb3f9a5	-0.0878785
132	0x3d1768f9	0.036965344
133	0xbd80c6ff	-0.062879555
134	0xbd713bae	-0.058894806
135	0xbd2611a0	-0.040544152
136	0xbd02e06c	-0.031952307
137	0x3d973fd7	0.07385223
138	0x3d2fb222	0.04289449
139	0x3d74fa02	0.05980874
140	0x3dadd57d	0.08487985
141	0x3ce0abfa	0.027425755
142	0xbd95137a	-0.072791055
143	0x3d04d79d	0.032432187
144	0x3da1b3e3	0.07895639
145	0xbd8299e6	-0.0637701
146	0x3da73629	0.08164627
147	0xbdafdebb	-0.08587404
148	0xbda02477	-0.07819455
149	0x3d2fe2bc	0.04294084
150	0xbd657c2d	-0.056026626
151	0xbb643dd3	-0.003482689
152	0x3daedf1a	0.08538647
153	0x3d89622d	0.06708179
154	0xbcdef56a	-0.027216632
155	0xbc9eb8be	-0.019375201
156	0x3c51f543	0.012814823
157	0x3da4afc6	0.080413386
158	0xbcb00a0f	-0.021489171
159	0x3b5ab01e	0.0033369134
160	0x3da994ce	0.08280335
161	0x3cbba9da	0.02290814
162	0x3d583ae7	0.05279055
163	0x3d248350	0.04016429
164	0x3d64b28d	0.05583434
165	0x3cb57c57	0.022154016
166	0xbc1a469c	-0.009416249
167	0x3d2497d7	0.04018387
168	0x3db2b671	0.08726204
169	0x3daed29c	0.08536264
170	0x3b421755	0.0029615958
171	0x3d15cd3d	0.036572684
172	0x3daa4f90	0.083159566
173	0xbc8d8251	-0.017274054
174	0xbc8b158b	-0.016978046
175	0xbd4c8c92	-0.049938746
176	0x3d49a676	0.049231015
177	0x3d8f249c	0.069894046
178	0xbd4f46da	-0.05060468
179	0x3ceb0bf5	0.028692225
180	0xbc2a39b5	-0.010389735
181	0x3cb4399d	0.022000128
182	0xbd9a408e	-0.07531844
183	0x3ccb6922	0.024830405
184	0xbd3d7386	-0.04625275
185	0x3d745a72	0.059656568
186	0xbda4b17d	-0.08041666
187	0xbd5462ca	-0.051852025
188	0xbd1795ca	-0.037008084
189	0xbd603742	-0.054740198
190	0x3adf0208	0.0017014155
191	0xbd8bf200	-0.06833267
192	0xbbcb9ca4	-0.0062137414
193	0x3c6b166f	0.01434861
194	0xbda475b2	-0.08030261
195	0x3c0e1d7c	0.008674022
196	0xbbd5732e	-0.0065139746
197	0x3ce32cfe	0.027731415
198	0x3c06f6bd	0.008237538
199	0x3c50ac26	0.012736356
200	0xbce5064f	-0.02795711
201	0x3d60af78	0.05485484
202	0x3b09eaba	0.002104445
203	0xbd83b063	-0.064301275
204	0xbda571c6	-0.08078341
205	0xbcfee2bb	-0.031113973
206	0x3d086193	0.03329618
207	0x3d19804a	0.03747586
208	0x3d75c3b0	0.060001075
209	0xbd43dd98	-0.04781875
210	0x3d839486	0.06424813
211	0xbd7b6177	-0.061372247
212	0x3be1a5c3	0.0068862154
213	0x3db0b821	0.0862887
214	0x3c1a4833	0.009416628
215	0x3d1ac348	0.03778389
216	0xbdad22b5	-0.084538855
217	0xbc312bfe	-0.010813711
218	0x3d8514d0	0.0649811
219	0x3cd8cd7f	0.026465176
220	0x3c8fdda8	0.017561749
221	0xbbafed93	-0.005368897
222	0xbd413cbf	-0.047177073
223	0x3d70cc9e	0.05878889
224	0xbd80d1d7	-0.06290024
225	0xbdb1a0fb	-0.08673283
226	0x3b4679dd	0.0030285039
227	0xbd711403	-0.058856975
228	0x3d9dec92	0.07711138
229	0xbd875774	-0.06608477
230	0xbd184241	-0.03717256
231	0xbcc705a6	-0.024294686
232	0xbda6a6db	-0.08137294
233	0x3cff0ff1	0.031135531
234	0xbd13156a	-0.035909094
235	0x3d0beeb1	0.03416318
236	0xbc3ce65e	-0.011529533
237	0xbc611aa3	-0.013739261
238	0x3d0c513f	0.03425717
239	0x3d4386fc	0.047736153
240	0x3c88d4ad	0.016702974
241	0xbd5a4da4	-0.0532967
242	0xbce55335	-0.027993778
243	0x3d08c097	0.033386793
244	0xbd64ef7f	-0.055892464
245	0xbd0571bb	-0.032579165
246	0x3cac75a6	0.021052193
247	0xbd6f84f1	-0.058476392
248	0x3cab0f41	0.020881297
249	0xbc53b54e	-0.012921644
250	0x3db48fa4	0.0881646
251	0xbd9f5874	-0.07780543
252	0xbd875707	-0.06608396
253	0xbd67dead	-0.056608845
254	0x3c4ef969	0.012632706
255	0x3d3d01b1	0.04614419

encoders.0.encoder.conv.bias f4 [128]
0	0xbb60dee2	-0.0034312536
1	0x3d32c710	0.043646872
2	0xbd2a8c7a	-0.041637875
3	0xbd31b953	-0.04338963
4	0x3c4c1c0c	0.012457859
5	0xbde0bec7	-0.10973888
6	0xbe50bc76	-0.20384392
7	0x3e043e3b	0.12914364
8	0x3a213ed7	0.00061510265
9	0x3d27f9cc	0.04100971
10	0xbd55019d	-0.05200349
11	0xbe257b4b	-0.16160314
12	0x3d2fb446	0.04289653
13	0x3de6efec	0.1127623
14	0x3cc71d07	0.024305834
15	0xbd8e48ee	-0.06947504
16	0xbd5d3b01	-0.05401135
17	0xbd772d09	-0.060345683
18	0x3e553b89	0.20823492
19	0x3e3ea96b	0.18619315
20	0xbd331131	-0.043717567
21	0x3dce5839	0.10075421
22	0x3e2ffdc5	0.17186649
23	0x3c2a2d10	0.01038672
24	0xbe4d3c50	-0.20042539
25	0xbdd37be1	-0.103263624
26	0x3d8d0ba2	0.068869844
27	0x3d7d1842	0.061790712
28	0xbd3de8a3	-0.046364438
29	0xbca33ee7	-0.019927455
30	0xbdd5a0f2	-0.104310885
31	0x3d2fa78c	0.042884395
32	0xbe204965	-0.15652998
33	0x3c663924	0.014051709
34	0xbd68244f	-0.05667525
35	0x3d400c17	0.04688653
36	0x3c68156c	0.014165264
37	0xbe40d0c6	-0.18829641
38	0x3c9c4d92	0.019079957
39	0xbd879090	-0.0661937
40	0xbdba6819	-0.09101886
41	0xbd4b5f92	-0.04965169
42	0xbd732f99	-0.059371565
43	0x3d8ce8c2	0.068803325
44	0xbcb33db0	-0.02188
45	0x3d4953a5	0.049152035
46	0x3e22bfd4	0.15893489
47	0x3e11d9de	0.14243266
48	0x3e0faf0a	0.14031616
49	0x3c84ac51	0.016195448
50	0xbe5840e1	-0.211185
51	0xbe06b258	-0.1315397
52	0x3e0a38c9	0.13498224
53	0x3d75fdb1	0.060056392
54	0x3b36390c	0.0027804999
55	0xbdbd7fab	-0.09252866
56	0xbde37814	-0.111068875
57	0xbe38fcd4	-0.18065196
58	0xbd7759ec	-0.06038849
59	0xbd1af877	-0.03783461
60	0xbd821302	-0.06351282
61	0xbe026fd3	-0.1273797
62	0x3e58cd22	0.21172002
63	0xbe177a23	-0.14792685
64	0xbd51bd5d	-0.05120598
65	0xbe38bc58	-0.18040597
66	0xbe330a6e	-0.17484447
67	0xbe1bf654	-0.15230685
68	0x3dcc43eb	0.09973892
69	0xbdaeef74	-0.08541766
70	0xbe2acf04	-0.16680533
71	0xbe19adb9	-0.15007676
72	0x3dd0ed43	0.10201504
73	0x3cfa3210	0.03054145
74	0xbde5de26	-0.11224012
75	0xbdcd0bad	-0.100119926
76	0x3bf594a5	0.0074945264
77	0x3b7be8ee	0.0038438397
78	0xbc62d953	-0.013845759
79	0xbc9f1370	-0.019418448
80	0xbdb04398	-0.086066425
81	0x3da202c8	0.07910687
82	0x3da6f459	0.08152074
83	0xbd574349	-0.052554403
84	0xbdb66148	-0.08905274
85	0xbe1b7480	-0.1518116
86	0x3e50ab56	0.2037786
87	0xbd97901b	-0.07400533
88	0x3cc2f92f	0.02380046
89	0xbd83a900	-0.064287186
90	0xbdcb3fc0	-0.09924269
91	0x3b4378f5	0.0029826735
92	0xbd8b29f0	-0.06795108
93	0xbd2c9706	-0.042136215
94	0xbdbd56b6	-0.092450544
95	0xbd85f5e0	-0.065410376
96	0xbde27587	-0.11057573
97	0xbe03be15	-0.1286548
98	0x3dab6033	0.08367958
99	0xbd45572b	-0.048178833
100	0x3db41fd3	0.087951325
101	0x3d168fea	0.03675834
102	0xbd7b4ba4	-0.061351433
103	0xbd4e5248	-0.05037144
104	0xbe1b12f2	-0.15143946
105	0xbb54af9a	-0.00324533
106	0x3df9af20	0.121916056
107	0x3db3b87d	0.08775423
108	0xbcd6d12b	-0.026222786
109	0xbdbab689	-0.09116847
110	0x3d2173fd	0.039417256
111	0xbd9aa5d4	-0.075511605
112	0xbe297d94	-0.1655181
113	0xbddfab12	-0.10921301
114	0xbe0b065e	-0.13576648
115	0x3a69a01a	0.00089121016
116	0xbe4d50a7	-0.20050298
117	0x3dbac150	0.09118903
118	0xbc078086	-0.0082703885
119	0xbe378a09	-0.1792375
120	0xbdce7d7a	-0.100825265
121	0xbd327822	-0.0435716
122	0xbe505920	-0.20346498
123	0xbbc65595	-0.0060526826
124	0x3e301df3	0.17198925
125	0xbdaa0fb5	-0.08303777
126	0xbe4056ca	-0.18783107
127	0xbd710614	-0.058843687

encoders.0.encoder.conv.lin.weight f4 [128, 16]
0	0x3e1565e0	0.14589643
1	0xbe926832	-0.2859512
2	0xbd3ddfe8	-0.04635611
3	0xbe3d3adc	-0.18479484
4	0xbe594497	-0.21217571
5	0xbe8fab2e	-0.28060287
6	0xbe80a2eb	-0.25124297
7	0x3e5fd6e9	0.21859325
8	0x3b3851ec	0.0028125
9	0x3e53eec3	0.20696549
10	0xbd5f7669	-0.054556284
11	0xbe1343e2	-0.14381364
12	0xbe85a51e	-0.26102537
13	0x3c8124ae	0.01576456
14	0x3d3e457e	0.04645299
15	0x3e1f4159	0.15552272
16	0xbcfa6314	-0.030564822
17	0xbea3dc2f	-0.32003924
18	0xbe218583	-0.15773587
19	0x3e77a421	0.24183704
20	0x3c03548c	0.008015763
21	0xbe5396be	-0.20662972
22	0xbd33d850	-0.043907464
23	0xbda15024	-0.07876614
24	0xbe47bc1e	-0.19505355
25	0x3db46eca	0.08810194
26	0xbd59b9ad	-0.05315559
27	0x3e2a46c1	0.16628553
28	0xbbc14f42	-0.005899341
29	0x3d9f67b8	0.07783455
30	0xbe1ac9e8	-0.15116084
31	0x3d8dfcf4	0.069330126
32	0x3dafe132	0.085878745
33	0xbe89eec3	-0.26939973
34	0x3b7e8b07	0.003884019
35	0x3e2e782d	0.17038031
36	0x3cc79efe	0.024367806
37	0x3d83c0d3	0.06433263
38	0xbd4e7d6e	-0.050412588
39	0xbe92e287	-0.28688452
40	0x3e257431	0.16157605
41	0xbe3e3f33	-0.18578796
42	0x3cfbfe56	0.030760925
43	0x3ddbaea6	0.10726671
44	0xbe3eb979	-0.1862544
45	0x3cdd4a44	0.027012952
46	0xbe0f31f7	-0.13983904
47	0x3b4d6edb	0.0031346593
48	0xbdc5b72a	-0.096540764
49	0x3dc6f969	0.0971554
50	0xbc59c318	-0.013291143
51	0xbe0e9f33	-0.13927917
52	0x3ba07a23	0.0048973723
53	0xbddc5656	-0.10758655
54	0x3dc1cda3	0.0946305
55	0x3e5adc88	0.21373188
56	0x3da81669	0.082073994
57	0x3d78787b	0.060661774
58	0xbe0cec4a	-0.13762012
59	0x3cec1f1e	0.028823432
60	0x3c4877ef	0.012235626
61	0x3d33b762	0.04387606
62	0xbe14e990	-0.14542222
63	0xbb908479	-0.004410323
64	0xbe636eaf	-0.22210191
65	0xbd85a21b	-0.0652506
66	0x3e17bff6	0.14819321
67	0x3e6912e4	0.22761112
68	0xbbb49ae3	-0.005511628
69	0xbd256d66	-0.040387534
70	0x3e755953	0.23959856
71	0x3ceb98d5	0.0287594
72	0xbe9950ed	-0.29944554
73	0x3c8f655b	0.017504385
74	0x3e097e1e	0.13427016
75	0x3dadf77f	0.08494472
76	0x3c271f40	0.010200322
77	0xbdfa3676	-0.12217419
78	0xbdb50c13	-0.088401936
79	0x3e5f18dd	0.21786828
80	0xbe080a6c	-0.13285226
81	0x3e2293a1	0.15876628
82	0xbd591249	-0.052995954
83	0x3cc15b2c	0.023603044
84	0x3dfab3dd	0.122413374
85	0xbe6634bc	-0.22481054
86	0x3df29341	0.11844493
87	0xbe039a8e	-0.12851927
88	0x3e409d05	0.18809898
89	0xbd1bacf5	-0.03800674
90	0x3df44717	0.11927622
91	0xbda52d6a	-0.08065303
92	0x3d875da9	0.06609661
93	0x3aac6243	0.0013151843
94	0xbdf31daf	-0.11870896
95	0x3e8d658e	0.27616543
96	0x3e5f62fe	0.21815106
97	0x3df33b96	0.118765995
98	0x3df578c5	0.119859256
99	0x3d923745	0.07139448
100	0x3e3704bf	0.17872904
101	0xbe40e401	-0.18836977
102	0xbe0b756a	-0.13619009
103	0xbcfccd38	-0.030859575
104	0xbd8af083	-0.06784155
105	0xbdb71f37	-0.08941501
106	0x3e0cf2d6	0.1376451
107	0xbd783ba7	-0.060603764
108	0x3e89ab84	0.2688867
109	0x3e30f614	0.17281371
110	0xbdc56f0e	-0.096403226
111	0x3e8fb065	0.28064266
112	0x3d23bb3c	0.039973482
113	0xbdfdc381	-0.12390805
114	0xbcc9463d	-0.024569625
115	0xbe014de2	-0.12627366
116	0x3e06897e	0.13138387
117	0x3d643aac	0.055720016
118	0x3e0ed8e7	0.13949929
119	0x3dd41d67	0.103571706
120	0x3cc5bc16	0.024137538
121	0x3cdef17e	0.027214762
122	0xbdc9f881	-0.098618515
123	0xbe967524	-0.29386246
124	0x3e98f769	0.2987626
125	0xbe2a34c6	-0.16621694
126	0xbdb52da7	-0.08846598
127	0x3e231112	0.1592448
128	0xbe9015e4	-0.281417
129	0xbe2dc3f7	-0.16969286
130	0xbd27e31b	-0.04098807
131	0x3e32fb75	0.17478736
132	0xbe40a39c	-0.18812412
133	0x3b9f7829	0.004866619
134	0xbde2d751	-0.110762246
135	0xbda0007f	-0.078125946
136	0x3e37641a	0.1790928
137	0xbdf9a6bf	-0.121900074
138	0x3d810651	0.06300033
139	0x3d57ce97	0.052687254
140	0xbd8bb7ca	-0.06822164
141	0xbdaeb61a	-0.08530827
142	0x3dc2e796	0.09516828
143	0xbc69ffe1	-0.014282198
144	0x3e0effbb	0.13964741
145	0xbe25b9d4	-0.16184169
146	0xbe5fd454	-0.2185834
147	0x3e3820b4	0.17981225
148	0xbcc83ddc	-0.02444356
149	0xbe181d2c	-0.14854878
150	0x3dc7a57c	0.097483605
151	0x3ebf0128	0.3730557
152	0x3e13d165	0.14435346
153	0x3d48b0b4	0.048996642
154	0xbdc9ba04	-0.09849933
155	0xbc95fe94	-0.018309869
156	0x3e64d369	0.22346272
157	0x3da9cd69	0.08291132
158	0xbd82973e	-0.063765034
159	0x3d096094	0.03353937
160	0xbc02f78f	-0.007993593
161	0x3de78c56	0.11306064
162	0x3dbd319f	0.0923798
163	0xbe0b77e5	-0.13619955
164	0x3cf1695b	0.029469183
165	0x3e399dbe	0.1812658
166	0xbde727d4	-0.112868935
167	0x3eb15a14	0.34639037
168	0xbd90f261	-0.0707748
169	0xbdea1df5	-0.11431495
170	0x3e100a28	0.14066374
171	0xbdf600e7	-0.12011891
172	0xbceb9d2a	-0.028761465
173	0x3d4849f3	0.04889865
174	0x3d97cf5f	0.074126
175	0x3e1ed5b0	0.15511203
176	0x3e10fdc8	0.1415931
177	0xbe26d9b8	-0.1629399
178	0x3e5598c3	0.20859055
179	0xbe188137	-0.14893042
180	0x3dad962b	0.08475908
181	0xbe8783ae	-0.2646765
182	0x3eab0e49	0.33409336
183	0xbd437ef5	-0.047728498
184	0xbcacb97c	-0.02108454
185	0x3e11d746	0.14242277
186	0xbd80a414	-0.062812954
187	0x3d321862	0.043480285
188	0x3e8c4759	0.27398184
189	0x3dc2834b	0.094976984
190	0x3db906fd	0.09034536
191	0xbc89be11	-0.016814264
192	0xbd8a36ba	-0.067487195
193	0xbd44717d	-0.047959793
194	0x3e101c90	0.14073396
195	0x3d2a2fdb	0.041549545
196	0xbdb3473f	-0.087538235
197	0xbc58dd57	-0.013236365
198	0xbdfaa79c	-0.12239
199	0xbd533c0f	-0.05157095
200	0x3bdf093a	0.00680652
201	0x3d03d2f7	0.032183614
202	0x3e274776	0.16335854
203	0xbd389b15	-0.045069773
204	0x3e0b93e1	0.1363063
205	0xbe11d522	-0.1424146
206	0x3d9ca76f	0.07649123
207	0xbd856432	-0.06513251
208	0x3de28b00	0.110616684
209	0xbe7c45ef	-0.24636053
210	0xbd5d5e4d	-0.05404501
211	0x3e5ad286	0.21369371
212	0xbced4ad7	-0.02896635
213	0xbe0067df	-0.12539624
214	0x3de915b4	0.11381093
215	0x3dec5175	0.11538974
216	0x3e673902	0.2258034
217	0xbdbf50f1	-0.0934161
218	0x3e5570c7	0.20843802
219	0x3d13cb9a	0.03608284
220	0x3d310746	0.043219827
221	0xbe13f68d	-0.1444952
222	0xbe0aed70	-0.13567138
223	0xbe638cee	-0.22221729
224	0xbdb960c5	-0.090516604
225	0xbbb23f87	-0.005439702
226	0x3d033f24	0.032042637
227	0xbce56ad5	-0.028005043
228	0xbde42997	-0.11140745
229	0xbd555efd	-0.05209254
230	0x3d3cb31f	0.04606926
231	0xbdb6cb11	-0.089254506
232	0xbe06171e	-0.13094756
233	0xbdb5c2aa	-0.0887502
234	0xbe4ade18	-0.19811285
235	0xbe482758	-0.19546258
236	0xbe70928e	-0.23493406
237	0xbe3767df	-0.17910717
238	0xbe686db7	-0.22698103
239	0x3d8de2d8	0.06928033
240	0xbde5639b	-0.11200639
241	0x3dd45267	0.103672795
242	0xbe4a6d49	-0.19768251
243	0x3e34d223	0.17658286
244	0x3d94b789	0.07261569
245	0x3dd69838	0.10478252
246	0x3d02bc80	0.03191805
247	0xbe90dc97	-0.28293297
248	0x3d2aab2d	0.041667152
249	0xbde42754	-0.11140314
250	0x3da52479	0.08063597
251	0x3de706f8	0.11280626
252	0x3ddd0b79	0.10793204
253	0x3e238f0d	0.15972538
254	0xbb8af621	-0.0042407666
255	0xbca4b696	-0.020106595

encoders.0.encoder.prelu.weight f4 [128]
0	0xbc258afa	-0.010103935
1	0xbd934570	-0.071909785
2	0x3ddd83da	0.10816164
3	0x3dff3a3c	0.12462279
4	0xba027cb3	-0.0004977688
5	0x3c001acb	0.007818888
6	0xbcd536f2	-0.026027177
7	0x3c8c02ba	0.017091144
8	0x3d9e7245	0.07736639
9	0x3b67849a	0.003532684
10	0xbc1d6cb1	-0.009608434
11	0x3d01409b	0.031555753
12	0x3d90c808	0.07069403
13	0x3c9ee018	0.019393966
14	0x3e1b7ca4	0.15184265
15	0xba03bee3	-0.0005025698
16	0xbd36444a	-0.04449872
17	0x3d21c3c8	0.039493352
18	0x3da80532	0.08204116
19	0x3bc69ad3	0.006060937
20	0xbce10142	-0.02746642
21	0x3e344295	0.17603524
22	0xbc84db8d	-0.016217971
23	0xbab93c9b	-0.0014132442
24	0x3e79b596	0.24385676
25	0xbbbe0277	-0.0057986337
26	0x3da3a9c4	0.079913646
27	0x3df9e7bb	0.12202402
28	0x3e0b11de	0.13581035
29	0x3e021df4	0.12706739
30	0x3c4a7707	0.01235748
31	0x3d920f91	0.07131875
32	0xbce2fcbe	-0.027708407
33	0x3e64d0a2	0.22345212
34	0x3d091f74	0.03347726
35	0x3d8b815d	0.068117835
36	0x3de24afc	0.110494584
37	0x38af4d74	8.359077e-05
38	0x3e2a9bc6	0.16660985
39	0x3e19deab	0.15026347
40	0x3e061f20	0.13097811
41	0x3cdb8312	0.026795898
42	0x3a51f3a7	0.00080090243
43	0x3d083fd8	0.03326401
44	0xba93bff1	-0.0011272413
45	0x3e0be3ce	0.1366112
46	0x3e0dd358	0.13850152
47	0x3cdb5c7e	0.026777502
48	0x3db28376	0.087164804
49	0x3d31675a	0.043311454
50	0xbd053152	-0.03251774
51	0x3c999e09	0.018752115
52	0xbc86b5ed	-0.01644417
53	0x3dbd70cc	0.0925003
54	0x3d8022c9	0.06256635
55	0x3cc964ea	0.024584252
56	0x3b9517ea	0.00454997
57	0xbdb19cb3	-0.08672466
58	0x3a1827ef	0.00058042904
59	0x3cdb9d1f	0.02680832
60	0xbc170ae8	-0.009218909
61	0x3d34ef0c	0.044173285
62	0x3de4c630	0.11170614
63	0x3cec0f25	0.028815815
64	0x3de519ba	0.111865476
65	0xbc23d185	-0.009998684
66	0x3c83f52e	0.016108122
67	0xbdbf5ad1	-0.09343494
68	0x3df02a38	0.117268026
69	0xbaa61cab	-0.0012673339
70	0x3ddf164e	0.10892926
71	0xbbe04378	-0.0068439804
72	0x3d49adbf	0.049237963
73	0x3d7a82d1	0.061159912
74	0xbda57cae	-0.080804214
75	0x3dd6bb64	0.10484961
76	0xbdafe241	-0.085880764
77	0x3ca24412	0.01980785
78	0x3e16a8ff	0.14712904
79	0x3d0e979d	0.03481256
80	0xbba91cc3	-0.0051608994
81	0x3d8b5af9	0.06804461
82	0x3cd22b31	0.02565536
83	0xbc47b6b9	-0.012189561
84	0xbb8e77ca	-0.004347776
85	0x3d81d9d4	0.063403755
86	0x3e09a366	0.13441238
87	0xbd8c9fa7	-0.06866389
88	0xbd80e484	-0.06293586
89	0x3d756af9	0.05991647
90	0x3d5d64be	0.054051153
91	0xbc87dd34	-0.01658497
92	0x3c6ec323	0.014572891
93	0xbd70ff3a	-0.058837153
94	0xbd151b96	-0.03640326
95	0xbce30851	-0.027713927
96	0x3cfe0c69	0.031011777
97	0xbc8affaa	-0.016967613
98	0x3c678e3d	0.014133033
99	0x3ce969f2	0.028492901
100	0xbc871ac8	-0.016492262
101	0xbe4b6096	-0.19861063
102	0xbddba065	-0.10723952
103	0xbe3cd9dd	-0.18442483
104	0x3e0757d6	0.132171
105	0xbbcf9ad7	-0.006335597
106	0x3bd0a4a1	0.0063672815
107	0x3cb115db	0.021616867
108	0x3de409db	0.11134692
109	0xbdc5d686	-0.09660058
110	0x3dfa0fe7	0.122100644
111	0x3ccc07e7	0.024906112
112	0x3de6cd9c	0.112696856
113	0x3c3c4500	0.01149106
114	0xbd022bdf	-0.03178012
115	0xbbb60b14	-0.00555552
116	0xbd02152d	-0.031758476
117	0xbdb8a19a	-0.09015198
118	0xbd1642c5	-0.03668477
119	0x3c85ae03	0.016318327
120	0x3da14e10	0.07876217
121	0x3d23417b	0.03985737
122	0x3def91c5	0.11697725
123	0xbd54722f	-0.051866706
124	0x3d965ce1	0.07341934
125	0xbe3318b8	-0.17489898
126	0x3e4ccb7f	0.19999503
127	0x3daf7c5f	0.08568644

encoders.0.encoder.conv2.bias f4 [128]
0	0x3e09814c	0.13428229
1	0xbde8091b	-0.11329862
2	0x3d625618	0.055257887
3	0x3dfff6b8	0.1249823
4	0xbd8f1317	-0.06986063
5	0x3cfd447d	0.030916447
6	0x3cae6402	0.021287922
7	0xbdc33b51	-0.09532798
8	0xbd85d833	-0.06535377
9	0xbe213bb6	-0.15745434
10	0x3c39b24c	0.011334013
11	0x3d8c0e1e	0.0683863
12	0xbd71923f	-0.05897736
13	0xbdcce23c	-0.10004088
14	0x3d887cb5	0.06664411
15	0xbd2a2052	-0.04153473
16	0x3dd063c9	0.101752825
17	0xbdf90e58	-0.12160939
18	0xbd5dec36	-0.054180346
19	0xbd7b9bb6	-0.061427794
20	0xbd9292ca	-0.07156904
21	0x3c6ca5c8	0.014443822
22	0x3dd32de2	0.10311486
23	0x3d4775d0	0.04869634
24	0x3d055144	0.032548204
25	0x3d22e8a6	0.039772652
26	0x3ddae583	0.10688307
27	0xbdb4a461	-0.08820415
28	0x3dc36e9f	0.09542584
29	0x3a51c90f	0.00080026774
30	0x3cfb393b	0.030666938
31	0x3ca7fd8c	0.020506643
32	0x3db5ef7d	0.088835694
33	0x3d6a9c18	0.05727777
34	0x3d92ae98	0.07162207
35	0x3c84d1a6	0.01621325
36	0x3dae647a	0.08515258
37	0xbdb7f53d	-0.08982322
38	0xbcbfdaae	-0.023419704
39	0xbdd50380	-0.10401058
40	0x3c075a0f	0.008261218
41	0xbd00ab9c	-0.03141366
42	0xbd13435f	-0.035952922
43	0xbd20f474	-0.03929563
44	0xbd99c2ef	-0.07507884
45	0x3d20bf57	0.039244976
46	0xbc81044f	-0.015749125
47	0xbca89a44	-0.020581372
48	0xbc82494a	-0.015904088
49	0xbdd2e711	-0.10297979
50	0x3db820e4	0.089906484
51	0xbc7beb48	-0.01537592
52	0xbc91d2e4	-0.017800756
53	0xbd732f83	-0.059371483
54	0xbd9a0494	-0.075204045
55	0xbd6d54a1	-0.057942037
56	0x3df27310	0.11838353
57	0x3b0a82bf	0.002113506
58	0x3ddb8d0f	0.10720264
59	0xbdfb9fcf	-0.122863404
60	0x3d094c03	0.033519756
61	0x3d1b0138	0.03784296
62	0x3c0aa33c	0.00846177
63	0xbdc0619e	-0.09393619
64	0xbd7d2106	-0.06179907
65	0xbd335672	-0.043783613
66	0x3d5f2702	0.05448056
67	0x3d8b2e99	0.06795997
68	0x3df1b215	0.118015446
69	0xbd9b65b7	-0.0758776
70	0x3d476437	0.048679557
71	0xbdd1c4f5	-0.10242645
72	0x3d863446	0.06552939
73	0xbd342a56	-0.043985687
74	0x3dd34195	0.10315243
75	0xbde0f919	-0.109850116
76	0x3d55d771	0.052207414
77	0x3d24e541	0.040257696
78	0xbcb576f1	-0.022151442
79	0xbd11202e	-0.03543108
80	0xbce65faa	-0.028121788
81	0xbdf95d9a	-0.12176056
82	0xba29709b	-0.0006463618
83	0x3bc0dddd	0.005885823
84	0x3b8533d1	0.004065015
85	0xbc80cbff	-0.015722273
86	0x3daca7e8	0.08430463
87	0xbd8643e0	-0.06555915
88	0x3dd2a373	0.10285082
89	0xbd930070	-0.07177818
90	0xbcbe791a	-0.023251105
91	0xbe0d0e2b	-0.13774936
92	0xbd5dc53e	-0.054143183
93	0x39b1ef8b	0.00033938544
94	0x3b75bfab	0.0037498276
95	0x3da1022a	0.07861741
96	0x3bd75966	0.0065719364
97	0xbd56b927	-0.05242267
98	0xbd138032	-0.03601093
99	0x3d1ec5f5	0.038763005
100	0xbc9c77bc	-0.019100063
101	0xbe06e6f3	-0.13174038
102	0xbdc445a1	-0.09583593
103	0xbbede795	-0.0072602727
104	0x3d05c2ef	0.032656606
105	0xbdb507df	-0.08839392
106	0x3ded76ef	0.115949504
107	0xbcdfbde5	-0.027312228
108	0x3e405485	0.18782242
109	0xbe3c3903	-0.18381123
110	0x3cd0fae1	0.025510253
111	0xbd6ebd17	-0.0582858
112	0x3d982d4a	0.07430513
113	0x3db16123	0.086611055
114	0xbe3583ac	-0.1772601
115	0x3c436c0a	0.011927614
116	0xbbf8746a	-0.007582237
117	0x3e07003a	0.1318368
118	0x3d6ef054	0.058334664
119	0x3e12456c	0.14284295
120	0x3d41bd5d	0.04729973
121	0x3d2d1b1a	0.042262174
122	0x3e097799	0.13424529
123	0xbdc6d045	-0.09707693
124	0xbc227371	-0.009915219
125	0x3d003a36	0.031305514
126	0x3d12e7d4	0.03586562
127	0x3c2238c0	0.009901226

encoders.0.encoder.conv2.lin.weight f4 [128, 128]
0	0x3dfcb47b	0.123391114
1	0x3d59fda6	0.053220414
2	0xbe27dce7	-0.16392861
3	0xbcbf8303	-0.023377901
4	0xbc5103f9	-0.012757295
5	0xbde7593b	-0.11296316
6	0x3d03f962	0.03222025
7	0xbe0e88d5	-0.13919385
8	0x3e92be9f	0.28661057
9	0xbe20edb2	-0.15715674
10	0x39c88ef3	0.00038253478
11	0x3d566e11	0.05235106
12	0x3dbc976e	0.092085704
13	0xbd242dc6	-0.040082715
14	0x3dc957d8	0.09831208
15	0xbbfeeb5a	-0.007779521
16	0xbdc19aaf	-0.09453332
17	0xbcbb4e2e	-0.022864427
18	0x3e1c2eae	0.15252182
19	0xbe1eb26c	-0.1549775
20	0xbd55cd17	-0.052197542
21	0x3de603d0	0.11231196
22	0xbc5fba40	-0.013655245
23	0x3d19a301	0.03750897
24	0x3de59173	0.11209383
25	0xbcc58e38	-0.024115667
26	0x3d91f230	0.07126272
27	0xbe808905	-0.25104538
28	0xbd9ad24d	-0.07559643
29	0xbe10e56a	-0.14150015
30	0x3dd9f6bb	0.10642763
31	0xbd23c507	-0.03998282
32	0xbc5566c4	-0.0130249895
33	0x3e056057	0.13025032
34	0x3c4aa35a	0.012368048
35	0x3e160429	0.14650024
36	0x3e41104e	0.18853876
37	0xbe436ed9	-0.19085254
38	0x3d857fce	0.065185174
39	0xbd192b9a	-0.037395097
40	0xbe05a943	-0.1305285
41	0x3d117719	0.03551397
42	0x3beccc54	0.0072265062
43	0xbd570ddb	-0.052503448
44	0xbdaa5800	-0.08317566
45	0xbc478dca	-0.012179801
46	0x3dd39588	0.10331255
47	0xbc47124b	-0.0121503575
48	0xbdf23314	-0.11826149
49	0xbd231d9c	-0.03982316
50	0x3d00c55e	0.031438224
51	0x3d6c1532	0.0576374
52	0xbe0bbb17	-0.13645588
53	0x3cf51e89	0.029921787
54	0x3d78561c	0.060628995
55	0x3d97fb32	0.074209586
56	0xbe2c3b61	-0.16819526
57	0x3dd11060	0.102082014
58	0x3dc25983	0.09489729
59	0x3c178167	0.0092471605
60	0x3dbf2601	0.093334205
61	0xbe219ee6	-0.15783271
62	0xbd4a5ae2	-0.04940308
63	0x3de9baf8	0.114126146
64	0x3d6c5ed2	0.057707615
65	0xbc8e04e2	-0.017336313
66	0xbdd7ada6	-0.10531168
67	0xbd34a0d0	-0.044098675
68	0x3d16c545	0.036809225
69	0x3cbaa0f8	0.022781834
70	0xbd797d3c	-0.06091045
71	0x3cb35124	0.021889277
72	0xb9eb6b65	-0.00044902708
73	0xbc9b60bd	-0.018967027
74	0x3e0e10c5	0.13873585
75	0x3d41cf5c	0.047316894
76	0x3de0fe36	0.10985987
77	0xbd177bda	-0.03698335
78	0x3d9a0d05	0.075220145
79	0xbba46ade	-0.0050176224
80	0xbd2f7ea8	-0.0428454
81	0x3d0373c1	0.032092813
82	0xbd9cadf2	-0.07650365
83	0xbde64094	-0.11242786
84	0x3db0aaca	0.086263254
85	0xbd720d4c	-0.059094712
86	0xbd3e24cb	-0.046421807
87	0x3e3d3dba	0.18480578
88	0x3d23eb9b	0.040019613
89	0x3dab866a	0.08375247
90	0x3bd01fb1	0.006351434
91	0x3b5e6e60	0.00339403
92	0x3d401ebd	0.046904314
93	0x3b087a6e	0.0020824927
94	0x3d131a35	0.035913665
95	0x3e411ea7	0.18859349
96	0x3e588885	0.21145828
97	0xbd1baed2	-0.03800852
98	0x3de64e04	0.11245349
99	0x3dc5fb1f	0.09667038
100	0x3de8889e	0.11354183
101	0xbdf00873	-0.117203616
102	0xbc75569b	-0.014974262
103	0xbb7dc45c	-0.0038721776
104	0x3e143364	0.14472729
105	0xbd022b4e	-0.03177958
106	0x3ce84ec8	0.028357878
107	0x3e0e2de4	0.13884693
108	0x3d8ab543	0.06772854
109	0x3d9164ee	0.07099329
110	0x3dce5b4f	0.100760095
111	0x3c3ebef1	0.011642204
112	0xbc1a7c8a	-0.0094291065
113	0xbe717dac	-0.23583096
114	0xbe173004	-0.1476441
115	0xbda429f5	-0.08015815
116	0xbd3bda8d	-0.045862723
117	0x3c2e9e6b	0.010657887
118	0xbe6b821a	-0.22998849
119	0x3d97b3fe	0.07407378
120	0xbe16e3bc	-0.14735311
121	0x3b951a63	0.0045502647
122	0xbd22f56a	-0.039784826
123	0xbc2bdbfa	-0.010489458
124	0xbd47c1eb	-0.04876892
125	0xbdc29ac2	-0.09502174
126	0x3e01226e	0.1261079
127	0xbbe64ceb	-0.0070282123
128	0xbd6e7bb3	-0.058223438
129	0xbd97a76f	-0.07404982
130	0xbe2e7529	-0.1703688
131	0xbd8d8e85	-0.06911949
132	0xbe175b8f	-0.1478102
133	0xbd83ef5a	-0.06442137
134	0x3d9c7208	0.07638937
135	0x3e103bf4	0.1408537
136	0xbe0deecc	-0.13860625
137	0xbdb5267b	-0.0884523
138	0x3dbd6619	0.09247989
139	0x3e2146ea	0.15749708
140	0xbd6023a4	-0.05472149
141	0x3e2bbb85	0.16770752
142	0xbe2fc4e6	-0.17164955
143	0x3d26c56f	0.04071563
144	0xbdd06ce9	-0.10177023
145	0xbdcd9787	-0.10038667
146	0xbdd52347	-0.10407119
147	0x3d91125c	0.0708358
148	0x3ddc1ab3	0.1074728
149	0xbdfd2f35	-0.1236252
150	0xbc814b6f	-0.01578304
151	0x3e13f1cd	0.14447708
152	0x3daff7fd	0.08592222
153	0xbe20912a	-0.15680376
154	0x3dd77715	0.1052076
155	0xbe4350ed	-0.1907384
156	0xbde55637	-0.11198085
157	0x3e0f9980	0.140234
158	0x3dd3e94c	0.10347232
159	0xbd8c75df	-0.068584196
160	0x3dd504bc	0.10401294
161	0x3de2c6ea	0.11073096
162	0xbc0a04d0	-0.008423999
163	0xbda32808	-0.0796662
164	0xbbf66d75	-0.0075203725
165	0x3c9c9a12	0.019116435
166	0xbd9570bd	-0.07296894
167	0xbdf510d4	-0.119661
168	0xbe109958	-0.14120996
169	0xbd95dddb	-0.07317706
170	0xbe228f67	-0.15875016
171	0xbe0fde03	-0.14049534
172	0x3d1361ea	0.03598205
173	0xb91d9a77	-0.0001503023
174	0xbe030ad3	-0.12797098
175	0x3e0d7a49	0.1381618
176	0x3dd96497	0.10614889
177	0x3c20f99a	0.009825135
178	0xbaa16db0	-0.0012316015
179	0xbc8c559f	-0.017130671
180	0x3d4ba3fe	0.049716942
181	0x3cd5990d	0.026073957
182	0xbe4254b1	-0.1897762
183	0xbe01aa7c	-0.12662691
184	0x3e3f7f19	0.18700828
185	0xbc0d2498	-0.008614682
186	0xbe6c8a66	-0.2309967
187	0xbe731d7c	-0.23741716
188	0xbe0cf4b3	-0.1376522
189	0xbe20b79c	-0.15695041
190	0xbe2bd510	-0.16780496
191	0xbe38ff8d	-0.18066235
192	0x3dfb55b1	0.12272204
193	0xbc304602	-0.010758879
194	0xbe29b3ca	-0.1657249
195	0x3da92fb0	0.08261049
196	0x3c494049	0.012283393
197	0x3e231a48	0.15927994
198	0x3df5766c	0.11985478
199	0x3cb6c2bc	0.022309653
200	0xbe6ef699	-0.23336257
201	0xbdaccb04	-0.0843716
202	0x3b1b8f04	0.0023736367
203	0xbd6bd866	-0.05757942
204	0xbd85059b	-0.0649521
205	0x3d2c01e2	0.041993983
206	0x3d107617	0.03526887
207	0x3d8f21be	0.06988858
208	0xbe08d34d	-0.13361855
209	0x3dab79ef	0.08372866
210	0x3db40b41	0.08791209
211	0x3c8571f8	0.016289696
212	0x3b44062f	0.0029910912
213	0xbe299890	-0.16562104
214	0xbe8d2f50	-0.2757516
215	0xbe32d929	-0.17465653
216	0xbe7a176b	-0.24422996
217	0x3e01517c	0.1262874
218	0x3d2ffaba	0.04296372
219	0x3d268f38	0.040663928
220	0x3e174723	0.1477323
221	0xbca22dec	-0.019797288
222	0xbe169a5a	-0.14707318
223	0xbd94ead2	-0.07271351
224	0x3cd3f1bb	0.025872102
225	0x3e0a49b7	0.13504682
226	0x3e3a8074	0.18213063
227	0xbcc640cf	-0.024200825
228	0xbda8efe7	-0.08248883
229	0x3da9e28f	0.08295166
230	0x3d69a91d	0.057046045
231	0xbadf19cb	-0.0017021237
232	0xbdcfb832	-0.10142554
233	0x3d92495e	0.071429
234	0xbe20ad95	-0.15691216
235	0x3d598c7e	0.0531125
236	0x3e28c21c	0.16480297
237	0xbd1f6010	-0.03890997
238	0xbc055f91	-0.008140461
239	0x3d9da1dd	0.076968886
240	0xbdb18150	-0.086672425
241	0x3d6766f4	0.056494668
242	0xbc944f83	-0.01810432
243	0x3d9463bd	0.07245586
244	0xbcd61bbf	-0.026136277
245	0xbe011b90	-0.1260817
246	0x3dcbe5b5	0.099559225
247	0xbdc1e7cc	-0.0946804
248	0x3cee2a44	0.029072888
249	0xbe2869c5	-0.16446598
250	0x3d3f77e0	0.04674518
251	0x3e340189	0.1757871
252	0xbe1b4a15	-0.15164979
253	0xbd45bfcd	-0.04827862
254	0x3d9ef0fe	0.07760809
255	0x3da5a09e	0.08087276

encoders.0.encoder.prelu2.weight f4 [128]
0	0x3c046eda	0.00808307
1	0x3dae95e4	0.08524683
2	0x3b9018ca	0.0043974863
3	0xbc7988e8	-0.015230395
4	0x3cc69a1f	0.024243413
5	0x3da6cb73	0.081442736
6	0x3e4b0a89	0.19828238
7	0xbd72b670	-0.059256017
8	0x3da7b8b2	0.08189525
9	0xbd9c5bb4	-0.076346785
10	0xbc515aa8	-0.012777962
11	0x3e1696cf	0.14705966
12	0xbd1cf919	-0.038323496
13	0xbc5bae86	-0.013408309
14	0x3d9829a7	0.074298196
15	0x3d7bd0f8	0.061478585
16	0x3dd32a1d	0.10310767
17	0x3b92c26b	0.004478743
18	0x3dba02e9	0.09082586
19	0xbe0d706a	-0.13812414
20	0x3df0bded	0.117549755
21	0xbd608b73	-0.05482049
22	0x3ca72b64	0.020406432
23	0xbe4b9682	-0.19881633
24	0x3db296d5	0.08720175
25	0xbd88465c	-0.06654045
26	0x3dadcc07	0.08486181
27	0xbd0a9d46	-0.033841394
28	0xbd6e0f37	-0.05811998
29	0xbbce0d04	-0.0062881727
30	0x3db84424	0.08997372
31	0xbda1cae1	-0.07900024
32	0xbc250e1a	-0.010074163
33	0x3dbe1491	0.092812665
34	0x3b8de124	0.0043298174
35	0x3da4ab84	0.080405265
36	0x3dc04027	0.09387236
37	0x3dc40fcf	0.09573328
38	0x3db9bbbb	0.0906901
39	0x3e24b6cf	0.16085361
40	0x3e05483d	0.13015838
41	0xbcfb44d8	-0.030672476
42	0x3d6be1f4	0.057588533
43	0xbd4be68e	-0.04978042
44	0x3d89324f	0.06699049
45	0xbcc57b68	-0.024106696
46	0x3d61791b	0.055047136
47	0xbc9808af	-0.018558828
48	0xbd5cf05e	-0.05394017
49	0x3d6b4a63	0.057443988
50	0x3d8ece86	0.06972985
51	0xbcf56f11	-0.029960187
52	0x3cd5bf87	0.026092304
53	0xbd8bc1df	-0.06824087
54	0xbe117a12	-0.14206722
55	0xbcd8c221	-0.026459755
56	0x3c9145f1	0.017733546
57	0x3d3f4874	0.046699956
58	0xbdfd1cb4	-0.1235899
59	0xbd44e07b	-0.048065644
60	0x3dbbbf9a	0.091674045
61	0xbccceda1	-0.025015654
62	0x3d0bb67d	0.03410958
63	0x3dc5968c	0.09647855
64	0xbdaa6612	-0.083202496
65	0x3c260372	0.010132657
66	0xbcb1469e	-0.021640118
67	0x3e61c51c	0.22047848
68	0x3c9f7b9e	0.019468125
69	0xbd2104ac	-0.039311096
70	0xbd9e3e48	-0.07726723
71	0x3cc0c2d1	0.023530396
72	0xbd2656e4	-0.04061021
73	0xbc3ff45d	-0.011715976
74	0x3dbd1f55	0.09234492
75	0x3e12785d	0.14303727
76	0x3d9db89d	0.07701228
77	0x3debbe47	0.11510902
78	0xbe713a7a	-0.23557463
79	0x3d4420e7	0.04788294
80	0xbd0af1ac	-0.033921883
81	0xbc84c210	-0.016205817
82	0x3e276cc4	0.16350085
83	0xbd28337a	-0.041064717
84	0x3ddf1158	0.1089198
85	0xbd64f042	-0.05589319
86	0x3dbd2a46	0.09236579
87	0x3da3d33b	0.079992734
88	0xbce9c996	-0.028538506
89	0xbe720cdd	-0.2363772
90	0x3ddad82c	0.10685763
91	0x3e3213ec	0.17390412
92	0x3c81f7c1	0.015865209
93	0xbda8542f	-0.08219182
94	0x3cfea748	0.031085625
95	0x3da39f54	0.07989374
96	0x3d3cf6d5	0.046133835
97	0xbc8637b9	-0.016383993
98	0x3db982db	0.09058162
99	0x3e4907b7	0.19631849
100	0x3dfb326d	0.12265477
101	0xbcaf727a	-0.021416891
102	0xbe574908	-0.21023953
103	0x3cad8c0e	0.021184947
104	0x3df9c0a3	0.12194946
105	0x3e9294e0	0.28629208
106	0xbe0c7fd4	-0.13720638
107	0xbc2abe3a	-0.01042133
108	0x3da90988	0.08253771
109	0xbdd683d7	-0.10474365
110	0x3c217337	0.0098541295
111	0x3d50da43	0.0509894
112	0x3c3b9d91	0.011451141
113	0xbeafcbc6	-0.34335154
114	0x3dadb0ab	0.08480962
115	0x3ce27e31	0.027648063
116	0x3ce45574	0.027872778
117	0x3df29a8f	0.11845886
118	0x3def2a7a	0.11678024
119	0x3e160933	0.14651947
120	0xbd01926c	-0.03163378
121	0x3d026a4f	0.031839665
122	0xbea53d71	-0.3227344
123	0x3d73f8f2	0.059563585
124	0x3d2d325e	0.042284362
125	0x3d0dcca6	0.034618996
126	0x3c512710	0.012765661
127	0xbd8e91a3	-0.06961372

encoders.1.weight f4 [128, 128]
0	0x3c5a4cb7	0.013323954
1	0x3d3e843c	0.046512827
2	0x3dc3fec5	0.09570078
3	0xbd781216	-0.060564123
4	0x3ca5d1f4	0.020241715
5	0x3d215f29	0.039397392
6	0x3c749b6a	0.014929632
7	0x3dc9fcad	0.09862647
8	0xbd3fc7ea	-0.046821512
9	0xbd927a4b	-0.07152232
10	0xbc80b395	-0.015710631
11	0x3d73189b	0.059349637
12	0xbd871306	-0.06595425
13	0x3bb0f3c8	0.0054001547
14	0xbd670a4b	-0.0564063
15	0x3ce3b84b	0.027797839
16	0xbd0d3eb7	-0.034483638
17	0x3d0c193b	0.03420375
18	0x3c142191	0.009041206
19	0xbcc9fbb8	-0.024656162
20	0x3cf1e182	0.029526476
21	0x3d0549e9	0.03254119
22	0x3d89f973	0.06737032
23	0x3d9da003	0.076965354
24	0xbd136fb9	-0.03599522
25	0x3b8b46da	0.0042503895
26	0x3d3fdfe7	0.04684439
27	0xbd648464	-0.05579032
28	0xbcb2320e	-0.021752384
29	0x3d345b94	0.04403265
30	0xbc0574bf	-0.00814551
31	0x3ccab6df	0.024745403
32	0x3d908fc9	0.07058675
33	0x3cf42281	0.029801609
34	0x3d223a4a	0.03960637
35	0x3c9364fb	0.017992487
36	0xbc35e5f1	-0.011102186
37	0x3c6a29fd	0.014292237
38	0xbc12a1ea	-0.008949736
39	0x3dbf12dd	0.0932977
40	0x3ba68cc6	0.0050826995
41	0xbd8511f3	-0.06497564
42	0x3d18887d	0.03723954
43	0x3dcb64ff	0.09931373
44	0x3c0ba7d5	0.008523901
45	0xbd660909	-0.05616096
46	0xbd837ea8	-0.06420642
47	0x3db5ef2a	0.088835075
48	0x3cb3cd10	0.021948367
49	0xbd690983	-0.056893837
50	0xbd242e0a	-0.04008297
51	0x3dc4c5b7	0.096080236
52	0xbd973543	-0.07383206
53	0x3d8555f7	0.06510537
54	0x3cadd9b2	0.02122197
55	0xbd8f10a5	-0.069855966
56	0xbc996df3	-0.018729186
57	0xbd5424f5	-0.051793057
58	0x3bd8325f	0.0065978016
59	0x3d1da021	0.03848279
60	0x3db770a2	0.0895703
61	0x3c8ba1e7	0.017044974
62	0x3d528f42	0.051406153
63	0x3d81f096	0.06344716
64	0xbd760328	-0.060061604
65	0x3d1a0970	0.037606657
66	0x3d7b4a3f	0.061350103
67	0x3b5f839a	0.003410554
68	0x3d55fe17	0.052244272
69	0xbcc338f7	-0.023830874
70	0xbd3cb239	-0.046068404
71	0xbc05a7b6	-0.008157661
72	0x3d804595	0.06263272
73	0xbd919586	-0.071085975
74	0xbd02ce40	-0.031934977
75	0xbd02aeca	-0.031904973
76	0xbcf134b1	-0.02944407
77	0x3d89cf40	0.06728983
78	0xbc93a8f7	-0.018024905
79	0x3d0327be	0.032020323
80	0xbb67b25e	-0.0035354118
81	0xbd04b9f7	-0.032403912
82	0x3daf39e1	0.085559614
83	0xbd53ee4e	-0.051740937
84	0x3c083988	0.008314498
85	0x3d7f44e8	0.062321573
86	0x3dbeba64	0.09312895
87	0x3d6aaeb8	0.05729553
88	0xbc394746	-0.011308497
89	0x3dccd63d	0.100018
90	0xbd48e5b7	-0.0490472
91	0xbd8a4c7a	-0.06752868
92	0x3d85381a	0.06504841
93	0xbc5e2048	-0.013557501
94	0x3da58328	0.08081657
95	0xbd987ae8	-0.074453175
96	0x3d7de2d8	0.061983913
97	0xbd60fcf4	-0.054928735
98	0x3cd30138	0.025757417
99	0x3d03edb3	0.03220911
100	0x3d7dda9a	0.061976053
101	0x3d2188cb	0.039437097
102	0xbcd796ab	-0.026316961
103	0x3d2fa808	0.042884856
104	0xbcfba7e4	-0.030719705
105	0x3cdf0a7e	0.027226683
106	0x3da93408	0.08261877
107	0x3d2aa7fc	0.04166411
108	0x3d840d43	0.06447842
109	0x3d63476d	0.05548804
110	0xbcef39fa	-0.02920245
111	0x3db0cf90	0.086333394
112	0x3db42e8d	0.08797941
113	0x3d88fff8	0.06689447
114	0x3d2d8e34	0.042371944
115	0xbd3bb042	-0.04582239
116	0xbd927f53	-0.071531914
117	0xbc1dfcc4	-0.009642784
118	0x3dbe64b3	0.092965506
119	0x3d79d356	0.06099256
120	0x3daca893	0.084305905
121	0x3d2a76f0	0.041617334
122	0x3ce93518	0.0284677
123	0x3d89d400	0.06729889
124	0xbd883f6e	-0.06652723
125	0xbc9a21c1	-0.018814923
126	0x3cd81a5f	0.026379762
127	0x3c775a71	0.0150972465
128	0x3e2c8bbd	0.16850181
129	0x3dc0c8d6	0.094133064
130	0x3dd14fb8	0.10220283
131	0x3de4aebe	0.11166142
132	0x3e405cb2	0.1878536
133	0x3e57ee68	0.21087039
134	0x3e099a29	0.13437714
135	0x3e341c47	0.17588912
136	0x3e3e8881	0.1860676
137	0x3e3dc16f	0.1853082
138	0x3e2147a3	0.15749983
139	0x3e28feb9	0.16503419
140	0x3deffabf	0.11717748
141	0x3dc8d885	0.09806923
142	0x3e6fb161	0.23407508
143	0x3de37c47	0.111076884
144	0x3e2e1409	0.1699983
145	0x3e4271bb	0.18988697
146	0x3e7fbb5c	0.24973816
147	0x3e21e8f3	0.1581152
148	0x3e069794	0.1314376
149	0x3e61ebb1	0.22062565
150	0x3e7f50ec	0.24933213
151	0x3e3e4b4d	0.18583412
152	0x3e117f4d	0.14208718
153	0x3e001287	0.12507068
154	0x3de8d152	0.1136805
155	0x3dc1f413	0.094703816
156	0x3e2dbf65	0.16967542
157	0x3e683d0f	0.22679542
158	0x3e236c9b	0.15959398
159	0x3e383a3b	0.17990963
160	0x3e72240e	0.23646566
161	0x3e08e23e	0.13367555
162	0x3db266c8	0.0871101
163	0x3e79aa6c	0.24381417
164	0x3de992a8	0.114049256
165	0x3e6b3f0d	0.2297327
166	0x3e10a52c	0.14125508
167	0x3e7cd6b3	0.24691276
168	0x3e7f9bb9	0.24961747
169	0x3de9a994	0.114092976
170	0x3e0e53d0	0.1389916
171	0x3e2db1d0	0.16962361
172	0x3e2b8d39	0.16753091
173	0x3e28d326	0.16486797
174	0x3e30fb06	0.17283258
175	0x3e3571b2	0.17719153
176	0x3e634da4	0.22197586
177	0x3e225f1f	0.15856598
178	0x3e623a26	0.22092494
179	0x3e73bd72	0.23802736
180	0x3db33de2	0.087520376
181	0x3dcc7930	0.09984052
182	0x3deead76	0.11654179
183	0x3e82ae03	0.25523385
184	0x3e231297	0.1592506
185	0x3dd29efd	0.10284231
186	0x3db48040	0.08813524
187	0x3e5b9694	0.2144416
188	0x3e1f9323	0.15583472
189	0x3e804615	0.25053468
190	0x3e68b218	0.22724187
191	0x3e0461a1	0.12927867
192	0x3e0bd5d0	0.13655782
193	0x3e66d9a0	0.22543955
194	0x3e4605d7	0.19338165
195	0x3e09383f	0.13400362
196	0x3e5427de	0.20718333
197	0x3e0ca956	0.13736472
198	0x3dc9b99c	0.09849855
199	0x3e4a33eb	0.19746368
200	0x3e6f0a35	0.23343737
201	0x3e7a48dc	0.24441856
202	0x3e64ce3b	0.22344296
203	0x3e6f4d1e	0.23369262
204	0x3deb725e	0.11496423
205	0x3e6cb38e	0.2311537
206	0x3e022384	0.1270886
207	0x3e0e518d	0.13898297
208	0x3e10d98a	0.14145485
209	0x3e0cf573	0.13765506
210	0x3de9086e	0.11378561
211	0x3e1c97cb	0.1529228
212	0x3e496c70	0.19670272
213	0x3e7747a9	0.2414843
214	0x3e1fbfbc	0.15600485
215	0x3e6a8c44	0.2290507
216	0x3df6c96e	0.120501384
217	0x3e7d988c	0.24765223
218	0x3e5c0987	0.2148801
219	0x3e679ab1	0.22617604
220	0x3e68c49a	0.22731248
221	0x3de711cb	0.112826906
222	0x3e0447c4	0.12918001
223	0x3e6fcc36	0.23417744
224	0x3dea675c	0.114454955
225	0x3dd8686e	0.105667934
226	0x3e5d11cc	0.2158882
227	0x3dc72846	0.097244784
228	0x3e232c16	0.15934786
229	0x3de27d72	0.11059083
230	0x3de7781e	0.113022074
231	0x3e155b65	0.14585645
232	0x3e1b552e	0.15169212
233	0x3e60bcb5	0.21946986
234	0x3e6841c3	0.22681336
235	0x3e338d15	0.17534287
236	0x3e15fb45	0.14646633
237	0x3de99e12	0.11407103
238	0x3e194ad2	0.14969948
239	0x3e5e2275	0.21692832
240	0x3e234e7a	0.15947905
241	0x3e0a4bde	0.13505504
242	0x3e263200	0.16230011
243	0x3e296ec8	0.16546166
244	0x3e20066f	0.15627454
245	0x3db26109	0.08709914
246	0x3e2dff7f	0.16991995
247	0x3e00a174	0.1256159
248	0x3dcaf05c	0.09909126
249	0x3dc7eb26	0.09761648
250	0x3de372f0	0.11105907
251	0x3dfeff67	0.12451058
252	0x3db835f1	0.089946635
253	0x3e7be7aa	0.24600092
254	0x3da90360	0.08252597
255	0x3e597251	0.21235014

encoders.1.encoder.conv.bias f4 [128]
0	0x3ceac59c	0.02865868
1	0x3a720e90	0.00092337374
2	0xbbd8c9e9	-0.0066158664
3	0xbc9eb2c8	-0.019372359
4	0xbb65cc8e	-0.003506455
5	0xbc37d7a1	-0.0112208435
6	0x3d61fdab	0.055173557
7	0xbc8d3d39	-0.017241107
8	0x3c61b4aa	0.013775984
9	0xbc5adb4b	-0.013357948
10	0x3c73454e	0.0148480665
11	0xbba52116	-0.0050393445
12	0xbd11de9c	-0.035612687
13	0x3d711a02	0.058862694
14	0xbd1642d0	-0.03668481
15	0xbca7780c	-0.020442985
16	0xbd0efe0b	-0.034910243
17	0xbd4491e7	-0.047990706
18	0x3b5b88e9	0.0033498353
19	0xbcffaf05	-0.031211386
20	0xbcf8a4d0	-0.030352026
21	0x3d624dcd	0.055249978
22	0xbbcef0cf	-0.0063153277
23	0x3cd9e205	0.026597032
24	0xbc09f85a	-0.008421028
25	0x3ca21051	0.01978317
26	0x3ce2948f	0.027658729
27	0x3d005c7a	0.031338193
28	0xbc9cc321	-0.019136013
29	0xbcde0f41	-0.027106883
30	0xbccb2070	-0.02479574
31	0x3b51b5a1	0.0031999128
32	0xbc47ef2b	-0.012203018
33	0x3a4ecbc1	0.0007888638
34	0xbd363665	-0.04448547
35	0x3c83d056	0.016090553
36	0xbce6479d	-0.02811032
37	0x3ce7016f	0.028198926
38	0xbb86141c	-0.0040917527
39	0xbc400d2b	-0.0117218895
40	0x3c1e0ac3	0.0096461205
41	0x3cb269bf	0.02177894
42	0xbb4294b1	-0.0029690678
43	0xbcf973df	-0.03045076
44	0x3c9481c4	0.018128283
45	0x3cc135b2	0.023585174
46	0x3d457541	0.048207525
47	0xbcae53e9	-0.021280246
48	0xbcf80fad	-0.030280912
49	0x3c3786ee	0.011201603
50	0x3d816742	0.06318523
51	0xbc4f869a	-0.012666369
52	0xbd032d22	-0.032025464
53	0xbd715ec9	-0.058928285
54	0x3c82336a	0.015893657
55	0x3d72787b	0.05919693
56	0xbcdb2582	-0.026751284
57	0xbcac173d	-0.021007175
58	0x3c63bc1c	0.013899829
59	0x3d1da8ab	0.038490932
60	0xbc5038a1	-0.012708814
61	0xbd393059	-0.045212124
62	0xbc98e5fb	-0.01866435
63	0xbbc4c836	-0.0060053123
64	0xbcaf3de6	-0.02139182
65	0xbd4f938c	-0.05067782
66	0xbc5abde7	-0.01335094
67	0xbc8a5372	-0.016885493
68	0xbbd31045	-0.0064411485
69	0x3d25e1f5	0.040498693
70	0xbd38cf4a	-0.04511956
71	0xbcb9757f	-0.022639034
72	0x3be36928	0.006940026
73	0xbd11bbe5	-0.03557958
74	0xbc7b06c2	-0.015321435
75	0xbc58abd7	-0.013224564
76	0xbd085a91	-0.033289496
77	0xbb21ac52	-0.0024669361
78	0x3cc1e609	0.02366926
79	0x3d24539d	0.040118802
80	0x3aabea90	0.001311617
81	0xbc021607	-0.007939822
82	0xbc8854ba	-0.016641963
83	0x3d395fd7	0.045257416
84	0x39aee79b	0.00033360426
85	0xbbb8f6a7	-0.0056446376
86	0xbd416100	-0.047211647
87	0xbcc9ae86	-0.024619352
88	0x3d2e4e33	0.042555045
89	0xbc6da74e	-0.014505221
90	0xbcc98697	-0.02460031
91	0xbbcae23b	-0.0061915196
92	0x3c781f57	0.015144191
93	0xbd0ad627	-0.033895638
94	0x3d0f3c0f	0.034969386
95	0xbc2a58df	-0.010397165
96	0xbc2d7a68	-0.010588266
97	0x3cf33371	0.029687615
98	0x3c5a0cd8	0.013308726
99	0xbc024787	-0.007951624
100	0x3bef443d	0.007301836
101	0x3ca6e7cd	0.020374203
102	0xbce3f9d2	-0.027829085
103	0xba992e9e	-0.0011686867
104	0x3aab5afb	0.0013073379
105	0x3cd60c83	0.026129013
106	0xbc05ab62	-0.008158537
107	0xbc84a5c3	-0.016192323
108	0x3ce42775	0.027850846
109	0xbce1e116	-0.02757315
110	0x3cc17e50	0.0236198
111	0xbcf53dc9	-0.029936688
112	0x3c8bc1c1	0.017060162
113	0xbd7d3076	-0.061813794
114	0xbd1a7e05	-0.037717838
115	0x3d553aba	0.05205796
116	0x3d3835a2	0.044973023
117	0xbc81a8a8	-0.015827492
118	0xbd0f1dd0	-0.03494054
119	0xbc14850e	-0.009064926
120	0xbd194850	-0.03742248
121	0xbbd9eb31	-0.0066503515
122	0xbbfb38a7	-0.0076666656
123	0xbc98cf2f	-0.01865348
124	0xbd1d8a5d	-0.03846203
125	0xbca870fb	-0.020561686
126	0x3d1b2496	0.037876688
127	0xbcb59e25	-0.022170136
