model_zoo/model_Tonsil_2023_10_03_17_35.pth (torch, 453391 bytes, 66 tensors)

encoders.0.weight f4 [128, 128]
00000000: 72bb a93c 162f bebc 0273 583a 9021 adbc
00000010: 21db e93c 006a 0bbd 7267 c43c a11f 2fbd
00000020: da9e a53d 86a7 f73c aa61 32bb 2dc3 58bd
00000030: a3d7 a63d 83a8 0b3d 34af a13b 0411 bd3c
00000040: e458 083d ffd9 87bd a711 a93d b6c8 6f3d
00000050: 96c5 62bd d21a 893d 144f 9c3d 4b6f c8bb
00000060: cba4 713d d40c 283d a81b 863d ab62 b43c
00000070: 9bca 943b 54c4 2dbd 5f48 2e3d e984 ac3d
00000080: 97f0 b13c 007f aebd 0836 983d 4f35 a23c
00000090: 109f 993d 365b 1dbd 5aea 37bd f5e0 aebd
000000a0: 2dcc a03c 3369 3e3c b125 9dbc 1545 773b
000000b0: 737d 713d 151c 09bd 52f5 adbb f013 213d
000000c0: 5d89 aebd d7cf 233d 5c55 aa3d cac7 9ebd
000000d0: 5818 c7bb 3f4d b2bb 47fa a4bd fe9e 41bc
000000e0: 86c9 d33c e50d 94bc 4338 a83c d64c debc
000000f0: 025f 11bd 8549 93bd 9faa 1cbd 3dc3 0d3c
00000100: 8326 ecbc c332 b43c 670f 5b3c 5c86 593d
00000110: 285c a63d 9ebc 2fbd 3f1b e7bc 8cd2 0ebc
00000120: 5292 1fbd 6c7e 6fbd 18f2 9b3d ee68 653b
00000130: 362c 9ebd 2ef9 65bb e685 5dbd 5e87 cebc
00000140: 22be 163d 8b6f 59bd 06b7 0a3d 22bc 1e3d
00000150: e5c5 8bbd 3391 89bd 5426 91bd 3726 833d
00000160: e3a2 b0bd 26c7 af3d c9de 883d 41c8 333c
00000170: 7483 513d 94f8 ee3c ba52 dcbc 5a4f 02bd
00000180: 984d 133d 2524 b13d 76b9 aabd 83d0 303d
00000190: 0b52 1c3c 3633 943d fd6f 37bd 092c ad3d
000001a0: a5f8 6ebd 9d7d e5ba c267 0dbd 3574 e83c
000001b0: 8a9f 42bd 15fc 963d 7a5f 8cbd 493b 98bc
000001c0: 5525 1abd a495 ad3d 84a7 aebd fa83 95bd
000001d0: 8e7e 56bd b930 903d 224a 273d 4a1d 373b
000001e0: d665 13bd 1a31 74bd 8df1 6c3d c68e 6f3d
000001f0: 7d5f 8e3c 198e 3bbd 87a8 7e3d dac0 2f3d
00000200: 82ad 94bd 49e3 103b 915b 38bd 557b 9e3c
00000210: 5899 983d e225 ddbc 8f39 2d3d cf1a d6bc
00000220: 57ee 243d fd9b aebd b4d7 823d ecf8 723d
00000230: 70a1 babc 0d1d 893d 63ae e83c f823 813d
00000240: 134f a23c 5bb0 743d f2ef 45bd 4990 9dbd
00000250: 418a 473d 19de 72bd 5bb5 a23d 7032 f23c
00000260: ac6d 3fbd 1bf6 9ebd d902 403d c00e 09bd
00000270: 932e f13c 1e56 c93c 15be eb3c 1cc8 863d
00000280: d8dc 213d c086 a43c 654b 743c 026e ee3c
00000290: a915 6dbd d488 28bb e415 e93c 14a5 28bd
000002a0: ddf7 cabc 8f03 56bc d6ca 10bd 42cb 85bc
000002b0: 212d 973d bb58 5bbd 2fed edbc 99b3 17bd
000002c0: 1511 f4bc 76cf 8abd 4992 a5bd 6b24 973d
000002d0: 5ca2 b4bd 757b 9f3d f346 2dbd 68ac a1bd
000002e0: 0a66 0a3d 665e 593d 66f3 0f3d a668 293d
000002f0: 7dd2 4ebd 4073 06bd 3cd2 8b3d 5a9c c3bc
00000300: 16fd e23c 138d b43d 3e45 9fbd d7f2 17bd
00000310: 0026 bfbb 4a76 8abd 0ce1 eebc cd47 983d
00000320: 8732 ed3c 46cb acbd 99de 47bb ade1 6cbd
00000330: eef2 233d dee3 043d d3cb a8bb 0dab ba3c
00000340: 48df 15bd 6499 2a3b 64c0 a93d ef56 17bd
00000350: 0f34 07bd 86c7 8a3d c095 803d 68c2 90ba
00000360: 72f9 1d3d fd49 403d 7460 a2bd ccc3 29bd
00000370: b905 46bb 0b27 ab3d 10e7 08bd 867b bd3b
00000380: 66d0 8cbd ee6d e8bc f396 83bd dac5 47bb
00000390: 122d 69bc 4911 143d a097 533d 57bc 1fbb
000003a0: 4f82 c13b f55f 91bd fb84 c6bc def8 07bd
000003b0: 6837 9bbd af37 9a3d e8b0 31bd 2aa4 b43c
000003c0: d530 7bbd d259 0ebd 8913 06bc 2b39 9abd
000003d0: 2d41 763d c240 a6bc 8251 d83b f12f 02bd
000003e0: abee 9fbd e13c 943d 09fd d6bb fb4b 28bd
000003f0: b113 b13d 30e1 8f3d 57bd 76bd d241 ae3d
0.020719264 -0.023215812 0.00082568836 -0.021134168 0.028546872 -0.034036636 0.023975108 -0.042754773
0.08086939 0.030231249 -0.0027218857 -0.05292051 0.08146598 0.034096252 0.004934216 0.023079403
0.033287898 -0.06633376 0.0825532 0.058541022 -0.055364214 0.06694569 0.076322705 -0.006116783
0.05899505 0.04102786 0.06548244 0.022019705 0.004540754 -0.04242356 0.042549487 0.08423788
0.021721167 -0.08520317 0.07432181 0.01980081 0.07501042 -0.038417064 -0.04490123 -0.08539001
0.019628609 0.011621761 -0.019183012 0.0037730385 0.05895753 -0.033474047 -0.0053087855 0.039325655
-0.08522294 0.039993133 0.08317062 -0.077529505 -0.0060759 -0.0054413374 -0.08055549 -0.011817692
0.02585293 -0.018073032 0.02053464 -0.027136248 -0.035490997 -0.07191757 -0.038248654 0.008652505
-0.028826958 0.021996861 0.013370371 0.05310665 0.08123046 -0.04290449 -0.028211234 -0.0087171905
-0.0389579 -0.058470175 0.07614535 0.003500517 -0.07723276 -0.003509115 -0.054082774 -0.025211032
0.03680242 -0.05308489 0.03386595 0.038753636 -0.06824855 -0.06717148 -0.07087389 0.06403773
-0.08624818 0.085829064 0.06683118 0.010973037 0.051150754 0.029171266 -0.026894916 -0.031813957
0.03596267 0.08649472 -0.08336155 0.043167602 0.009541045 0.0723633 -0.044784535 0.08455665
-0.058342595 -0.0017508749 -0.03452278 0.028375724 -0.04751543 0.073722996 -0.06854148 -0.018582957
-0.03763326 0.08475807 -0.08528045 -0.07300563 -0.052366786 0.07040543 0.040842183 0.0027941042
-0.03598579 -0.05961714 0.05784755 0.05848577 0.017379517 -0.04578981 0.06217244 0.042908527
-0.072596565 0.0022108129 -0.0450092 0.019345919 0.07451123 -0.026995603 0.04229122 -0.02613583
0.04026636 -0.08525846 0.06388798 0.05931942 -0.022782058 0.06694994 0.028403467 0.063056886
0.019813096 0.0597385 -0.048324533 -0.07693536 0.048715834 -0.05929384 0.07944747 0.029565066
-0.04673545 -0.07761785 0.046877716 -0.033461332 0.029441154 0.024577197 0.028777162 0.065811366
0.039517254 0.020083785 0.014910554 0.02910519 -0.057881985 -0.0025716322 0.028452821 -0.041173056
-0.024776394 -0.013062372 -0.03534969 -0.016332272 0.073816545 -0.053551417 -0.029043762 -0.037036512
-0.029793302 -0.06777851 -0.08084542 0.07379993 -0.0882003 0.077872194 -0.04230399 -0.07894212
0.03378872 0.05306854 0.035144232 0.041359566 -0.050493706 -0.032824755 0.068272084 -0.023878265
0.027708571 0.0881597 -0.07776879 -0.037096824 -0.0058333874 -0.06760843 -0.029160045 0.0743557
0.028954757 -0.08437209 -0.0030497669 -0.05783241 0.040026598 0.032443874 -0.005151251 0.022786641
-0.03658989 0.002603137 0.08288649 -0.03694814 -0.03300863 0.06776337 0.062785625 -0.0011044266
0.038567968 0.04694556 -0.07928553 -0.041446492 -0.0030215813 0.08357056 -0.033423483 0.0057825474
-0.06875686 -0.028372731 -0.06425276 -0.003048292 -0.014231937 0.036149297 0.051658273 -0.0024373734
0.0059054266 -0.070983805 -0.024233332 -0.033196323 -0.07578927 0.07530152 -0.0433816 0.022050936
-0.061325867 -0.034753628 -0.0081833685 -0.07530435 0.06012075 -0.02029455 0.0066015134 -0.031784
-0.07809194 0.07238174 -0.006560926 -0.041088086 0.08646334 0.07025373 -0.060239162 0.08508648

encoders.0.encoder.conv.bias f4 [128]
00000000: bd79 8d3d 0016 acbc 1c6a 5dbd 82b9 81bd
00000010: d382 cd3d 0529 53bd f075 99bd bfb0 08bd
00000020: a9b3 2abd ac20 a23d 2302 86bc f7da 073a
00000030: 1a9a cdbd 16ec 13bd 947b a1bd 7d6f 76bd
00000040: 8b5f a5bd 8918 2fbb f1e8 953a 1505 01be
00000050: b18a 46be b657 fcbc efcf 85be b95c 6fbc
00000060: ed58 d1bd 775e 98b9 4e0d ebbd 2f4a 29be
00000070: e336 c2bd 6923 2abe c903 013d 6dfa 30be
00000080: 1e60 ac3d 173f cebc 01c2 993b 32d1 b5bd
00000090: 1ae8 00bb eec1 dabd 8308 87be 67c9 f5bd
000000a0: 4f47 41be 2dad 47be 267c 73bd f3e5 3ebd
000000b0: d83a 31be 4a43 d4bd 1acd df3d ac00 2abd
000000c0: 3117 0b3e 4afe 22be 28b5 e73d 01cf c739
000000d0: fd37 bfbd 75d7 143e 2e83 cdbd a453 88bc
000000e0: e869 03be f2a6 823d 73c6 a73d e6f0 dfbd
000000f0: 7e41 32be a8c1 11bd 87c8 5638 79fb bbbd
00000100: d8c3 20be fcb7 bebd 6d0e 873d 541b 77be
00000110: 19ad b13d 59e8 e6bd 722d 11bc 2b8d 62be
00000120: 67bb 13be 5d67 ed3c e5c5 d03d dcf7 dbbd
00000130: 5e5b fc3d 845d 8abc fa48 46bd f1b1 f8bd
00000140: b1e0 53be 2bed f2bd a21b debd 72ab 05be
00000150: 510b 25be d047 efbc 89bb 0fbd 8370 fb3c
00000160: 2b50 1c3d 34c0 14bd e4f4 28be 5693 6c3c
00000170: c483 af3d be7a 9abc 536a 91bd 60f1 25bd
00000180: b3bd 8cbe ba7f b9bd 5eb9 1dbe 6529 8ebd
00000190: 3fcb 043e ae4c 043e e5ca 6dbe e3fb c83d
000001a0: 2d74 4cbd cfec 60bd 99b2 493c db95 56be
000001b0: 4c53 58be a0c3 25be 020f a23d cc21 3bbe
000001c0: c1dc acbc ceb5 e2bd b649 40bd 8e25 c9bd
000001d0: 5460 73bd 9725 153c b14e d0bc f81c 19be
000001e0: be3b d83d fc62 08be d1f6 e5bc f7c3 d6bd
000001f0: 2027 203c 8bf4 0bbe 847d f4bd 90d3 54bd
0.06907985 -0.021006584 -0.054056272 -0.06334211 0.10034718 -0.05155279 -0.07493198 -0.033371683
-0.041675244 0.07916388 -0.01635844 0.00051824696 -0.10039158 -0.03611382 -0.07884899 -0.060164917
-0.08074864 -0.0026717505 0.001143722 -0.12599595 -0.19388844 -0.030803543 -0.26135203 -0.014609509
-0.10222039 -0.0002906208 -0.11477147 -0.16532205 -0.09483125 -0.1661507 0.03149775 -0.1728303
0.084167704 -0.025176568 0.0046923165 -0.088777915 -0.0019669593 -0.106815204 -0.2637368 -0.12001305
-0.18874858 -0.19499655 -0.05944457 -0.046606015 -0.17307603 -0.10364397 0.10927792 -0.041504547
0.13583066 -0.15917316 0.1131385 0.00038110468 -0.09336851 0.14535315 -0.10034786 -0.016641445
-0.12833369 0.063794985 0.08192148 -0.109346196 -0.17407796 -0.035585076 5.120833e-05 -0.09178824
-0.15699708 -0.09312436 0.065945484 -0.24131519 0.08675594 -0.112747855 -0.008860933 -0.22124164
-0.14426957 0.028979952 0.101939954 -0.10740635 0.123221144 -0.016890295 -0.04840944 -0.12143315
-0.20691182 -0.118616425 -0.10845114 -0.13053682 -0.16117598 -0.029209048 -0.035090957 0.030693298
0.03816239 -0.03631611 -0.16499668 0.0144394245 0.08570054 -0.018857356 -0.07100358 -0.040513396
-0.2748848 -0.09057565 -0.15402743 -0.06941489 0.12968157 0.12919876 -0.2322193 0.098136686
-0.04991548 -0.05491334 0.012310647 -0.20955603 -0.21125525 -0.16187906 0.07913019 -0.18274611
-0.021101357 -0.11069833 -0.046945296 -0.09821616 -0.059418038 0.0091032 -0.025428148 -0.14952457
0.1055827 -0.1331901 -0.028071793 -0.10486596 0.009774953 -0.13667504 -0.11938003 -0.051959574

encoders.0.encoder.conv.lin.weight f4 [128, 16]
00000000: 67ac 4a3d a9e8 76bd 01fb 02be 60b8 233e
00000010: 9198 10bd aeaf 623e ae76 87bd 3850 2bbd
00000020: 4561 1e3e da95 253c b10d 1b3e 0c81 07be
00000030: 746b 7d3e daed 023e 9471 db3d 8ecf dcbd
00000040: 1647 34be 4e5b 22be c931 0dbd e72f 41be
00000050: a468 3abd 64a6 583e d479 133e af3e 3dbd
00000060: 6a8e e63d cfc4 073d 8e97 f0bc 5274 6fbe
00000070: d0c7 553e 241f f43d 8cc1 95bd 339b 433e
00000080: 546f 8abd 9ade d0bd bfef 33be 6807 22be
00000090: 4b5a 403d b741 00bd 1e61 16bc 3d3e a0bd
000000a0: c8ac fc3d d193 89bb e787 a1bd 84ec c13d
000000b0: 9a18 4abe a738 43be a325 88be d9cd e9bc
000000c0: 24ee 0f3e a67e df3a d42d a2bd 1a9f 733c
000000d0: 9713 7f3d a29a 06be d0a2 523e 7b57 c0be
000000e0: 1d08 223e 5398 1ebe ed71 3b3e d6da 17bd
000000f0: 524e 9e3d 788b 04be b9c4 cfbd e194 023d
00000100: ad0c b6bc e5c7 5dbe f2af 6dbe 4fff 51bd
00000110: 81cf cf3c a56c 85be 052e 53bd 9329 06be
00000120: 1886 02be 661e 253c 22f5 f0bd c041 ba3d
00000130: 8d40 1a3e 557e 94bd 9d8d e7bc 41bf 3a3e
00000140: 1f51 e83d 2dfc 413e 4c7e 15be cae1 26be
00000150: 5860 d9bd 1e66 18bd 9b84 803d a2a7 86bd
00000160: c88f 4e3d b913 863d 8612 a13c 6344 25bd
00000170: 8a4b 04be 8b42 6cbe 7399 7a3e ebb6 41be
00000180: 062a 2c3d 5181 dfbd 84b2 7cbd c6fc 253e
00000190: ad9f 403d 2213 41be a08d 8fbd 0ce7 353d
000001a0: 771c 20be 35f9 cbbd 2550 c9bd ed03 fd3d
000001b0: 4c77 e33d e5d0 0e3e 1ee0 18bd 0356 3fbe
000001c0: 9e9f 61be 24a5 a13d 9468 403d 22bc 863d
000001d0: 2b9e 34be 1108 54be 3312 cc3d 777c 0c3e
000001e0: 6293 fbbc 63f0 0bbe b82e 833e 21d6 1dbe
000001f0: 5dd5 1c3e 4370 4cbc 537f 283d 26d7 423e
00000200: c9fa 633e 22ee 233d 5312 73be 4e91 283e
00000210: 530d c4bd 8afe e3bd e5f2 0c3e db63 9dbd
00000220: 7628 dd3d 8664 e83d 0232 90bd d2dc 0c3e
00000230: d8a3 83be 8b23 6fbd 131b 9abd 9ae3 3a3e
00000240: 8303 47be d4a9 b13b abf6 913d b7df e7bc
00000250: 38f1 0cbe 9428 2ebe bdc6 13bc 1fc6 133e
00000260: 9b74 9cbd 47cf 77bd 5720 8a3d 09f8 3c3e
00000270: 2aad eabd dace 123e 253f a73d 15f2 61be
00000280: 79ca a5bd d788 cbbd 0dfd 7f3d 0df8 99be
00000290: bc96 283d df39 d9bd 39ac 1b3d 60fe 0abc
000002a0: 6a8f 6d3e 9774 e0bd aaf0 7ebd 32f4 0e3e
000002b0: 3690 703c d393 683d ba59 f23c 75bb 9bbd
000002c0: e2c5 313e 6455 25be ec7f 69bd 7a3d 23be
000002d0: 885a a0bd cd42 6cbe bcad 363e 93dc 683e
000002e0: 64a9 bc3d 44fb 813b c006 80bd b71a 1e3e
000002f0: 5b46 5bbe 69d8 833d 9da9 623e ec4c ee3d
00000300: 6b08 4b3e a060 43bd c7e8 cb3c cb8c 8a3e
00000310: 4687 38be 3776 56bc 1914 6fbd 2e09 a33d
00000320: 4dae 59be d490 f33a f003 37be bf87 113c
00000330: 6864 27be ce62 32be 0232 40be e14c 2cbb
00000340: a76a cdbb a189 a03c e6f0 b43c 6a84 60bd
00000350: 337a d13d ff38 10be 2f1b 8f3d 102d a5be
00000360: b196 b4bd aeb2 583c 6040 2c3e a992 933d
00000370: d52e 7d3b 3b25 8dbd 26be b7bd dc33 babd
00000380: 7780 4dbd ff29 083e f1d4 eebc 2447 903d
00000390: 4b22 87bc 6e7f 203e 82e2 4abd a059 c73c
000003a0: 1bdf c0bd da36 25be d7d4 103c a1b1 79be
000003b0: 3e2e 87be f3ef 483d 5d15 bdbd 2e29 96bd
000003c0: 5f89 b8bd 0a12 82be d264 32be f1e7 7d3d
000003d0: 7ed0 0b3e de04 a6bd 3ef8 33be 104c 52be
000003e0: 420a 5fbd 5bdc 823d 45fb c03d c361 0c3e
000003f0: 84c1 0a3e ca15 0bbe 4ab3 df3b 161c 50bd
0.049480822 -0.060280476 -0.12791063 0.15988302 -0.03530175 0.22137329 -0.06614433 -0.04182455
0.15466793 0.010106528 0.15141942 -0.13232821 0.24748021 0.12786046 0.10715023 -0.107817754
-0.17605242 -0.15855142 -0.034471307 -0.1886593 -0.04550995 0.21157223 0.14401942 -0.046202358
0.11257632 0.033146676 -0.029369142 -0.23384216 0.20877004 0.11920002 -0.07312307 0.19102173
-0.067595154 -0.10198708 -0.17571925 -0.15823138 0.04696111 -0.03131267 -0.009178428 -0.07824371
0.12337643 -0.0041985293 -0.078872494 0.0946894 -0.19735947 -0.1906458 -0.26591215 -0.028540539
0.14055687 0.0017051294 -0.07918897 0.014869476 0.06227454 -0.13144925 0.2056992 -0.37566742
0.15823407 -0.15487795 0.18305178 -0.037073933 0.07729782 -0.12943828 -0.10144944 0.031880263
-0.022222841 -0.21658285 -0.23211649 -0.051268872 0.0253675 -0.26059452 -0.05155756 -0.13101797
-0.12746465 0.010078048 -0.117655054 0.09094572 0.15063687 -0.072506584 -0.028265769 0.1823702
0.113435976 0.18943854 -0.1459896 -0.16297069 -0.10614079 -0.03720676 0.062752925 -0.06574942
0.05043009 0.065467305 0.019662153 -0.04034842 -0.12919441 -0.23072259 0.24472599 -0.18917434
0.042032264 -0.10913337 -0.061693683 0.16209707 0.04702728 -0.18854955 -0.07009435 0.044409797
-0.15635858 -0.09959642 -0.098297395 0.123542644 0.111067384 0.13946874 -0.03732311 -0.18685155
-0.22033545 0.07892826 0.046974733 0.06578852 -0.17638461 -0.20706202 0.09964409 0.13719355
-0.030709926 -0.13665919 0.2562158 -0.15413715 0.15315767 -0.012477937 0.04113705 0.19027385
0.22263636 0.040022023 -0.23737459 0.1646168 -0.09572854 -0.11132534 0.13764532 -0.076850615
0.10798733 0.11347298 -0.07040788 0.13756111 -0.2571094 -0.058383506 -0.07524695 0.18250886
-0.19434933 0.0054218564 0.07127126 -0.028304918 -0.13763893 -0.17007667 -0.009019551 0.14431046
-0.07639428 -0.06050041 0.067444496 0.18453993 -0.1145881 0.1433672 0.08166341 -0.22065003
-0.08095259 -0.099382095 0.062497187 -0.3007206 0.041159377 -0.10606741 0.03800604 -0.008483499
0.2319924 -0.10959738 -0.062241234 0.1396034 0.01468282 0.0567816 0.0295838 -0.07604114
0.17360643 -0.16145855 -0.05700676 -0.1594142 -0.078297675 -0.23072357 0.17839712 0.22740392
0.09211996 0.003966721 -0.062512875 0.15439878 -0.21413557 0.06437761 0.22135015 0.116357654
0.1982743 -0.04769957 0.02489127 0.27060542 -0.18020353 -0.013089708 -0.058368776 0.07960735
-0.21257897 0.0018582591 -0.17872596 0.008882462 -0.16346896 -0.17420503 -0.18769076 -0.002629094
-0.0062688175 0.019596877 0.022087526 -0.05481378 0.10228386 -0.14084242 0.06987607 -0.32260942
-0.088178046 0.013226194 0.16821432 0.072057076 0.003863265 -0.06891867 -0.08971815 -0.09091923
-0.05017134 0.1329727 -0.029154273 0.07044819 -0.016495844 0.1567361 -0.04953242 0.024334729
-0.09417554 -0.16134205 0.0088398075 -0.24384166 -0.26402467 0.04905696 -0.0923259 -0.07332073
-0.090105765 -0.25404388 -0.17421272 0.061988775 0.13653752 -0.08106397 -0.17575166 -0.20536828
-0.054453142 0.06389686 0.09422926 0.13709168 0.13550383 -0.1358253 0.006826793 -0.050808035

encoders.0.encoder.prelu.weight f4 [128]
00000000: 7172 163e 8058 b73d c3f8 303d d8e7 85bc
00000010: 64c4 85ba 9f34 7d3d e059 903d ca62 75bc
00000020: 0e9d 813d 8d0d 203d f52e e13d 5408 cc3c
00000030: 8bbe 123e e40b 04bd 2350 c13c a450 8abd
00000040: 7308 ddbb ffe6 8f3d 948e 123e fc41 5fbb
00000050: d5f7 b93d 36b9 0fbe d15d df3d 7b5f 033d
00000060: 0fda ed3c 0e2c 4cbd a324 a93d 3882 f1bc
00000070: 295d 483d b072 2c3d 2c4f 6b3c 17ee 55bb
00000080: 11f8 8e3b b82a 0bbd ce29 e53c ccf8 2d3d
00000090: 65f2 463d 64f0 08bc ff05 643c 6bff 8dbb
000000a0: ecff c53d a834 f33c 9010 dbbd 7d15 01bd
000000b0: cb6b 663d 6f94 88bd fc26 483e 2620 a43d
000000c0: 2253 113e daa5 253d 4d49 80be 72a3 42be
000000d0: 6d9c 0bbc 385e 943d 3818 3b3d 8ad1 b9bc
000000e0: b5f5 a2bc 8573 8b3d 53b4 abbc a4d5 93bd
000000f0: 1911 043d 425b a13c 64f3 283e 5a88 11bd
00000100: 0cf9 02be f0d1 8fbb afc2 16be cdb8 433d
00000110: dbfb ea3d 75ae 50bd 1a9d 8dbd 917a 7d3d
00000120: f792 993d ce39 ed3d 5090 193d 0cbf 5fbe
00000130: 7983 bdbc c0ef 9e3d 46d1 253c d876 06be
00000140: e3e6 19be 954a efbd fae1 143e c844 083e
00000150: 77bf d1bd c4ca ff3d 136e 5f3d 8ad6 273d
00000160: b65f 443d 1436 c63c cd9b be3c ae58 c4bd
00000170: 58a5 1d3e 006c b5bc 6175 f2bd aa40 ab3c
00000180: 658e 313e 2040 8a3d 1235 c83c bfdf 0d3d
00000190: 655f fbbd 1c6e 3a3d 51a2 b7bd a572 543d
000001a0: 78e1 463d 66bc 3e3c a857 a2bd 12a6 3c3c
000001b0: af33 09be 9da4 6f3c d4b0 943a b548 53bd
000001c0: 7a52 60bd 3299 b93d 3f17 78be 9bef ee3c
000001d0: b648 23be c3ee 2bbc 9e8b abbd d748 81bd
000001e0: 96ae 67bd 2f45 9b3d 011c 61bd 1b32 bdbc
000001f0: d356 983d 5503 02be 574d b63c c5ae f1bd
0.14692093 0.08952427 0.043205988 -0.016345903 -0.0010205624 0.06181776 0.07048392 -0.014977166
0.06328784 0.039075423 0.109952845 0.024906315 0.14330499 -0.032237902 0.023597782 -0.06753662
-0.006745392 0.07026481 0.14312202 -0.003406643 0.09080473 -0.14035496 0.10906566 0.03207348
0.029034643 -0.0498467 0.08258941 -0.029481038 0.04891697 0.042101562 0.014362138 -0.0032643133
0.004363068 -0.033976287 0.027974036 0.0424736 0.04857101 -0.008358095 0.013917445 -0.0043334267
0.09667954 0.029688194 -0.106965184 -0.031514633 0.056255143 -0.066689365 0.19546121 0.08013944
0.14191869 0.04044137 -0.25055924 -0.19007662 -0.0085211815 0.07244533 0.045677394 -0.022682924
-0.019892553 0.06809143 -0.020960009 -0.07218483 0.032242868 0.019696835 0.16499096 -0.035530426
-0.12790316 -0.00438904 -0.14722703 0.04778366 0.11473819 -0.050947625 -0.0691473 0.061884467
0.074987344 0.11583291 0.037491143 -0.21850222 -0.02313398 0.077605724 0.010120695 -0.13131273
-0.15029483 -0.11684147 0.14539328 0.13307488 -0.10241597 0.12489846 0.054548334 0.040976085
0.04794284 0.024195708 0.023267651 -0.09587227 0.15395105 -0.022146225 -0.118387945 0.020904858
0.17339475 0.06750512 0.024439368 0.03463721 -0.122740544 0.045515165 -0.08966506 0.051867146
0.048554868 0.011641597 -0.07926875 0.011514204 -0.13398622 0.014626649 0.0011344203 -0.05158301
-0.054766156 0.09062423 -0.24227618 0.029166987 -0.15945706 -0.010493937 -0.08376239 -0.06312721
-0.056562982 0.07581555 -0.054958347 -0.023095181 0.074384354 -0.12696584 0.022253675 -0.11800913

encoders.0.encoder.conv2.bias f4 [128]
00000000: 817a 41bc 6390 7a3a db92 2cbd d1e6 40bd
00000010: ab07 02bd e794 6fbc 937b 033e accd 98bc
00000020: 2523 2cbe ff18 5a3d 4f72 ff3d 4f0d 103e
00000030: e14e b6ba d71c d5bd 93ff fb3d 1bbf 123c
00000040: d8ac 2dbe 74e8 76bd 6460 75bd fca6 433d
00000050: 43dc 87bd e4a0 353d 0ebd 80bd b6b9 62bc
00000060: 6797 ae3b 30cf 45bd 32ac 9a3d 0058 acbb
00000070: 0797 4d3b 54e5 e2bd b9ed 96ba bf9a 963d
00000080: 8256 bcbd fc5f f4bd 6764 e73c b30f cbbc
00000090: 0e96 8c3d dcc6 113d 4228 123e 97c4 12be
000000a0: 226e b3bd 271a e33c cbef 803b a0b2 0cbe
000000b0: e452 5dbc 1be7 cbbc 5741 13bb a508 e3bd
000000c0: acd7 7d3d d3e3 d73d f1c5 ba3c 0ac0 0a3c
000000d0: 80d1 c03c 1d6c 2bbe 1dd1 2dbe fa31 03be
000000e0: 1f1e 95bd 6ced b6bd 428a 92bd f6cc 793d
000000f0: b3fe 2f3e df33 e73c 80c0 9ebd 2b4a 46be
00000100: fe55 863b 4689 b3bd d451 2e3d 301d 033d
00000110: 2ea2 233e bd7e 28be fd65 efbd 1853 123d
00000120: 10b1 1abd a221 c3bd ca4a afbc 57da ccbc
00000130: a03a fc3b 8f01 b53d 71c3 23bd ee0f acbc
00000140: 3af9 c7bb e838 d4bd bb40 92bd fd44 ca3d
00000150: add8 ff3d 19d1 34bc f07a b3bd 503b 56bd
00000160: c268 76bd ff4a 79be 6d1d 4f3c 5094 4d3d
00000170: b1c3 85bd 2879 fbbb 909d 85bc 8c5f 28bc
00000180: f6b7 b33d 6390 fd3b e996 3abd 8508 e2bd
00000190: 54ce 99bd a7e1 f63d b3d8 0dbe 5385 7e3b
000001a0: 96f7 25be 0f94 cbbd 0dff 0ebd c694 533c
000001b0: 9acc b73c 4664 e5bd f0b5 9cbd e17d b3bd
000001c0: bbfd 25bd 616e 13be acbd 97bd b975 babd
000001d0: 5aeb 5e3b bd87 f4bd 3c96 223e d612 b2bd
000001e0: 21d3 bd3d 26e5 eb3b 820e a23c a63d 02bd
000001f0: cfa9 d0bb 0688 573d 2902 cbbb 7a6f 023e
-0.011808992 0.00095582585 -0.04213224 -0.047095124 -0.031745594 -0.014622903 0.12840109 -0.01865276
-0.16810282 0.053246494 0.124729745 0.14067577 -0.0013909006 -0.104058914 0.12304606 0.008956696
-0.16960466 -0.06028028 -0.05990638 0.04776667 -0.066338085 0.04434289 -0.06286059 -0.013838222
0.005328107 -0.048293293 0.07552375 -0.005259514 0.0031370537 -0.11078897 -0.0011514939 0.07353734
-0.091961876 -0.1193237 0.028246118 -0.02478776 0.06864558 0.035590038 0.1427317 -0.14332806
-0.087612405 0.027722431 0.0039348355 -0.13740015 -0.013508532 -0.024890473 -0.0022469366 -0.11085633
0.06197326 0.10541501 0.022799464 0.008468637 0.023537397 -0.1674046 -0.16974302 -0.12812033
-0.07281136 -0.089320034 -0.07155277 0.06098648 0.17187004 0.028222976 -0.0775156 -0.1936423
0.0040996065 -0.08766417 0.042558506 0.032010257 0.15979835 -0.16454597 -0.116893746 0.035723776
-0.037766516 -0.09527899 -0.021397967 -0.025006456 0.0076974183 0.08838188 -0.03998131 -0.02100369
-0.006102708 -0.103624165 -0.071412526 0.0987644 0.124924995 -0.011036181 -0.08763683 -0.05230266
-0.0601585 -0.24345015 0.012641293 0.05019027 -0.06531466 -0.007674355 -0.016310483 -0.010276686
0.08775322 0.0077381595 -0.045554075 -0.11036781 -0.07510057 0.120547585 -0.13852195 0.0038836792
-0.16207728 -0.09940349 -0.034911204 0.012913888 0.022436429 -0.11200766 -0.07651889 -0.08764244
-0.04052518 -0.14397575 -0.07409224 -0.09104485 0.0034014792 -0.119399525 0.15877622 -0.08694999
0.09268785 0.0071989475 0.019782308 -0.031797074 -0.006367899 0.052619956 -0.006195326 0.12737837

encoders.0.encoder.conv2.lin.weight f4 [128, 128]
00000000: ffef 123c 2e65 4d3e cb62 92bc 310b 67bd
00000010: 3201 35be d9b7 3dbe e3a5 bf3d 750a 30be
00000020: 489c c5bd 9a83 023e 9ceb 943c f513 cabd
00000030: 637b 8a3d 12cb 5ebb 05d2 76bc 0caa 2c3d
00000040: 034b 4b3d c14b 20bd 9fc8 723d 00d6 03bc
00000050: 5bbd 7c3d e7f3 88bd 06ee 47bd 0172 c53d
00000060: ee15 e6bd 0373 d63d 3036 8abc 3083 513d
00000070: f03d e1bd 0189 063e afd3 f2bd 175a 733d
00000080: 5b14 3bbe 936a cebb 0835 063d 820c 623e
00000090: 562b d2bc c8f2 babd f797 fbbd 2ee5 f0bd
000000a0: 9513 c83c c63c a83d 75d9 39bd 8154 77bc
000000b0: 58dd 82bd 6c35 7cbe 2cc2 37be 35ee 05be
000000c0: 8610 ee3d 2c71 5e3d c3b0 013d c478 803a
000000d0: 1b9c 423e d2f5 cfbd 7644 e9bd f9be 08be
000000e0: 9cd8 01be 56db e13d 12f5 943d 758d db3d
000000f0: 9a70 94bd 2e55 ae3d 9b89 9abd 7953 803d
00000100: 9b2a 893b c3c0 dbbd 1605 30be 4427 063d
00000110: fc51 6bbe 8454 053e d3d5 8bbd 0a91 053e
00000120: 3548 8bbd 06d3 cdbd aee8 f2bd bcc7 a7bd
00000130: a881 79be 68ac 003e fe41 7bbd 99a5 073e
00000140: 55fc e03c 7dd1 00be f8e2 a23c 5d78 823c
00000150: b380 283b 743d 0abe 7fd4 353e 56b0 2fbd
00000160: ea8a 06be 6f34 06bd 4910 2ebd 27de 66bb
00000170: ec0f d0bd 47c0 533d 38e7 62bd d136 663d
00000180: 9fc2 18be afe0 263e 7de0 5bbd 5998 463d
00000190: efe2 1d3e cc70 7abd 9bd9 5ebe 5b3c 383d
000001a0: 0005 cc3d b579 a2be 518e fc3d 459f 19be
000001b0: 8e11 a83d 8173 993c a4aa 65be 0b8d 0bbe
000001c0: 8483 453d 0a56 61bb 33ff 50bc f10f 00be
000001d0: 78d4 d23d 9ff8 f43d e00e 0b3d 490d cb3d
000001e0: 31f4 673d 58e7 80be 0d2b 593d 403e ab3d
000001f0: e468 e4bb e659 adbd 3d51 383e 88f1 fd3d
00000200: 1009 05bc a7f7 cdbd 686c 313e 4ee4 8c3e
00000210: 08d3 2a3c 10c3 a43d 9c9a 903d 1a21 2bbd
00000220: d5ae 2abe 65f6 393e 4916 3ebd 7faf 013d
00000230: a37d ffbd dfcb 01be d1bd 0c3d 9ed7 5abc
00000240: 1868 fd3c e023 22bd 9114 d43d fc4d 123e
00000250: 824c 6bbd d45f b53c 1998 b53d 25c5 d8bc
00000260: 10d4 e2bd b192 1e3e 35da 82bc 9b37 993c
00000270: d1ad 9f3d d760 f4bd 7cc7 243e cf20 0fbd
00000280: 3e60 103a 0931 493e c6c5 55bd 4cf9 aabd
00000290: 7ec3 7b3c 7c30 10be 2e3a ef3d a3b5 f3bd
000002a0: 618f f5bc f4ed 9fbd b316 94bd a4c0 2ebe
000002b0: 2aca 893d c28e 12be b091 a83b 99d1 1abd
000002c0: d6ca 57bb 0371 ffbd 427d b5bd 639f ca3d
000002d0: 6584 5d3d a6ad 4cbd 582e b93d c575 81bd
000002e0: 1a7f 8ebd 893f a93d ee98 883d 6727 88be
000002f0: f71c 79bd d831 163e d831 b9bd 06bc 7e3d
00000300: f14b 3f3c 2318 563e e133 103c 8169 ea3d
00000310: 9773 793d 5da8 0abe a725 fe3c f12a 89be
00000320: 7197 543d feb7 cdbc 5374 1f3e 3ca5 93bd
00000330: 3271 ad3d 7db9 253e 5a61 5a3d ddb9 00be
00000340: f94e e3bd c649 64bd cb9b 843d 134d 15bd
00000350: 6209 b33d ac18 173e 4979 f0bb 7cb6 b83c
00000360: 86a0 413d c157 e7bd 20f5 243e 1060 cebd
00000370: 4b69 9f3d d970 1a3d 2461 1d3e 2d7c 01be
00000380: 9468 e5bc 4ef0 403e 73ca fabd 8b89 fabd
00000390: 76e8 28be 51bf dbbd 45a0 9ebd 1e28 8dbd
000003a0: 5f6f 763d 6154 6cbe f773 f73c 2784 133e
000003b0: d725 333e ede5 9abd 63e3 9fbd 12b1 ffbd
000003c0: 9944 453e 415d d53d bded 6438 d8af f53c
000003d0: 48be b53d 69e4 113d c59e b2bb b7ea 91bc
000003e0: 8caf 85bc d921 89be 45d8 823d 665b b5bd
000003f0: 52cc 733d a219 d93d b6c7 1c3e 0dff 6d3d
0.008968352 0.20058128 -0.017869374 -0.056407157 -0.17676237 -0.18527164 0.09357812 -0.17191489
-0.09648949 0.12745515 0.018178754 -0.09867088 0.067618154 -0.003399555 -0.015064721 0.042154357
0.049632084 -0.039134745 0.05927336 -0.008046627 0.06170402 -0.06687146 -0.04881098 0.09640885
-0.112346515 0.104711555 -0.016871542 0.0511505 -0.10998142 0.131382 -0.11856782 0.05941209
-0.18269484 -0.0062993257 0.03276542 0.22075084 -0.02565543 -0.09128338 -0.12284844 -0.117624626
0.0244234 0.082147166 -0.0453734 -0.015095831 -0.06389874 -0.24629754 -0.17945164 -0.1307915
0.11624245 0.054307148 0.031662714 0.0009801616 0.19004862 -0.101543084 -0.11390011 -0.133541
-0.12680286 0.11028163 0.07273306 0.1072034 -0.072480395 0.085123405 -0.075457774 0.06265921
0.004185987 -0.10730126 -0.1718944 0.03275229 -0.22980493 0.13020521 -0.06827893 0.1304361
-0.06800882 -0.10050015 -0.118607864 -0.08192393 -0.24365866 0.12565768 -0.061342232 0.13246764
0.027464071 -0.12579913 0.019883618 0.015926534 0.0025711476 -0.13500005 0.17756842 -0.042892776
-0.13138929 -0.03276485 -0.042496 -0.0035227628 -0.10159287 0.05169704 -0.05539629 0.05620462
-0.14917992 0.16296647 -0.053680886 0.048485134 0.154186 -0.061142728 -0.21762697 0.044979434
0.09961891 -0.3173348 0.12331832 -0.15002163 0.08206473 0.018731834 -0.22428375 -0.13628022
0.048221126 -0.0034383559 -0.012756157 -0.12506081 0.102944314 0.11961483 0.033949733 0.09914643
0.056629363 -0.251765 0.053019572 0.083614826 -0.0069705117 -0.084644124 0.1799974 0.12399584
-0.008119836 -0.100570016 0.1732651 0.27517933 0.01042629 0.08045018 0.070607394 -0.041779615
-0.16668256 0.18160398 -0.04640797 0.031661507 -0.12475135 -0.12675427 0.03436071 -0.013357071
0.030933425 -0.039584994 0.10355485 0.14287561 -0.05744601 0.022140421 0.08866901 -0.026461193
-0.11075604 0.15485646 -0.01597319 0.018703273 0.07796825 -0.11932533 0.16091722 -0.034943398
0.0005507505 0.19647612 -0.052190565 -0.08348331 0.015366433 -0.14080995 0.11681019 -0.11899879
-0.029975595 -0.07809058 -0.07230892 -0.17065674 0.06728013 -0.1431227 0.0051443204 -0.037797544
-0.0032927296 -0.12472727 -0.08861782 0.09893682 0.05408134 -0.04997029 0.090420425 -0.06321291
-0.069578364 0.082640715 0.06669794 -0.26592562 -0.06081864 0.14667451 -0.0904271 0.062191032
0.011675821 0.20907645 0.008801431 0.114459045 0.06090125 -0.13540788 0.031023813 -0.26790574
0.05190224 -0.025112148 0.15571718 -0.0720925 0.08468856 0.1618404 0.053315498 -0.12570901
-0.11099047 -0.05573442 0.06475028 -0.036450457 0.08742024 0.14755505 -0.007338677 0.022547953
0.047272228 -0.112960346 0.16109133 -0.10076916 0.07783755 0.037705276 0.15369087 -0.12645026
-0.028003968 0.18841669 -0.122456454 -0.122332655 -0.16494927 -0.1072985 -0.07745413 -0.06892417
0.060164806 -0.23079063 0.030206664 0.14405881 0.17494904 -0.07563386 -0.078070424 -0.12484945
0.19264449 0.104181774 5.4580847e-05 0.029991075 0.08874184 0.03561822 -0.0054510557 -0.017812116
-0.016319059 -0.26783636 0.063889064 -0.088553235 0.059521027 0.10600592 0.15310559 0.058104564

encoders.0.encoder.prelu2.weight f4 [128]
00000000: 49ea 4a3e dd35 14be 331f bbbd 9198 6c3e
00000010: ba89 c23d a47a da3b e638 003e ebbe b83d
00000020: 604f cb3d a09e e1bd 6c31 54be 897f 13bd
00000030: dfc8 8d3e 4c79 74be c43a 18bd 2893 4bbd
00000040: 7b26 3f3e 489f b6be 65b2 80bd 8bda aebd
00000050: 9a2c 50bd 04e8 83bd 4f0c 013d cc03 b13d
00000060: ae5f b23d da9a f9bd 67c1 9c3d 42dd 353e
00000070: 3368 3ebd 537b 6a3d 5e6d 9e3d 2eef 4e3e
00000080: a6b0 a23d f9b7 0cbe d791 ab3d 5e42 0bbd
00000090: 9920 403d 8751 d73c 690e 89bd 1ad2 9c3d
000000a0: e57a 913e 7dfe 133e 0a5a c9bb 4928 96bd
000000b0: 9172 ee3c cc9f 07bd 6d03 b9bd 2eb4 a2bd
000000c0: 5b68 7c3e 2e0e 0d3d 58d5 a23d cd56 b3bd
000000d0: 211c 34bc a587 2dbd ebf0 ac3c e0fc 903e
000000e0: 96e9 1fbd 2970 c7bc cfcc d1bc af89 fa3d
000000f0: 383d d33d 4762 70bd e2b2 9bbd 01d9 943d
00000100: 590f c23d 699a aa3c cc7f b03d 2204 9d3d
00000110: 6344 a23d 4c32 c5ba b87e 2e3d a532 75bc
00000120: b748 963d 4323 203c 1b74 603c a73c 47bd
00000130: 59f4 c5ba d739 08bd 739a eb3d 4ebd 24be
00000140: cee4 393c d415 cd3d 9c51 29bd f25e da3c
00000150: c47d de3d 9926 0c3e 380e 50be 25a9 cc3d
00000160: 7531 d3bd ddf1 ab3e eed6 a4bd 05de b63d
00000170: 6532 95bb 3936 81bd 54d8 843c 01d9 14be
00000180: bf2f 6b3e d127 0e3c ac34 1ebd a2c0 97bd
00000190: 73a3 b63d fded 9abc e272 35bd 7c68 f83d
000001a0: 7df0 1cbd cd4f d23c 0538 813e b3b4 4fbd
000001b0: 6926 1ebc 30de 5f3e ec12 c83c e827 8cbc
000001c0: 2c79 b33d 388a 80bd f3b5 1dbc 78ca a9bd
000001d0: e03e 163e a31b 883e 082c 303d 5e59 45bd
000001e0: 2456 e03b 9451 923c c9d0 773d b2d1 643d
000001f0: bcb7 12be 4add 7f3d 12a3 883d c4cf a83d
0.19815935 -0.14473672 -0.0913681 0.23105074 0.094989255 0.006667452 0.12521705 0.0902079
0.09927249 -0.110165834 -0.20721978 -0.0360103 0.27692315 -0.23874396 -0.03716542 -0.049700886
0.18667023 -0.35668397 -0.06284026 -0.085377775 -0.050823785 -0.06440738 0.03150588 0.08643302
0.08709656 -0.12187739 0.07654076 0.17760184 -0.04648609 0.057246517 0.07735704 0.20208427
0.07943849 -0.13742055 0.08377426 -0.03399884 0.046906088 0.026283992 -0.06692202 0.07657261
0.28414074 0.14452548 -0.0061447667 -0.073319025 0.029107364 -0.03311138 -0.090338565 -0.07944523
0.24649183 0.03443735 0.07950848 -0.0875679 -0.010993035 -0.04236569 0.021110972 0.28317928
-0.039041124 -0.024345474 -0.025610356 0.12233292 0.10314411 -0.058687475 -0.076024786 0.07267953
0.094755836 0.020825582 0.08618125 0.07666804 0.079232 -0.0015044897 0.042601317 -0.014965688
0.07338088 0.009774032 0.013699557 -0.048641827 -0.0015102729 -0.033258285 0.11504068 -0.16087839
0.011346055 0.10013929 -0.041337594 0.026656602 0.10863832 0.13686599 -0.20317924 0.09993199
-0.103121676 0.33582965 -0.08048807 0.089290656 -0.0045531266 -0.0630917 0.016216435 -0.14535905
0.22967432 0.008676485 -0.03862445 -0.07409789 0.08917894 -0.01891231 -0.044299014 0.12129304
-0.038315285 0.025672818 0.25238052 -0.050709438 -0.009652712 0.21862102 0.024423085 -0.017108873
0.08763346 -0.06276363 -0.0096259 -0.08290571 0.14672422 0.26583585 0.04301074 -0.04818093
0.0068462063 0.017861165 0.060501847 0.055864044 -0.14327902 0.062466897 0.06671728 0.08242753

encoders.1.weight f4 [128, 128]
00000000: 8979 2d3d e9f4 4fbd 4272 95b9 fb15 94ba
00000010: 30b3 90bd 323f 4f3d 69db 633d 54ff afbd
00000020: c541 abbd 1313 bebc 66c9 973d 99b4 873a
00000030: de24 91bd 7331 8ebd 00a1 903d 765d 34bd
00000040: 248e 85bd d434 893c 0e0e 9fbd 80b5 b4bc
00000050: 1237 b8bc 6e05 b1bd dbd6 21bd 9b9c 743d
00000060: 100d 9fbd 44ae 50bd 4ed2 bdbd cd88 583c
00000070: 333f bcbd 059b a23d e2ad a8bd e0e9 de3b
00000080: 37ea abbc 4297 d13b fb76 963c 2846 8cbd
00000090: e015 9dbb 9ecd 113d 46c6 35bd 3004 76bd
000000a0: b473 a03c 761e 47bd 16e9 87bd dfbd 15bc
000000b0: 762c 74bd 9cba cf3c 8b10 7b3d 6b6c 7e3d
000000c0: 7fa4 50bd 32cf 403d b9b6 173c 0308 593d
000000d0: 0ce8 a13c cb6e bfbd dee0 2a3d 247b 5b3d
000000e0: fb27 b7bd 07ba 783d 33e3 99bd 1c7f 85bd
000000f0: 2acb 703d d104 cbbd b116 b5bd a51d 993d
00000100: 5338 5cbd 4dd0 9ebd 1b0f c2bd df15 11bd
00000110: 8050 cdbd ec41 b9bd 5da5 c6bd a2a5 a8bd
00000120: 9e29 8b3d 9c72 ebbc 63b5 813b 55aa adbd
00000130: 8ded 44bd 83fe aebd 3aee d1bc 954d 8bbd
00000140: 55a7 1cbd f9ec 8ebc 1627 8ebd 9ed7 bcbd
00000150: 5080 2ebc 1357 80bc b1f7 913a 2411 c8bc
00000160: d564 083d f6cb 87bd dad6 593d b329 083c
00000170: 773f 9f3d 684f 7bbd f6c8 3ebd 7075 96bd
00000180: 75b7 b9bc 6320 483d 26fe b0bd 029c 24bd
00000190: 14ed c2bd 750e 0abd 8ded 54bb 8080 77bd
000001a0: 15c2 31bb 2a1f babd ceae 483c 1eb0 c4bd
000001b0: c063 223c 03d3 793d 06f9 a33d 411e a0bd
000001c0: 8212 033d fde3 93bd 0128 743c 1ea9 05bd
000001d0: 78d3 243b bc35 a9bd 47b8 fb3c 782b 803d
000001e0: 54fd d83c abf6 88bc d965 293d ff33 b4bb
000001f0: e3d3 763d 5a06 8a3d d781 f0bc 4016 4a3c
00000200: 9306 d33d 8b51 de3c 52d4 c23d 4978 be3d
00000210: 566d 02bd a828 1cbd d8f5 403d a930 40bc
00000220: 5b17 a83d a919 74bd a41c ad3c c1c6 39bc
00000230: 1c54 643d 7b76 c3bc d04c 913d 9850 0c3d
00000240: 1056 1cbd 8fd8 9e3d f759 45bd 7bbb f6bc
00000250: 31a3 ae3d 76a2 b23b 51a9 923d be9e fbbc
00000260: a60e 50bd 3af7 6ebc 338e 263d 1927 1ebd
00000270: 8d1a 953d 96aa 943d ab54 c43d 7bb8 1dbd
00000280: 80b6 ba3d 827e b83d adbc b33d d7de cf3d
00000290: 2d0b 96bd b87d 103d fd76 ce3d a171 2bbd
000002a0: c70f f8bc b16c a93d 4077 143c 82c2 303d
000002b0: 91bb 52bd f43a 963c 8410 b4bc e97b 293c
000002c0: 7225 82bd 1002 d1bb 9b58 3bbd 3781 8cbc
000002d0: 8394 593d 0738 5e3c 0407 3abc 6b3b d43d
000002e0: 2170 b73d 02e4 953d d3ff 4b3d 4b60 473d
000002f0: b4dc 2cbc 982d 6e3b 3bb4 0e3d d3b6 213d
00000300: f664 053d 109d 9a3d ec05 64bc 99c1 ef3c
00000310: 6045 ac3d 7d2c 623d db47 0d3d ff3a 18bd
00000320: 4230 75bd 029d c23d 80b8 20bd f545 513d
00000330: 8930 e4bc 9778 2fbd 9ce4 04bd 4558 a83d
00000340: 255f 39bc 3f76 71bd cb7c 7e3d 9f72 a33d
00000350: 63c9 c9bc 97ed 2f3d 06a7 b1bc 9d37 a63d
00000360: e085 e63c 372e 92bd cac4 743d 20b9 07bd
00000370: 1e0d 423d 1e4c aabc 72b3 2fbd 0aa3 fe3b
00000380: 131c ab3c a38c ab3d 00fe 813d 4434 8fbd
00000390: 25a3 0b3d eb11 0f3d 6d83 293c 806d 913d
000003a0: 9f59 11bd 5c2a 89bc 22d6 9c3c 7c3b 9a3c
000003b0: 8b9c fabc d94a 5fbc 7800 36bd 51fa 26bd
000003c0: bc5b 823d 99fc 2b3d a722 02bd b22d e03c
000003d0: ea68 863d a2af 15bd 09ce 95bb 9f5b 66bd
000003e0: f1f4 6dbd 988a 29bd 7901 03bc e16a 4c3c
000003f0: 900f c53d b21b 003c 196a 57bb 79ec 6dbd
0.042352233 -0.050770674 -0.00028504623 -0.0011298055 -0.07065427 0.050597377 0.055629168 -0.08593622
-0.08362154 -0.023202455 0.074114606 0.0010353505 -0.0708711 -0.069430254 0.07061958 -0.044034444
-0.06521252 0.016748823 -0.077663526 -0.022059202 -0.022487197 -0.08643614 -0.039511543 0.059719663
-0.07766163 -0.050947443 -0.09268628 0.01321621 -0.09191742 0.07939724 -0.082362905 0.0068027824
-0.020985706 0.006396205 0.018367281 -0.06849319 -0.0047938675 0.035596482 -0.04437854 -0.060062587
0.019586422 -0.048613034 -0.066362545 -0.009139507 -0.059612714 0.025357537 0.061295073 0.062115114
-0.050938126 0.047072597 0.009259873 0.052986156 0.019763969 -0.09347304 0.041718356 0.053584233
-0.089431725 0.060724284 -0.07514038 -0.06518385 0.058787502 -0.09913028 -0.08842219 0.07476357
-0.053764652 -0.07754574 -0.094755374 -0.03542125 -0.1002512 -0.09045777 -0.09699509 -0.08234717
0.06795047 -0.028741173 0.0039583906 -0.08479754 -0.04807811 -0.08544638 -0.02562629 -0.06801907
-0.038245518 -0.017446982 -0.06941049 -0.09220813 -0.010650709 -0.01566652 0.001113644 -0.024422236
0.033299286 -0.06630699 0.053183414 0.008310723 0.07775777 -0.061355025 -0.04657837 -0.07346618
-0.022670487 0.04885901 -0.08642225 -0.040187843 -0.09517875 -0.033705194 -0.0032490224 -0.06042528
-0.0027123739 -0.09087975 0.012248708 -0.09603904 0.009911478 0.060992252 0.08006482 -0.078182705
0.032000072 -0.0722122 0.014902116 -0.032631986 0.002515046 -0.08262202 0.030727519 0.06258291
0.026487984 -0.016719183 0.041356895 -0.0054993625 0.060260665 0.06739493 -0.029358787 0.012334406
0.10303988 0.027138492 0.09513153 0.09300286 -0.031842552 -0.03812471 0.047109455 -0.0117303515
0.0820758 -0.059594784 0.021131821 -0.0113388905 0.055744275 -0.023860207 0.07094729 0.034256548
-0.038168013 0.07756149 -0.0481815 -0.030118695 0.0852722 0.0054514958 0.07161201 -0.030715343
-0.05079522 -0.014585311 0.040662955 -0.038611505 0.07280455 0.07259099 0.09586462 -0.038506012
0.0911684 0.090085045 0.087762214 0.10149925 -0.0732635 0.035276145 0.10081289 -0.04185641
-0.03028096 0.08272684 0.009061635 0.043154247 -0.05144841 0.018338658 -0.021980532 0.010344484
-0.063547984 -0.0063784197 -0.045738798 -0.017151458 0.053120147 0.013563163 -0.011354212 0.103628956
0.08956934 0.0731888 0.04980452 0.048675817 -0.010550667 0.0036343094 0.03483985 0.039480995
0.032566987 0.075494885 -0.0139174275 0.02926712 0.0841167 0.05521821 0.034492355 -0.037165638
-0.059860475 0.09502603 -0.039238453 0.051092107 -0.027855175 -0.042839613 -0.03244458 0.08219961
-0.011314188 -0.05895066 0.06213073 0.079808466 -0.024632161 0.042951193 -0.021686088 0.08116076
0.028140008 -0.07137721 0.059757985 -0.033135533 0.04737579 -0.020788249 -0.04289574 0.0077709006
0.02088741 0.08376434 0.06347275 -0.06992391 0.034091134 0.034929197 0.010346276 0.071009636
-0.03548586 -0.016743831 0.019145075 0.018827192 -0.030592224 -0.013628685 -0.04443404 -0.040766064
0.06365153 0.041988943 -0.03177133 0.02736554 0.065629795 -0.03654445 -0.0045716804 -0.05623972
-0.058094922 -0.04139194 -0.007995957 0.012476654 0.09622109 0.007819103 -0.0032869636 -0.058086846

encoders.1.encoder.conv.bias f4 [128]
00000000: 473b 77bc 7397 a1bc 7a4d 553c 3b9f 2c3d
00000010: a993 e93c 1932 513d cea6 233d cb27 94bc
00000020: a82a 323c 2f00 f23c ea1c f5bc a1c4 34bb
00000030: 74d4 0bbc 006e 62bc 5fe6 753a e79e 5d3c
00000040: 5ff1 fabc 34b8 40bd 87fb dfbc e541 c4bc
00000050: bbac 8f39 499d 29bc 9594 b13b db4d 54bc
00000060: 7ccc 99bb 0b26 20bd 4a84 f7bb 9eae 07bc
00000070: c181 41bb a1e2 2cbd eab3 b13a ac22 8cbb
00000080: a2ed 2e3c 87c4 493c bbdf 35bc 8e51 113d
00000090: a19e 13bc e7f7 14bd 2b1c f3bc 6952 643c
000000a0: d747 67bd 9f46 c3bc 2cf6 57bd f916 c43c
000000b0: 71d1 48bc e6a9 553c 137a 86bc 95ad 163c
000000c0: ce35 a9bc b82b bfbc fa75 c63a bdd7 ebbb
000000d0: 43ef d53d fa94 0db9 aa56 38bc 2c3a c73b
000000e0: 6fb2 57bc b749 65bc 6342 11bb 4919 c138
000000f0: 6940 023b 8e2a 183c a921 fa3b 3dfd c2bc
00000100: bc7c 083c c803 263b def2 68bd 06a8 00bd
00000110: 4973 fcbb 0d2b 133c ab53 073c 5bfc d8bc
00000120: d43e 923c 40a8 233c ddb6 80bc fc72 e2bb
00000130: e645 c7bc f69b 96bb f831 0a3d bb33 c4bc
00000140: 9be6 2abc 9f0e 0e3d ee35 5e3a 51ea 89bc
00000150: d611 e93c 625b a1bb 3ab5 0cbb fb3a febc
00000160: 3d74 aabc 8847 b0bc bfcb e53c b706 7dbc
00000170: 5a97 60bc 706b 533b 98d7 b93a 8c8c ec3b
00000180: 4a53 923b 00db 563c ca00 c1bb 79b9 5c3d
00000190: 440e a23c 0b98 a4bc e318 f23b 4b0c 5a3b
000001a0: 62ca 523d fe66 e1bc 6e72 103d de6b 65bb
000001b0: 6986 ac3c 6b6c 633c 36a9 753b 1f17 1bbd
000001c0: 6b8a 6b3a 6fc2 6eba 68c7 423c 5ce1 c4bc
000001d0: 1d69 93bc e365 72bb 43a5 303c 46ac aabc
000001e0: 85c9 8e3b afb0 a03b b706 4f3d 4e41 a03c
000001f0: 1978 903b ccdf 47bd db33 153d 0289 1a3c
-0.015089816 -0.019725537 0.01301896 0.04214404 0.028512793 0.051073167 0.039954 -0.018085381
0.010874428 0.029541103 -0.029921014 -0.002758302 -0.0085345395 -0.013820171 0.0009380336 0.013526655
-0.030632673 -0.04705067 -0.027341617 -0.023957202 0.0002740378 -0.010352441 0.0054193237 -0.012958015
-0.004693566 -0.03909878 -0.007553612 -0.008281378 -0.0029526802 -0.042208318 0.0013557647 -0.004276594
0.010676773 0.012314922 -0.011100705 0.035478167 -0.009009988 -0.03636923 -0.029676517 0.013935664
-0.056464996 -0.023837386 -0.052725002 0.023936735 -0.012256966 0.013040995 -0.016415631 0.009196659
-0.020655539 -0.023336276 0.0015141361 -0.007197349 0.10446026 -0.00013502306 -0.011251131 0.0060799327
-0.0131651005 -0.013994626 -0.0022164814 9.207667e-05 0.0019874817 0.00928749 0.007633407 -0.023802394
0.00833052 0.0025331844 -0.05687224 -0.03141024 -0.0077041727 0.008982432 0.008259694 -0.02648752
0.017852224 0.009988844 -0.015712196 -0.00691068 -0.024325322 -0.0045962287 0.03373906 -0.023950448
-0.010430957 0.034681913 0.0008476664 -0.016835364 0.028450888 -0.0049242238 -0.0021470324 -0.031033983
-0.02080738 -0.021518484 0.028051255 -0.0154434955 -0.01370796 0.0032260083 0.0014178632 0.007218903
0.0044654952 0.013113737 -0.0058899866 0.053887818 0.019782193 -0.020092031 0.0073882206 0.0033271487
0.05146254 -0.02751493 0.03526538 -0.003500692 0.021060186 0.013880829 0.003748489 -0.037863847
0.00089851645 -0.00091079524 0.0118883625 -0.024033241 -0.017994458 -0.0036986999 0.010781589 -0.0208341
0.004357519 0.004903875 0.050543513 0.01956239 0.004408848 -0.048797414 0.036426406 0.009432079

encoders.1.encoder.conv.lin.weight f4 [128, 30]
00000000: ffe8 efbd d4f5 d4bd 18e0 b4bd 535d 833e
00000010: 1975 edbd b4d6 c03d 1b43 b8bd f1f2 55bd
00000020: c4c3 043e dd26 21bd 235f 3dbe c065 f03d
00000030: 32e5 44be 2dc4 ec3d 75c4 43be 768b 563d
00000040: 5b80 7dbf 933d cbbd 2e10 2b3d 1105 23bd
00000050: 8ff9 68bd 5747 5e3e 6385 273e 7a9a bb3d
00000060: 8555 543e a584 d53d 6efc bdbd 0d24 6d3d
00000070: 0d0e d73d 3ee3 bc3d bf33 9fbd 70cf 363e
00000080: 2be5 9fbd 38cf 4b3d 48e7 4f3e ec8e 9ebd
00000090: a583 54be 3677 59bc 7d8a aebd c7f6 f13d
000000a0: 1e38 223e e395 58bd a99a f43d c163 dd3d
000000b0: db9b 6d3d 8239 0f3e f216 96bf e203 c9bd
000000c0: b127 babd 8240 fbbd 0f7a 513e 6c57 97bd
000000d0: ca83 52ba 8f5b c13d 3029 893e 4458 3e3e
000000e0: bcb6 553d c71a b5bd 6598 0fbe 41c7 66be
000000f0: e24e 10be 37c0 4fbc fef7 29bb 3e0a 71bd
00000100: 1663 04be 366c 0fbd cbc3 843d 76df 14be
00000110: 70bb ba3d 27df 923d 1fd0 803c 7f6f 783d
00000120: 5092 5d3e e488 80bd 01e8 a4bc d7b9 563e
00000130: e453 0c3f 083b f0bd 69ce 293e 4cb9 f03d
00000140: 9889 ba3d 8093 debd d000 f03d 34cd 133e
00000150: 8304 a7bb 28a3 fcbc 8c97 903c caaa 923c
00000160: 3b23 75bd f295 723e dc9d 13be 0e02 113d
00000170: e9da 053d efee 9dbd d364 19be f5db b5bd
00000180: 1bbb bcbd a959 d2bd 62ae ddba 1272 84bd
00000190: fc3b 93bc 80ab 713c 8544 5c3e d372 383c
000001a0: 73f0 813d 56c0 e4bd 60fa b03e 08ae 423c
000001b0: b594 603e ba3d 973c 3e20 893e 58cc 3c3c
000001c0: 66dd 1cbd 37ce 863d fc14 033d 4a59 803c
000001d0: 9470 ab3c 5707 ac3d bab4 07be 1439 103d
000001e0: f709 6abc 8a81 1f3d f94b 06be 63d9 793d
000001f0: 2f5a 32be ce7b 233e 3310 033d a959 803d
00000200: 030a 343e fb91 833d 01bf 663b 1a84 17be
00000210: e6a0 9b3d af35 33be 39ae 323e a940 b93c
00000220: 2118 3d3e 8016 3cbb 80e4 b0bd 171c 9f3d
00000230: 119a 083e 422e 483e 2875 3fbd 1ab7 28be
00000240: 4b63 353e d216 273e 49f4 393e 7ecc 973d
00000250: 5577 84bd 55a7 143e 3eaa 103c 7c0c cbbc
00000260: 3c41 30be f5dc b93d 2a60 fd3d 209a debd
00000270: 3afe 31be 0677 543e 0ca0 993e 8d85 04bc
00000280: 414d f7bc 81f3 eb3d fb88 ac3d e111 21bd
00000290: b626 3abe 778c 8cbd 3352 aa3d 92e3 e43d
000002a0: d687 88bd 9e80 4ebe fbc0 cdbd 9105 473e
000002b0: dab3 653e e24c 15be b885 b5bd f5e1 ecbd
000002c0: 936c 283e a229 92bc d9e0 1dbe bc86 503e
000002d0: 4187 4ebe f6b8 18be bcb5 fc3d f716 f0bd
000002e0: deab 14be 2a66 cd3d ba05 8a3d 0df3 08be
000002f0: 3e67 303e 5775 1ebc aae8 e7bd 503c c2bd
00000300: 81c1 87bd ebc8 1b3d c1d3 de3c 8653 36bc
00000310: 62be 1a3e 7b1c bb3d c6bb aabd a034 c93d
00000320: c8f7 9fbd a636 313d f46b 3abd 51e2 133d
00000330: 9c60 413d 3cd3 ebbc 4e6b 9c3e 3422 4e3c
00000340: 039e 4b3e 50d2 363e c3bc 39be 9b6a 95bd
00000350: ecfc aabd d734 523e 971b 85bd 598f 063e
00000360: 2f93 833b 48ec 9f3d 8707 e73d a11c 043e
00000370: 4dae 173e 491c 073e 5dd6 313e 2320 b93c
00000380: 5c60 313e 835a fabd b071 2fbe 8140 10bd
00000390: 1889 2ebe cabc 5e3d 2d0f 8e3d 90fb 6dbd
000003a0: ddbe 353d df48 f2bc a773 6dbd 7f8d 4c3e
000003b0: b1c3 e03c 1a1f 11be 08a1 7b3a df52 0b3e
000003c0: 6df0 7dbd 71c3 97bd c82c 9c3d c4db 193e
000003d0: 2b9b 013e f36c 023e 0e3c cf3d af34 5abc
000003e0: cffc 82bc 6e0c 09be 092e 1abe 93a6 ddbd
000003f0: c77f 233e 1705 223e a2b6 833d 31d4 adbc
-0.11714362 -0.103984505 -0.08831805 0.25657138 -0.115946 0.09415951 -0.08997174 -0.05223364
0.12965304 -0.039343704 -0.18493323 0.11738157 -0.19228056 0.11560855 -0.19117911 0.052379094
-0.9902398 -0.09923854 0.041763477 -0.039799754 -0.056878623 0.21706901 0.16359477 0.091603234
0.20735748 0.104256906 -0.09276663 0.05789571 0.10500727 0.092230305 -0.07773542 0.17852569
-0.07807382 0.049758166 0.2030307 -0.07742104 -0.20753343 -0.013273051 -0.08522508 0.11814647
0.1584172 -0.052877318 0.119435616 0.10810042 0.058009963 0.13986781 -1.1725752 -0.09815194
-0.09089602 -0.12268163 0.20456718 -0.07389721 -0.00080305024 0.094412915 0.26789236 0.18588358
0.052176222 -0.08842998 -0.14022978 -0.22536947 -0.14092591 -0.012680105 -0.0025935168 -0.05884766
-0.12928423 -0.035015307 0.06482657 -0.14538369 0.09117782 0.07171469 0.01572424 0.060653206
0.21637845 -0.0627611 -0.02013016 0.2096933 0.54815507 -0.11730009 0.16582645 0.117540926
0.09108275 -0.10867977 0.11718905 0.14433748 -0.0050969734 -0.030839518 0.017650388 0.017903704
-0.05984805 0.23690012 -0.14415687 0.03540235 0.032679472 -0.077115886 -0.14979868 -0.08879844
-0.09215375 -0.102710076 -0.0016912932 -0.0646707 -0.017972939 0.014750361 0.21510513 0.011257845
0.0634469 -0.11169498 0.3456602 0.011882313 0.21931727 0.01846205 0.2678241 0.011523329
-0.03829708 0.06582301 0.032002434 0.015667576 0.020927705 0.083998375 -0.13252535 0.035210684
-0.014284602 0.038941897 -0.13114919 0.06099833 -0.17417215 0.15965196 0.03199787 0.06267101
0.17581944 0.06424328 0.0035209062 -0.14796486 0.07599048 -0.17500947 0.17449273 0.02261384
0.18466236 -0.0028699934 -0.08637333 0.077690296 0.13340022 0.19548896 -0.04674259 -0.16476098
0.17713659 0.16317299 0.18159594 0.07412051 -0.06468073 0.14516957 0.008829651 -0.024786226
-0.17212385 0.09075347 0.123718575 -0.10869241 -0.17382136 0.20748529 0.3000492 -0.008088482
-0.030188205 0.11521054 0.084245645 -0.03932369 -0.1817883 -0.06862729 0.083164595 0.11176218
-0.06666534 -0.20166251 -0.10046574 0.19435717 0.22431889 -0.1458011 -0.088633955 -0.115665354
0.16447668 -0.017842118 -0.15417804 0.20363897 -0.20168783 -0.14914307 0.123393506 -0.1172313
-0.14518687 0.10029252 0.067393735 -0.13373967 0.17226884 -0.009671531 -0.11323674 -0.0948416
-0.06628705 0.038033407 0.027200582 -0.011128312 0.15111688 0.091362916 -0.08336596 0.098244905
-0.078109324 0.043265007 -0.04551311 0.036104504 0.047211275 -0.028787248 0.30550617 0.012581397
0.19884495 0.17853665 -0.18138413 -0.07295724 -0.08349022 0.2052797 -0.06499403 0.1314062
0.0040153484 0.07808739 0.112807326 0.12901546 0.14812584 0.13194384 0.1736693 0.022598332
0.17321914 -0.12224295 -0.17133212 -0.035217766 -0.17044485 0.054379262 0.06936488 -0.058101237
0.044371475 -0.029575763 -0.057971623 0.19975851 0.027437063 -0.1417202 0.00095988857 0.13605832
-0.061996866 -0.07410324 0.07625729 0.1502524 0.12656848 0.12736873 0.101188764 -0.013318225
-0.01598969 -0.13383648 -0.15056624 -0.10822787 0.15966712 0.15822254 0.06431319 -0.021219345
