notebooks/Breast_model.pth (torch, 372867 bytes, 66 tensors)

encoders.0.weight f4 [128, 128]
00000000: 238c 5b3d 289b 83bd f84a 6dbc f10f b4bd
00000010: 8416 adbc 15ca 17bd a291 04bd b5e9 573d
00000020: fc32 b83c 6a27 23bd da32 8ebd e813 3c3d
00000030: 5be8 8cbd 651e 743d ce63 983d c105 8b3d
00000040: 0383 9dbd ed57 95bd 9f7b adbd fdce 1fbc
00000050: e09d 953c c5ef e0bc 5939 a13d 3633 3bbd
00000060: e569 a1bd c0e5 de3b 5b9b 913c a0f1 0cbd
00000070: 7749 8cbc 7ca7 b43d 6984 b43c 0705 4c3b
00000080: acf9 3a3d e77c 053d d760 89bb b252 3ebd
00000090: 51b3 423d d13f 783d 5909 28bd 7fc4 b0bd
000000a0: 7762 743d d7bf b2bd 2c8a b1bb b13e 8fbc
000000b0: 95fa 7cbc 2fad 9f3d 2f05 aa3d 934e adbc
000000c0: 3cd5 843d 5147 a23d 8fb9 3ebd aeb3 2d3d
000000d0: 3857 2ebd f707 9abd 54e7 453d a674 0bbd
000000e0: 47d3 23bd 09e2 b4bc e627 96bd 7f8d 6abd
000000f0: d25d 87bd ace6 153d 40c4 a7b9 b5c6 57bd
00000100: eb90 9dbd 4afa 7b3d ba8d 8dbd f24f 18bc
00000110: 0cf7 8e3d 601c 02bd 42cc 943d 61d3 9a3d
00000120: ff68 61bc f325 2f3c 0ccb 963d 55dd a4bd
00000130: 3d02 a63d cb31 2fbd 42a7 9bbd c645 f6bc
00000140: a172 2a3d 8808 6b3d 0d18 ad3d cf59 a33c
00000150: b582 9abd 2645 363d a3a2 dabc 7945 443d
00000160: df4f 983d 5b53 79bd 84d9 283d 47e9 adbd
00000170: d67d 21bd 1eeb 98bd 7fb9 98bd abf9 c33b
00000180: 660e 88bc 0ed7 713d e5bf 97bd 79b4 96bd
00000190: 03c2 9cbc 9a56 19bd f76b 7fbd e2cb dcbc
000001a0: a4b1 693d 6582 373d 9a7f af3d 2bc1 83bc
000001b0: 044d 85bc 072c 5d3d da69 12bd 79b5 1e3c
000001c0: fcff 653d f2cc 23bd 344a 813d a1af 13bc
000001d0: 1106 953d d308 3ebd a6e3 453d 58eb ddbc
000001e0: eab0 d63c eb09 073d 900b b43d b626 40bd
000001f0: 0bb0 3e3d c044 3ebd 1ad7 ab3d f023 86bd
00000200: 41e9 68bd 0281 4fbd 5660 95bd f051 243d
00000210: 7ff4 80bd c8f8 91bc 8c4a 02bd d4a0 e2bc
00000220: a278 8e3d 9be8 393d c41a 81bd fdfc 243c
00000230: 556a 69bd 6789 8abc 2db4 a3bd a11a a73d
00000240: e3f5 7c3d e5c7 06bc f7e6 a7bc cc61 4bbd
00000250: cb0f 99bb 7219 4e3d 818a dfbb 4ccb 19bd
00000260: 2048 f83c 56e9 54bd c125 a83d c695 85bd
00000270: 081b ad3d 38ab 88bd 9d28 8c3d 07e4 9c3d
00000280: 6ebd 433d a9c2 a73c 3ebe 6c3d 5589 5fbd
00000290: 15ad 60bd e693 7a3d e056 a1bd 33cc 24bd
000002a0: bd97 533b f9bd 9bbd 555d 4f3d 77cc 783d
000002b0: 585a 9dbd 840f 7c3c 1ef7 9d3d f734 fdbc
000002c0: 3b61 5a3d 76fa 0dbd 878f 21bd facb 9ebd
000002d0: 569a ffbc 0a3e 503d 0bfe 563d 3e9c 1bbd
000002e0: e730 243c b08b 8abd c744 4c3d 67b7 9bbd
000002f0: 6a8e 893d 69b1 2cbd 6f7f 883d 39f7 933c
00000300: a779 9a3c 51e8 af3c 22ec 193d 6ca2 2f3d
00000310: 577c 31bc f23a 15bd 82ba c8bb 7c60 0b3d
00000320: 71ec 783d a5a2 9d3d a6b8 8dbd 0e48 acbd
00000330: 9e68 40bd 0baf ccbc 13dc ae3d ba7c 593d
00000340: 81d4 94bc eedb 703c 4620 0fbd 85dd a9bd
00000350: f5a1 b83c f9f1 20bd fb21 95bd 6c7f 6e3d
00000360: 1db5 89bd 5232 debc f863 983d 2a6f 91bd
00000370: 29eb b3bd eb16 d23c 0652 313d 6f8e 0e3d
00000380: bf18 3e3d 9454 983d 1c51 2ebd a373 fc3c
00000390: a46e 023d 8a25 66bd 94b2 dd3c 512d 973d
000003a0: 03cf 9f3d d238 443c 0a18 943c 63ca 39bd
000003b0: 1b2e 46bd 91d0 2cbd b573 a7bc c951 8ebc
000003c0: 4ea5 2f3d af9e a53d 8137 9abd 5e11 afbd
000003d0: 4fe3 3cbd 0eca df3b 4600 2b3d c2f0 26bd
000003e0: 12a6 8ebd 36da 93bd 636f 4bbd e55e ab3c
000003f0: e0ce 883d 56aa 13bd bcd2 a43d 1be4 ba3c
0.05360044 -0.06426078 -0.014483206 -0.08792103 -0.0211289 -0.037057955 -0.03236545 0.052713115
0.022485249 -0.03983251 -0.06943293 0.04591742 -0.06880256 0.0595993 0.07440911 0.06788207
-0.07691004 -0.07292161 -0.084708445 -0.00975394 0.018263757 -0.027458081 0.07872266 -0.045703135
-0.07881526 0.0068022907 0.017774275 -0.03441012 -0.017124875 0.088210076 0.022035794 0.0031130926
0.045648262 0.03258982 -0.0041924524 -0.046465583 0.04753429 0.060607735 -0.04102454 -0.08631229
0.059664216 -0.08727997 -0.0054180827 -0.017485948 -0.015440603 0.07796704 0.0830177 -0.021155631
0.06485984 0.07923759 -0.04656368 0.042407684 -0.042563647 -0.075210504 0.048316315 -0.03404679
-0.03999641 -0.022080438 -0.07331829 -0.057263847 -0.06609692 0.03659694 -0.0003199894 -0.052679736
-0.076936565 0.06151799 -0.06911798 -0.009296404 0.06980714 -0.03176534 0.072655216 0.075598486
-0.013757943 0.0106902 0.07362947 -0.08050028 0.08105896 -0.042772096 -0.07600261 -0.030062567
0.041613225 0.057381183 0.08451853 0.019940285 -0.07544462 0.04449954 -0.02668888 0.047917817
0.07437109 -0.06087051 0.041223064 -0.0849176 -0.039426647 -0.0746672 -0.074572556 0.0059806905
-0.016608428 0.059042983 -0.07409648 -0.07358641 -0.01913548 -0.037436105 -0.062358823 -0.026952688
0.057054177 0.04480209 0.0856926 -0.01608332 -0.016272075 0.053997066 -0.03574548 0.009686821
0.05615233 -0.039990373 0.06312981 -0.009014041 0.07276548 -0.046395134 0.048312806 -0.02708976
0.026207406 0.032968443 0.08791268 -0.046911918 0.046554606 -0.046452284 0.08390637 -0.06549823
-0.056863073 -0.05066014 -0.07293765 0.040117204 -0.06296634 -0.017818823 -0.031809375 -0.02766458
0.06956603 0.045387845 -0.06303933 0.010070083 -0.05698617 -0.016911222 -0.0799335 0.08159376
0.061757933 -0.0082263695 -0.020495875 -0.049653813 -0.004671072 0.050317235 -0.006821931 -0.037547395
0.03030783 -0.05198034 0.08210326 -0.06522708 0.084524214 -0.066732824 0.06843684 0.0766068
0.047788076 0.020478563 0.057798617 -0.05457433 -0.054852564 0.061176203 -0.07877898 -0.040233802
0.0032286488 -0.07604594 0.050626118 0.060741868 -0.07683247 0.015384559 0.077131495 -0.030909045
0.053315382 -0.034662686 -0.03944352 -0.07753749 -0.031201523 0.050840415 0.052488368 -0.0379908
0.010021425 -0.067649245 0.04987028 -0.076033406 0.067166165 -0.04216138 0.06664931 0.01806222
0.018856836 0.021473082 0.03757871 0.042879507 -0.010832868 -0.036433168 -0.006125749 0.03402756
0.060772363 0.076970376 -0.069199845 -0.08412181 -0.04697477 -0.02498581 0.085380696 0.053097464
-0.018167736 0.014700873 -0.034942888 -0.082942046 0.022538165 -0.039293263 -0.07281872 0.058226988
-0.06723998 -0.027123604 0.074409425 -0.07101281 -0.087850876 0.025645694 0.043291114 0.034803804
0.04641032 0.07438007 -0.04255782 0.030816859 0.031843796 -0.056188144 0.027062692 0.0738169
0.07803156 0.011976438 0.018077869 -0.045359027 -0.048383813 -0.042191092 -0.020440916 -0.017372983
0.042882256 0.08086907 -0.07530118 -0.085482344 -0.046115216 0.0068295067 0.041748308 -0.04075695
-0.06965269 -0.07219355 -0.049666774 0.020919273 0.06680083 -0.036051117 0.08048007 0.022813847

encoders.0.encoder.conv.bias f4 [128]
00000000: d595 65bc 703e 213d abfa a73c a3c6 19bd
00000010: a709 163e 97fd ccbd 507c d53c 5443 f3bc
00000020: 38b9 e6bc 15db cebd cd32 89bd 24f0 b1bd
00000030: d893 a1bd 13de 423d f8c3 d93c 9097 233d
00000040: f793 693c 029d 0a3d 648d 1f3d cba2 0bbc
00000050: e78c cfb9 2aaa 2a3d 36e6 c3bc 0966 afbb
00000060: 2b3a aebc e7e8 2bbb 198a fabd 9d89 c63c
00000070: f919 553d 1e18 26bd b781 e63b a478 05be
00000080: 967a 31be 0fa3 7dbd 9600 8ebd d780 58bc
00000090: 5f32 ec3c 861b b1bc d687 cc3c 9d16 c93d
000000a0: e8b2 ad3c 89a3 b7bd afe6 9cbd aa32 8ebd
000000b0: cdb3 90bd 5c16 70bd bf3d 97bd ed2f 533d
000000c0: 6c5b 93bd db0d 27be e08f f5bd a21b 41bc
000000d0: a9b9 c13b 91de 2a3d fe2e f6bc 441f 89bd
000000e0: 003d c3bd 4b88 1a3d bc64 b6bd f2ad ba3c
000000f0: ca3c e03d a76f efbc 7fcf fbbd b79e 13bd
00000100: 64ad 803c f020 b4bc d50f 983d efc7 e03d
00000110: 342d 8fbc 0179 d13d a6f0 e3bc 0368 203d
00000120: 378f 33bd 7f44 22be 2573 a2bd 60d9 d63b
00000130: 3e2e 51bc ab64 8f3d 897c 7abd 856a 97bd
00000140: 0800 90bd fc31 40bb 9713 693d c848 3bbc
00000150: a17a d5ba 9610 c0bd 8531 923d bfe0 4f3c
00000160: 6104 1dbd f910 a1bd b096 0abd b9a7 6d3d
00000170: 9bae 8d3c 9cc2 dbbd 55ff bdbd da14 91bd
00000180: 7bde e33c 1e2e ba3c ba91 3bbc 225c 4f3d
00000190: 6d5f 3f3c fc16 18be 4c6a f1bc 2633 c63c
000001a0: 9f1b d9bd fa54 86bc 19bd 7b3d d8a4 053d
000001b0: 64c7 4ebd 670e f6bc 69f3 e43c 13de db3d
000001c0: 2e78 3a3c e936 e0bd dfdb a6bd 5533 f4bb
000001d0: 2250 14bd dab1 5e3d 0a60 933d 9e6c 0ebc
000001e0: 6a72 d6bb a38d 723d e0fb 8d3c e1ff 5a3d
000001f0: 060b 6a3d ae7f bcbd 61b9 70bd 607b 1abe
-0.0140127735 0.039366186 0.02050527 -0.03754295 0.1465212 -0.10009306 0.026060253 -0.02969519
-0.028164491 -0.1010038 -0.066991426 -0.08688381 -0.07889527 0.047575068 0.026582703 0.039939463
0.014256469 0.03384114 0.0389532 -0.0085227 -0.00039587097 0.041666187 -0.023913484 -0.0053527397
-0.021267971 -0.002623135 -0.12233371 0.024235541 0.052026723 -0.040550344 0.007034506 -0.13034302
-0.17331919 -0.061923083 -0.069337055 -0.013214312 0.028832613 -0.02161957 0.024967115 0.09818766
0.021203473 -0.08966739 -0.07661187 -0.06943257 -0.07065544 -0.058615074 -0.07384824 0.051559377
-0.07195172 -0.16313879 -0.119903326 -0.011786373 0.005912025 0.041716162 -0.030051704 -0.066954166
-0.09533119 0.037727635 -0.08905932 0.022788022 0.109490946 -0.029228045 -0.12295436 -0.036040034
0.01570768 -0.021988362 0.07424895 0.10975634 -0.01747761 0.10228158 -0.027824711 0.039161693
-0.043837752 -0.15846442 -0.07932118 0.006556675 -0.012767373 0.07001623 -0.061153922 -0.07393364
-0.07031256 -0.0029326668 0.056903448 -0.011430927 -0.0016287157 -0.093781635 0.07138351 0.012687861
-0.038334254 -0.078645654 -0.033835113 0.05802128 0.017295172 -0.10730478 -0.09277216 -0.07084055
0.027816048 0.022727069 -0.011448318 0.050624974 0.011680466 -0.14852518 -0.029469632 0.024194311
-0.106009714 -0.016397942 0.061459634 0.03262791 -0.050483122 -0.030036164 0.027948098 0.10735717
0.011381192 -0.10947973 -0.08147406 -0.0074524083 -0.036209233 0.05436883 0.07196052 -0.008692889
-0.006544401 0.059217107 0.017332017 0.05346668 0.05713942 -0.092040405 -0.05877054 -0.15086126

encoders.0.encoder.conv.lin.weight f4 [128, 16]
00000000: dabd 923d 192f f8bb 84a9 8cbd 8194 fabc
00000010: 8c69 28bc 9bad 87bd 0e3d 033e bf5e 173e
00000020: 0d1e c5bd 0256 0cbe e352 5c3e 67be 7f3d
00000030: b23e 3b3d 4d69 eabd 7324 b0bc f6b6 84be
00000040: d17d 0abe 512d 163e 4d9f ecbd b368 d23d
00000050: 2c62 313c 11a8 8e3d 5caf b9bd 1c64 fdbc
00000060: 8239 13be 4a62 1fbd 709d dfbd 00ef 91bd
00000070: a287 97bd 822b 403c f7e3 01bd e00d ecbd
00000080: 7910 0cbe ae67 e93d 763a 393e bfbd 913d
00000090: 3606 b3bd e4f8 ec3d 7f14 9bbb 0e4e 0d3e
000000a0: d329 98be 33ac a8bc 49ff 1fbd cbbc 803d
000000b0: 5549 4dbe 6bd0 3fbd 4059 e3bc 55fc 043e
000000c0: badb 243e 40c8 c9bd 4e53 c2bd 07ad 24bd
000000d0: 52da 27bc 3811 213e 3ecc eebd 1add 883b
000000e0: baf2 93bd 41e0 37bd 85a2 dabd cd00 263d
000000f0: b86b 82be f753 b0bc 379c 92bd 1e86 25be
00000100: 6bb5 f03b c997 f0bc 6e17 0f3e 5a3f c33c
00000110: 29de eabd 6393 1dbe 9248 b8bd 2fad 10be
00000120: 074c 21bd 1753 ccbc 1594 493d e356 a83d
00000130: d1cc 6cbd 8cf5 1cba 0e9e 363e 20b6 e7bd
00000140: 3792 1e3e 5353 053c 7f4b 1fbe f592 a2bd
00000150: 19ff 933c 1ac9 52bd f3af c23d 08e9 a4ba
00000160: 7e85 523e 5883 013e f809 72be d7f6 d53d
00000170: 727e 01be f9b0 8bbd a510 c83d 9bdf 39be
00000180: cdd3 f83d f1c9 263e a06e e63d d336 523e
00000190: ce8f 01be 056b f03d 5768 66be 42f8 263e
000001a0: 6132 7c3d 8b8f ea3d d5bb ec3b aa69 f3bd
000001b0: 7d22 01bd 796a b0bd 1c95 143e ddab 1dbe
000001c0: 3496 6a3d 149a 92bd 83fa dc3d 1889 34be
000001d0: 0513 1a3d 8894 45bd 879f 90bd 16bd bc3d
000001e0: b1c5 d23b 2732 e73b 74ed adbd 5d9c 61be
000001f0: 2d60 68bd e79a 3d3e 11ff 373d 484b 51be
00000200: de76 c73d 793c abbc 106a 9abd 0cba 853d
00000210: aeed 47be 6256 043e f76e 1c3e 7a81 8bbd
00000220: 6e66 453e 1729 0fbc eecb 38bd 0409 8bbd
00000230: 6e6e 6c3b 8c90 9d3d 54b4 543e 365f 64bc
00000240: 4707 1ebe 923b 25be 6e0f 40bd 8483 7cbc
00000250: 7217 efbc eed5 023d 7965 bbbc fbb2 1e3e
00000260: aa93 3b3b e2f5 c8bd fab6 90bd bca6 22be
00000270: a7c9 093e 18ed 2ebe 1afc 0abe 12e5 dabd
00000280: 38f4 27bd 3306 783d 2ca7 803d f1e8 a4bd
00000290: d49f 08be 6526 82bd 5d9a e43d 2a9c 8d3d
000002a0: 17b9 cdbc 9222 87bd 977e 513d baa1 9d3c
000002b0: 08bc 623d 1d8e 07be 782e 8a3d 3f3e 31be
000002c0: 3370 773e fb8c 02be 7077 39be cbcc 0ebc
000002d0: 78d2 23bd 28df 1dbe 6846 3c3d 25c3 2a3d
000002e0: 7d96 fb3d f978 3c3e 4168 993b 09e1 8bbe
000002f0: 62e5 93bd 2b8c 5abe 0796 f23d f147 923d
00000300: ffe1 21bc 018f 2a3c 2f8c 7b3d 42c1 cb3d
00000310: c0b0 12be e2ce 573e e2f2 2a3e 5be2 0c3e
00000320: 7845 f43c ce60 a43d 17d0 073c 9575 94bb
00000330: a071 5c3d b1fd 2fbe 8230 f8bd f00e fcbd
00000340: c328 c2bc f4e8 de3d a430 36be 3c7b 313e
00000350: 3ea8 7a3d 61b3 0e3e bfad ecbd de04 573d
00000360: 9d00 0fbc 0fd2 afbd c2e2 25bc a0ab fb3c
00000370: 5c06 ec3d bf78 1b3e 5d24 4ebe dde8 4d3e
00000380: ff4a d6bd e04b 0abe fe45 6dbe 5d84 cebd
00000390: 9980 fabd e9d0 09bd a7e2 c8bd 8be9 b3b8
000003a0: 2983 17bd 2e38 a63c bd79 d2bd 1406 2e3e
000003b0: b33e 063e d03e dbbd 083a 643b 308c c0bd
000003c0: a9ec 883d 1e7d 3dbd a756 dc3c 16e2 5c3e
000003d0: e968 453e 0c69 dabb 81af 85b9 41bc 26be
000003e0: ed6e 923d 6f7e e1bd 6a2a b4bd 8975 98bc
000003f0: ced3 f5bd 00a8 0b3d 29aa a73c 79e5 fabb
0.071651176 -0.007573974 -0.0686827 -0.03058839 -0.010279071 -0.066249095 0.1281626 0.14782237
-0.09624872 -0.13704684 0.21515994 0.06243744 0.045714088 -0.11445866 -0.021501755 -0.25920838
-0.13524558 0.14665724 -0.11553822 0.10273876 0.010826629 0.0696565 -0.0906665 -0.030931525
-0.14377406 -0.038912095 -0.10918701 -0.07125664 -0.07398917 0.011729123 -0.031711545 -0.11526084
-0.13678159 0.113967285 0.18088707 0.07116269 -0.08741419 0.115709096 -0.004732668 0.13799307
-0.2971941 -0.020589923 -0.03906182 0.062860094 -0.20047505 -0.046829622 -0.027752519 0.12986882
0.16099444 -0.09852648 -0.09488545 -0.040204074 -0.010244923 0.15729225 -0.1166005 0.004176748
-0.07224031 -0.0448916 -0.106755294 0.040528107 -0.25472808 -0.021524413 -0.07158702 -0.16164443
0.0073458455 -0.029369252 0.13973781 0.02383392 -0.11468155 -0.15388255 -0.08998217 -0.14128564
-0.039379146 -0.024941964 0.049213488 0.08219697 -0.057812516 -0.0005987517 0.1783373 -0.113140345
0.15485464 0.008137542 -0.15556143 -0.07938186 0.018065976 -0.051461317 0.09506216 -0.0012581656
0.20558736 0.1264776 -0.23636615 0.104474716 -0.12645891 -0.06820864 0.097688 -0.18151705
0.12149773 0.16287972 0.11251569 0.20528726 -0.12652513 0.11739162 -0.2250074 0.1630564
0.061571483 0.1145316 0.0072245398 -0.11885388 -0.03152703 -0.08614058 0.14510006 -0.15397592
0.05727215 -0.07158294 0.10789969 -0.17630422 0.037615795 -0.048237354 -0.070616774 0.09215753
0.006432258 0.007055539 -0.08492556 -0.22032304 -0.056732345 0.18516122 0.044920985 -0.20438874
0.09739469 -0.020902859 -0.07539761 0.06529626 -0.19524261 0.12923577 0.15276705 -0.06811805
0.19277355 -0.008737824 -0.045116358 -0.06788829 0.0036076563 0.07693586 0.20771915 -0.013938716
-0.15432464 -0.16136006 -0.046889715 -0.015412215 -0.029185984 0.0319423 -0.022875534 0.15497963
0.002862195 -0.098125234 -0.0706615 -0.15883917 0.1345583 -0.17082632 -0.13572732 -0.10688223
-0.04100439 0.060552787 0.062818855 -0.080522425 -0.1334222 -0.063549794 0.11162255 0.069145516
-0.025112672 -0.06598391 0.051146116 0.019242156 0.0553551 -0.13237806 0.067471445 -0.17308901
0.24163894 -0.12749092 -0.18111968 -0.008715819 -0.03999564 -0.15417159 0.045965582 0.04169001
0.12284563 0.18405522 0.0046816175 -0.27320126 -0.07221486 -0.21342532 0.11845022 0.07142628
-0.009880542 0.010410071 0.061412986 0.099489704 -0.14325237 0.21075013 0.16694215 0.13758223
0.029818282 0.080262765 0.008289359 -0.0045306184 0.0538193 -0.1718662 -0.12118627 -0.123075366
-0.023701077 0.10884276 -0.17791992 0.17332166 0.061195605 0.13935615 -0.11556577 0.052494876
-0.008728174 -0.08584987 -0.010124864 0.030721486 0.115246505 0.1518278 -0.20131059 0.20108362
-0.10463523 -0.13505507 -0.23171231 -0.1008384 -0.12231559 -0.033646498 -0.098088555 -8.578886e-05
-0.03699032 0.02029046 -0.10277126 0.16994506 0.13109855 -0.1070534 0.0034824628 -0.09401739
0.06685764 -0.0462619 0.026896788 0.2157062 0.19278301 -0.0066653546 -0.00025498497 -0.1628275
0.07150064 -0.110104434 -0.08797152 -0.018610733 -0.12003289 0.034095764 0.02046688 -0.00765675

encoders.0.encoder.prelu.weight f4 [128]
00000000: a3c9 df3d 09cd 3b3e facb 283e 0a5d 723e
00000010: 1d29 8d3e 2c3c 4a3e 6743 ee3d 850b fa3d
00000020: 8e6c 523e 7846 a13d 2340 753e e396 143e
00000030: 133d 5e3e a76d 313e 44be 773e e112 453e
00000040: 522a 573e 9e3f 573e bc13 883e 8b33 613e
00000050: 865e 5b3e e661 4b3e 269f 8f3e 1b83 423c
00000060: e398 783e 5b73 1d3e 4a2b 143e 52a6 4d3e
00000070: 8d84 ad3e be36 fa3d 0224 833e 3090 533e
00000080: ea2c 4c3e 5660 543e 4bd0 263e a409 0f3e
00000090: f05a 6d3e 8dff 8a3e 9edd d23d 52d5 853e
000000a0: 5c19 013d 804f 773e f7e1 7f3d 8bf4 833e
000000b0: 9b1e 343e bab8 633e bb08 483e eddd 2f3e
000000c0: c678 2f3e 501e 1d3e b361 003d cf58 593e
000000d0: e5c8 1a3e ae0f 343e ec4e 433e d63e 1e3e
000000e0: 1420 0a3e 1d81 0e3e fd0b 6a3e e992 cd3e
000000f0: 9e84 263e e51d 543e 5d15 123e 17ef 0c3e
00000100: 9337 4c3e 57f0 0d3e dbf6 4d3e 0980 af3e
00000110: 85bb 6b3e 8ed4 303e 2346 3d3e 79c0 2e3e
00000120: 65f7 823e 2d5d 0c3e 224c 323e 5a87 a03e
00000130: 1824 833e 7eab 893e 9b4f 683e 4e17 363e
00000140: 2778 dd3d 04ce 053e b9b3 dd3d a2f2 643e
00000150: a7ec 423e 8ed4 0a3e 6b99 623e 2788 c93d
00000160: 0145 323e d28b 893e 0e4f 603e cd1d 413e
00000170: 27d3 a33d ce8a af3d 5763 173e 8b7c 1f3e
00000180: 4a5a e63d d20c 443e 8deb 473e 82a8 063e
00000190: ce5e 803e 37a3 d33d 917a 6d3e 7d46 3c3e
000001a0: 3c5c 2e3e 6642 8a3e d423 bd3d b1a9 143e
000001b0: d88f 523e 7cae 913e 455f 203e 415d 673e
000001c0: 8a5d 713e 01a8 053e 3f16 5a3e c24a b1bc
000001d0: 587a 473e 9409 143e 4de3 4f3e aa4e 5d3e
000001e0: c209 6a3e c533 4f3e 7f8f 443e 2265 4a3e
000001f0: b695 8c3d 657f 563e 7505 873e dad4 4c3e
0.10927131 0.18339933 0.16484061 0.23668304 0.2757043 0.19749516 0.1163395 0.122092284
0.20549223 0.07874769 0.23950247 0.14510684 0.21702985 0.17326985 0.24193674 0.19245483
0.21012238 0.21020362 0.26577556 0.21992318 0.21422777 0.19861564 0.28051108 0.011872078
0.24277072 0.15376036 0.14469638 0.20082977 0.3389019 0.122174725 0.2561341 0.20660472
0.19939008 0.20739874 0.16290395 0.13968521 0.23179221 0.27148095 0.102961764 0.26139313
0.031518325 0.2415142 0.062471356 0.2577251 0.175898 0.22238436 0.1953458 0.17174502
0.17135915 0.15343595 0.031343173 0.21225284 0.15115698 0.17584106 0.19073075 0.15453658
0.134888 0.1391644 0.22856136 0.40151146 0.16261527 0.20714529 0.14265962 0.1376308
0.19943075 0.13861214 0.20113699 0.3427737 0.23020752 0.17268583 0.18483786 0.1706561
0.25579372 0.13707419 0.17411855 0.31353265 0.25613475 0.2688865 0.22686617 0.17782328
0.10813933 0.1306687 0.10825295 0.22358182 0.19035588 0.13557646 0.22128837 0.09840422
0.17409135 0.26864487 0.21905157 0.18859024 0.079992585 0.08571397 0.14783989 0.15574853
0.1124769 0.19145516 0.19523449 0.13150218 0.2507233 0.10333865 0.23191287 0.18386264
0.17027372 0.27003783 0.09235349 0.14517857 0.20562685 0.28453434 0.15661342 0.22594167
0.23570839 0.1305237 0.21297549 -0.021642093 0.19480264 0.14456779 0.20301552 0.21612039
0.22855285 0.20234592 0.19195364 0.19765142 0.068644926 0.20947035 0.2637135 0.20003071

encoders.0.encoder.conv2.bias f4 [128]
00000000: 7114 0fbd 5cae 8c3c dd7d 41bd 7102 bdbc
00000010: 2b6e 64bd 5ac6 a63d 5074 abbd 31fa aabc
00000020: e468 043d c894 a43d fae0 7abd 38b0 90bc
00000030: 4028 143d 23e2 abbc d7f5 fc39 e37d 483b
00000040: 438b b5bc a6e1 343d fdc9 98bd 352e 5bbb
00000050: 5b3d 823c 11a0 21bd def0 0cbd cf60 7c3d
00000060: 037c 55bd bdc2 0ebd 0eef 553c 46e0 34bd
00000070: b0ee a8bd 04fe 67bc 1fb6 afbc 66e4 8fbd
00000080: 1619 79bc ece5 73bc 9e77 f4bd 9f74 79bd
00000090: a72c eebc d757 61bd c46e 0a3d b899 36bd
000000a0: 6643 0f3d 8a70 7a3b 5e82 1bbb f43d 1abd
000000b0: a12a 14bd 100b 0c3d 0bb0 ba3d e3e9 7fbc
000000c0: d16a fdbc 737d 183d 7b9f 99bd ea9d 9ebc
000000d0: 80d4 843d 19e8 24bb f4b5 263b 311a 46bd
000000e0: 2ec1 d8bc 2a4e c5bd 610b 353c 8f80 a4bd
000000f0: 4fb5 3ebd 5450 213c be6b 24bc 52f9 4d3d
00000100: 27e8 8d3c bc9c 573c df7f 383d 3a79 0c3d
00000110: ce3b 70bc 2de9 66bd 1575 03bd 5976 6b3d
00000120: 9318 9e3c dd59 793d 0bc0 8ebd a2a9 c3bd
00000130: 2713 bb3d 04d1 6d3c 62cc 7cbd 8ce1 5b3c
00000140: b7af 0e3d 8a19 24bd da82 9e3c 4f41 0e3e
00000150: dc1d 813c d9a6 7ebc bd3a c03d 93f8 8dbd
00000160: ac8b 86bc 294f cebd d19a a1bd 1513 1d3c
00000170: eea2 293d 7003 aabd 069f 93bd a878 03bd
00000180: 3296 ddbc 1917 ccbb 4cb9 8cbd 77d0 77bd
00000190: 34f5 243b c5a9 7fbd ecc5 8d3c 39b9 09bd
000001a0: 8c85 10bd 6bc8 f63b baaf a0bd 4ee6 d73c
000001b0: bbe4 0abb 4757 7abd e4dc edbc b25d 9b3c
000001c0: c125 233d 9bfe a9bd 9aab bbbb cc5c 33bc
000001d0: 0067 3b3d 6715 80bc 7de7 1fbc 5822 d1bb
000001e0: 18e4 653d b85e 083d 4e33 213b 284d c9bc
000001f0: 778c 6a3b a71f 56bd 31a2 f8bb 3748 c2bd
-0.034931604 0.017172985 -0.047239173 -0.023072453 -0.055769127 0.08143301 -0.08371794 -0.020871254
0.032326594 0.0803619 -0.06124971 -0.017662153 0.036171198 -0.020981854 0.0004824835 0.0030592612
-0.022161132 0.044160508 -0.07460401 -0.003344429 0.015898397 -0.03945929 -0.034409396 0.06161576
-0.05212022 -0.034853686 0.013057483 -0.044159196 -0.08248651 -0.014159683 -0.021449147 -0.070259854
-0.015203735 -0.014886361 -0.11936878 -0.060902234 -0.029074026 -0.05501541 0.03379704 -0.04458019
0.034976386 0.0038214051 -0.0023728828 -0.03765674 -0.036173467 0.034190238 0.09115609 -0.015619728
-0.030934723 0.037229013 -0.075011216 -0.019362409 0.06485844 -0.0025162755 0.0025438042 -0.04836482
-0.026459303 -0.09634049 0.011050076 -0.08032333 -0.046559628 0.009845812 -0.010035453 0.0502866
0.017322613 0.013159927 0.045043822 0.0342953 -0.014662696 -0.056374718 -0.03209408 0.057485912
0.019298827 0.060876716 -0.06970223 -0.09553839 0.091345124 0.014515165 -0.061718352 0.013420474
0.034835543 -0.04006342 0.019349504 0.13892101 0.015761308 -0.015542709 0.093862034 -0.069321774
-0.016424023 -0.10073692 -0.07890857 0.009587069 0.041415147 -0.08301437 -0.07208066 -0.03209749
-0.027049158 -0.0062283394 -0.0687128 -0.060501542 0.0025170567 -0.062417764 0.01730629 -0.033623908
-0.03528361 0.007531216 -0.07846017 0.026354935 -0.0021193463 -0.06111839 -0.029035993 0.018965576
0.039830927 -0.08300515 -0.0057272436 -0.0109474175 0.045752525 -0.015635205 -0.009759781 -0.006382268
0.05612573 0.033293456 0.002459723 -0.024572924 0.003578929 -0.05227628 -0.007587694 -0.0948643

encoders.0.encoder.conv2.lin.weight f4 [128, 128]
00000000: 640c 1fbe 75f4 723d e10a 60be 34f9 d4bd
00000010: 54a1 36be a008 b2bc 5fa4 73bd 4180 933d
00000020: dcf4 0b3e 4675 1dbc 4746 943d fd66 e83d
00000030: e19a b2bc bfc6 17be 0cce 803d 9402 153e
00000040: 6d54 80bc 44b4 1cbe 6fc3 e03d 7964 51bd
00000050: c5a3 733d cffc c7bd d605 ccbd f8a0 253d
00000060: 8183 9f3d f45c ab3d 65b5 50be 7f58 bebd
00000070: 3212 fa3c 2a89 973d 7918 51be b2f6 0d3d
00000080: 31a2 e23d 89d8 d13d 60d2 6f3d ca20 3bbe
00000090: 0437 66be 8621 863b 55e7 51bc f592 10be
000000a0: f0c0 52bc d734 313e 2e3d 00be 2a47 603d
000000b0: f583 b23d 590b 163e 8655 79bd 768f 413d
000000c0: 8fa5 11be 6e79 b53d d5a7 4c3e 19b0 b2bd
000000d0: b188 d33d 6b16 0d3e 0e06 fbbc a0b6 cebd
000000e0: 0a72 b03d c8d0 bc3c 8b2f 0a3e d36b 9e3d
000000f0: d4c7 24be 1d2a 053d d9b1 b83d 4b67 3bbd
00000100: 51af 4abe e293 a4bd 500a 0b3e 3aa4 28bd
00000110: 36c0 47bd 50a3 6b3d 341e 89bd 3498 003c
00000120: 67ca 31be 8f4d e5bb 287c fabd c07a 16bc
00000130: c2ed 66be 7553 8dbd 6589 8c3c e764 2e3d
00000140: 1c33 5bbd eaa5 23bd 40e4 8dbd 9897 a03d
00000150: 280d 85bc 2c0a 34bd 2db7 25bd 4828 00bd
00000160: 550d a9bd 0810 59bb b4ee 76bd f4ef 03be
00000170: 0bc9 ba3d 487c 233e 9972 82bd 503f 733d
00000180: 41c3 6c3d 7b2a ff3c 881a 80bd 1891 0e3c
00000190: b009 b6bc 1c96 b7bd 14d9 6e3d 1cb9 713c
000001a0: 0e96 b03d 1cb5 18be a1a4 f63d 19bb 3abe
000001b0: fe01 393e a5b5 203e 0057 11bd f124 4dbd
000001c0: 05b9 10be 4b0f c03d 6644 0b3e 6c78 863d
000001d0: e2d2 7b3d f391 31bd 041e 53be 1c83 52be
000001e0: c397 be3b 9ab9 4a3c 7c7f 663c b8f1 02be
000001f0: eefd afbd 1911 abbd 37ec af3d 8953 273e
00000200: 5284 d6bc 5ba1 b73d 76f6 3dbd 8099 79bd
00000210: aee8 0e3e 4f67 b13d e4ca 81bc 61be 1fbd
00000220: 7a1a 183d a402 353d 3762 203e b901 bb3d
00000230: 53e5 a3bc 55e8 58bb b699 27be 6ae1 7e3d
00000240: c549 38be 87cc b33d 92cb 803d 3126 85bd
00000250: b75d 5d3d 9fb2 11bb 85c2 70bc dfc6 d2bb
00000260: 6ce8 d4bd 426f 46bd 2ab5 fb3c cd3b 103e
00000270: 7feb d2bd dae8 f63c 437c 313e 7540 ecbd
00000280: d4a2 8fbc 04b6 e5bd 90a7 bdbd 302a 1e3e
00000290: 0cc4 42be 8662 79bd 4e2e 31be 3ca4 313e
000002a0: a1c3 233e 24a3 863d fde9 e4bc 4df6 e63c
000002b0: 2d70 e53d f1d0 d2bd df55 cbbd 4567 583e
000002c0: 2663 22be 5127 b3bd 4ada 2ebe bf4e c1bd
000002d0: adcd 33bd a12b a13d 3e70 343d d32a b1bd
000002e0: 14fd a93d ca57 05be 972b 103e d523 a63d
000002f0: 8f74 303e ab03 1a3c 662d 92bd 3366 0f3d
00000300: 62de 53bd 7602 933d 5188 a83d 3796 99bd
00000310: 4ae3 3abd e23f 1d3e a659 c43d fad7 f5bd
00000320: 3337 c23c 6a61 803d 0706 f0bd 60a2 b43d
00000330: 2616 cd3a 066e 0a3e 8e84 43bd 18fe f539
00000340: 4935 8e3d 84f9 b3bd b43d 813c 9534 c3bb
00000350: 47fb 463d 9ffe 613d 641b 3dbd 1e44 32bb
00000360: 17cb 0bbc d0ac 213c 8441 d33d 567e aabd
00000370: e556 8abd 9a29 ef3c ca43 20bd 7b0d 8bbd
00000380: 6ed3 663d baa4 3e3d c6fc 693d af4c a43d
00000390: a515 443c f5e0 3a3b 2995 973d d148 293e
000003a0: b1b9 cf3d deba d23d ab8d 55bd 864a 673d
000003b0: 5aaa 9d3d 8afd 04be 684d 873d 8ae0 03be
000003c0: e23e 133b d873 fabb 0399 2d3d 7ff2 d13d
000003d0: b18a 0cbc 675f e3bd 9124 033e 8396 0d3e
000003e0: 2b6d 8e3c b207 96bd ca0c edbd 7271 0f3e
000003f0: 7a66 713d b778 dc3d 39fc 833d 260f b2bb
-0.1553207 0.059315164 -0.2187915 -0.10399094 -0.1783498 -0.021732628 -0.05948293 0.07202197
0.13667625 -0.00961048 0.07239967 0.113477685 -0.021802368 -0.1482191 0.062893 0.14551765
-0.015665257 -0.15303141 0.10974776 -0.05112121 0.059482355 -0.09765016 -0.099620506 0.040436715
0.07788754 0.08367339 -0.20381697 -0.09294223 0.030526254 0.07399209 -0.20419492 0.034659095
0.11066092 0.10246379 0.05855024 -0.18274227 -0.22481924 0.004093352 -0.0128115015 -0.1411856
-0.012863383 0.17305313 -0.12523338 0.054755367 0.08716575 0.14652766 -0.060872577 0.047255956
-0.14223312 0.088610515 0.19985898 -0.08724994 0.10328806 0.13778083 -0.030642536 -0.10093427
0.08615501 0.023048773 0.13494699 0.077354096 -0.16091853 0.032510865 0.09018297 -0.045752805
-0.1979344 -0.08036019 0.13578153 -0.041172244 -0.04876729 0.057528794 -0.06695214 0.007848788
-0.17362367 -0.006997771 -0.12230712 -0.009184539 -0.22551635 -0.06900684 0.017155359 0.042576697
-0.05351554 -0.03995315 -0.06928301 0.07841414 -0.016241625 -0.043955013 -0.040457893 -0.031288415
-0.08254496 -0.0033121128 -0.06028624 -0.12884504 0.09120377 0.15965378 -0.06369514 0.05938655
0.057803396 0.031148186 -0.062550604 0.008701585 -0.022221416 -0.08964178 0.05831249 0.014753606
0.08622371 -0.14912838 0.12043119 -0.18235435 0.18067166 0.15694292 -0.03548336 -0.05008406
-0.1413308 0.09377917 0.1360031 0.065659374 0.06148041 -0.04335208 -0.20616919 -0.20557827
0.0058164313 0.012373352 0.014068481 -0.12787521 -0.08593355 -0.083528705 0.08589976 0.1634046
-0.026186142 0.08966323 -0.04637762 -0.060937405 0.13955948 0.08662283 -0.015843816 -0.03899992
0.037134625 0.04419197 0.15662466 0.09131188 -0.020006811 -0.0033097465 -0.1636723 0.06222669
-0.17996891 0.08779245 0.06288828 -0.06501425 0.05404445 -0.002223171 -0.014694815 -0.0064323987
-0.103958935 -0.048445947 0.030726034 0.14085312 -0.102988236 0.03014033 0.17332558 -0.11535732
-0.017533697 -0.11216357 -0.09260476 0.15445781 -0.19020098 -0.060884975 -0.1730282 0.17347807
0.15992595 0.06574085 -0.027943606 0.028193617 0.112030365 -0.10293759 -0.09928488 0.21133144
-0.15858135 -0.087477334 -0.17075458 -0.09438848 -0.04389732 0.0786965 0.044052355 -0.08650746
0.08300224 -0.1302177 0.14079128 0.08112303 0.17231964 0.009400289 -0.07137565 0.035009574
-0.051725753 0.07178204 0.08229125 -0.07499354 -0.045626916 0.153564 0.095874116 -0.12004085
0.023707962 0.0626858 -0.117198996 0.08820033 0.001564686 0.13518533 -0.047733836 0.00046919356
0.06943757 -0.08787826 0.015776493 -0.005957196 0.04857948 0.055174466 -0.0461687 -0.0027201246
-0.008532307 0.009867862 0.103152305 -0.08324878 -0.06754855 0.029194642 -0.03912715 -0.067896806
0.05635398 0.046543814 0.05712583 0.08022439 0.011968051 0.0028515432 0.07401497 0.16531684
0.1014284 0.10289548 -0.05213706 0.056467555 0.076985076 -0.12987342 0.06606561 -0.12878624
0.00224679 -0.007643204 0.04238225 0.102513306 -0.0085779885 -0.11102181 0.12806918 0.13826947
0.01738604 -0.073256865 -0.11574705 0.1400812 0.05893562 0.10765212 0.06444592 -0.0054339347

encoders.0.encoder.prelu2.weight f4 [128]
00000000: 3921 6a3d d39d 803e 3226 be3d 7dc7 4c3d
00000010: 0ec2 0c3e c9e0 5d3e e29f 4b3c 781c 273e
00000020: 28f9 903e 7c2d 623d 6e9b 1d3d f583 d93d
00000030: 2674 013e 268f 2f3d 1a9f b03d f2be 783e
00000040: 91ce a93d 2a22 333e da66 8c3d b4d9 9b3d
00000050: ba18 473d 98db a9bc 0641 e63d 9372 873e
00000060: 951f da3d 9c88 fd3d 9133 993d 2261 813d
00000070: 7166 153d 4e3a 493e d325 ed3d 8869 c33d
00000080: a255 533d db19 483e 9165 623e a7ea 713d
00000090: 6594 023e edcc 1b3e c16e 6c3e 1b4b 693d
000000a0: e23f 563e 8c4f 3f3e a64c c53d 79b6 a33d
000000b0: d023 f03d fe3e 843d d5b0 eb3d 2585 8e3e
000000c0: 841b 143e 8d9a 4f3e adf0 2f3e 91dd f63d
000000d0: 6ece d83d ed05 a03d 11b2 103e 6b6b 223e
000000e0: d0e2 3c3e 4495 4b3c 6a88 893e 83a2 523d
000000f0: 6e07 b93d 470e 833e 023a 233e 105f 2a3e
00000100: 5256 813d f733 d93d e7b3 bc3d 781d 873d
00000110: be89 0a3e 2c77 163e 4db9 bd3c 857e f83d
00000120: 8052 133e 9ace 423e cdbd d93d 7d14 2e3e
00000130: a88d 663e 1586 b43d 01bc 0b3e a53a fd3d
00000140: e51c 3f3e 04d6 063e 9627 323e 60c4 d0bc
00000150: c80e 8d3d 7456 783d 2ef3 513e 401e 353e
00000160: 60dc e03d 8ca9 b33d 8e08 fe3d 3240 5a3d
00000170: 4d74 263e 6e86 013d 1e4c d73d d8fb 573e
00000180: d3f1 183e 36db 073e 9ed2 013e 5c98 e83d
00000190: 88f1 383e 0d09 7a3d 46e1 7d3e 7a13 593e
000001a0: 8a67 d33d 0e97 293e 56d0 453e 23f0 5c3e
000001b0: a888 933e 1a44 653e a425 323e d00a 423e
000001c0: 2ff7 3d3e 57a4 443e f84e 553e e33b 993d
000001d0: 07fb 543e e6f2 633e 8a99 0e3e da2f 123e
000001e0: e13c 213e a88e 693e 501b 4f3e 83fc 5a3e
000001f0: 45bb f73d 9c0a 4b3e 4fbd 0a3e ec84 0b3e
0.05716059 0.2512041 0.09284629 0.049994934 0.13745901 0.2166778 0.012428256 0.16319454
0.2831509 0.05521916 0.038478307 0.10620872 0.12641963 0.042861126 0.08624096 0.2429159
0.082913525 0.17493501 0.06855555 0.07609883 0.048607565 -0.020734593 0.11242871 0.264546
0.10650555 0.12379572 0.07480539 0.06317355 0.03647465 0.19651148 0.1157948 0.09541613
0.051595338 0.19541113 0.22109057 0.059061673 0.1275192 0.15214892 0.23089124 0.05695639
0.20922807 0.18682688 0.0963376 0.07993788 0.11725581 0.06457327 0.115083374 0.27835956
0.14463621 0.202738 0.17181654 0.12053979 0.10586248 0.0781363 0.14130427 0.15861289
0.18445897 0.012425724 0.26861888 0.051424515 0.0903462 0.2559683 0.15940097 0.16637826
0.063152924 0.10605615 0.09214001 0.065974176 0.13529107 0.14693898 0.023159647 0.12133507
0.1438694 0.19024125 0.10631905 0.17000003 0.22514975 0.088146366 0.13645937 0.12364701
0.18663366 0.13167578 0.17397913 -0.025484264 0.06887585 0.060629323 0.20502922 0.1768732
0.10979533 0.08772573 0.124039754 0.053283878 0.16255303 0.031622343 0.10512565 0.21092165
0.14935999 0.13267216 0.12678 0.11357185 0.18060887 0.061043788 0.24792966 0.21198836
0.10322483 0.16561529 0.19317755 0.2157598 0.28815198 0.2238926 0.17397171 0.18949437
0.18551324 0.19203316 0.20830905 0.074821256 0.20798884 0.22260627 0.13925758 0.14276066
0.1574588 0.22808325 0.20225263 0.21385388 0.12096266 0.19828266 0.13548778 0.13624924

encoders.1.weight f4 [128, 128]
00000000: 0a4f 653e 6af6 a03e a513 5b3e f595 4e3e
00000010: ec44 5e3e 08ff 9a3e f526 273e b4a0 6b3e
00000020: f906 1d3e bad1 283e 5a52 963e 0323 0a3e
00000030: 22b0 9f3e 8d4a 203e c05f 253e 7ccd 403e
00000040: 069c 9f3e c9fe 793e 1a0a 7a3e 61bf 2f3e
00000050: 95be 2d3e 1806 773e 9724 463e 26c0 9b3e
00000060: 5651 963e 82b8 763e 6f28 243e 35e0 483e
00000070: c736 833e 1e24 3e3e 6833 243e d254 393e
00000080: bca8 453e b503 8a3e 7369 383e 4cc4 183e
00000090: 2e6d 2a3e b54b 7d3e 6d4c 1e3e e1f0 7d3e
000000a0: deed 953e 7aa0 1a3e cfa9 153e 0f7f 503e
000000b0: a196 323e e43d 913e 8aad 193e 9d05 953e
000000c0: e127 2d3e a06e 1a3e 3440 663e fe2c a03e
000000d0: 0432 553e a934 3f3e 7bad 873e 2fc6 a03e
000000e0: f47b 6d3e 58d9 793e 0af1 873e 6653 483e
000000f0: 5dfd 473e 291a 8f3e 384c 2a3e 47db 513e
00000100: 8a46 873e 4add 973e 6605 7d3e 8199 0d3e
00000110: 1566 523e de7b a33e 1528 6e3e 7b8b 203e
00000120: 1ccd 753e ddd8 8a3e 207f 2a3e c72c 6a3e
00000130: dcf0 883e 7d6e 9b3e bd47 a23e d96c 513e
00000140: 33c1 643e 7b72 953e ca0b 963e 6297 853e
00000150: 0ec3 9f3e 6317 523e 077b 913e c2c1 513e
00000160: 4d9b 1d3e c8b2 4a3e 1a3b 1d3e fcc7 953e
00000170: 7f24 4b3e fa8e 583e bf64 5f3e 68d2 213e
00000180: f4a5 143e 23cb 543e 0a77 403e 43e0 6d3e
00000190: 4e32 573e 5230 5c3e 100b 163e d55d 943e
000001a0: 9567 623e 200b 703e 65aa 9f3e 5bca 0d3e
000001b0: 5e4c 163e 999a 463e e689 8d3e c5f5 983e
000001c0: 2d33 4c3e 6e97 433e 4f90 263e 94fe 953e
000001d0: 0bda 743e fa4d 343e c727 1d3e 2dc9 6b3e
000001e0: 03fc a83e 2af3 8d3e ea62 753e e799 953e
000001f0: 5eef 8c3e f052 1a3e 7e61 523e cb5a 7b3e
00000200: 107c 9ebd ebf0 90bd aaec 343d c92c 903c
00000210: 01f7 7a3d 6acc 193c e654 88bd 5035 8fbc
00000220: 90f0 27bd d4c8 aebd 181a 6b3d 02c3 9dbd
00000230: 2012 d93c 31f2 1b3d 2604 a6bd 264f 9a3d
00000240: 2f67 3bbc fe3d 253d 2e3e 1c3d a9d1 fb3b
00000250: cde2 1cbd b80b 3bbd 6569 abbd c75a 873d
00000260: a303 453c 9b18 9f3c 9788 9dbd 8480 973d
00000270: d35c 4dbd e45a eb3c c81f 273d fe41 b33d
00000280: ea71 4bbd 7f3d b43d be1e 933d dbcd 94bd
00000290: 273c e53c bb93 933d 8322 993d b7dc 5fbd
000002a0: eec2 2f3d b4c5 943c 7cc9 a13d 8c06 14bd
000002b0: f9af 39bd 6b49 b73d f72e 01bd 84d9 a2bd
000002c0: 59ff 903d 99e1 af3b 50c2 673d fbcc a6bd
000002d0: 530a 5a3d 4ab8 343d 7afc 993d 9c54 eabc
000002e0: 4951 37bd 8d8b 34bd 916d 253c 3fe1 a4bd
000002f0: 7109 a53d b52d d8bc 6faa 583d 344c c33c
00000300: cb90 c6bc c26c 06bd a168 583d 5ec4 863d
00000310: ef28 3b3d 72ca 893d 9a9f 52bd ea1e 49bd
00000320: 372e 24bc 7353 393d b78c 033d bb5e 7d3d
00000330: a9f2 8cbd 7cc6 a83d 4a3b 973d 1b1b 593d
00000340: 1025 e93c bde4 9a3b 8488 a7bd fbcd 74bc
00000350: a70c a73d 2307 9abd d29a 9a3d 6947 de3c
00000360: 80f1 9c3d 3d72 013d 7904 0d3d 880c 8dbd
00000370: c13c 553c 6c2b 22bd 607b 8d3d 5d4c 853c
00000380: 35ae 463c 24d8 63bc 22b0 09bd c3cd 2b3c
00000390: ba36 4c3c 24a2 70bd 2297 22bd d88e 87bd
000003a0: fe9e 4c3d 0954 ad3d 58b4 903c 8b3e a63c
000003b0: 1ae3 a5bd e2d7 823d 6a2c 343d 7511 7ebd
000003c0: a10f 4fbd 2d1f 3e3d e267 463d d326 b23d
000003d0: 305d 0dbb 1566 b33d 6452 86bc 2d2a 883d
000003e0: d83a 8d3d 2614 91bc e284 58bd 973a 0cbc
000003f0: 446b a43d 568b bf3c e98d 6dbd c434 653d
0.22393432 0.31438 0.21394213 0.20174392 0.21705979 0.30272698 0.16323455 0.23010522
0.15334691 0.16486254 0.29359704 0.13489918 0.31189066 0.15653439 0.16149807 0.18828386
0.31173724 0.24413599 0.24417916 0.17162849 0.16967233 0.24123418 0.19349895 0.30420035
0.2935893 0.24093822 0.16031049 0.19616778 0.2562773 0.18568465 0.16035235 0.18098763
0.19302648 0.26955953 0.18008976 0.14918631 0.16643211 0.24735911 0.15458842 0.2479892
0.2928304 0.1510028 0.14615558 0.20360969 0.17440273 0.2836753 0.15007606 0.29105845
0.16909744 0.15081263 0.22485429 0.31284326 0.2081986 0.18672432 0.26499543 0.31401202
0.23191816 0.24399316 0.26551086 0.19563064 0.19530244 0.27949646 0.16630638 0.20493804
0.26421005 0.29661018 0.2470909 0.13828088 0.20546754 0.3193044 0.23257478 0.15678208
0.24004024 0.2711858 0.16650057 0.22868644 0.2674626 0.30357733 0.31695357 0.20451678
0.22339325 0.29188904 0.2930587 0.26092058 0.31203502 0.20516734 0.28414175 0.20484069
0.15391274 0.19794762 0.15354577 0.29254138 0.19838141 0.21148291 0.21815775 0.1580292
0.14516431 0.20780616 0.1879541 0.2323008 0.21015283 0.21502808 0.14652658 0.28977838
0.22109826 0.23441744 0.31184688 0.13846724 0.1467757 0.19394912 0.2764427 0.29875007
0.19941397 0.19100735 0.16265987 0.2929579 0.23911302 0.1760787 0.15347205 0.23025961
0.3300477 0.27724582 0.23963514 0.2921898 0.27526373 0.150707 0.20545003 0.24546354
-0.07738507 -0.070772015 0.044171013 0.01759948 0.061270718 0.009387115 -0.06656818 -0.017481476
-0.041000903 -0.08534399 0.05739793 -0.077032104 0.0264979 0.03807277 -0.0810626 0.075346276
-0.011438175 0.040342323 0.038145237 0.0076849055 -0.03830223 -0.045665473 -0.08369712 0.06609111
0.012024793 0.019420912 -0.07692068 0.07397559 -0.050137352 0.028729863 0.040801793 0.087528214
-0.049669184 0.08800792 0.07183598 -0.07265826 0.027982784 0.07205912 0.07477286 -0.05465385
0.04291051 0.018160678 0.07899758 -0.036139056 -0.045333836 0.0894955 -0.03153893 -0.07951644
0.07079954 0.0053674695 0.056581795 -0.08144566 0.053232502 0.044121064 0.07518859 -0.028604798
-0.044755254 -0.0440784 0.010096923 -0.08050775 0.080584414 -0.026388982 0.052896913 0.023840047
-0.024238965 -0.032818563 0.052834157 0.06580423 0.045693334 0.067280665 -0.05142174 -0.049101748
-0.010020784 0.0452456 0.032116618 0.06185792 -0.06882221 0.08240983 0.07384355 0.053004365
0.028460056 0.0047269748 -0.08180335 -0.014941688 0.0815671 -0.075208925 0.07549061 0.02713366
0.0766325 0.031603087 0.034428094 -0.06887156 0.013014973 -0.03959219 0.069082975 0.016271764
0.012126495 -0.013906512 -0.03361524 0.010486069 0.01246422 -0.05874838 -0.039694913 -0.06619042
0.049956314 0.08463294 0.01766412 0.020293495 -0.08099957 0.06388833 0.04398767 -0.062028367
-0.050552014 0.04641645 0.048438914 0.086988114 -0.0021570437 0.08759705 -0.016396709 0.066486694
0.06895989 -0.017709803 -0.052861102 -0.008558891 0.08028272 0.02338187 -0.057996664 0.055958524

encoders.1.encoder.conv.bias f4 [128]
00000000: 6260 69bd d72b eb3b d6b8 10bb d790 19bc
00000010: 5143 893c b28f d03a cee0 dbbc 9d86 0f3c
00000020: 7496 7039 cdd5 0cbb e2ee 37bb 9261 953c
00000030: a773 cb3c b1f8 123b a3c8 a0bc f788 983c
00000040: edbe 18bd 046c e7bc 533a fc3c aebf 7abc
00000050: 8076 7cbc 2a66 33bb caf1 a4ba d479 a7bb
00000060: 5552 b73c d2a1 89bd 213e 743c 9a2c 8b3b
00000070: 68a4 1d3d 49e5 17bc 86c1 823c e362 2dbb
00000080: 0c0b 153d cadf 0e3c ea54 563c bde1 08bc
00000090: 0fba 14bd 02ea bb3b 1f29 4cbc 87d8 1d3d
000000a0: 4a0d 75bc 1f71 4b3c dd2a e7ba 9e93 81bc
000000b0: a743 11bd 6b32 0f3d 3b4d ab3c 20b6 313c
000000c0: e0be cf3b 1ded 9cbc 9360 aabc 3d3a 08bd
000000d0: 92bb d3bb 88b6 05bb ad63 3cbb 80cc babc
000000e0: 1230 92bc e316 163d 2cf4 aabb c840 5f3b
000000f0: 4001 703c e592 6a3c 185e 8aba 09ce 693b
00000100: 74dd 34bc d813 a93a 7b4a 263b 2451 09bc
00000110: 407a 133c 1ffd 983c 11b6 1b3c 968b c8bc
00000120: 74f8 c7bb 1573 9cbb 08d1 2c3c 1f83 22bd
00000130: 7fbb 9fbb 0c5f 8ebc ac17 1abd 93fd 26bd
00000140: e2b0 19bd 1bd1 66bc daeb cb3b 4c3a 35ba
00000150: fc8f bebc d520 eb3c b77e e7bb b6e6 ff3b
00000160: 4060 073c dc06 ddbb 5fce 5abc d538 a03b
00000170: d127 973c f7c2 233d c125 b83c a870 0bbd
00000180: 8491 2fbc fb97 23bd 00c1 9bbb 89f4 d93c
00000190: e760 d1bc e01a 4cbc 8723 b8bc 8a8f 153d
000001a0: a436 36bd 1716 b0bc a0dd 97bc 3a1a 3bbc
000001b0: eb3e 32bc fe15 f33b 703e 2fbd 2150 1abc
000001c0: 6cf5 c7bb 87f5 12bb b621 223d b673 f13c
000001d0: 1340 c7ba eded ba3b 76ee 173c c16c 2f3d
000001e0: 56b4 7dbb c899 98bc e1b7 31bb 31c8 84bb
000001f0: 334c 063c 53be 923a e389 debc 2b2e 69bc
-0.056976683 0.007176857 -0.0022082827 -0.009372911 0.016755732 0.0015911965 -0.026840594 0.008760122
0.00022944232 -0.002148974 -0.002806597 0.018235002 0.02483542 0.0022426064 -0.019626921 0.018619997
-0.037291456 -0.028249748 0.03078953 -0.015304489 -0.015409112 -0.0027374127 -0.0012584266 -0.0051109586
0.022378126 -0.06720318 0.014907391 0.0042472603 0.03848687 -0.009270974 0.01596142 -0.0026456646
0.03638749 0.008720348 0.0130817685 -0.008354601 -0.03631025 0.005734683 -0.012460976 0.038536575
-0.014956782 0.012417107 -0.0017636676 -0.01581746 -0.03546491 0.03496019 0.02091085 0.010846645
0.0063398927 -0.019156033 -0.020798003 -0.033258665 -0.006461569 -0.0020402987 -0.0028745935 -0.022802591
-0.017845187 0.03664292 -0.005217096 0.0034065712 0.0146487355 0.014317249 -0.0010556607 0.0035675785
-0.011039127 0.0012899591 0.0025373984 -0.008381162 0.009001315 0.018675385 0.009503857 -0.024480622
-0.006102616 -0.004774461 0.010547884 -0.039675828 -0.004874646 -0.017379306 -0.03762023 -0.04076917
-0.037522204 -0.014087941 0.006223184 -0.0006913289 -0.023262016 0.028702179 -0.007064666 0.0078094853
0.008262694 -0.0067452025 -0.013354867 0.0048895874 0.018451603 0.039980855 0.02247894 -0.034042984
-0.010715846 -0.03993986 -0.004753232 0.026605861 -0.025558902 -0.012457579 -0.022477878 0.036513843
-0.044485703 -0.021494908 -0.018538296 -0.011419827 -0.010879259 0.007418393 -0.042784154 -0.009418518
-0.0061022546 -0.0022424178 0.03958293 0.02947412 -0.0015201591 0.0057046325 0.009273162 0.042828325
-0.0038712225 -0.018628016 -0.0027117657 -0.004052185 0.008196878 0.0011195637 -0.027165359 -0.014232199

encoders.1.encoder.conv.lin.weight f4 [128, 30]
00000000: 9d69 7ebe 8194 933d 3186 a93d ec8b cbbb
00000010: 1d06 c23d 1e0e 2dbe 856b 53bd 8f86 0c3e
00000020: 6ece 9bbc 3f56 cbbb efe3 213e 6ae4 583c
00000030: ba2c 5a3d 0694 6dbd 1c18 babb c674 eb3d
00000040: ad5f 0c3e 97bb bf3d dc2b fabc faad 763d
00000050: 56d2 25be 1158 953d 784b ffbd 0e24 c73d
00000060: d0bc b93d 7bdb c93d 52d3 0a3e 47bc 3b3e
00000070: a951 263e 4158 043d cd8c 31ba 9e0d dd3d
00000080: cf79 293e bf76 093e e18f 8cbd 6269 033e
00000090: c5a5 023c 3d62 80bd c9f7 b93d a1e0 6cbc
000000a0: 13dd 913b 27c7 48bd 983a 393e 9747 a6bd
000000b0: 3369 a9bd cae6 e43d 0bf4 ddbc 52a4 44be
000000c0: 138f 0ebd 12e6 d5bc a562 57bd 4141 dd3c
000000d0: b337 203d df2f 42be b145 21be 33f1 2dbe
000000e0: 5e7a c9bd 562a 97bd a222 febc 904f 2c3c
000000f0: 09d7 8a3b bf9a 453e c38d 9e3d 44e6 20be
00000100: 08f8 3bbc fad1 f03c d141 8fbc a2a7 9a3c
00000110: 1e9a 863c c0a1 e6bd 8b6d ea3d 2834 68bb
00000120: b73e da3d a79b 1c3d 060f 5abe 36a2 c83d
00000130: afd7 dc3d edfe b63c 51fe 043e 4ddb aabd
00000140: d177 463e 40de b83d d7b2 023e 6876 583e
00000150: b084 1e3e c21b 2dbd 907c 2cbe c695 163d
00000160: 4d1b 27be 3989 27bd 016e af3d 0e2e 7f3d
00000170: e530 043e 5ca0 ffbd 4e28 da3d 605a 663c
00000180: 221e 25bd 7f7f 05be 011e bf3d 6fc0 253e
00000190: c0d7 333e ecd0 89bd 19b9 c0bd 4f1e 3cbe
000001a0: dee4 b8bc 3ca9 d23c eaaa 4e3b ec73 24be
000001b0: f3c1 c33d b992 183e 77af 84bc 2180 133e
000001c0: 844c d73d 74ac 2bbc 3b96 1bbe 7bc7 da3d
000001d0: 621b f93c 7809 3bbd 656f f13d 69af 29be
000001e0: 12ce 88bc 90db dabd 83e3 e4bd eb23 17be
000001f0: ca10 473d 1a70 3fbe c4ca a5bd 1285 de3d
00000200: e850 adbd bb12 bebd 0fe5 a5bd bea0 983d
00000210: f2c3 00be 443f a2bd 1290 533d 5b4a 2f3e
00000220: 4819 a2bd f5e9 543e 9303 b53d a93d cf3d
00000230: 0bf9 b23c 08e5 ddbd 2849 293e 9833 0e3e
00000240: 7e09 283c 7107 5e3d c41f 583e 8c1a 1cbe
00000250: 10b6 05be 6333 123e a1ac 45be e469 f03c
00000260: 2e9d 223e 66b4 8d3b ebfc 6fbd d76b adbd
00000270: 3237 13be de7e 89bd 88e6 adbd f352 383e
00000280: f202 0ebd 9341 17be 2abe 153e 8d51 13be
00000290: bb0a c9bc a9ef 47be e824 a9bd 1df2 123e
000002a0: 9c46 40be 4e45 d3bc 25cc aabd 8a9f 26be
000002b0: 2c11 d2bd e0d3 33be 54ca a03d 7c9c 783d
000002c0: ce34 acbd e9a1 e83d 74ef 51bd 80c8 9dbd
000002d0: bd12 cbbd dc63 16be 9cf5 fb3d 770d 28be
000002e0: bbcd a0bc e8d6 ef3d 59d3 083d 9dbc c8bc
000002f0: c117 203d 6b31 5abd b3b9 153c 898a 03be
00000300: 6db3 7a3d 81a8 823d 7d8d 3bbe fca5 d23c
00000310: 378f afbd c138 733c 396b fe3d 1994 bab9
00000320: 7307 913d a3d3 3f3e e943 b83d 883d e6bd
00000330: c324 b5bd 16cd bebd ef54 1cbe 2cd7 d63c
00000340: 00a9 853d 88f2 cebd 0f08 7bbd 852a c13d
00000350: f584 023d 2026 79bd ac97 713e 7c25 7cbd
00000360: 074a 5abe 64ad 4cbe 9383 253e ff04 1a3e
00000370: 571f 053e d200 7fbc bb9c da3d 3f92 b53c
00000380: 3da5 dabc 9a0e 633d 5c1d 153e 1345 0b3e
00000390: 0209 603e d221 a5bc 6180 48bd 8222 65bd
000003a0: 64f8 2fbe acec e9bd 8937 913d 506b 38be
000003b0: 9ee7 97bd 377c c83d eb49 8fbd 43b5 03be
000003c0: c84c 1d3e f4dc 81bd 0db7 1fbe ad51 0cbd
000003d0: b0e4 aebd 714f 2fbe 954b 76bd 5e02 bf3d
000003e0: 1cdf aa3d ca1f 1bbc 6bca 963c 2926 c4bd
000003f0: f691 2e3e caa3 1ebe 1b6c c9bd d1f8 0c3e
-0.24844976 0.07206059 0.08277548 -0.0062117483 0.09473822 -0.16899917 -0.05161621 0.13723205
-0.019019332 -0.0062053497 0.15809606 0.013238052 0.05326531 -0.058002494 -0.0056791436 0.11496882
0.13708372 0.09361952 -0.030538492 0.06022451 -0.16193518 0.07292188 -0.124655664 0.09723674
0.09069216 0.09856316 0.13557175 0.18333541 0.16242088 0.032310728 -0.0006772995 0.10793613
0.16550373 0.13424204 -0.0686338 0.12833169 0.007974093 -0.062687375 0.090804644 -0.014457853
0.004451403 -0.04901805 0.18088758 -0.081191234 -0.08272018 0.11176832 -0.027093908 -0.19203308
-0.034804415 -0.026110683 -0.05258431 0.027008655 0.03911562 -0.18963574 -0.15749241 -0.16986541
-0.09837793 -0.07381122 -0.031022374 0.010517016 0.00423706 0.19297312 0.07741883 -0.1571284
-0.0114727095 0.029397 -0.017487438 0.018878762 0.01643091 -0.1126132 0.11446675 -0.0035431478
0.10656493 0.03823438 -0.21294793 0.09796564 0.10783326 0.022338355 0.12987639 -0.083426096
0.19381644 0.09026766 0.12763534 0.21138918 0.15480304 -0.0422628 -0.16844392 0.03676393
-0.16319008 -0.04090235 0.085659035 0.06229978 0.12909277 -0.12481758 0.10652219 0.014059633
-0.04031194 -0.13036917 0.09331895 0.16186689 0.17562771 -0.06729302 -0.094103046 -0.18370937
-0.02257007 0.025715463 0.0031534978 -0.16059846 0.09558477 0.1489972 -0.01619695 0.14404346
0.10512641 -0.010478128 -0.15194027 0.10682579 0.030408565 -0.045663327 0.11788825 -0.1657082
-0.016699824 -0.106864095 -0.11176207 -0.14759795 0.048599996 -0.18695107 -0.08095315 0.10865225
-0.08462697 -0.09280916 -0.0810033 0.07452534 -0.12574747 -0.07922223 0.051651068 0.17118208
-0.07914978 0.20792373 0.08838572 0.101191826 0.021847269 -0.108347 0.16531813 0.13886869
0.010256169 0.054206315 0.21105868 -0.15244502 -0.13057733 0.14277415 -0.19304134 0.029347368
0.15880272 0.0043244837 -0.05859081 -0.084678344 -0.14376524 -0.06713651 -0.08491236 0.18000393
-0.034670778 -0.14771108 0.14623323 -0.14386578 -0.02454125 -0.19525017 -0.082589924 0.14350171
-0.18776935 -0.025789883 -0.08339719 -0.16271797 -0.102571815 -0.17561293 0.07851091 0.06069611
-0.08408509 0.11359007 -0.05125375 -0.07704258 -0.099156834 -0.14686531 0.12302706 -0.16411386
-0.01962935 0.11710912 0.03340468 -0.024504 0.039085153 -0.053269785 0.009138512 -0.12845816
0.06120627 0.06379796 -0.18315692 0.025713913 -0.08572238 0.014845074 0.12422795 -0.00035587026
0.07081499 0.18733077 0.08997328 -0.11242205 -0.08844902 -0.09316461 -0.15266775 0.026225649
0.06526375 -0.10104853 -0.061286982 0.09431938 0.03186508 -0.060827374 0.23593014 -0.061559185
-0.21317302 -0.19988018 0.16163473 0.15040968 0.13000236 -0.01556416 0.10674425 0.022164462
-0.02669012 0.055433847 0.14561981 0.13600568 0.21878436 -0.020157728 -0.048950557 -0.055941112
-0.17184597 -0.11422095 0.070906706 -0.18009686 -0.07417224 0.09789317 -0.069965206 -0.12862115
0.15361321 -0.063409716 -0.15597172 -0.03425758 -0.085397124 -0.17120148 -0.060130674 0.093266234
0.08343336 -0.009468028 0.018407067 -0.09577591 0.17047867 -0.15492168 -0.098350726 0.13766791

encoders.1.encoder.prelu.weight f4 [128]
00000000: 0000 803e c3b3 923e 0000 803e 0000 803e
00000010: cd9a 813e 90ab 7b3e bb1f 6f3e 7c4c 1cbb
00000020: d2f4 733e 0000 803e 64dd 843e 4569 8a3e
00000030: 0621 553e 0000 803e 376a 903e 76b4 6e3e
00000040: f8ed 883e 4449 813e 0000 803e 06f6 483e
00000050: 0000 803e 0000 803e f3f7 793e 0000 803e
00000060: 3053 823e 7e22 133e f350 653e aada 983e
00000070: ea76 763e 2e45 2f3e b65c 903e 2cb1 db3d
00000080: 8d1e 813e d827 a83d 94c6 8d3e 511d 863e
00000090: e748 283e dbfc 853e f3f8 343e 2455 4d3e
000000a0: 0000 803e db7b 923e 0000 803e 2640 803e
000000b0: 846c 803e d3a4 863e 825f 803e 0178 833e
000000c0: 266f 7d3e bfe7 2a3d bcda 3d3e ab4e 993c
000000d0: baaa 3f3e f4f6 443e 5ed0 783e 9186 2e3e
000000e0: 683e 763e de90 8d3e 45c1 b43e 0000 803e
000000f0: 1256 3c3e 0639 c53d fdd1 5d3e 54b2 893e
00000100: 4733 d13d 72c8 833e 9d69 6c3e 8678 b03e
00000110: 5715 7e3e 6cef bd3c 74b8 1c3e 4aa4 f53d
00000120: 667a ea3d 089b 083e b1f5 903e 0000 803e
00000130: 0000 803e f076 1d3d bfd9 643e 4ae9 14be
00000140: 2d9f 453e e8ba 6d3e ebfc 823e d32b 853e
00000150: 0000 803e 7743 263d 3c1e 343e 7c40 993e
00000160: 46a6 833e 0000 803e 7fdf 763e f545 103d
00000170: 9d5d 423e 0000 803e 6729 543e d551 733e
00000180: f2a7 723e 0000 803e 9372 633e 0000 803e
00000190: ecb5 493c 89a4 4f3e 97a3 3f3e e88e 1a3e
000001a0: 9549 823e 375d 8c3e 1594 843e 0000 803e
000001b0: e138 14be 6b36 733d 0000 803e a0e0 af3d
000001c0: af08 883e e34a 663e 910e e33d a6c8 6d3e
000001d0: 0000 803e 58fe ac3e 891b b53d ff6f 6e3e
000001e0: 0000 803e 7768 783e 0000 803e c07e 783e
000001f0: 5e9a 6d3e 59d0 2e3e 9f80 913d bf3d 773e
0.25 0.28652772 0.25 0.25 0.25313416 0.24577165 0.23351948 -0.00238493
0.2382386 0.25 0.25950158 0.2703344 0.20813379 0.25 0.28206035 0.23311028
0.26744056 0.2525121 0.25 0.196251 0.25 0.25 0.24410991 0.25
0.25454092 0.14368626 0.22394161 0.29854327 0.240688 0.17116234 0.28195733 0.10727152
0.2521862 0.082107246 0.27690566 0.26194242 0.1643406 0.26169476 0.17673092 0.2005201
0.25 0.2861012 0.25 0.2504894 0.2508279 0.26297626 0.25072867 0.25677493
0.24749431 0.041724917 0.18540472 0.01871427 0.18717471 0.1923483 0.24298236 0.1704352
0.24047244 0.27649587 0.35303703 0.25 0.18392208 0.09630017 0.21662135 0.26893866
0.102148585 0.25738865 0.23087163 0.34466952 0.24812828 0.023185454 0.15304738 0.11994226
0.11449127 0.1334039 0.28312448 0.25 0.25 0.038443506 0.22348689 -0.14542118
0.19299002 0.2321583 0.25583586 0.26009998 0.25 0.040591683 0.17589658 0.2993201
0.25712794 0.25 0.24108694 0.035222966 0.18981023 0.25 0.20718919 0.23761685
0.23696879 0.25 0.22211675 0.25 0.01231144 0.20277609 0.18714748 0.15093577
0.25446764 0.27414867 0.25894228 0.25 -0.14474823 0.05937807 0.25 0.08587766
0.26569125 0.22489505 0.11086763 0.23221073 0.25 0.337878 0.088431425 0.2328491
0.25 0.242586 0.25 0.24267101 0.23203418 0.17071666 0.07104611 0.24144648
