notebooks/checkpoint.pth (torch, 483691 bytes, 66 tensors)

encoders.0.weight f4 [128, 128]
000000 ab 06 a7 bd 9c 7e b2 3c 72 23 df 3b 45 e1 8c bd
       -0.08155569 0.021788888 0.0068096453 -0.06878904
000010 b9 2d a3 3c ce 80 94 3d f9 0e 7e bd 2b b8 d9 3c
       0.019919263 0.0725113 -0.062025998 0.026577076
000020 62 44 30 3d 64 c3 2d 3d 8f 4b b3 3c cb 16 59 3c
       0.043033965 0.042422667 0.021886615 0.013250063
000030 eb 0b bc 3c 0d c1 86 3d 16 ce 99 3d 39 fc 6a bc
       0.022954902 0.0657979 0.07510011 -0.014342361
000040 66 6e 0d 3d cd 47 2f bd 3c 4b b0 3d 68 4b fa bc
       0.034529112 -0.042793084 0.086081 -0.030553535
000050 25 98 12 bc 87 ab 8f 3d ae 61 26 bc f5 bb 4a 3c
       -0.008947407 0.07015138 -0.010155125 0.012373914
000060 b1 49 70 3c f4 0d b0 bd bc d6 77 3d 94 d3 98 3d
       0.014666007 -0.08596411 0.06050752 0.0746223
000070 ff 12 aa bc 6f bc 2c 3d f5 03 56 bd e2 00 8f bc
       -0.020761011 0.04217189 -0.052249867 -0.017456476
000080 54 7c 86 bd ec 43 90 3b c6 80 2a 3c ed ca bc 3b
       -0.065666825 0.004402628 0.010406679 0.0057614953
000090 35 fb 85 3d 9f ad 0c 3d fe 8c 04 3c d9 30 84 bd
       0.065420546 0.034345265 0.008090256 -0.064546295
0000a0 10 7d 3f bd 9a 24 1e 3c 71 2a dc bc 06 25 4c 3d
       -0.04675013 0.009652281 -0.026875706 0.049839996
0000b0 d0 eb 21 bd ed f5 d5 bc e0 87 a4 bd 87 b9 31 3d
       -0.03953153 -0.026118243 -0.080337286 0.043389823
0000c0 e3 97 76 bd 18 b6 3b bb 30 13 60 3d 84 c8 16 3c
       -0.060203444 -0.0028642472 0.0547058 0.00920308
0000d0 18 fe 7f bd b2 8c 1f bd 1e 20 8a 3d 37 46 37 bc
       -0.062498182 -0.038952537 0.06744407 -0.011186174
0000e0 f2 02 71 bd d5 09 18 3d 9a a9 f3 3b 01 5c 92 bd
       -0.0588407 0.03711875 0.0074359896 -0.071464546
0000f0 23 00 30 3c be 94 f7 bc 5a a9 8f 3c 86 b9 91 bd
       0.01074222 -0.030222293 0.017536808 -0.07115464
000100 c1 2e e4 bc 37 e4 12 3d 13 5b d4 3b 84 fb 18 bd
       -0.027854325 0.035862174 0.0064805835 -0.03734924
000110 19 68 0f 3b 88 fa 25 3d 59 0a b4 3d b6 1c 7f 3d
       0.0021882115 0.04052213 0.08791036 0.06228324
000120 84 04 4f bd 4e cf 13 bd ea 8a 26 3c 60 88 9e 3d
       -0.050541416 -0.036086373 0.010164956 0.07740855
000130 76 9d 64 3d ae 70 a5 bd e7 ea dd bb ba 18 a1 3d
       0.05581423 -0.080781326 -0.0067723873 0.07866044
000140 78 1c 91 bd 72 74 c7 bb b9 6f ec bb d3 b1 81 3c
       -0.07085508 -0.0060868794 -0.007215467 0.015831864
000150 ca a2 a5 bd ef e8 98 3d 63 a5 99 bc d5 22 73 3d
       -0.0808769 0.074663036 -0.01875562 0.05935939
000160 eb f2 12 bc 27 c6 9a bc 54 95 23 bd 10 bd 9f 3d
       -0.008969049 -0.018893315 -0.039937332 0.07799733
000170 80 9b 86 3c 1b 16 bc bc 06 bb 4f 3d cf 38 31 bd
       0.01643157 -0.02295976 0.05071547 -0.043267068
000180 73 e0 44 3d 5a f6 ac bd 49 50 a0 3d aa 65 53 bd
       0.048065614 -0.08445425 0.07827813 -0.051610626
000190 1e 1a 20 3d ae c8 a5 bd 73 69 b9 3c c2 56 8a 3d
       0.039087407 -0.08094917 0.02263329 0.06754829
0001a0 b1 b7 b4 bd ef b0 65 bd 0d 59 13 3c df 25 77 3d
       -0.08824099 -0.05607694 0.008993399 0.06033885
0001b0 29 16 88 3d 24 85 0a 3c a4 66 90 3d f6 56 96 bd
       0.06644852 0.008454595 0.07050827 -0.07340805
0001c0 26 d4 1d 3d be bf 62 3d b2 26 94 3d 0f 79 1c bd
       0.0385324 0.05535864 0.07233943 -0.038201388
0001d0 f3 c0 29 3d 00 48 c0 bc 74 e3 88 3d f6 84 c1 bb
       0.041443776 -0.023471832 0.06684008 -0.0059057428
0001e0 65 68 03 bd 62 f4 cc ba 35 04 81 bc c2 39 fd 3c
       -0.03208198 -0.0015636797 -0.015749076 0.03091133
0001f0 ac 5d 94 bd 20 e7 90 3d 43 af c8 bc aa ec 5a 3d
       -0.07244429 0.070753336 -0.024497634 0.053448357
000200 d3 ae 3f bd 5f 7a a9 3d 1b a9 86 bd aa ab 94 3d
       -0.046797585 0.082752936 -0.06575223 0.07259305
000210 10 cd 69 bd 6a df 99 bc 3f a6 5d 3d 51 73 7a bc
       -0.05708033 -0.01878329 0.054113623 -0.015286283
000220 cc f0 eb 3b 6a 85 71 bb 5e 33 04 bc d8 24 12 bb
       0.007200336 -0.0036853203 -0.0080688875 -0.0022299793
000230 3c 3a a8 3d d5 a8 11 3d f2 9c 50 bd bf 4a dc bc
       0.08214232 0.0355614 -0.050930925 -0.02689111
000240 c0 94 87 bd 6d 9c a8 3c 5e f0 83 bb c5 b9 9c bc
       -0.06620169 0.020582402 -0.0040264567 -0.01913155
000250 13 7c df bc 78 dd 96 3d 77 6a 54 3d 9e 34 71 bd
       -0.027280843 0.073664606 0.051859345 -0.05888807
000260 d5 96 7d bd 22 ce 48 bc c0 e6 a6 bc 20 57 60 3d
       -0.061911423 -0.012256177 -0.020373702 0.05477059
000270 8c 44 15 bd a7 b2 be 38 dc c2 8e bd f7 33 69 bb
       -0.036442325 9.0931826e-05 -0.0697076 -0.0035583952
000280 5e 15 6c 3d f5 9e 91 3d 37 95 fe 3c c0 91 18 ba
       0.057637565 0.07110397 0.03107701 -0.0005820058
000290 dc 7f 0c bd 50 e4 da bc e2 eb 62 3d bf 50 c9 3c
       -0.034301624 -0.026720196 0.055400737 0.024574636
0002a0 9b cb 50 bd ec e4 9a 3d b5 e5 af bc 34 47 7b 3d
       -0.050975423 0.07563195 -0.021471838 0.0613472
0002b0 aa 74 88 3d 92 4f ac bd e4 1e ca 3a 0e 2a 23 bd
       0.06662877 -0.08413614 0.0015420583 -0.03983503
0002c0 b5 54 55 3d e3 32 9c 3c 51 03 02 3d ca 19 97 bc
       0.052082736 0.019067233 0.031741444 -0.018444914
0002d0 29 db 4e bd b2 7e 9a bd 2b 8d e9 3c 53 cc ae 3c
       -0.050501976 -0.075436965 0.028509697 0.021337664
0002e0 29 16 80 bd 80 09 a3 bd f8 39 99 bd 36 61 62 bd
       -0.06254227 -0.07960796 -0.0748176 -0.05526849
0002f0 14 77 42 3d 38 1e 96 3d 45 be 7c bd b5 d8 a7 bd
       0.047476843 0.073299825 -0.061704893 -0.081956305
000300 95 a5 ac 3d b2 5f 9b bd 24 68 14 bc dd 94 14 3d
       0.0843002 -0.07586612 -0.009058032 0.03627478
000310 a6 59 bd bc dd 8b 33 bd 85 86 47 bd 15 39 a7 3c
       -0.023114037 -0.043834556 -0.048712272 0.020412961
000320 a3 b0 d4 3a 79 c5 d0 bc b2 fd b1 3b 06 11 85 bd
       0.0016226958 -0.025484787 0.005431854 -0.064973876
000330 b2 ef 01 3d 8c fb 91 bd 19 95 55 bd ff 0d fb 3b
       0.031722732 -0.07128057 -0.052144144 0.0076615806
000340 91 cf b1 bd d1 80 0d 3c 03 4a d9 bc f4 ae 6e 3c
       -0.08682168 0.008636669 -0.02652455 0.014568079
000350 77 3d 15 3c cf 2a a3 3c 36 17 8d 3c ee c0 90 3d
       0.009108893 0.019917874 0.017222982 0.070680484
000360 66 45 2e 3d ca 5c ef bc 85 0b 73 bd fb b7 9d 3d
       0.042546652 -0.02921905 -0.059337158 0.07701107
000370 27 28 90 bd 46 d8 86 3d fd 77 8c bd 1a a9 5e 3d
       -0.070389085 0.0658422 -0.068588234 0.054360487
000380 b0 6d 16 bd af aa a0 3d 54 22 89 3d 68 c2 25 3c
       -0.0367257 0.07845055 0.06696001 0.010117151
000390 ec ae 52 bc e2 bf e5 3c 16 d7 32 bc 47 fb 70 bd
       -0.012859087 0.028045598 -0.010915538 -0.058833387
0003a0 b8 2f 4c 3d d1 99 83 3c 1b e8 c6 bc 5a 6a 44 bd
       0.049850196 0.016064556 -0.024280598 -0.047952987
0003b0 2f 4b 89 bd b8 89 f6 bc e1 94 2f 3c 2a 6f a1 3d
       -0.06703793 -0.030094966 0.010716648 0.07882531
0003c0 58 e6 81 bd e8 ab 00 3d 8b 6e 5a bd 35 1e b1 3c
       -0.06342763 0.031413943 -0.05332808 0.02162085
0003d0 1d 47 64 bd a4 de 9a 3d fb 55 2a 3d 4b a1 3e bd
       -0.05573188 0.075619966 0.041585904 -0.04654054
0003e0 07 72 c0 3c ca 27 96 3d d9 51 78 bd 6b 12 15 3c
       0.023491872 0.07331808 -0.06062493 0.0090986295
0003f0 50 22 42 bd 5b 21 dd bc 53 a2 a4 bd f6 1f 1a 3d
       -0.047396004 -0.026993444 -0.080387734 0.037628137

encoders.0.encoder.conv.bias f4 [128]
000000 97 11 03 bb 51 10 03 3b 4b 10 03 bb 8c 0f 03 bb
       -0.0019999498 0.001999874 -0.0019998725 -0.001999828
000010 4d 11 03 bb d0 11 03 3b d4 10 03 bb 5a 11 03 3b
       -0.0019999326 0.001999963 -0.0019999044 0.0019999356
000020 ba f6 02 3b 56 11 03 bb 51 11 03 bb 80 11 03 bb
       0.0019983486 -0.0019999347 -0.0019999335 -0.0019999444
000030 4c 10 03 3b 8a fe 02 3b 5d 11 03 bb 75 11 03 3b
       0.0019998727 0.0019988143 -0.0019999363 0.001999942
000040 c6 0a 03 bb 82 04 03 bb 2e 11 03 3b 5b 10 03 3b
       -0.0019995435 -0.00199917 0.0019999254 0.0019998762
000050 de 0c 03 bb 12 0e 03 3b a3 ea 02 bb 12 10 03 bb
       -0.0019996683 0.00199974 -0.001997628 -0.0019998592
000060 2f 0f 03 bb 82 10 03 3b 11 10 03 3b df 10 03 3b
       -0.0019998064 0.0019998853 0.001999859 0.001999907
000070 65 10 03 3b 13 11 03 3b 3f 11 03 3b f6 00 03 bb
       0.0019998786 0.001999919 0.0019999293 -0.0019989586
000080 b4 11 03 bb d2 10 03 3b e4 0d 03 3b f7 10 03 3b
       -0.0019999566 0.001999904 0.0019997293 0.0019999126
000090 5a 11 03 3b 04 10 03 bb c1 11 03 bb ce 10 03 3b
       0.0019999356 -0.001999856 -0.0019999596 0.001999903
0000a0 a6 11 03 3b 42 11 03 bb c9 11 03 3b e5 10 03 3b
       0.0019999533 -0.00199993 0.0019999614 0.0019999084
0000b0 16 11 03 3b 1a 12 03 3b 83 e9 02 bb b4 10 03 bb
       0.0019999198 0.0019999803 -0.001997561 -0.001999897
0000c0 4c 11 03 3b fe 0d 03 bb d5 0a 03 3b ce 10 03 3b
       0.0019999323 -0.0019997354 0.001999547 0.001999903
0000d0 28 11 03 bb 9a 11 03 bb 8b 0b 03 3b 4f 11 03 3b
       -0.001999924 -0.0019999505 0.0019995894 0.001999933
0000e0 0d 12 03 3b 70 0f 03 3b 7d 11 03 bb b6 0f 03 3b
       0.0019999773 0.0019998215 -0.0019999437 0.0019998378
0000f0 f8 10 03 3b 9d 10 03 3b 00 0a 03 3b 70 11 03 3b
       0.0019999128 0.0019998916 0.0019994974 0.0019999407
000100 99 11 03 3b 82 11 03 3b 37 0d 03 3b 32 08 03 3b
       0.0019999503 0.001999945 0.001999689 0.0019993898
000110 10 0f 03 3b 79 11 03 3b be 11 03 3b c5 11 03 3b
       0.0019997992 0.0019999428 0.001999959 0.0019999605
000120 cb 0d 03 3b c1 05 03 3b 35 0d 03 bb 6f 11 03 bb
       0.0019997235 0.0019992443 -0.0019996886 -0.0019999405
000130 d9 0f 03 3b c9 10 03 3b 79 0f 03 3b 47 10 03 3b
       0.001999846 0.0019999018 0.0019998236 0.0019998716
000140 a5 10 03 3b 47 0f 03 3b dd 10 03 bb 0c 10 03 bb
       0.0019998935 0.001999812 -0.0019999065 -0.0019998578
000150 39 11 03 bb d2 0e 03 3b 5d 0f 03 bb 0f 9f 02 bb
       -0.001999928 0.0019997847 -0.001999817 -0.0019931232
000160 3b 11 03 bb 43 11 03 3b 97 11 03 bb 5f 11 03 3b
       -0.0019999284 0.0019999302 -0.0019999498 0.0019999368
000170 d0 10 03 3b d0 11 03 bb af 0d 03 bb 89 11 03 bb
       0.0019999035 -0.001999963 -0.001999717 -0.0019999465
000180 29 0d 03 3b dd 08 03 3b 77 11 03 3b 76 0f 03 3b
       0.0019996858 0.0019994297 0.0019999424 0.001999823
000190 df 10 03 3b 12 0e 03 3b a0 0d 03 3b 10 0c 03 bb
       0.001999907 0.00199974 0.0019997135 -0.0019996203
0001a0 af 11 03 3b fa 09 03 bb 75 10 03 bb 8a 10 03 bb
       0.0019999554 -0.001999496 -0.0019998823 -0.0019998872
0001b0 0b 11 03 bb 90 10 03 bb db 11 03 bb 07 11 03 3b
       -0.0019999172 -0.0019998886 -0.0019999656 0.0019999163
0001c0 fb 11 03 bb ac 11 03 3b d6 0f 03 3b 85 0c 03 bb
       -0.001999973 0.0019999547 0.0019998453 -0.0019996476
0001d0 56 11 03 3b ec 11 03 bb 4d 11 03 bb eb 0e 03 bb
       0.0019999347 -0.0019999696 -0.0019999326 -0.0019997905
0001e0 3f 11 03 3b b7 11 03 bb ce 11 03 bb bb 11 03 bb
       0.0019999293 -0.0019999573 -0.0019999626 -0.0019999582
0001f0 88 f3 02 3b af 0f 03 3b df 10 03 bb d2 0f 03 bb
       0.0019981582 0.0019998362 -0.001999907 -0.0019998443

encoders.0.encoder.conv.lin.weight f4 [128, 16]
000000 d2 81 a9 bd 2e b4 4b be 2c 0e 0a be 49 97 e1 bd
       -0.082767144 -0.19892952 -0.13481969 -0.110151835
000010 93 eb 20 be 88 54 21 be 0e 03 84 3c 99 7c 41 be
       -0.15714864 -0.15754902 0.016114738 -0.18895186
000020 65 05 14 be da 7e bc 3d c9 20 76 bd 32 34 e4 3d
       -0.14455183 0.092038825 -0.06008986 0.11142768
000030 8b 9f 70 bc 38 83 41 be 72 04 c4 3d 92 24 a7 bc
       -0.0146864755 -0.18897712 0.095711604 -0.02040318
000040 dc d3 41 bd ff 64 30 be 6a a7 25 3d 0c c7 77 bc
       -0.047321185 -0.17226027 0.04044286 -0.01512314
000050 6b 5d 33 3e b9 32 8e 3d 35 6d fe 3d 43 70 26 be
       0.17516105 0.06943268 0.12423173 -0.16253762
000060 84 d1 e7 3d d3 45 90 bd a9 ad a1 3d a8 40 8a 3d
       0.11319259 -0.07044568 0.07894451 0.067506135
000070 e0 74 7d bc 52 6c 18 3e 8b 45 20 be 66 a8 9b bd
       -0.01546976 0.14885071 -0.15651529 -0.07600479
000080 e3 22 d0 3d 70 a7 54 3d c2 ad e5 bd c0 ca 8c 3d
       0.10162904 0.051917493 -0.11214782 0.06874609
000090 19 a5 08 be 52 50 d1 bd f7 92 64 bc 97 1a 33 be
       -0.1334423 -0.10220398 -0.013951055 -0.17490612
0000a0 8e f1 82 bd 33 96 a0 bd c6 7c 18 3e e4 46 04 be
       -0.06393729 -0.07841148 0.14891347 -0.12917668
0000b0 6b c5 ee bd a4 aa e1 3d d6 cf f1 bd e0 55 10 be
       -0.11658748 0.11018875 -0.1180722 -0.14095259
0000c0 c9 51 30 bd 3b b8 15 3e 19 68 1c 3e be 77 b5 3c
       -0.043046746 0.1462106 0.15274085 0.022151824
0000d0 8f 40 78 bb 8b 82 83 3d 1f c5 a1 bd a7 d2 ec bd
       -0.0037880277 0.064213835 -0.07898926 -0.11563616
0000e0 8d 92 ad 3d 67 88 77 3d 22 87 17 bd 1b 2a e8 bd
       0.08475218 0.060432818 -0.036994107 -0.11336156
0000f0 7c 60 45 3d 7e 14 8e bd d5 7b 55 bd 0c c6 bd b9
       0.048187718 -0.06937502 -0.05212005 -0.00036196446
000100 fb 6a 1e 3d fd db 3d be 22 9f 41 be a3 3e 9d bd
       0.038676243 -0.1854095 -0.1890836 -0.07677963
000110 c5 9a 1d 3e c8 10 39 3d c0 35 ce bc f0 33 0e 3d
       0.15391071 0.04518202 -0.025172114 0.0347175
000120 8a 11 1e 3e 3c df e7 3d 5d 5a da b9 0c 89 41 3e
       0.15436378 0.113218755 -0.00041647526 0.18899935
000130 9f 57 9d 3d 74 ea 20 3e d5 9e 43 be 4d e8 3c 3e
       0.07682728 0.15714437 -0.19103558 0.1844799
000140 3c ae 4e bd c5 8e de 3d 71 ff 19 be 4d 52 a7 3d
       -0.05045913 0.10867075 -0.1503885 0.081699945
000150 30 86 fb 3d 12 c3 69 bd 28 b5 d8 bd 66 6b 19 be
       0.122814536 -0.0570708 -0.10581428 -0.14982376
000160 75 6e 0c ba 6d 22 38 3e ae e8 61 3d 99 a7 01 bd
       -0.00053570356 0.17981882 0.05515354 -0.031653974
000170 e8 5e 45 be 77 99 a3 bd d1 23 a9 3c 53 8f 09 3e
       -0.19274485 -0.079882555 0.020646961 0.1343358
000180 2c 81 cf bd f6 9a c4 3d fc 05 b5 bd 9a 82 96 bd
       -0.101320595 0.09599869 -0.08839032 -0.07349129
000190 87 20 da bd 19 1a 6c 3c 1f ed e8 bc c2 79 11 3e
       -0.10650735 0.014410519 -0.02843338 0.14206603
0001a0 07 e6 b6 3d a5 e4 06 3e b9 7c 8a bd cb 2c 20 be
       0.08930593 0.13173158 -0.0676207 -0.15642087
0001b0 63 be fc 3d f0 9f b3 3d c5 62 e6 3d fd 85 53 3d
       0.12341001 0.0877074 0.112493075 0.051641453
0001c0 41 47 36 be da fa 26 be c4 dc d8 bd b1 40 89 3c
       -0.17800619 -0.1630663 -0.10588983 0.01675448
0001d0 7b b2 00 3e ed a0 88 3d 24 0a c0 b8 23 18 92 bd
       0.12568085 0.06671319 -9.157162e-05 -0.0713351
0001e0 dc de 05 be 0b a9 38 3d db 99 a7 3d 43 16 08 3e
       -0.13073295 0.045083087 0.081836425 0.13289742
0001f0 76 d4 4c be a9 cc 99 bd 38 3a 12 be dd d8 57 3d
       -0.20002922 -0.07509739 -0.14280021 0.05269705
000200 18 a7 17 3e 17 2d 18 be 86 51 9b 3c 18 81 26 bd
       0.14809835 -0.1486095 0.018959772 -0.040650457
000210 97 14 86 bd 64 14 80 bd f7 7d e1 3d 27 72 3d be
       -0.06546896 -0.06253889 0.11010354 -0.18500577
000220 3a bc 1e 3e db 3a 85 3c 33 98 ea 3d 76 36 09 be
       0.1550149 0.016263416 0.11454811 -0.13399681
000230 9c 13 89 3b 26 b6 34 3e e0 84 1c 3e 01 0b 07 be
       0.004183246 0.17647609 0.15285063 -0.13187791
000240 84 ea 27 3e fc 76 43 bc 04 a5 3b be 71 70 44 3d
       0.16398054 -0.011930224 -0.18324667 0.047958795
000250 f7 67 34 3d 39 a6 10 3e da 0b a0 3d 33 7d 78 bd
       0.04404446 0.14125909 0.078147605 -0.060666274
000260 76 bf d5 3d b0 8d 0c 3e 6a b5 f5 bc c0 05 20 be
       0.10436909 0.13725924 -0.029993732 -0.15627193
000270 84 07 03 be 61 3a dd 3b 9d 6e bd 3c 45 e8 fc 3d
       -0.12795836 0.006751344 0.023124034 0.123489894
000280 0d 47 85 bd 19 97 f6 bd a6 e7 28 bd 8a 86 40 3e
       -0.065076925 -0.12040538 -0.041236542 0.18801323
000290 1e bd 27 3e 4c 38 4a 3c bf f2 83 3d 30 6a 45 bd
       0.16380736 0.012342524 0.064427845 -0.04819697
0002a0 03 84 83 bd 4c 47 97 bc 7b 90 31 be 1a 8f f5 3d
       -0.064216636 -0.018466614 -0.17340271 0.11990185
0002b0 0f 0d bd 3d 1c a3 89 3d 6f 30 e0 3c 0c cf ab 3c
       0.09231006 0.06720564 0.027366845 0.020972751
0002c0 87 33 41 be ab 2a f3 bd b1 1a 7a bd 06 59 28 be
       -0.18867312 -0.11873373 -0.06106061 -0.1644021
0002d0 a2 b9 3a be d7 95 f3 bd 06 f5 0d be 09 c1 0c 3e
       -0.18234876 -0.11893814 -0.13863 0.13745512
0002e0 48 e8 3f 3e e6 46 2d 3e 62 fb cc 3b af 5a 23 3c
       0.18740952 0.16921577 0.006255553 0.009970351
0002f0 69 4f 85 3d 50 c3 e4 3d 1e 47 4a 3e 7e 8f 00 bd
       0.06509287 0.111700654 0.19753692 -0.031386845
000300 0c 49 54 bd d9 16 e0 bc a7 e3 40 be 4d 01 95 bd
       -0.051827475 -0.027354645 -0.18836842 -0.07275639
000310 8c 8d 81 3d d8 a3 ab bd 67 a7 48 3e ab 18 36 be
       0.06325826 -0.0838086 0.19595109 -0.17782848
000320 be 06 c0 bb 65 34 37 be 05 2f 85 3d 0c 6b df bd
       -0.0058601787 -0.1789108 0.06503109 -0.109090894
000330 ff 16 2e bb ad 03 ec 3d 7d d8 47 be 72 45 b1 bd
       -0.0026564 0.115241386 -0.19516177 -0.08655824
000340 17 2b 20 bd 86 3e 4e be 42 06 27 3e 0f 89 9d bd
       -0.039103594 -0.20141038 0.16310981 -0.076921575
000350 81 bf 05 3c 41 84 32 bd fe 10 e4 bd 09 43 14 bc
       0.008163334 -0.04358316 -0.111360535 -0.009049186
000360 e2 72 ba 3c 20 1e 62 bd f5 44 39 3e 7d da 33 be
       0.022759859 -0.05520451 0.18092711 -0.17563815
000370 a9 0b 34 3e e6 49 db 3b a2 37 0c 3e df 04 25 3e
       0.17582573 0.006692159 0.13693097 0.1611514
000380 7f 21 e2 bd a2 ac 04 bd e2 a5 ad 3c 1d 8c 5e bd
       -0.11041545 -0.032391198 0.021197263 -0.05433284
000390 e2 da 50 be 39 60 a9 3d 1d b8 44 be e7 24 09 be
       -0.20395997 0.08270306 -0.19210859 -0.13392983
0003a0 e9 16 c3 3c 7c ed a7 bd ca c5 95 bd 2c 7a 51 3e
       0.023814635 -0.081995934 -0.07313116 0.20456761
0003b0 a6 72 25 be 02 42 91 bd f7 28 c5 3d fa bf 00 3c
       -0.16157016 -0.07092668 0.09626954 0.007858271
0003c0 37 5f e8 bd 22 ba 4b 3e c2 97 e2 bd be d0 8a bc
       -0.11346286 0.19895223 -0.11064102 -0.01694524
0003d0 db 74 2b be b2 7e 1e 3e 35 cc e6 bd 57 47 50 be
       -0.16743796 0.15478018 -0.11269418 -0.20339714
0003e0 38 c3 13 be a6 30 b0 3c 89 aa 41 bd 08 57 8d bc
       -0.14429939 0.021507572 -0.047281776 -0.017253414
0003f0 45 04 17 3e d4 26 e3 bd 7d 6d 4a be 36 6e a9 3d
       0.14747722 -0.1109139 -0.19768329 0.08272974

encoders.0.encoder.prelu.weight f4 [128]
000000 21 06 81 3e bb f3 7d 3e 1e 06 81 3e 90 f4 7d 3e
       0.25199988 0.24800007 0.2519998 0.24800324
000010 22 06 81 3e 21 06 81 3e c1 f3 7d 3e 1b 06 81 3e
       0.2519999 0.25199988 0.24800016 0.2519997
000020 bd f3 7d 3e fe f3 7d 3e 56 f4 7d 3e 1d 06 81 3e
       0.2480001 0.24800107 0.24800238 0.25199977
000030 d1 05 81 3e 18 06 81 3e 17 06 81 3e 1f 06 81 3e
       0.2519975 0.25199962 0.2519996 0.25199983
000040 ea f3 7d 3e c2 f3 7d 3e df f3 7d 3e d1 f3 7d 3e
       0.24800077 0.24800017 0.2480006 0.2480004
000050 be f3 7d 3e 09 06 81 3e f0 05 81 3e a0 02 81 3e
       0.24800012 0.25199917 0.25199842 0.25197315
000060 c5 f3 7d 3e 1f 06 81 3e f8 f6 7d 3e 1f 06 81 3e
       0.24800022 0.25199983 0.24801242 0.25199983
000070 42 f4 7d 3e d7 f3 7d 3e 1e f4 7d 3e f1 f3 7d 3e
       0.24800208 0.24800049 0.24800155 0.24800088
000080 d7 f3 7d 3e ea 05 81 3e 23 f4 7d 3e d6 f3 7d 3e
       0.24800049 0.25199825 0.24800162 0.24800047
000090 bc f3 7d 3e c7 f3 7d 3e c0 f3 7d 3e ee f3 7d 3e
       0.24800009 0.24800025 0.24800014 0.24800083
0000a0 c8 f3 7d 3e 0f 06 81 3e 1c 06 81 3e d2 f3 7d 3e
       0.24800026 0.25199935 0.25199974 0.24800041
0000b0 ff f3 7d 3e 22 06 81 3e 04 06 81 3e e9 f3 7d 3e
       0.24800108 0.2519999 0.25199902 0.24800076
0000c0 1e 06 81 3e 06 06 81 3e ee 05 81 3e 20 06 81 3e
       0.2519998 0.25199908 0.25199836 0.25199986
0000d0 c6 f3 7d 3e 1d 06 81 3e 2a f4 7d 3e 19 06 81 3e
       0.24800023 0.25199977 0.24800172 0.25199965
0000e0 1e 06 81 3e 21 06 81 3e 21 06 81 3e 07 06 81 3e
       0.2519998 0.25199988 0.25199988 0.2519991
0000f0 22 06 81 3e 9f 05 81 3e 0c 06 81 3e 33 f4 7d 3e
       0.2519999 0.251996 0.25199926 0.24800186
000100 db f3 7d 3e 21 06 81 3e fa 05 81 3e 01 f4 7d 3e
       0.24800055 0.25199988 0.25199872 0.24800111
000110 b9 f3 7d 3e d4 05 81 3e bf f3 7d 3e 1c 06 81 3e
       0.24800004 0.2519976 0.24800013 0.25199974
000120 19 06 81 3e c5 f3 7d 3e e2 f3 7d 3e ca f3 7d 3e
       0.25199965 0.24800022 0.24800065 0.2480003
000130 fd 05 81 3e 12 06 81 3e 22 06 81 3e da f4 7d 3e
       0.2519988 0.25199944 0.2519999 0.24800435
000140 14 06 81 3e 1d 06 81 3e 1d 06 81 3e c7 f3 7d 3e
       0.2519995 0.25199977 0.25199977 0.24800025
000150 c4 f3 7d 3e d8 f3 7d 3e 18 06 81 3e fc fa 7d 3e
       0.2480002 0.2480005 0.25199962 0.24802774
000160 be f3 7d 3e 10 06 81 3e 0b 06 81 3e bd f3 7d 3e
       0.24800012 0.25199938 0.25199923 0.2480001
000170 1b 06 81 3e c3 f3 7d 3e f6 05 81 3e 1e 06 81 3e
       0.2519997 0.24800019 0.2519986 0.2519998
000180 96 f4 7d 3e cc f3 7d 3e d0 f3 7d 3e 15 f4 7d 3e
       0.24800333 0.24800032 0.24800038 0.24800141
000190 18 06 81 3e c7 05 81 3e 1d 06 81 3e 9c fb 80 3e
       0.25199962 0.2519972 0.25199977 0.25191963
0001a0 d2 f4 7d 3e e2 f3 7d 3e 2c 05 81 3e cd f3 7d 3e
       0.24800423 0.24800065 0.25199258 0.24800034
0001b0 0d 06 81 3e 15 06 81 3e d3 f3 7d 3e ca f3 7d 3e
       0.2519993 0.25199953 0.24800043 0.2480003
0001c0 21 06 81 3e b7 f4 7d 3e c6 f3 7d 3e cd f3 7d 3e
       0.25199988 0.24800383 0.24800023 0.24800034
0001d0 fe f3 7d 3e cd f3 7d 3e ce f3 7d 3e 10 06 81 3e
       0.24800107 0.24800034 0.24800035 0.25199938
0001e0 1b 06 81 3e fe 05 81 3e d7 f3 7d 3e c7 f3 7d 3e
       0.2519997 0.25199884 0.24800049 0.24800025
0001f0 c4 f3 7d 3e 19 06 81 3e c8 f3 7d 3e fb f3 7d 3e
       0.2480002 0.25199965 0.24800026 0.24800102

encoders.0.encoder.conv2.bias f4 [128]
000000 68 0f 03 3b 3f 10 03 bb 53 02 03 bb e0 fa 02 3b
       0.0019998197 -0.0019998697 -0.00199904 0.001998596
000010 00 12 03 3b 77 10 03 bb 44 11 03 3b e1 06 03 3b
       0.0019999743 -0.0019998827 0.0019999305 0.0019993114
000020 93 d2 02 3b 9c 04 03 3b 47 10 03 3b 2e 11 03 bb
       0.0019961938 0.001999176 0.0019998716 -0.0019999254
000030 6d 10 03 3b a9 11 03 3b 1d 11 03 bb 5a 0f 03 3b
       0.0019998804 0.001999954 -0.0019999214 0.0019998164
000040 69 11 03 3b 12 11 03 bb ee 11 03 bb 26 0f 03 3b
       0.001999939 -0.0019999188 -0.00199997 0.0019998043
000050 b5 11 03 bb 01 06 03 bb 62 10 03 3b f0 0e 03 3b
       -0.0019999568 -0.0019992592 0.0019998779 0.0019997917
000060 d6 bf 02 3b cd 10 03 3b ac 0f 03 bb cf 11 03 3b
       0.001995077 0.0019999028 -0.0019998355 0.0019999628
000070 b0 11 03 3b e7 05 03 bb 64 f2 02 3b fd 11 03 3b
       0.0019999556 -0.0019992532 0.0019980902 0.0019999736
000080 b4 10 03 3b 2a fd 02 3b 19 0b 03 bb f4 0c 03 3b
       0.001999897 0.0019987323 -0.0019995628 0.0019996734
000090 49 11 03 3b fe f0 02 bb 22 11 03 3b 51 0a 03 3b
       0.0019999316 -0.0019980068 0.0019999226 0.0019995163
0000a0 91 08 03 3b 74 09 03 3b d9 0f 03 3b d6 ed 02 bb
       0.001999412 0.0019994648 0.001999846 -0.0019978187
0000b0 22 11 03 3b 32 ad 02 bb d0 07 03 bb b3 11 03 bb
       0.0019999226 -0.0019939658 -0.001999367 -0.0019999563
0000c0 95 03 03 bb c0 0c 03 3b 92 10 03 3b 62 0f 03 bb
       -0.0019991149 0.0019996613 0.001999889 -0.0019998183
0000d0 ce 11 03 bb 2e 0f 03 3b b6 10 03 3b 99 11 03 3b
       -0.0019999626 0.0019998061 0.0019998974 0.0019999503
0000e0 bb 0e 03 bb c0 fd 02 bb be 10 03 3b a9 11 03 bb
       -0.0019997794 -0.0019987673 0.0019998993 -0.001999954
0000f0 37 0d 03 3b 54 11 03 3b 17 11 03 3b fa 10 03 bb
       0.001999689 0.0019999342 0.00199992 -0.0019999132
000100 d3 11 03 bb 90 e3 02 bb 86 0f 03 3b 70 0f 03 bb
       -0.0019999638 -0.0019972064 0.0019998266 -0.0019998215
000110 12 ff 02 3b 1e 10 03 3b d4 10 03 3b bb 04 03 bb
       0.001998846 0.001999862 0.0019999044 -0.0019991833
000120 aa 11 03 3b 63 10 03 bb 12 11 03 bb b1 00 03 3b
       0.0019999542 -0.001999878 -0.0019999188 0.0019989426
000130 4d 10 03 3b 70 11 03 3b e8 11 03 bb 92 08 03 bb
       0.001999873 0.0019999407 -0.0019999687 -0.0019994122
000140 e2 10 03 bb ec 11 03 3b ff 11 03 3b f8 11 03 3b
       -0.0019999077 0.0019999696 0.001999974 0.0019999724
000150 e9 11 03 3b ce 11 03 3b ed 04 03 3b b9 11 03 bb
       0.001999969 0.0019999626 0.001999195 -0.0019999577
000160 a4 08 03 3b eb 09 03 3b 2f 10 03 3b db 0c 03 3b
       0.0019994164 0.0019994925 0.001999866 0.0019996676
000170 42 10 03 3b 0f 0a 03 3b 65 10 03 bb 33 11 03 bb
       0.0019998704 0.001999501 -0.0019998786 -0.0019999265
000180 2b 10 03 bb a9 09 03 bb f4 11 03 bb a9 10 03 bb
       -0.001999865 -0.0019994772 -0.0019999715 -0.0019998944
000190 7d 10 03 bb ce 10 03 bb 3e 11 03 3b 64 0b 03 bb
       -0.0019998841 -0.001999903 0.001999929 -0.0019995803
0001a0 a5 02 03 3b 19 11 03 3b df fb 02 bb 24 11 03 3b
       0.001999059 0.0019999205 -0.0019986553 0.001999923
0001b0 b2 fd 02 3b 76 11 03 3b 49 10 03 3b e8 d1 02 3b
       0.001998764 0.0019999421 0.001999872 0.001996154
0001c0 4a 11 03 bb 94 e7 02 bb a7 11 03 3b 9b 11 03 3b
       -0.0019999319 -0.0019974457 0.0019999535 0.0019999507
0001d0 73 11 03 bb 08 11 03 bb 87 11 03 bb eb 0b 03 bb
       -0.0019999414 -0.0019999165 -0.001999946 -0.0019996117
0001e0 e3 0d 03 bb fc 10 03 bb 50 11 03 bb d9 10 03 3b
       -0.001999729 -0.0019999137 -0.0019999333 0.0019999056
0001f0 b8 0e 03 3b 45 0e 03 bb 4e 11 03 3b 46 11 03 3b
       0.0019997787 -0.001999752 0.0019999328 0.001999931

encoders.0.encoder.conv2.lin.weight f4 [128, 128]
000000 e6 f4 0c be 55 89 98 3d 8c 75 62 bd 2c 67 b3 3d
       -0.13765296 0.07448069 -0.055287883 0.08759913
000010 c8 ec 63 bd 7e b4 7d 3d f8 bb 19 be 5f 0c 84 bd
       -0.055645734 0.06193971 -0.1501311 -0.06447672
000020 be 83 0d be 39 f7 bf bc 80 03 c7 3c 05 4e ea bc
       -0.13819787 -0.023433315 0.024293661 -0.028601656
000030 57 8c 6b bd a3 e9 1c be c8 73 0d 3e be 28 fe 3d
       -0.057506885 -0.153235 0.13813698 0.12410115
000040 31 14 92 3d 19 b9 4e 39 31 07 e2 3d a8 0f eb 3d
       0.071327575 0.00019714645 0.11036528 0.114775956
000050 03 51 01 3e cb 17 ab bd b8 6e 94 bd 0e a5 1b be
       0.1262856 -0.083541475 -0.072476804 -0.15199682
000060 92 d4 10 bc 2b 5c 02 be 92 24 11 3e 83 3d ca bd
       -0.008839743 -0.12730472 0.14174107 -0.09875014
000070 fd 2e a6 3d d4 f1 4b bd 14 c3 a4 bd ed 46 08 bd
       0.08114431 -0.049791172 -0.08045021 -0.033270765
000080 74 28 c0 3d 35 66 8d 3d 0b 19 ef 3c c6 26 8b bd
       0.09382716 0.0690426 0.029186746 -0.06794505
000090 5e 8c 01 bb b7 ff 8c bd a5 74 a5 bd c1 ca b9 3d
       -0.0019767503 -0.06884711 -0.08078889 0.09071875
0000a0 2c 76 d3 3d b6 6f 79 bd 0f f4 8a bc 40 7e 37 3d
       0.10325274 -0.06089755 -0.01696208 0.044798136
0000b0 05 eb c0 bd b5 34 a0 bd 62 fc 85 bd 30 ec eb 3c
       -0.094198264 -0.07822553 -0.06542279 0.028799146
0000c0 3f 3f 93 3d 12 61 e3 bd 43 4f c6 3d 3a 93 0c 3e
       0.071897976 -0.11102499 0.09683087 0.13728037
0000d0 ee 56 08 3d 53 38 a8 3a eb 3d 80 3c 14 7f 18 3e
       0.033286028 0.0012834169 0.015654525 0.14892226
0000e0 db ff a2 3d 79 a0 a2 bc 80 ef 0f be 90 f0 b4 bd
       0.07958957 -0.01985191 -0.14056206 -0.08834946
0000f0 5a 8a ae bd 33 b7 f3 3d 27 ca 79 bd 62 3e 8a bd
       -0.08522482 0.11900177 -0.060983803 -0.0675018
000100 77 4a ec 3d 34 cf 06 be 0e 24 01 be 2e 37 97 bc
       0.115376405 -0.13164979 -0.1261141 -0.018458929
000110 3c 13 1e bd ac 95 f5 3b d1 6d f1 3d 40 84 a3 3d
       -0.038592562 0.007494649 0.11788524 0.07984209
000120 a8 25 bc 3d b5 c9 66 3d 2b 3c db bd 00 0a a9 bc
       0.0918687 0.056344707 -0.107048355 -0.020634651
000130 68 53 c0 bd 20 d2 08 be b9 33 6c bd 7f 6d bc bc
       -0.093909085 -0.13361406 -0.057666514 -0.02300143
000140 45 25 bc 39 ec 83 a4 3d 1a d5 ae 3b b8 bf f6 bd
       0.00035885922 0.080329746 0.0053354623 -0.12048286
000150 bb ac 0b be 38 16 10 3e 4c 26 97 bc f6 b9 54 bc
       -0.1364011 0.14070976 -0.018450879 -0.01298379
000160 aa ce bf 3d 94 c4 98 3c 25 a8 11 3e 6d c6 1e be
       0.0936559 0.018648423 0.14224298 -0.15505381
000170 24 75 37 bd 38 3c 8b 3d 7b 31 86 3a a7 d3 08 be
       -0.04478945 0.06798595 0.0010238135 -0.13361989
000180 d4 1e b5 bd da 75 c5 bd d5 a4 0c 3e a1 91 b9 3d
       -0.088437706 -0.09641619 0.13734753 0.0906098
000190 68 8f b6 bc 10 55 3f 3d 88 32 eb bd e2 6b 00 3e
       -0.022285178 0.04671198 -0.114842474 0.12541154
0001a0 e5 52 19 3e 27 e7 89 3d 26 99 be 3b 8c 8e 50 3d
       0.14973028 0.06733542 0.0058165966 0.050917193
0001b0 99 2b f3 bc a0 75 7f bc 52 9b 18 3e f1 c1 a6 3d
       -0.029683875 -0.015592009 0.14903 0.0814246
0001c0 b8 33 af bd eb 21 12 be ad 81 98 bd 56 2d 12 3e
       -0.085547864 -0.14270751 -0.07446609 0.14275107
0001d0 9d e6 56 3d f7 5e 82 bd bf 75 e7 3d 37 70 14 bd
       0.052466024 -0.06365769 0.11301755 -0.03623983
0001e0 f2 9c db 3d c9 21 9b 3c 6b a9 c7 bd 06 3f 8a 3c
       0.10723294 0.018937008 -0.09749111 0.016875755
0001f0 58 16 fd 3d 58 f5 f7 3b 8f 43 14 3d cb c3 58 3d
       0.12357777 0.007567089 0.03619724 0.052921098
000200 e2 eb 1b 3c 6f ac d6 bd 83 3c f5 bc 65 6a 80 bc
       0.009516688 -0.10482108 -0.02993608 -0.015675733
000210 63 71 ee bd 1b 50 4c bc 82 a8 02 3d ba 6e 24 3c
       -0.116427206 -0.0124702705 0.031898983 0.010036165
000220 a6 9e 96 3d e4 ff 7f bd d0 24 dc 3d 20 15 60 3d
       0.073544785 -0.062499896 0.10749209 0.054707646
000230 8e dc 8b bd a3 65 23 bd f6 6d 18 be cd 9d 7c 3d
       -0.06829177 -0.03989185 -0.14885697 0.061673928
000240 2b 4f ca bc 78 05 00 bd 27 0b b4 bc 12 d8 a1 bd
       -0.024695953 -0.031255215 -0.021977974 -0.0790254
000250 55 e3 8e bc 72 30 a9 bd f6 3f 56 3d f3 b1 c8 3d
       -0.017442385 -0.08261193 0.05230709 0.09799566
000260 30 6f ba 3d d5 74 17 3c 48 e2 2e 3d cd c6 aa bc
       0.091032386 0.0092441635 0.042696267 -0.020846749
000270 1f 73 dd bd 16 30 7f 3c d0 50 2f bc 87 8b 49 3d
       -0.10812973 0.015575429 -0.01070042 0.04920533
000280 18 33 85 bd f5 d2 0a 3e 80 83 c8 bd c4 ec 9a 3d
       -0.06503886 0.13557036 -0.09790707 0.07564691
000290 81 1c d4 bc 03 e6 12 be ea 47 11 be be 61 9b 3b
       -0.025892498 -0.14345555 -0.1418759 0.0047418764
0002a0 b5 48 63 bd 6e 69 07 bd c8 de c6 3d 50 d9 f8 3d
       -0.05548926 -0.03305953 0.09710461 0.12150824
0002b0 40 53 7d bb d3 05 c5 3c 2a 76 9c bd f1 c6 04 3e
       -0.0038654357 0.024050629 -0.076397255 0.12966515
0002c0 07 05 0e 3e 0f bd b5 3b f5 ba b6 bc d0 df a9 3c
       0.13869105 0.005546219 -0.022305945 0.020736605
0002d0 3d fa c9 3d 73 aa ef 3d dd 7d eb 3d 58 01 0a bd
       0.09862182 0.117024325 0.11498616 -0.033692688
0002e0 ec 24 47 bd 3b e0 c4 3d d0 b6 12 3d 38 49 8d bb
       -0.048619196 0.09613081 0.035818875 -0.004311707
0002f0 5e 4c 8e 3d ba f3 33 3d 2b 83 92 bd 3a 44 e4 3d
       0.0694816 0.043933608 -0.071539246 0.11145826
000300 70 f3 00 be 90 7b 04 3e d9 17 6b 3b bb b9 10 3e
       -0.12592864 0.1293776 0.0035872369 0.1413335
000310 b9 82 18 3e a8 c2 cd bd 33 15 ef bd d3 ae 09 be
       0.14893617 -0.10046893 -0.11673965 -0.13445596
000320 1e 40 bf 3d 09 02 92 3d 6e 94 98 bd 51 d2 1a 3e
       0.09338401 0.071292944 -0.07450186 0.15119292
000330 00 21 e0 bd 0e 1e 0e be 69 c3 1a be 1a 69 81 bd
       -0.10943794 -0.13878652 -0.15113606 -0.06318875
000340 95 67 9c 3b 59 3d fe 3d 43 a0 8e 3d a5 73 0a 3e
       0.00477309 0.12414045 0.06964161 0.13520677
000350 08 eb 3d bd ff 74 03 3e 8d d5 5c 3d d0 08 ee 3c
       -0.04636672 0.12837599 0.053914595 0.029056937
000360 02 8d df bd 12 dc 06 be f4 b1 e8 3c 7f 87 a3 bd
       -0.10915567 -0.13169888 0.028405167 -0.07984828
000370 2b 23 09 be bb 53 9f 3b 91 0d 0f 3e 1c 53 f1 3d
       -0.13392322 0.0048622764 0.13970019 0.1178343
000380 29 bc a0 bd 3a cc 8e bd cb b6 fb 3d 4e 27 b1 bc
       -0.07848389 -0.06972547 0.12290724 -0.021625187
000390 94 45 07 be aa 0e a7 3d 81 61 f4 bd 06 c2 03 be
       -0.13210136 0.08157094 -0.1193266 -0.12866983
0003a0 89 3f 92 bd ff 8d 57 bd a6 e3 1d be 45 0f 56 bd
       -0.071410246 -0.052625652 -0.15418872 -0.052260656
0003b0 52 92 19 bd 3d 99 f4 bd b1 68 6e bd 15 04 c5 bd
       -0.037493058 -0.119432904 -0.05820531 -0.09619919
0003c0 eb c6 de bd a3 2f 03 ba c6 9a ab 3c 0c ee ce bb
       -0.10877784 -0.0005004352 0.020947825 -0.0063149985
0003d0 a4 ba ca 3b 25 4d f5 bc 2a 24 84 3d 93 47 f7 bc
       0.0061868 -0.029944012 0.0645221 -0.030185496
0003e0 5e 73 f1 3d e4 d2 a1 3d 63 70 dc 3d cc a8 0b 3e
       0.11789583 0.07901552 0.107636236 0.1363861
0003f0 a1 81 f4 3d 36 a1 a5 bd 2b e9 bc 3d eb 8e 87 3d
       0.11938787 -0.08087389 0.09224161 0.06619056

encoders.0.encoder.prelu2.weight f4 [128]
000000 d0 05 81 3e 1e 06 81 3e 16 06 81 3e bb f4 7d 3e
       0.25199747 0.2519998 0.25199956 0.24800389
000010 1f 06 81 3e 39 f4 7d 3e 17 06 81 3e c9 04 81 3e
       0.25199983 0.24800195 0.2519996 0.25198963
000020 16 06 81 3e 1e 06 81 3e 13 06 81 3e be f3 7d 3e
       0.25199956 0.2519998 0.25199947 0.24800012
000030 dc f3 7d 3e 13 06 81 3e 21 06 81 3e ed 05 81 3e
       0.24800056 0.25199947 0.25199988 0.25199834
000040 07 06 81 3e c3 f3 7d 3e 22 06 81 3e ba 05 81 3e
       0.2519991 0.24800019 0.2519999 0.25199682
000050 e5 f3 7d 3e c2 f3 7d 3e be f3 7d 3e fe 05 81 3e
       0.2480007 0.24800017 0.24800012 0.25199884
000060 d5 f3 7d 3e c3 f3 7d 3e a5 f4 7d 3e 1f 06 81 3e
       0.24800046 0.24800019 0.24800356 0.25199983
000070 1f 06 81 3e 97 f4 7d 3e bb f3 7d 3e 1d 06 81 3e
       0.25199983 0.24800335 0.24800007 0.25199977
000080 c7 f3 7d 3e 22 06 81 3e f4 f3 7d 3e 09 06 81 3e
       0.24800025 0.2519999 0.24800092 0.25199917
000090 e8 05 81 3e e8 f3 7d 3e d0 05 81 3e c5 f3 7d 3e
       0.2519982 0.24800074 0.25199747 0.24800022
0000a0 f6 05 81 3e bb f3 7d 3e 44 05 81 3e ae f5 7d 3e
       0.2519986 0.24800007 0.2519933 0.2480075
0000b0 0a 06 81 3e 7f 03 81 3e fe dd 80 3e 0b 06 81 3e
       0.2519992 0.2519798 0.25169367 0.25199923
0000c0 ed 01 81 3e 08 06 81 3e db fc 80 3e f7 f3 7d 3e
       0.25196782 0.25199914 0.25192913 0.24800096
0000d0 df 05 81 3e 91 05 81 3e ed 05 81 3e 20 06 81 3e
       0.25199792 0.2519956 0.25199834 0.25199986
0000e0 c8 f3 7d 3e 8e 04 7e 3e 5f f6 7d 3e 1e 06 81 3e
       0.24800026 0.24806425 0.24801014 0.2519998
0000f0 e3 05 81 3e da f3 7d 3e 22 06 81 3e 02 f4 7d 3e
       0.25199804 0.24800053 0.2519999 0.24800113
000100 be f3 7d 3e 20 f4 7d 3e 13 06 81 3e c9 f3 7d 3e
       0.24800012 0.24800158 0.25199947 0.24800028
000110 75 f5 7d 3e ec 05 81 3e 02 06 81 3e d1 05 81 3e
       0.24800666 0.2519983 0.25199896 0.2519975
000120 c6 f3 7d 3e d6 f3 7d 3e f3 f3 7d 3e 69 f4 7d 3e
       0.24800023 0.24800047 0.2480009 0.24800266
000130 22 06 81 3e e2 f3 7d 3e c7 f3 7d 3e 0e 06 81 3e
       0.2519999 0.24800065 0.24800025 0.25199932
000140 97 f4 7d 3e 20 06 81 3e 21 06 81 3e 1f 06 81 3e
       0.24800335 0.25199986 0.25199988 0.25199983
000150 db f3 7d 3e 0d 06 81 3e f4 f3 7d 3e e2 fc 7d 3e
       0.24800055 0.2519993 0.24800092 0.24803498
000160 e3 05 81 3e c8 05 81 3e 20 06 81 3e 8a 05 81 3e
       0.25199804 0.25199723 0.25199986 0.25199538
000170 f5 05 81 3e 47 f4 7d 3e 2b 05 81 3e f6 f3 7d 3e
       0.25199857 0.24800216 0.25199255 0.24800095
000180 d6 f3 7d 3e d7 f4 7d 3e e3 f3 7d 3e c5 f3 7d 3e
       0.24800047 0.2480043 0.24800067 0.24800022
000190 2a f4 7d 3e e7 f3 7d 3e f5 f3 7d 3e 5e f6 7d 3e
       0.24800172 0.24800073 0.24800093 0.24801013
0001a0 f9 fe 7d 3e fd 05 81 3e ec f3 7d 3e 1f 06 81 3e
       0.24804296 0.2519988 0.2480008 0.25199983
0001b0 0c 06 81 3e 00 06 81 3e 3b f4 7d 3e 20 06 81 3e
       0.25199926 0.2519989 0.24800198 0.25199986
0001c0 1c 06 81 3e 20 06 81 3e 11 06 81 3e 1c 06 81 3e
       0.25199974 0.25199986 0.2519994 0.25199974
0001d0 c5 f3 7d 3e db f3 7d 3e ce f3 7d 3e c3 f3 7d 3e
       0.24800022 0.24800055 0.24800035 0.24800019
0001e0 f8 f3 7d 3e c9 f3 7d 3e 12 06 81 3e 1f 06 81 3e
       0.24800098 0.24800028 0.25199944 0.25199983
0001f0 0a 06 81 3e 9d 05 81 3e 09 06 81 3e f4 05 81 3e
       0.2519992 0.25199595 0.25199917 0.25199854

encoders.1.weight f4 [128, 128]
000000 b4 38 07 bc 73 8b ab 3d 5f 99 90 3d ac bd 5d 3c
       -0.008253265 0.08376207 0.07060503 0.013533991
000010 59 e3 50 3d d1 05 f2 3c 01 6b c8 3c 0d b4 7b 3c
       0.050998066 0.02954379 0.024465086 0.015362752
000020 2a 9f a3 bd 44 73 56 bd 60 8f 88 bc 9a 26 c9 bc
       -0.079893425 -0.05235602 -0.016669929 -0.02455454
000030 8b 98 07 bd 23 32 ce 3b 2e f3 73 3d 99 19 a1 bd
       -0.03310446 0.006292598 0.059558086 -0.078662105
000040 8e f8 ad 3d 33 30 97 3d f1 1d 88 bd a3 b4 33 3d
       0.08494674 0.0738224 -0.06646336 0.04387344
000050 f9 c4 3f 3b 90 71 86 bc a7 e4 67 3c 2d 70 27 bd
       0.0029261692 -0.016411573 0.014153636 -0.040878464
000060 63 b7 6f bd cd 08 3e 3c 2b 6a 18 bd 4e da ae bd
       -0.0585245 0.011598778 -0.037210625 -0.08537732
000070 fc e8 33 3d a0 45 3c bd cf 79 3d 3b f9 d5 b7 3d
       0.043923363 -0.045964837 0.0028911715 0.08976359
000080 52 2d 89 3d 99 b0 9e bd c9 10 53 3b f4 e3 52 bc
       0.06698097 -0.07748527 0.003220605 -0.012871731
000090 c8 f2 19 3c d3 c2 5a 3d 7a 29 68 3c 0e 5f a1 bd
       0.0093962625 0.053408455 0.014170045 -0.07879458
0000a0 aa c5 a5 bc 31 b0 70 bd 65 67 90 3d fe 02 df 3c
       -0.020235855 -0.05876178 0.07050971 0.027223106
0000b0 8c 9b b8 3d 9c b2 bd 3c 6a c9 83 3d 55 25 2d 3c
       0.09014043 0.023156457 0.06434901 0.010567983
0000c0 70 06 9a 3a 7e e0 2c 3c 57 e9 1e bd b7 da 88 3d
       0.0011751186 0.01055157 -0.03879675 0.066823415
0000d0 d5 7f a7 3d 99 23 bd 3c ac 4b 34 bd fe af 57 3c
       0.08178679 0.023088263 -0.04401748 0.013164518
0000e0 5a 21 a1 3c db f2 b8 3c ee fb 58 3d 42 3a c2 3c
       0.019669224 0.02257674 0.052974634 0.02370942
0000f0 a9 70 97 bd 61 9c 7c bd 90 13 0f 3d a6 7a 6b 3d
       -0.07394535 -0.061672572 0.034930766 0.057490014
000100 87 4b 9b bd 17 c3 83 3d c9 76 71 3c 93 cc 0d bd
       -0.07582765 0.06433695 0.014737793 -0.034618925
000110 13 bf a5 3d d4 be b9 3c bd 9f 90 3d 32 88 12 3d
       0.08093085 0.022674002 0.07061718 0.035774417
000120 c4 05 2e bd 41 ba 8e 3d 3e fc 93 bd e9 e3 09 bd
       -0.042485967 0.06969119 -0.07225846 -0.033664618
000130 78 9a 51 3d 83 57 b2 3d 73 a9 80 bd c5 2e 96 3d
       0.051172704 0.08708098 -0.0628232 0.07333139
000140 62 6a 6b bd 41 a0 00 3c eb d1 a8 3d 1b 62 a0 3d
       -0.0574745 0.0078507075 0.08243164 0.07831212
000150 db 00 85 3d 36 16 95 bd ff 9a 02 bd f1 d4 08 3d
       0.06494304 -0.07279627 -0.031886097 0.0334062
000160 57 48 13 3c 99 fd 9a 3d bf 2c 38 bd 1d cd b0 bd
       0.008989415 0.07567901 -0.04496455 -0.08632872
000170 21 ba 5e 3c 31 f9 b9 3c 3b 30 57 3d c0 51 84 3a
       0.013594181 0.022701832 0.05253623 0.0010095164
000180 1d c8 28 bd 98 97 15 bd 92 62 13 3c 64 d1 2b 3d
       -0.041206468 -0.036521524 0.008995669 0.041947737
000190 d9 06 71 3d 1e 5a 06 3c 4e 73 b1 3c b0 38 4d 3d
       0.05884442 0.008200197 0.021661427 0.05010289
0001a0 ed cc f9 3c f7 94 f9 3c 07 ce 90 3d f5 5c 83 3d
       0.030493224 0.03046654 0.070705466 0.064142145
0001b0 cd ff 5c 3b ac eb a8 bd 96 c6 9f bc 2b 49 a3 3d
       0.0033721805 -0.08248076 -0.019503873 0.0797294
0001c0 8b ab 85 3c 31 1e af 3d 5d ec 8e 3d cd 2d d4 bc
       0.01631715 0.085506804 0.069786765 -0.025900746
0001d0 fe e5 70 bd 35 d5 9c bd 99 a4 85 3d 83 8f ed bc
       -0.058813088 -0.076578535 0.06525535 -0.028999096
0001e0 18 11 a5 bc 5e 2f 6d bc ef 61 99 bc 14 f1 22 bd
       -0.020149752 -0.014476625 -0.018723456 -0.03978069
0001f0 2f 8f a2 bd 08 a0 ac bd e2 52 69 3d 0a 36 a3 bd
       -0.07937466 -0.08428961 0.05696381 -0.079692915
000200 f5 ae 5c 3d 1e 6b 8f 3d aa e5 5b bc d6 9f 1b bd
       0.05387779 0.07002853 -0.013421455 -0.03799423
000210 88 55 df 3b 3e 37 29 3d 98 3d 16 3c 7b ec f2 bb
       0.006815616 0.04131245 0.0091699585 -0.0074134446
000220 79 eb 8b 3d 04 56 f7 3c 53 a1 1e 3c 56 ec 96 3d
       0.06832022 0.030192383 0.009682017 0.07369296
000230 a4 79 6b bd 3e c5 af 3d 94 7b c7 3c c3 a3 1d bd
       -0.057489052 0.08582543 0.024350919 -0.038486253
000240 61 17 2e bd 86 14 b8 bd a4 7c 48 3d d2 78 4a ba
       -0.042502765 -0.089882895 0.04894699 -0.0007723692
000250 42 f2 3b 3c 73 74 ad 3a fa a6 ac 3c 79 8f c9 3b
       0.011471333 0.0013233557 0.021075714 0.0061511365
000260 9b 22 89 3d 5f 14 48 3b ea f6 19 3d f2 25 fe ba
       0.066960536 0.003052972 0.03758899 -0.0019389971
000270 6b 4e 2b 3d 4f 8d 2a bd c0 fc a4 3d fd 35 ad 3b
       0.041822832 -0.04163867 0.08056021 0.005285977
000280 1d 07 31 3d 37 d3 a8 3d d8 80 98 3d d7 0c 1a 3c
       0.043219674 0.08243411 0.0744645 0.009402475
000290 5a c1 16 bd e7 06 98 bc 33 d0 4d 3d 82 33 01 bd
       -0.03680549 -0.018557979 0.050247382 -0.031543262
0002a0 d2 d4 a2 3d 1a 5b 24 3d 23 c6 af bd 94 6e 91 bd
       0.079507485 0.040125944 -0.085827135 -0.07101169
0002b0 7c cd 57 bd 73 7d ef bc 86 80 2b bc 8a fb f5 bc
       -0.0526862 -0.029234624 -0.010467654 -0.03002717
0002c0 1f a1 0e 3d 0a 16 26 bd f1 ec 91 bd 10 d4 9c 3c
       0.034821626 -0.04054836 -0.07125271 0.019144088
0002d0 cf 4d 28 3d 21 91 8a bd b5 43 96 bd 12 fd 7b 3d
       0.04108983 -0.067659624 -0.07337133 0.061520644
0002e0 07 de 86 bb b0 5d d3 3c 78 2a ee bc 06 bc d1 bb
       -0.004115823 0.02580151 -0.029072985 -0.006400588
0002f0 50 eb aa 3d 7f b3 3c 3d 8a 5d 6c 3a 90 8e b6 bd
       0.083456635 0.04606962 0.0009016624 -0.089139104
000300 e5 2b f6 3b 26 4f 54 bc 0f e3 91 3d 3e dd b5 bd
       0.007512557 -0.012958324 0.07123386 -0.08880089
000310 99 45 7f 3c 95 98 04 bd 38 36 a5 bd e9 39 97 bc
       0.015580558 -0.032372076 -0.08066982 -0.01846023
000320 0b ca 64 3d 3a a9 95 3d 5e 80 ea 3c 89 92 61 bd
       0.055856746 0.07307668 0.028625663 -0.055071387
000330 fa c8 05 bd b3 ba 5e bc 37 a5 54 bd f0 7e 38 bd
       -0.03266237 -0.013594317 -0.051915374 -0.045042932
000340 59 73 76 bc c1 6c ad bd 12 f0 82 bd 4d 7a 99 3d
       -0.015042149 -0.08468009 -0.06393446 0.0749403
000350 bc 74 94 3c c1 24 48 3d 6d fd c5 3c b5 21 a2 3c
       0.01812207 0.048863176 0.024168694 0.019791463
000360 45 28 2b bd 81 3b 4d bd 1e 1b 6d bd 4f 70 b4 bd
       -0.04178645 -0.050105575 -0.05788719 -0.08810484
000370 01 fb 1f bc 2b 2c 0e bb df f0 36 3d 0f 33 f2 bc
       -0.009764434 -0.0021693807 0.044663306 -0.029565362
000380 9f ba 19 bd 30 ee 08 bd 91 20 93 3d 6e cf b9 bc
       -0.03753149 -0.03343028 0.07183946 -0.022681918
000390 ff 72 89 bd ef 51 e1 bc 41 69 8e 3d 72 3f a3 3d
       -0.06711387 -0.02750489 0.06953669 0.079710856
0003a0 bb 3f 82 3d 1e d6 12 bd f5 a9 5e 3d 3b 7b 92 3d
       0.06359812 -0.03584873 0.054361302 0.071524106
0003b0 d7 57 a4 ba f9 fd cc 3b 0c 9b 3b bd 49 2a 2b bc
       -0.0012538385 0.006255862 -0.04580216 -0.010447093
0003c0 0c 8b eb bb f3 6d a2 3c f8 1e 16 bc a1 8f 8e 3d
       -0.0071882065 0.019827818 -0.009162657 0.06960989
0003d0 9f c6 ad bd 54 e3 1a 3d 4e d0 4b 3d 51 30 2d 3c
       -0.084851496 0.037814453 0.0497592 0.010570602
0003e0 b1 0c 66 3c 57 f6 ff 3c 9f 08 67 bd b2 9c 83 3d
       0.014041112 0.031245394 -0.056404706 0.06426372
0003f0 76 6e 24 bc 38 d1 66 3d fa b3 77 3d 7c 94 81 3d
       -0.010036102 0.05635187 0.060474373 0.06327149

encoders.1.encoder.conv.bias f4 [128]
000000 13 12 03 3b 6d 0e 03 3b c4 11 03 3b 26 12 03 3b
       0.0019999787 0.0019997612 0.0019999603 0.001999983
000010 30 12 03 bb d8 11 03 bb 40 12 03 bb 9c 10 03 bb
       -0.0019999854 -0.001999965 -0.0019999892 -0.0019998914
000020 17 12 03 bb db 11 03 bb 8b 11 03 bb 87 11 03 3b
       -0.0019999796 -0.0019999656 -0.001999947 0.001999946
000030 19 12 03 3b 6c 11 03 bb 07 12 03 bb d1 10 03 3b
       0.00199998 -0.0019999398 -0.0019999759 0.0019999037
000040 b9 11 03 bb ee 0d 03 bb bc 04 03 3b 6d 11 03 3b
       -0.0019999577 -0.0019997316 0.0019991836 0.00199994
000050 3b 12 03 3b 09 12 03 bb c4 11 03 bb 77 11 03 bb
       0.001999988 -0.0019999763 -0.0019999603 -0.0019999424
000060 03 12 03 3b 37 12 03 3b 83 0e 03 3b d1 11 03 bb
       0.001999975 0.001999987 0.0019997663 -0.0019999633
000070 57 12 03 bb ed 11 03 bb a6 11 03 3b 46 11 03 3b
       -0.0019999945 -0.0019999698 0.0019999533 0.001999931
000080 5c 0c 03 bb e4 11 03 3b e3 0e 03 3b 94 11 03 3b
       -0.001999638 0.0019999677 0.0019997887 0.001999949
000090 43 11 03 3b b1 11 03 bb ad 11 03 bb 2d 09 03 bb
       0.0019999302 -0.0019999559 -0.001999955 -0.0019994483
0000a0 30 12 03 bb 0c 12 03 bb 07 0d 03 3b 7f 11 03 3b
       -0.0019999854 -0.001999977 0.0019996779 0.0019999442
0000b0 b6 11 03 bb 44 12 03 bb 49 12 03 3b 07 12 03 bb
       -0.001999957 -0.00199999 0.0019999912 -0.0019999759
0000c0 57 10 03 bb 47 12 03 bb 14 12 03 bb 0b 12 03 3b
       -0.0019998753 -0.0019999908 -0.001999979 0.0019999768
0000d0 81 11 03 3b bd 10 03 bb f0 10 03 bb 0f 0f 03 bb
       0.0019999447 -0.001999899 -0.001999911 -0.001999799
0000e0 27 12 03 3b 29 11 03 3b 39 12 03 3b 30 12 03 3b
       0.0019999833 0.0019999242 0.0019999875 0.0019999854
0000f0 ff 11 03 3b 96 0f 03 bb 77 11 03 3b 69 11 03 3b
       0.001999974 -0.0019998304 0.0019999424 0.001999939
000100 28 12 03 3b 57 11 03 bb 95 0f 03 bb a4 11 03 3b
       0.0019999836 -0.001999935 -0.0019998301 0.0019999528
000110 f6 11 03 3b c0 0d 03 3b df 11 03 bb 04 12 03 3b
       0.001999972 0.001999721 -0.0019999666 0.0019999752
000120 85 11 03 bb 1d 12 03 3b 52 12 03 bb f2 11 03 bb
       -0.0019999456 0.001999981 -0.0019999933 -0.001999971
000130 8b 11 03 bb 1f 12 03 3b 09 fb 02 bb 0f 0a 03 3b
       -0.001999947 0.0019999815 -0.0019986054 0.001999501
000140 c1 10 03 3b a6 0f 03 bb 36 11 03 bb 5a 0c 03 3b
       0.0019999 -0.001999834 -0.0019999272 0.0019996376
000150 0f 11 03 3b a6 11 03 3b 20 11 03 bb ea 10 03 3b
       0.0019999181 0.0019999533 -0.001999922 0.0019999095
000160 ea 11 03 3b fd 0f 03 3b 3c 12 03 bb 5d 0c 03 bb
       0.0019999691 0.0019998543 -0.0019999882 -0.0019996383
000170 f2 10 03 bb 27 12 03 3b 35 11 03 bb 36 12 03 bb
       -0.0019999114 0.0019999833 -0.001999927 -0.0019999868
000180 06 12 03 bb f4 11 03 bb b2 10 03 3b 9f 11 03 bb
       -0.0019999756 -0.0019999715 0.0019998965 -0.0019999517
000190 26 11 03 bb 45 01 03 3b f9 11 03 3b 44 12 03 3b
       -0.0019999235 0.001998977 0.0019999726 0.00199999
0001a0 ed 96 02 3b 3c 12 03 bb e4 0f 03 3b 97 0a 03 bb
       0.0019926385 -0.0019999882 0.0019998485 -0.0019995326
0001b0 c2 0f 03 3b 6b 11 03 bb df 0d 03 3b ef 11 03 bb
       0.0019998406 -0.0019999396 0.0019997281 -0.0019999703
0001c0 ec 11 03 bb 2c 12 03 3b 26 10 03 bb c8 0c 03 3b
       -0.0019999696 0.0019999845 -0.001999864 0.0019996632
0001d0 12 12 03 3b d4 0f 03 3b 0d 12 03 bb 17 12 03 bb
       0.0019999784 0.0019998448 -0.0019999773 -0.0019999796
0001e0 38 12 03 3b ee 11 03 bb c9 0c 03 3b df 11 03 bb
       0.0019999873 -0.00199997 0.0019996634 -0.0019999666
0001f0 0b 11 03 bb f1 11 03 bb 06 12 03 bb 45 12 03 3b
       -0.0019999172 -0.0019999708 -0.0019999756 0.0019999903
