notebooks/checkpoint.pth (torch, 451115 bytes, 66 tensors)

encoders.0.weight f4 [128, 128]
00000000: 36c9 3a3c 0277 b0bd 936c 203d b1ff 733c
00000010: 9ffd 43bd 9c3c 6a3d d775 4d3d cbd7 583d
00000020: a879 33bd 212f 213c 5491 abbd 64cb 8ebd
00000030: 7b46 04bd 8eec 8ebd 7f53 833d 4cea 19bd
00000040: 540c 5f3d 313c 053d c6d8 7e3d fa40 e53b
00000050: 451e 033d 19d6 8739 972d f3bb bd85 e6bc
00000060: 8cd1 e33c a8ee d9bc 0516 133d 77db 7d3d
00000070: 6801 693c 728f febc 3ea8 9f3d 1920 85bd
00000080: 9fc6 803d 9383 40bd 285b a5bd b354 aabd
00000090: 2afc ae3c e27e 56bd 7ea0 82bc 4923 3ebb
000000a0: 8be3 1abc d11a 91bc 03f6 5ebd b916 acbd
000000b0: 14b5 043d 6c02 a9bd 8b94 8e3d 655f 6b3c
000000c0: 933c a7bc 27f7 603d 7916 f83c c9a7 2c3d
000000d0: dd4d 87bd 5ff6 22bc 717f 81bd eec2 92bd
000000e0: 415f 04bc 212d f3bc 1158 313d 06c1 5e3d
000000f0: e716 c4bc b8b8 44bd 1e66 d5bc c556 493d
00000100: b3bd 803d 9251 a1bd ee76 5abc 4fa3 dd3b
00000110: 48f8 203d 2443 2b3d 7788 0ebd 6a90 61bd
00000120: 8526 9bbd 61de 9cbd d0e1 803d 0e63 04bd
00000130: 746d a03d 6a12 1a3b ba91 91bd fe9a 8d3d
00000140: 1d43 883d f366 093d e7af 703d 3d14 573c
00000150: 5298 5cbd b678 a9bb a680 0b3d 257e aa3c
00000160: 3b7d f7bc 777d 83bb 4a41 43bc f8c5 543d
00000170: c22d a9bb 4279 b3bc ad28 b33d fa5c 5cbc
00000180: 4a02 afbd a9cb f63c fde0 7d3d b63a 9dbd
00000190: d2c5 f3bc 3aa5 843d d9dc 1e3d 633e 62bd
000001a0: e4a9 b33c 8084 603d 0cb4 cebc cc7d 1cbc
000001b0: 20e3 aa3c f3df b6bb 42ab b03d c837 8a3d
000001c0: 21de 7dbd bcbc aa3d 5547 9f3c 0b3c 4dbd
000001d0: 033e 85bc fbb1 b1bd 73a2 6bbd be4a e1bc
000001e0: b86b 0c3d 6e5f 153d 0e4d 9b3d b677 503d
000001f0: cdd1 913d 2113 6fbd 2be8 9c3d bde2 80bd
00000200: 4f82 863c 4b8e a4bd 2919 99bd d60e ffbc
00000210: 061b 463c abf9 1bbd 293b b43b b033 39bd
00000220: ec94 593c a55d d7bb fa0c 90bd 8fac 7abd
00000230: 71e1 01bc ccf1 9c3d e9ff 5e3b f84c 9fbb
00000240: 4440 7b3d 8424 a33d 8a8a 9a3d 69c1 90bd
00000250: e570 763d 8462 40bd a6df 8e3c 296b 0d3d
00000260: 17cb 80bd ed2e 323d acbf 433d 52f6 983d
00000270: 3cdf 893c 848f 683d cdaf 6c3b 74a9 86bd
00000280: cf1d 353d f915 af3c e5cf 3abd fe1b 01bd
00000290: e196 70bd 6222 8b3c 78e1 393d 5f5b 35bd
000002a0: 9218 16bd 8ba7 ac3d 3915 8ebd b753 eebc
000002b0: de37 e2bc a25d 25bd a454 9cbd f60b ea3c
000002c0: 2ae8 a33d 5e63 59bd 60ce 093d 3b2f 09bd
000002d0: 0396 36bc 2313 913d bd26 02bc 5bd9 09bc
000002e0: b471 453d 5103 bdbc cd7d 433d 462b 123d
000002f0: 272e 41bd a363 f83a d9e8 1abd 0c96 91bd
00000300: e966 71bd 5fbe 363d 9eea 5439 8c62 603d
00000310: 1a2f 91bc c258 75bd 69f7 3d3d c96d 953d
00000320: 2e87 67bd 2f06 2d3d 20e9 8fbc 9ad2 e0ba
00000330: 3c94 2bbd fdef ed3c 5acb 8abd 8949 293d
00000340: d649 033d 7a09 3c3d 1424 0cbd ab8e abbc
00000350: 35e3 b33d 9e9e 8cbd 2c05 7c3c ae29 62bc
00000360: 3e0d 81bc f57e 98bd a394 113c bfaa 7a3d
00000370: 47f1 b93b 4b5c 2cbd 7928 6bbd 4d32 013c
00000380: f947 83bd 2d61 8dbd 5ad5 9c3d a66c 09bd
00000390: 03ea 8a3c 5f3a 7e3c 4f24 08bd aa0c 803d
000003a0: 35be 273d ce8a aa3b 92a7 2dbd 538c 97bd
000003b0: 394d 6f3d 25a4 87bd 4eed 5ebc 7a33 043d
000003c0: 682e a7bd f4c0 5fbc a9f8 0fbd e4ba fe3b
000003d0: feb8 8f3d 09bc 72bd ddb0 9f3d 4a34 6abb
000003e0: 321e 09ba 5c2a f0bc aeeb e5bc 51a7 ab3d
000003f0: 940d 9b3d c3f7 0bbd d682 4ebc fc88 9f3b
0.0114005115 -0.08616449 0.039166044 0.014892505 -0.047849294 0.057186708 0.05016121 0.05294017
-0.043817192 0.009837897 -0.083773285 -0.069723874 -0.032293778 -0.06978713 0.0641241 -0.03757696
0.054455116 0.032528106 0.06221845 0.006996271 0.03201129 0.00025908722 -0.007421206 -0.028139943
0.02780988 -0.026603058 0.03590967 0.061976876 0.014221527 -0.03107426 0.077957615 -0.06500263
0.06287884 -0.04700048 -0.08074027 -0.08316936 0.021360476 -0.0523671 -0.01594567 -0.002901273
-0.0094536645 -0.017712982 -0.054433834 -0.084027715 0.032399252 -0.08252415 0.06961926 0.014366006
-0.020414626 0.054923203 0.030284153 0.0421522 -0.06606648 -0.009946435 -0.06323136 -0.07166086
-0.008079351 -0.029684605 0.043296877 0.0543833 -0.023936702 -0.048027724 -0.02604967 0.049155015
0.06286182 -0.078768864 -0.013334019 0.0067638527 0.03929928 0.041812077 -0.03479811 -0.055069365
-0.075757064 -0.07659603 0.0629307 -0.03232103 0.078333765 0.002350951 -0.07107873 0.06914328
0.06653426 0.033545446 0.058761504 0.013127384 -0.0538562 -0.0051718606 0.034058236 0.020812104
-0.030211082 -0.0040127593 -0.011917422 0.05194661 -0.0051629255 -0.021908406 0.08747993 -0.013449902
-0.085453585 0.03012641 0.061982144 -0.07677214 -0.029757414 0.06476827 0.038784835 -0.055235278
0.021931596 0.05481386 -0.025232337 -0.009551477 0.020860255 -0.005580896 0.08626415 0.06748921
-0.061979417 0.083367795 0.019443193 -0.05010609 -0.016264921 -0.08676525 -0.05752797 -0.02750146
0.034282416 0.036467962 0.075830564 0.050895415 0.071200944 -0.058367852 0.0766147 -0.06293247
0.016419558 -0.08034953 -0.07475502 -0.031135004 0.012091404 -0.0380799 0.0055002165 -0.04521531
0.013280135 -0.0065724426 -0.07033725 -0.06119972 -0.007927285 0.076633066 0.0034027046 -0.0048614703
0.061340585 0.07965949 0.075459555 -0.0706814 0.06016626 -0.04696895 0.017440628 0.034526024
-0.06288736 0.043501783 0.047790214 0.07468857 0.01683008 0.056777492 0.0036115528 -0.06575289
0.04421788 0.021372782 -0.04560842 -0.031520836 -0.05873764 0.016984168 0.04538104 -0.04427659
-0.036644526 0.08430394 -0.06937642 -0.029092653 -0.02761453 -0.0403725 -0.076333314 0.028570157
0.08003266 -0.05307328 0.03364408 -0.033492308 -0.011144164 0.07083728 -0.007943806 -0.008413638
0.04820414 -0.02307287 0.047727395 0.0356858 -0.047163155 0.0018950592 -0.037819717 -0.07108697
-0.058936033 0.044615146 0.00020305297 0.05478148 -0.017722655 -0.0598991 0.046378527 0.072963305
-0.0565254 0.042242225 -0.017567217 -0.0017152608 -0.041889414 0.0290451 -0.067770675 0.041329894
0.032052837 0.045907475 -0.034214094 -0.020942053 0.08783571 -0.06866191 0.015382092 -0.0138038825
-0.015753385 -0.0744609 0.008885535 0.061197992 0.0056745145 -0.042080205 -0.057411645 0.007885528
-0.06410212 -0.069033004 0.07657881 -0.03355088 0.016957289 0.015516846 -0.03323775 0.062524155
0.04095288 0.005204535 -0.042396136 -0.073998116 0.058423255 -0.06623105 -0.0136063825 0.032275654
-0.08163148 -0.013656843 -0.03514925 0.007773744 0.07017706 -0.059261356 0.07797406 -0.0035736733
-0.00052306347 -0.029317074 -0.028066482 0.083815224 0.07570949 -0.03417183 -0.012604436 0.0048686247

encoders.0.encoder.conv.bias f4 [128]
00000000: 54e4 823a 1f12 833a 5a12 83ba 2b11 833a
00000010: d50f 83ba 4f12 83ba f611 83ba 4812 833a
00000020: 4f12 833a 090d 83ba e310 83ba 3712 83ba
00000030: 0112 833a 5b12 833a 3c12 833a 4b12 833a
00000040: 2012 833a 4412 83ba 3612 833a 2f12 83ba
00000050: d411 833a 4211 833a 390f 833a 3d12 833a
00000060: 3f12 83ba af11 833a c011 833a e411 83ba
00000070: 4712 833a 5012 833a 4d12 833a 3a12 833a
00000080: 4212 833a f711 833a 7e11 833a 4d12 833a
00000090: d410 833a ad11 833a 5c11 833a 0112 833a
000000a0: 1612 83ba 4012 83ba e911 83ba 5512 83ba
000000b0: 1912 833a 5512 83ba 2f12 833a c010 83ba
000000c0: 4612 833a e711 83ba 5212 833a 3f12 833a
000000d0: 0612 833a a611 83ba 4712 83ba 1012 833a
000000e0: 2012 83ba faf9 82ba 2b12 833a b411 833a
000000f0: 4c12 833a da11 833a 4412 83ba f0a6 823a
00000100: 1612 83ba ab11 833a 5612 83ba 5712 83ba
00000110: 9e11 83ba a711 833a e411 833a 1d12 83ba
00000120: 9011 833a 4512 833a 2612 83ba df11 83ba
00000130: 2f12 833a 4412 833a 9211 833a c511 833a
00000140: a611 833a 2f12 83ba 4212 833a fa11 83ba
00000150: ed11 833a 4212 833a 4412 833a 2612 83ba
00000160: 5b12 833a 5212 833a 1f12 833a 0b12 83ba
00000170: 3e12 833a 6010 83ba 3712 833a 4512 83ba
00000180: 4112 83ba b011 833a d911 83ba 3612 833a
00000190: f90d 83ba 7a10 83ba 2912 83ba da11 83ba
000001a0: 1912 833a 4912 833a eb10 83ba e610 83ba
000001b0: 4612 83ba 3012 833a 5912 83ba 24fd 82ba
000001c0: a811 83ba 5012 833a dc11 833a 3f12 83ba
000001d0: 8011 833a 1712 83ba d011 833a aaff 82ba
000001e0: 4112 833a 1512 833a 2b12 833a 4112 83ba
000001f0: 5712 83ba 4512 83ba 3212 833a 3612 833a
0.000998626 0.0009999907 -0.0009999976 0.0009999623 -0.0009999225 -0.0009999963 -0.000999986 0.0009999955
0.0009999963 -0.0009998392 -0.000999954 -0.0009999935 0.0009999872 0.0009999977 0.0009999941 0.0009999959
0.0009999909 -0.000999995 0.0009999934 -0.0009999926 0.000999982 0.000999965 0.0009999044 0.0009999942
-0.0009999945 0.0009999777 0.0009999797 -0.0009999839 0.0009999954 0.0009999964 0.0009999961 0.0009999939
0.0009999948 0.0009999861 0.000999972 0.0009999961 0.0009999522 0.0009999775 0.000999968 0.0009999872
-0.0009999897 -0.0009999946 -0.0009999844 -0.000999997 0.00099999 -0.000999997 0.0009999926 -0.0009999499
0.0009999953 -0.0009999842 0.0009999967 0.0009999945 0.0009999878 -0.0009999766 -0.0009999954 0.000999989
-0.0009999909 -0.0009992712 0.0009999921 0.0009999783 0.000999996 0.0009999827 -0.000999995 0.0009967964
-0.0009999897 0.0009999772 -0.0009999971 -0.0009999973 -0.0009999757 0.0009999768 0.0009999839 -0.0009999905
0.0009999741 0.0009999952 -0.0009999915 -0.0009999833 0.0009999926 0.000999995 0.0009999743 0.0009999803
0.0009999766 -0.0009999926 0.0009999948 -0.0009999864 0.0009999849 0.0009999948 0.000999995 -0.0009999915
0.0009999977 0.0009999967 0.0009999907 -0.0009999884 0.0009999943 -0.0009999387 0.0009999935 -0.0009999952
-0.0009999947 0.0009999778 -0.0009999826 0.0009999934 -0.0009998671 -0.0009999417 -0.0009999919 -0.0009999827
0.00099999 0.0009999956 -0.0009999549 -0.0009999543 -0.0009999953 0.0009999927 -0.0009999975 -0.0009993655
-0.0009999769 0.0009999964 0.0009999829 -0.0009999945 0.0009999722 -0.0009999898 0.0009999815 -0.0009994407
0.0009999947 0.0009999896 0.0009999921 -0.0009999947 -0.0009999973 -0.0009999952 0.000999993 0.0009999934

encoders.0.encoder.conv.lin.weight f4 [128, 16]
00000000: 5f6d f73d 4d29 9a3d 9db9 0e3c 97e9 86bd
00000010: 6a9e 22be 892b 193e 24f0 f63d 456a 21be
00000020: 28e9 10be eda9 40be ced3 15be 9aa3 a8bd
00000030: 7348 0cbe 64b0 3a3d c5b3 e0bd 4b3c 193e
00000040: 4217 833d 2125 333e 81e9 273e aaac 253d
00000050: b74b 8c3d d216 0a3e 30ed eb3c 4d7c 4a3e
00000060: 2c96 163d 90ad 9a3c b20c 303e b2b6 84bd
00000070: 3efc b03d 356a 2fbe 4ed4 dfbc 8f0f 04bd
00000080: c230 7c3d c32c 8fbc 1cd0 023e c223 efbd
00000090: c2e4 9d3d 9d30 933d 918f d53c f885 4bbe
000000a0: 2259 c83d d1b9 093d 8842 8c3d ae3e 273c
000000b0: 8777 90bb 8a8b 83bd ebca bb3d a721 0b3e
000000c0: 9a58 17be 83f8 13be dcb7 30bd 48f6 edbd
000000d0: 9e41 a9bc 86ea c83d b520 993c 193f a23d
000000e0: 6feb 083d 072e 8abd 5657 163e 0de2 92bd
000000f0: 13ad 86bc 1d7a 4b3e b682 9d3c 4c25 fa3d
00000100: f6b2 6abd 2cff a0bd dcae 4c3d b180 45be
00000110: 9feb b5bd 3cf8 463d 32c6 34bd 1703 afbd
00000120: 9e2b 3c3e 64f0 08be 0894 853d 0583 ee3c
00000130: f9ef 3e3e cc11 903a 7a9f 17be 625d 1d3e
00000140: dd39 f1bc daeb 2f3e 5c60 f13d 2e6c 09be
00000150: b509 123d 0188 e739 dc7c d9bd ed3c 0b3e
00000160: 2dcf d13d d919 3cbe 9f59 20be 1007 c3bc
00000170: e8cf dcbd 596e 4fbe e9a6 8e3d da93 4bbe
00000180: c334 2f3e a1bd 3cbd b727 e3bd c7f6 873d
00000190: 6c9f b43c d6c6 d4bd a8cd ffbd 2948 4dbe
000001a0: 10b3 26be 5ad3 123e feaa 6ebc 9eb3 06be
000001b0: 72c3 10be d1e6 063e 1a9e 863d cd26 083e
000001c0: 82d3 08bc b7d6 42be 1a58 47bd 218c 77bd
000001d0: 8991 91bd 1ff7 4c3e a212 263d cba7 f43d
000001e0: 83c7 4dbd d575 8fbd 5fc8 bfbc 2c21 3dbe
000001f0: f121 083e 80bc 213e 9225 f2bd 0b37 cebc
00000200: 0be9 503d 97e1 b03c 1898 2a3d a39a 403e
00000210: 339a fa3d 3f78 8ebd 944b 683d d666 c33d
00000220: c9b2 d73d 3614 09be c173 0d3e 9da3 acbc
00000230: 14ec aabc 2f59 41be 86e5 473e b67f 77bd
00000240: 5c47 7e3d f039 413d ab49 af3d 3361 5dbd
00000250: b303 053e 9f12 15be 32e8 e2bc 7b30 05be
00000260: 66ee 68bd af9c 8b3c 4641 ce3d 4260 40be
00000270: 2ec5 babd a304 253d f2bc f8bc f3b6 f5bd
00000280: 94bc 423e ac0b 3b3e 29a0 05be 0514 60bc
00000290: b2e9 d93d 8341 143e d591 39be 77f3 95bc
000002a0: f5ba 443e 97fc 17be 343d b03d e9e1 0ebe
000002b0: 4995 203e 0e71 403e af59 b2bd 366e b73b
000002c0: e6c0 2dbe 5486 a0bc 9212 34be dacc 013e
000002d0: af57 32be e3c1 073e 19ac acbd 5b9a 21bd
000002e0: fe7f 0dbe eaac 3abe 710b 823d ffaa 3ebe
000002f0: b88d 0e3d e80b 123e 4f63 d4bd b91a 0ebe
00000300: 5511 adbd 0885 d03d 3721 1cbe 5abc d2bd
00000310: c747 80bc 334d 79bb a205 14be f5a0 4ebe
00000320: cccc b9bd 2e30 b6bd 90ad 3dbe f6b2 46be
00000330: ad5c 4ebe 852c a93d f6ff 46be 86c2 a73d
00000340: 41ef e7bc 7cc6 3dbe 1359 393e 5db6 3a3d
00000350: 8b5c 353e 7153 543d 28cc 103e 7174 2d3d
00000360: edcc 1dbe 0c25 113e 81eb 583d 5182 9e3c
00000370: 4bac 843c 704d 36be 5d89 27bd 7f2e 423d
00000380: e47b 94bd ee98 9f3d f490 0ebe 2c6c c53d
00000390: 6bee 50bc a077 38be 0cdf e3bb 86b8 43be
000003a0: 22bc be3d 18a0 20be f761 4fbe d737 11be
000003b0: aa49 173e 15eb e5bd 3a65 b2bd 4723 aebd
000003c0: ecea fd3d 5800 473e db2c 5d3d 9260 22be
000003d0: 17d1 10bd 86fb 9ebc f638 26bd 0182 2e3e
000003e0: a5ce 1cbd 849e 943d 60bc 123e 8691 523d
000003f0: 3aca aa3d ad8a 21be e8dd a33d 1fc3 393d
0.12081408 0.07527409 0.008711246 -0.065875225 -0.15880743 0.14958014 0.12057522 -0.15763195
-0.14151442 -0.18814822 -0.14631578 -0.082343295 -0.13699512 0.045578375 -0.10971788 0.14964406
0.064009205 0.17494632 0.16397668 0.04044787 0.06850379 0.13485268 0.028799623 0.1977398
0.03676431 0.01888159 0.17192343 -0.06480159 0.086418614 -0.17130359 -0.027322914 -0.0322414
0.061569937 -0.017477399 0.127747 -0.11676742 0.07709648 0.071870066 0.026069434 -0.19875324
0.09782626 0.033624474 0.06848627 0.010207815 -0.00440878 -0.06423099 0.09169563 0.13587056
-0.14779893 -0.14450268 -0.043144092 -0.1161924 -0.020661172 0.09810357 0.018692354 0.07922191
0.033427652 -0.0674706 0.14681754 -0.07172022 -0.01643995 0.19870801 0.019227367 0.12214145
-0.057299577 -0.0786117 0.049971446 -0.19287373 -0.08882832 0.04857658 -0.044134326 -0.08545511
0.18376014 -0.13372952 0.06522375 0.02911521 0.1864623 0.0010991632 -0.14806929 0.15367654
-0.029446537 0.17179814 0.11785957 -0.13420174 0.03565379 0.00044161084 -0.10619518 0.1359746
0.10244594 -0.18369235 -0.15659188 -0.023807079 -0.107818425 -0.20256938 0.06965429 -0.1988062
0.17109971 -0.04607928 -0.110915594 0.06638866 0.022048675 -0.103894874 -0.12490398 -0.20047058
-0.16279244 0.14338437 -0.014567135 -0.13154456 -0.14137056 0.13173987 0.06573124 0.13296051
-0.008351209 -0.1902722 -0.048668005 -0.06043637 -0.07107837 0.20016144 0.040545113 0.119460665
-0.050239097 -0.070048966 -0.023410974 -0.18469685 0.13294198 0.15794563 -0.11823572 -0.02517273
0.051003497 0.021591945 0.041648954 0.18808989 0.122364424 -0.06956529 0.056712702 0.09541099
0.105321474 -0.13386616 0.13813688 -0.02107411 -0.020864524 -0.18881677 0.1952115 -0.06042453
0.062079772 0.047174394 0.08558973 -0.054047775 0.12989692 -0.14557885 -0.02769861 -0.13006775
-0.05686798 0.017042486 0.10071044 -0.1878672 -0.0911964 0.040287625 -0.030363534 -0.119977854
0.1901725 0.18266171 -0.13049378 -0.013676648 0.10640277 0.14478116 -0.18122037 -0.01830457
0.19211943 -0.14842449 0.086054236 -0.13953365 0.15681948 0.18793127 -0.08708512 0.005597855
-0.16968116 -0.019595303 -0.17585209 0.12675801 -0.17416261 0.13257556 -0.084312625 -0.039453845
-0.13818356 -0.18230024 0.063498385 -0.18619917 0.034803122 0.14262354 -0.10370504 -0.13877381
-0.084505714 0.10181624 -0.15247045 -0.102898315 -0.015659226 -0.00380404 -0.14455274 -0.20178588
-0.09072265 -0.08895908 -0.1852324 -0.19404206 -0.2015254 0.082604446 -0.19433579 0.08191399
-0.028312327 -0.18532747 0.18100385 0.04558407 0.17711084 0.05183739 0.1414038 0.042347375
-0.15410204 0.14174289 0.05295897 0.01934925 0.016195437 -0.17802978 -0.040902484 0.047407623
-0.07250193 0.07792841 -0.13922483 0.09639773 -0.012752156 -0.18014383 -0.0069540795 -0.19113359
0.09313227 -0.15686071 -0.20252214 -0.14181457 0.14774194 -0.11226479 -0.08710714 -0.08502822
0.123983234 0.19433725 0.053997856 -0.15857151 -0.035355654 -0.019407045 -0.040581666 0.1704178
-0.03828301 0.07256797 0.14329672 0.051408313 0.08339353 -0.15775557 0.0800131 0.045352098

encoders.0.encoder.prelu.weight f4 [128]
00000000: dbf9 7e3e f982 803e dcf9 7e3e 1283 803e
00000010: def9 7e3e dcf9 7e3e 1283 803e 1283 803e
00000020: 1283 803e ddf9 7e3e 1183 803e 1283 803e
00000030: 1283 803e 1283 803e e3f9 7e3e e0f9 7e3e
00000040: 1283 803e def9 7e3e dcf9 7e3e 1283 803e
00000050: 1283 803e 1183 803e ddf9 7e3e dcf9 7e3e
00000060: 1183 803e 1283 803e 1183 803e dcf9 7e3e
00000070: ddf9 7e3e 1283 803e ddf9 7e3e e1f9 7e3e
00000080: def9 7e3e f9f9 7e3e 1283 803e 1183 803e
00000090: 1283 803e 1183 803e 1283 803e 1283 803e
000000a0: 1283 803e ddf9 7e3e 1283 803e dcf9 7e3e
000000b0: ecf9 7e3e dcf9 7e3e 1283 803e def9 7e3e
000000c0: dbf9 7e3e dcf9 7e3e 1183 803e 1283 803e
000000d0: 1283 803e ddf9 7e3e ddf9 7e3e 1283 803e
000000e0: 1083 803e 4982 803e ddf9 7e3e e1f9 7e3e
000000f0: 1283 803e 0983 803e dcf9 7e3e e0f9 7e3e
00000100: def9 7e3e 0f83 803e 1183 803e dcf9 7e3e
00000110: 1183 803e ddf9 7e3e 1283 803e e4f9 7e3e
00000120: 1283 803e 1183 803e dff9 7e3e dcf9 7e3e
00000130: 1083 803e 1283 803e dcf9 7e3e 1083 803e
00000140: 1283 803e 1183 803e 1283 803e 1283 803e
00000150: dcf9 7e3e 1283 803e 1283 803e dcf9 7e3e
00000160: 1283 803e 1283 803e e2f9 7e3e 1283 803e
00000170: dbf9 7e3e dcf9 7e3e dcf9 7e3e 1183 803e
00000180: dcf9 7e3e 1283 803e 1183 803e dcf9 7e3e
00000190: e6f9 7e3e dcf9 7e3e e3f9 7e3e dcf9 7e3e
000001a0: 0f83 803e ddf9 7e3e dff9 7e3e 0f83 803e
000001b0: 0b83 803e ddf9 7e3e dcf9 7e3e 1283 803e
000001c0: ddf9 7e3e def9 7e3e 1283 803e dcf9 7e3e
000001d0: 1183 803e dcf9 7e3e dcf9 7e3e ddf9 7e3e
000001e0: 1283 803e dff9 7e3e dcf9 7e3e dcf9 7e3e
000001f0: dcf9 7e3e dcf9 7e3e 1183 803e dcf9 7e3e
0.249 0.25099924 0.24900001 0.251 0.24900004 0.24900001 0.251 0.251
0.251 0.24900003 0.25099996 0.251 0.251 0.251 0.24900012 0.24900007
0.251 0.24900004 0.24900001 0.251 0.251 0.25099996 0.24900003 0.24900001
0.25099996 0.251 0.25099996 0.24900001 0.24900003 0.251 0.24900003 0.24900009
0.24900004 0.24900045 0.251 0.25099996 0.251 0.25099996 0.251 0.251
0.251 0.24900003 0.251 0.24900001 0.24900025 0.24900001 0.251 0.24900004
0.249 0.24900001 0.25099996 0.251 0.251 0.24900003 0.24900003 0.251
0.25099993 0.250994 0.24900003 0.24900009 0.251 0.25099972 0.24900001 0.24900007
0.24900004 0.2509999 0.25099996 0.24900001 0.25099996 0.24900003 0.251 0.24900013
0.251 0.25099996 0.24900006 0.24900001 0.25099993 0.251 0.24900001 0.25099993
0.251 0.25099996 0.251 0.251 0.24900001 0.251 0.251 0.24900001
0.251 0.251 0.2490001 0.251 0.249 0.24900001 0.24900001 0.25099996
0.24900001 0.251 0.25099996 0.24900001 0.24900016 0.24900001 0.24900012 0.24900001
0.2509999 0.24900003 0.24900006 0.2509999 0.25099978 0.24900003 0.24900001 0.251
0.24900003 0.24900004 0.251 0.24900001 0.25099996 0.24900001 0.24900001 0.24900003
0.251 0.24900006 0.24900001 0.24900001 0.24900001 0.24900001 0.25099996 0.24900001

encoders.0.encoder.conv2.bias f4 [128]
00000000: ea11 83ba db11 833a e811 833a 4612 833a
00000010: ca11 833a 4412 833a 4733 82ba 1412 833a
00000020: d211 83ba c908 83ba ee0e 83ba 0612 83ba
00000030: e411 83ba 4812 83ba 2211 83ba 0411 833a
00000040: 2612 833a ff11 833a 4512 833a d711 83ba
00000050: fc10 83ba eb0e 83ba 1212 833a 4112 833a
00000060: 7f11 83ba 050e 83ba 4712 833a 4112 83ba
00000070: 5012 83ba bf11 83ba 7210 833a 1f11 833a
00000080: 5912 833a 9d11 83ba b10e 833a e611 833a
00000090: 1612 833a 4112 83ba c311 833a 4612 83ba
000000a0: 2d11 833a 5a12 833a 3612 83ba 5212 833a
000000b0: 2912 83ba 1212 83ba b710 833a 5d12 83ba
000000c0: cd10 83ba 5712 833a 4612 83ba b4f5 82ba
000000d0: 4f12 833a 8902 833a 3e12 83ba 1b12 833a
000000e0: c411 833a 5212 83ba 3011 833a 5612 833a
000000f0: 9711 833a 1812 833a 4412 83ba 3a12 833a
00000100: 0c12 83ba 2f12 83ba 4912 83ba 3912 833a
00000110: 3712 833a 5f12 833a f511 833a 4612 83ba
00000120: f011 83ba dd11 83ba 5412 833a f309 83ba
00000130: a10f 833a 9f11 83ba 2911 83ba 5612 833a
00000140: 2412 833a 1e12 83ba 4d12 833a 1f12 833a
00000150: c409 833a f411 83ba 9b10 833a c311 833a
00000160: 3211 833a b811 83ba 4d11 833a 4812 833a
00000170: 3412 833a 520c 83ba ec11 83ba bf11 83ba
00000180: 990e 83ba 0410 83ba 5b12 833a 4d12 83ba
00000190: d111 833a 0212 833a b411 833a e811 833a
000001a0: 6211 833a 0512 83ba c211 83ba 3211 833a
000001b0: 4a12 83ba fd10 833a 3012 833a d210 83ba
000001c0: 4012 83ba 4912 833a 5412 83ba 2a12 833a
000001d0: 0712 833a 3d12 83ba b011 83ba 5912 833a
000001e0: 4612 83ba 4810 833a d410 833a 4912 83ba
000001f0: 9210 833a 3f12 833a 4d12 833a 7c10 83ba
-0.0009999846 0.0009999828 0.0009999843 0.0009999953 0.0009999808 0.000999995 -0.0009933495 0.0009999895
-0.0009999818 -0.0009997125 -0.0009998956 -0.0009999878 -0.0009999839 -0.0009999955 -0.0009999613 0.0009999578
0.0009999915 0.000999987 0.0009999952 -0.0009999824 -0.0009999569 -0.0009998953 0.0009999892 0.0009999947
-0.0009999721 -0.0009998685 0.0009999954 -0.0009999947 -0.0009999964 -0.0009999796 0.0009999408 0.0009999609
0.0009999975 -0.0009999756 0.0009998885 0.0009999841 0.0009999897 -0.0009999947 0.00099998 -0.0009999953
0.0009999626 0.0009999976 -0.0009999934 0.0009999967 -0.0009999919 -0.0009999892 0.0009999488 -0.000999998
-0.0009999514 0.0009999973 -0.0009999953 -0.0009991438 0.0009999963 0.0009995262 -0.0009999943 0.0009999903
0.0009999801 -0.0009999967 0.0009999629 0.0009999971 0.0009999749 0.0009999899 -0.000999995 0.0009999939
-0.0009999885 -0.0009999926 -0.0009999956 0.0009999938 0.0009999935 0.0009999982 0.0009999858 -0.0009999953
-0.0009999853 -0.000999983 0.0009999969 -0.0009997472 0.0009999165 -0.0009999758 -0.0009999621 0.0009999971
0.0009999913 -0.0009999906 0.0009999961 0.0009999907 0.0009997417 -0.0009999857 0.0009999456 0.00099998
0.0009999631 -0.0009999787 0.0009999663 0.0009999955 0.0009999932 -0.0009998179 -0.0009999848 -0.0009999796
-0.0009998857 -0.000999928 0.0009999977 -0.0009999961 0.0009999817 0.0009999874 0.0009999783 0.0009999843
0.0009999687 -0.0009999877 -0.0009999799 0.0009999631 -0.0009999957 0.000999957 0.0009999927 -0.000999952
-0.0009999946 0.0009999956 -0.0009999969 0.000999992 0.0009999879 -0.0009999942 -0.0009999778 0.0009999975
-0.0009999953 0.0009999359 0.0009999522 -0.0009999956 0.0009999445 0.0009999945 0.0009999961 -0.000999942

encoders.0.encoder.conv2.lin.weight f4 [128, 128]
00000000: 5730 7d3d ea40 1c3e 4c2b d4bb a1c5 0e3e
00000010: 87fe f03d db72 ca3d 29b5 76bd fa71 8a3c
00000020: 233e 373d f424 4fbd c049 d1bd 2972 b93d
00000030: 0314 ef3d 5cbc 0c3e 88a6 e33d fe37 d9bd
00000040: eb5f 85bc 06e0 393d bb06 153d 594b 07be
00000050: 895c 6a3d b338 84bb 231f 00be f4b5 e3bd
00000060: e19b de3d 4dc4 a43d 27a6 153e e72f e2bd
00000070: 7d95 20bd 8f1f ed3d 03f1 1bbd cfeb 983d
00000080: 59cc 5d3d 627e 80bc 9d6a 94bd 6283 06bd
00000090: bd7a 0e3e 57c6 90bd 8bed b9bd 3545 fdbd
000000a0: 9de4 2d3d cfee a5bd 9c42 e03d 551d 1bbe
000000b0: b74d 0b3e cfdd 52bd fb33 bcbd 5586 7dbc
000000c0: 3645 e13d 3972 00be 3f35 63bd ad13 ccbd
000000d0: ea10 10bd aca7 193e 5ff5 aabc ff10 e33d
000000e0: a59b f8bd 441a 5fba aa30 0abe a95f 053e
000000f0: a9ec 613d e8fb b13d 5b8f 84bd 78f4 87bd
00000100: 3829 e4bd c952 85bd 70f2 5d3d 721e 1d3d
00000110: 9fd6 dabd 89ce 8f3d 8a74 6fbb 2618 09be
00000120: 723a f2bd e70d a8bd 5f9a 13be 7776 7fbd
00000130: fc80 a63c a620 be3c af5b 993d 823f 0cbe
00000140: acb8 a53d 77a2 de3d f031 02be af3c d1bd
00000150: 3dbb d23d 892f 103e 1d35 c8bd acf3 ccbd
00000160: a036 b93d 3f52 413c 9e53 95bd 073a 003d
00000170: e491 f2bd 5d1e 8fbd 479a 0e3d 29c8 d1bd
00000180: 0931 383d 6964 45bd fd17 053e 6406 d23d
00000190: c093 f93d 8b3b 083d bc35 a23d 88f6 4abd
000001a0: c38d 1dbe 595f ccbd 9738 81bc 90c5 9bbd
000001b0: 534b 24bc 517e 20bd 4b79 8d3c caa1 d53d
000001c0: e2cc 9b3d 3a70 d2bd f13a 05be 7214 853d
000001d0: 87a3 dc3c ae09 c6bb bead 1abe 00cb c33d
000001e0: a8b0 a93d 768a 43bd 7094 c73d 4c41 3dbd
000001f0: b082 44bd 6ba8 283d 8485 e73c 2388 063d
00000200: c3b3 743b 0913 53bc 7b41 b9ba e081 f6bc
00000210: 5ea6 b93d d302 583d 5a93 88bd 64e5 8b3d
00000220: 686d e23d bcce ad3d 66e3 113e 6be0 40bd
00000230: 5b62 19bd 65c9 afbd 3f34 803c 1b41 7b3d
00000240: 55b4 abbd c579 e53d 74b2 f2bd a86d b13d
00000250: d669 03be 7a4d 86bc 1f1c e9bc 6b6c 103d
00000260: 5c3e ee3d b9e7 033e b381 473d 3699 093d
00000270: 557d ab3d 0cf4 d83d 0aa1 1bbe d66d e9bd
00000280: 5364 0d3e 9368 cabc 64d4 c5bd 2131 0dbe
00000290: a3ad d0bd c845 b13d d569 cebd 0610 aa3d
000002a0: 7d7a 4a3d d7a1 65bd b0d4 a33d 6046 7bbd
000002b0: 8fd3 0e3e 52f4 ccbc 851e fdbd 41f8 9d3d
000002c0: def2 903d 5de0 913d 9627 a13d f655 953d
000002d0: 96a0 a13d 40f9 ed3d c875 b4bd f86f 19be
000002e0: ca44 b7bd a4c2 00be 7d08 e23d b515 ca3c
000002f0: fec7 a9bd 95e3 993d bf7c 02be 6e2d 113e
00000300: 3742 683d a811 1dbd 54e9 b13d 96da 12be
00000310: 582e cdbb 0c1a 01be 35c9 70bc 535e 84bd
00000320: 6c04 243c f75c 88bd a1dd 623d d1b8 403d
00000330: 4118 43bd 28a9 2b3c 0a5f 313c e136 1fbb
00000340: 876d d63d 58e5 923d 37d3 063e 3bf6 853d
00000350: 8a58 093e c818 f1bd 8d8b f4bd 0edc fbbc
00000360: a58c fd3d ad45 d73d 3e8b 8e3d 828c 1dbd
00000370: 8caa 943d 88ec bdbd cc51 d43d 1eb4 b13d
00000380: bc53 c43d f560 1cbd 61f3 eebd a1fd fabd
00000390: 61f6 7f3d 2fc8 06be e561 57bd 6fac 6cbd
000003a0: 630d 033e c05b 163e 4ea5 093e f7cd 1abe
000003b0: 1082 c8bc f507 5e3d 9494 05bc 2ffb e03c
000003c0: f5cb 9bbd 8250 0fbd 9b9c 013d 7ab8 943d
000003d0: 14ed c13d 5cd5 fdbd bed3 763d 7b64 0b3e
000003e0: 3cd4 a73d f975 e93d 3f85 c43d c48b 083e
000003f0: 4095 423d f4d5 eb3d e7ef 083e 86b8 1b3e
0.06181368 0.15259138 -0.006474888 0.13942577 0.11767297 0.09885188 -0.06023136 0.016900051
0.044736993 -0.05057235 -0.10219145 0.090549774 0.11673739 0.13743728 0.11115748 -0.10606383
-0.016281089 0.04537966 0.03638337 -0.13212337 0.057217155 -0.0040350794 -0.12511878 -0.11118689
0.10869575 0.08045254 0.14614163 -0.11044293 -0.039205063 0.11578285 -0.038071644 0.07466852
0.05414996 -0.015685264 -0.07246897 -0.03284014 0.13914008 -0.0706908 -0.09078511 -0.12366716
0.04245435 -0.0810219 0.10950205 -0.15147908 0.13603865 -0.051481064 -0.09189602 -0.015473922
0.10999529 -0.12543572 -0.0554707 -0.0996469 -0.03517238 0.15005368 -0.020868955 0.11087226
-0.12139062 -0.0008510689 -0.13495126 0.13024773 0.055157337 0.086906254 -0.064726554 -0.066384256
-0.11140674 -0.06509931 0.054186285 0.038359113 -0.10685467 0.07021815 -0.0036537969 -0.13388118
-0.11827554 -0.08205777 -0.14414357 -0.062368836 0.020325176 0.023208927 0.074881904 -0.13696101
0.08091864 0.108708315 -0.12714362 -0.102166526 0.10289619 0.14080633 -0.097757556 -0.10007414
0.09043622 0.011799394 -0.07291339 0.03130534 -0.11844233 -0.06988213 0.0348151 -0.10243256
0.04496864 -0.04819146 0.12997432 0.10255125 0.12186384 0.03325991 0.07920405 -0.049551517
-0.15386109 -0.099791236 -0.015774054 -0.076060414 -0.010027724 -0.039182965 0.017269751 0.104312494
0.07607438 -0.10275312 -0.13010766 0.0649804 0.026933445 -0.0060436344 -0.1510534 0.095602036
0.08285648 -0.04773947 0.09745109 -0.04620485 -0.047976196 0.04117624 0.028261907 0.032844674
0.0037338592 -0.012882956 -0.0014133895 -0.030091226 0.09064935 0.05273707 -0.0666873 0.06830862
0.11056024 0.08486697 0.14246902 -0.04708902 -0.037447315 -0.08583335 0.015649913 0.061341386
-0.08384005 0.11204866 -0.118504435 0.086634934 -0.12833342 -0.016394366 -0.028455792 0.035259645
0.11632988 0.12881364 0.048707675 0.03359338 0.083735146 0.10593423 -0.1519815 -0.11397903
0.13807802 -0.024708068 -0.09659651 -0.13788272 -0.101893686 0.08655888 -0.100787796 0.083038375
0.04943322 -0.056062546 0.07999551 -0.06134641 0.1394789 -0.025018845 -0.12359337 0.07713366
0.07077573 0.07122872 0.078688785 0.072917864 0.078919575 0.11619806 -0.088115275 -0.14984119
-0.08948667 -0.1257425 0.11036775 0.024668554 -0.082900986 0.07514111 -0.127429 0.14177486
0.056703772 -0.038346916 0.08687082 -0.14341196 -0.006261628 -0.12607592 -0.014696409 -0.064633034
0.01001082 -0.06658357 0.055387143 0.047051255 -0.047630552 0.010477342 0.010825882 -0.0024294185
0.104701094 0.0717265 0.1316651 0.06541105 0.13412681 -0.11772305 -0.1194068 -0.030744579
0.123803414 0.105113365 0.06960152 -0.038464077 0.07259092 -0.092736304 0.10367164 0.08676933
0.095862836 -0.038178403 -0.116675146 -0.12255407 0.062490825 -0.13162301 -0.052583594 -0.057781633
0.12798075 0.14683437 0.13441965 -0.15117632 -0.024476081 0.054206807 -0.0081531 0.027463524
-0.07607261 -0.034988888 0.03164349 0.072617486 0.09469047 -0.12394211 0.060260527 0.13612549
0.08194777 0.113994546 0.09595727 0.13334566 0.047505617 0.11515418 0.13372765 0.15207109

encoders.0.encoder.prelu2.weight f4 [128]
00000000: 1283 803e 0f83 803e e9f9 7e3e edf9 7e3e
00000010: 0d83 803e 0d83 803e e4f9 7e3e 1183 803e
00000020: dcf9 7e3e 0883 803e 0d83 803e 0d83 803e
00000030: e5f9 7e3e dcf9 7e3e 0d83 803e 0f83 803e
00000040: 1183 803e 1283 803e dbf9 7e3e 1183 803e
00000050: f9f9 7e3e 1283 803e 0b83 803e 1283 803e
00000060: e5f9 7e3e e8f9 7e3e 1183 803e def9 7e3e
00000070: dcf9 7e3e ddf9 7e3e 1283 803e 1283 803e
00000080: 1283 803e 0883 803e dcf9 7e3e 1083 803e
00000090: 1183 803e ddf9 7e3e 1183 803e def9 7e3e
000000a0: e7f9 7e3e 1283 803e def9 7e3e 1283 803e
000000b0: dff9 7e3e def9 7e3e 0483 803e dbf9 7e3e
000000c0: 3e7d 803e 1283 803e def9 7e3e faf9 7e3e
000000d0: 1283 803e c282 803e dcf9 7e3e 1183 803e
000000e0: 1283 803e dcf9 7e3e 1183 803e 1283 803e
000000f0: 1183 803e 1183 803e ddf9 7e3e 1183 803e
00000100: def9 7e3e ddf9 7e3e ddf9 7e3e dcf9 7e3e
00000110: 1283 803e 1283 803e 1083 803e dcf9 7e3e
00000120: 1283 803e 1083 803e ddf9 7e3e 0483 803e
00000130: f782 803e 1283 803e e9f9 7e3e 1283 803e
00000140: 1283 803e dcf9 7e3e 1283 803e 0b83 803e
00000150: 0e83 803e 1283 803e e1f9 7e3e 1183 803e
00000160: 0e83 803e e5f9 7e3e 0f83 803e 1283 803e
00000170: 1283 803e dcf9 7e3e 1283 803e dcf9 7e3e
00000180: 12fa 7e3e dcf9 7e3e 1283 803e ddf9 7e3e
00000190: 1083 803e 1083 803e ebf9 7e3e 0d83 803e
000001a0: dff9 7e3e 1183 803e e0f9 7e3e 0583 803e
000001b0: dcf9 7e3e 0983 803e 1283 803e dbf9 7e3e
000001c0: dcf9 7e3e 1283 803e 1183 803e dbf9 7e3e
000001d0: 1183 803e ddf9 7e3e 1183 803e 1283 803e
000001e0: dbf9 7e3e e7f9 7e3e 0d83 803e dcf9 7e3e
000001f0: 0e83 803e 1183 803e dcf9 7e3e e3f9 7e3e
0.251 0.2509999 0.2490002 0.24900027 0.25099984 0.25099984 0.24900013 0.25099996
0.24900001 0.2509997 0.25099984 0.25099984 0.24900015 0.24900001 0.25099984 0.2509999
0.25099996 0.251 0.249 0.25099996 0.24900045 0.251 0.25099978 0.251
0.24900015 0.24900019 0.25099996 0.24900004 0.24900001 0.24900003 0.251 0.251
0.251 0.2509997 0.24900001 0.25099993 0.25099996 0.24900003 0.25099996 0.24900004
0.24900018 0.251 0.24900004 0.251 0.24900006 0.24900004 0.25099957 0.249
0.25095552 0.251 0.24900004 0.24900046 0.251 0.2509976 0.24900001 0.25099996
0.251 0.24900001 0.25099996 0.251 0.25099996 0.25099996 0.24900003 0.25099996
0.24900004 0.24900003 0.24900003 0.24900001 0.251 0.251 0.25099993 0.24900001
0.251 0.25099993 0.24900003 0.25099957 0.25099918 0.251 0.2490002 0.251
0.251 0.24900001 0.251 0.25099978 0.25099987 0.251 0.24900009 0.25099996
0.25099987 0.24900015 0.2509999 0.251 0.251 0.24900001 0.251 0.24900001
0.24900082 0.24900001 0.251 0.24900003 0.25099993 0.25099993 0.24900024 0.25099984
0.24900006 0.25099996 0.24900007 0.2509996 0.24900001 0.25099972 0.251 0.249
0.24900001 0.251 0.25099996 0.249 0.25099996 0.24900003 0.25099996 0.251
0.249 0.24900018 0.25099984 0.24900001 0.25099987 0.25099996 0.24900001 0.24900012

encoders.1.weight f4 [128, 128]
00000000: 1289 a23d 5211 a23d a5ff 173c 378e 8cbd
00000010: f7be 72bd f508 7c3d 3edc 9e3d bb20 ce3b
00000020: 45c9 33bd 16cf 3d3d 52ed dd3c 5907 983c
00000030: 68ad 663c 554a 933d e222 e33c ae15 023d
00000040: 05d0 9f3c a594 12bd 56a7 b2bd 5bb8 e53c
00000050: 71bf 563d afe2 e83a 7d0f cc3c db0f 8abb
00000060: f9a1 0fbd 2da9 7a3d 57d9 c8bc b5d6 f53c
00000070: 912d 1fbd faaa d13c ad71 babc 30a4 acbd
00000080: 4058 dabb 444e 4d3d 620c 893d 3810 da3c
00000090: 5f15 57bd f947 3fbd c219 6f3d ff1b b23d
000000a0: 5014 5b3d c63b cbbc 3aff 32bd cb4f 633c
000000b0: bf85 7f3c 03e1 b23c d744 e73c 0ac3 1d3d
000000c0: a822 163d e974 1bbd 830a 6d3d e9cd 4a3d
000000d0: 3ed7 393d 3858 9f3d 31db a8bc 25a3 00ba
000000e0: 152b 14bc f9c7 aa3b d0c0 96bd 643d 9b3d
000000f0: d7c8 693d 81a1 7c3d 38c7 45bc dc9f 5fbd
00000100: 370a 113c 92ea e4bc 18a0 9dbd f113 a1bb
00000110: a848 1bbc 6883 53bc 8eab 8ebb e7d4 23bd
00000120: 3694 6dbc 3cb5 b9bc 4127 243d 1202 2f3d
00000130: a9a0 2ebd 9703 62bc 332f 8cbd a68b b5bd
00000140: fc39 1cbd 6e19 6a3d 094a 82bd 5960 83bd
00000150: 0a9e b6bd 9819 6ebd b8c7 d93c df67 193d
00000160: f287 8b3d 952e 88bc 77f3 aa3d 2a11 133c
00000170: d05f 6cbd 3614 553d 80c0 8dbd 057a 183d
00000180: eacd 4e3d 2e2d 20bd 83aa 8a3c 2dd5 22bc
00000190: fb89 6c3c 129f a83d b941 7e3d b5ac b13a
000001a0: fe90 1fbc 8abc a43d 1737 0e3d 889c 08bd
000001b0: 5fa4 1e3d d451 e43c c71a ae3d f742 003d
000001c0: 25c7 d5bc c084 90bd f442 923c 6290 07ba
000001d0: 9ef3 b1bd c626 453d 2fc8 433b 9606 a93d
000001e0: ff01 07bd 6d8c 53bd bbb5 043d b367 2dbc
000001f0: 2e2a a03d ad63 ab3d 04f2 49bd 3959 51bd
00000200: a652 ad3d b491 edbb 58a1 8a3d b3bc 033c
00000210: f79f 563d df27 283d 9758 68bd 338a 343d
00000220: edb9 133c 8648 d5bc 2d73 923c ca5a 9a3b
00000230: 9930 553d 8af5 3b3d af76 b03d 3110 063d
00000240: 84c8 89bc 519e 843d 13e3 8cbd 267c 89bd
00000250: 045e 6dbd c736 bbbb 3799 aabd 0fad 383d
00000260: 6d01 623d 0059 5e3d 690c 32bd dc98 77bc
00000270: 64a0 80bc 4283 8fbd ad7c 3b3d 84d1 18bd
00000280: 4781 84bd 841d ac3c 38cb 6b3d a3c6 5bbd
00000290: 1289 623d 81df 01bb f264 0abb 8699 64bd
000002a0: 8246 ddbb 46d4 7b3d e317 84bd 9d65 453d
000002b0: d22a a1bd 7b0b a23d 793a 76bd a43d 5ebd
000002c0: aa8a a93c 4b66 a03c 02be f53b a1de 92bc
000002d0: 8421 423d c145 b8bc 78f5 303c 18de 733d
000002e0: eebe abbd cc79 a83d b680 86bd 9f55 103d
000002f0: ab96 2f3d 9f7e 2f3d 1492 a93d d278 a7bd
00000300: 20de fdbc ffe5 16bd 1d59 acbd c2f1 a6bc
00000310: 4250 803d 9874 3d3d e9c6 d7bc 52e6 b5bb
00000320: 4b69 203c b782 e1bc 2468 a23c 4cab e0bc
00000330: 838b eb3c 5c31 183c 35c9 603b f710 0dbc
00000340: 59de 23bd ee78 7b3c e337 c5bc ac87 d1bb
00000350: 25b1 d9bb 14f6 093d 966a 9abd 387e acbd
00000360: 9e6b 4f3d a3c0 673d 85df 29bc 2d8f 0abd
00000370: 5924 b439 fa7b da3c f39c 013d b70a cdbc
00000380: 373e e53c dcb4 063d 732c 0d3c 8258 cdbc
00000390: 7815 54bc 78da 153d f807 ae3c 565a 06bd
000003a0: 6958 87bd d18f 5a3d f194 793d 52d8 393c
000003b0: 37c0 24bc cb06 913c d946 09bc 606d aa3c
000003c0: dab4 fbbc 7d6d 4e3d b07c 00bb ece1 38bd
000003d0: 0466 25bc 9423 abbd 9a0e b23d b6bc a9bd
000003e0: d683 e2bb 7795 8a3b 2e03 7c3d ae5e 29bd
000003f0: 14d4 a6bd abeb 8e3d 3ebf 0e3d c37b a53c
0.079363 0.0791346 0.009277259 -0.06863063 -0.05926415 0.06153198 0.077568516 0.006290523
-0.043893117 0.04634007 0.027090702 0.018558191 0.014079429 0.07191912 0.027726594 0.031758957
0.019508371 -0.03578629 -0.08723323 0.02804201 0.052428667 0.0017767752 0.02490973 -0.004213316
-0.03506658 0.061196495 -0.024517698 0.030009607 -0.038861815 0.025594223 -0.022759283 -0.08429754
-0.0066633523 0.050123468 0.06691815 0.026619062 -0.052510615 -0.046699498 0.058374174 0.08696746
0.05348617 -0.024808776 -0.043700434 0.013874005 0.015595852 0.02183581 0.028231068 0.038516082
0.036654145 -0.03795329 0.057871353 0.049512777 0.045371287 0.07780498 -0.020612331 -0.0004907123
-0.009043475 0.005211827 -0.07360995 0.07580069 0.0570763 0.06167746 -0.012071423 -0.054595813
0.008852533 -0.027943883 -0.07696551 -0.0049157073 -0.009477772 -0.012909748 -0.004353947 -0.03999796
-0.014500668 -0.022669427 0.040076498 0.042726584 -0.042633686 -0.013794801 -0.0684494 -0.088645265
-0.038141236 0.057153158 -0.06361777 -0.06414861 -0.08916862 -0.058129877 0.026584491 0.037452575
0.06813039 -0.016623775 0.083472185 0.00897626 -0.05770856 0.052021228 -0.06921482 0.037225742
0.050489344 -0.039105587 0.01692701 -0.00993852 0.014437194 0.08233465 0.062074397 0.0013555499
-0.009739159 0.080437735 0.034720507 -0.033352405 0.038730975 0.02787105 0.08501201 0.031313863
-0.026095936 -0.0705657 0.017854191 -0.0005171356 -0.086890444 0.04813268 0.0029873957 0.08253209
-0.032960888 -0.051647592 0.032399874 -0.010583806 0.07820545 0.08368621 -0.04930307 -0.05111048
0.084630296 -0.007250035 0.06769055 0.008040595 0.052398648 0.04105365 -0.05672511 0.04407711
0.009016496 -0.026035558 0.017877186 0.00471053 0.0520483 0.04588846 0.08616387 0.032730285
-0.016819246 0.06475509 -0.068792485 -0.067131326 -0.05795099 -0.005713317 -0.08330005 0.045086917
0.05517714 0.054284096 -0.043468866 -0.015112128 -0.01570148 -0.07007457 0.045773197 -0.037309185
-0.0646997 0.021010168 0.05756685 -0.05365623 0.0553065 -0.0019817057 -0.0021117297 -0.055810474
-0.00675279 0.061481737 -0.064498685 0.04819261 -0.078694955 0.07912346 -0.060114358 -0.054258004
0.020696003 0.019580027 0.0074994573 -0.017928423 0.047395244 -0.022494199 0.010800712 0.059537977
-0.08386026 0.08226356 -0.065675184 0.035237905 0.042868298 0.042845365 0.08279815 -0.081773415
-0.030989707 -0.036840435 -0.084154345 -0.020378951 0.06265308 0.04625377 -0.026339965 -0.005551138
0.009790729 -0.02752815 0.019825049 -0.02742543 0.028753048 0.009289112 0.0034299616 -0.008610002
-0.04000697 0.015348656 -0.0240745 -0.006394347 -0.0066434317 0.033681944 -0.07539861 -0.08422512
0.05063974 0.056580197 -0.010368233 -0.03382795 0.00034359357 0.026670445 0.03164382 -0.025029523
0.027983768 0.032887325 0.008616555 -0.025066618 -0.012944572 0.0365853 0.021244034 -0.032800995
-0.0660866 0.05335981 0.060933057 0.011343079 -0.010055593 0.017703434 -0.008378708 0.020804107
-0.030725885 0.050397385 -0.001960557 -0.04513733 -0.010095123 -0.08356395 0.08694191 -0.08287947
-0.0069126887 0.0042292434 0.06152647 -0.04135006 -0.081459194 0.06978544 0.03485035 0.020200616

encoders.1.encoder.conv.bias f4 [128]
00000000: 4a12 833a 6012 83ba 5112 83ba 6512 833a
00000010: 0612 83ba 2612 83ba 6012 83ba 5612 83ba
00000020: c711 833a 9711 833a 8311 833a 6612 833a
00000030: 2e12 833a 1010 833a 1e12 833a e411 833a
00000040: 5312 833a b111 83ba 5f12 83ba 6112 83ba
00000050: 5011 83ba 1712 83ba 5f12 833a 5712 833a
00000060: 6a12 833a 6712 83ba 6012 83ba 690e 83ba
00000070: 3b12 83ba f211 83ba 5612 833a 6612 83ba
00000080: 3712 833a 4b12 83ba c411 833a 9d0f 83ba
00000090: 5712 833a 6212 833a 5012 833a 4b12 833a
000000a0: 5d12 83ba 900f 833a 4212 833a 6912 83ba
000000b0: 7711 833a 6112 83ba 1f12 83ba 4c12 833a
000000c0: 1811 833a 5712 83ba 5212 833a 1110 83ba
000000d0: 1312 83ba c30e 83ba 5d12 83ba 4e12 833a
000000e0: 5812 83ba 0f12 83ba 5612 833a 6012 833a
000000f0: 1512 83ba 2d12 833a 6212 83ba 6212 833a
00000100: ea11 83ba 8811 833a ef11 833a bf11 83ba
00000110: 0912 83ba 2912 83ba 1212 83ba 3b12 83ba
00000120: 6712 833a 4712 833a 5b12 833a 7e10 83ba
00000130: 5d12 833a 5e12 83ba 6412 833a 4412 83ba
00000140: 6712 83ba 2212 833a 5412 83ba 6910 83ba
00000150: 3d12 83ba 5d12 83ba 2312 833a 6412 83ba
00000160: 8911 83ba 6112 833a fd11 833a 6512 833a
00000170: 1e11 833a 5012 83ba 4c12 83ba df11 83ba
00000180: 5d12 83ba 6912 83ba 6011 83ba 6312 833a
00000190: 4912 83ba 3b12 833a 0312 833a 6212 833a
000001a0: 6012 833a 5f12 83ba 3712 833a 6312 83ba
000001b0: 4112 83ba 4c12 83ba 5f12 83ba 6612 833a
000001c0: 6512 833a 4d12 833a 5f12 833a 2212 833a
000001d0: b211 833a 6412 833a 1d11 83ba 5f12 83ba
000001e0: 5912 833a cff3 82ba 2112 83ba 6412 83ba
000001f0: 2d12 833a 1f12 833a 6012 833a 2211 833a
0.0009999957 -0.0009999983 -0.0009999966 0.0009999989 -0.0009999878 -0.0009999915 -0.0009999983 -0.0009999971
0.0009999805 0.0009999749 0.0009999726 0.000999999 0.0009999925 0.0009999294 0.0009999906 0.0009999839
0.0009999968 -0.0009999779 -0.0009999982 -0.0009999984 -0.0009999666 -0.0009999898 0.0009999982 0.0009999973
0.0009999995 -0.0009999991 -0.0009999983 -0.0009998801 -0.000999994 -0.0009999855 0.0009999971 -0.000999999
0.0009999935 -0.0009999959 0.0009999801 -0.000999916 0.0009999973 0.0009999985 0.0009999964 0.0009999959
-0.000999998 0.0009999145 0.0009999948 -0.0009999993 0.0009999712 -0.0009999984 -0.0009999907 0.000999996
0.0009999601 -0.0009999973 0.0009999967 -0.0009999295 -0.0009999893 -0.0009998906 -0.000999998 0.0009999962
-0.0009999974 -0.0009999889 0.0009999971 0.0009999983 -0.0009999896 0.0009999924 -0.0009999985 0.0009999985
-0.0009999846 0.0009999732 0.0009999851 -0.0009999796 -0.0009999882 -0.0009999919 -0.0009999892 -0.000999994
0.0009999991 0.0009999954 0.0009999977 -0.0009999422 0.000999998 -0.0009999981 0.0009999988 -0.000999995
-0.0009999991 0.0009999911 -0.0009999969 -0.0009999397 -0.0009999942 -0.000999998 0.0009999912 -0.0009999988
-0.0009999733 0.0009999984 0.0009999868 0.0009999989 0.0009999608 -0.0009999964 -0.000999996 -0.0009999833
-0.000999998 -0.0009999993 -0.0009999685 0.0009999987 -0.0009999956 0.000999994 0.0009999875 0.0009999985
0.0009999983 -0.0009999982 0.0009999935 -0.0009999987 -0.0009999947 -0.000999996 -0.0009999982 0.000999999
0.0009999989 0.0009999961 0.0009999982 0.0009999911 0.000999978 0.0009999988 -0.0009999607 -0.0009999982
0.0009999975 -0.0009990874 -0.000999991 -0.0009999988 0.0009999924 0.0009999907 0.0009999983 0.0009999613

encoders.1.encoder.conv.lin.weight f4 [128, 30]
00000000: 1522 9abd 3339 bb3d 4306 d6bd 309c d13d
00000010: 802e 3b3e b261 05be fa0c 08be bc84 eabd
00000020: 3fba 5cbd 8113 2b3d 2674 99bd e28f fe3b
00000030: 4b76 cfbc 5ad6 10bd a424 5c3c 532e 06be
00000040: d479 eabc 22f6 2c3e 84e3 13be bdd2 0bbe
00000050: af99 fcbd 5ad2 b63d ff34 1e3e ba38 e33d
00000060: 91ba 3abe a1bf 84bd 7a4f e13d d730 a0bd
00000070: b42e 98bd a24f ffbd f21f 25be b4a1 c5bd
00000080: 36ee cabd 24e1 143e f3a5 9cbd c03b e93d
00000090: f456 d0bd bc3a ebbd d8bc d23d 67a3 13be
000000a0: 2eda c8bd 9c55 973d 45fe 9c3d 53ba b13d
000000b0: cfde 303e 3889 26be 09d3 1a3e b0c5 193d
000000c0: 3126 f03d ece5 653d 6c82 c3bb e79c 0bbe
000000d0: 1e30 383e 9349 aebd 9ed9 9dbd eb08 2b3e
000000e0: 8931 15be 2cd5 15be d438 4cbc 8366 873d
000000f0: 8f49 3cbe f559 a8bd fac3 2a3e c0a2 79bc
00000100: ed91 173d 75b9 a8bd 7a09 51bc 805a 88bd
00000110: 2374 17be 24cd 14bd 8ce7 05be 90a5 283e
00000120: 12f8 26bd 9e94 0fbe 3cf3 ea3d c193 0e3e
00000130: 9d9d f1bc d4f9 753d 45e7 b73c f8f3 e33d
00000140: 4ec9 4abd b5b4 d4bd 517e 19be 32c8 1f3e
00000150: ac97 1c3e 0849 813a 2b06 3a3e 5328 1a3e
00000160: e9d4 0e3e fb25 b23d 881a 0abe baaf 7ebc
00000170: 5eb1 013e ca3b dd3d d860 3b3d 7b68 3bbe
00000180: 7ad1 fabd eecb 333e 71bb 8bbc f2ab 953d
00000190: 9cce ad3d 46c7 403e 8c22 0a3e 54b1 edbd
000001a0: 437d 323d 5389 cabd fa73 24be 5c7d edbd
000001b0: 3d34 9bbd afbe e5bc ddff 423e a6e3 413d
000001c0: 22f4 9d3d 73d5 1b3e 7b04 0f3e 9680 9c3d
000001d0: c66a 083e f87b 163e 5dee 133d 5dde 01be
000001e0: 222b fcbd 8abf 1abe 1027 633d e02b c03d
000001f0: d1e6 84bd f616 81bc cc6a 28bd 0a73 b83d
00000200: 317f dcbd 1732 c63d 3edc 3abe 5ecc 313e
00000210: cbc5 e8bc 98f7 673c 54d8 ed3c 919d 48bd
00000220: 612c b53d e2d4 1bbd ce15 683d 03f3 a63c
00000230: 33a7 ab3d 67f9 e23c 625a d5bb 58c5 213e
00000240: 2dec 27be a735 a5bc aa4d f0bd 759b d3bb
00000250: 0812 413e 5837 38bd 5117 3dbe 5226 c83d
00000260: fd7b 1e3e c408 933d 74a5 023e bb38 47be
00000270: 1529 0a3e 19c3 f03d 25b3 73bc f8ed a33d
00000280: 92b2 313d 4a12 4e3d d665 31be 3e2b 55bd
00000290: c15c e33c 6f35 183e f870 28be b862 ddbc
000002a0: bd3f 113d 1783 06bd e9d5 fabc aa17 753c
000002b0: 29d8 07bd 9c81 5b3d 75d1 d9bd 71d0 423e
000002c0: 7bc6 593d ae0c 1f3e 6b75 2d3e c07d 2cbd
000002d0: 9408 fc3d 664c eb3d 433d d8bd fd2e 633d
000002e0: b4ad a8bd d2a6 183e f73b b5bd 9eef bfbd
000002f0: 301d f1bd 40cf 83bd a721 363e d865 b33d
00000300: 8e29 edbd cb4f 393e 5733 1bbe 96ed d53d
00000310: 61b5 653d f35d 08be 2021 22be 8647 ab3c
00000320: 98ea e4bd 62ce 9dbd 198c df3d 3811 c03c
00000330: 32d7 243e 741e 23be aad5 d63d 2d56 143e
00000340: 55ef e7bd b40f 8fbd 46d1 433e 62cc 9e3d
00000350: b31a 29bd 4c10 153e 8911 033d 2c8d 41bd
00000360: 9928 123e 79ad a4bd 9e03 af3d 61d1 433e
00000370: b0e3 003e 2018 3fbd 7c0f f1bd 6a95 eb3d
00000380: 6634 413e cafa cb3c 6fb5 10bc cf6c 92bd
00000390: 222a 0abe d19b 0a3c 8961 b0bc 8519 493d
000003a0: eb6e eb3d 4125 3f3e 397b 133e 2209 c5bd
000003b0: 5fa3 873d dca4 303e 5c80 1f3d cb29 07bd
000003c0: ec23 b23c 6609 19be 6542 1b3d 47cd 0fbe
000003d0: c07d 223e fa63 46be 41aa 053e 3701 fc3c
000003e0: 902b fbbc 54b0 1bbe 4024 213e 339f 883d
000003f0: cb7f 9fbd 53fd 223e 02bb f03d e20f 253e
-0.07526032 0.09141769 -0.10450413 0.102348685 0.18279457 -0.13025549 -0.132862 -0.11451098
-0.053888556 0.041766647 -0.07492857 0.007768617 -0.025324961 -0.03536067 0.01343647 -0.13103609
-0.028622545 0.16890767 -0.14442259 -0.13654609 -0.12334 0.0892684 0.15449904 0.11094804
-0.18235232 -0.06481863 0.11001487 -0.078218155 -0.07430783 -0.12466361 -0.16125467 -0.09649983
-0.099087164 0.1453901 -0.0764884 0.113883495 -0.10172835 -0.11485812 0.10289925 -0.14417802
-0.098072395 0.073893756 0.076656856 0.08678117 0.17272495 -0.16263282 0.15119566 0.037542045
0.117260344 0.056127474 -0.0059664752 -0.13634072 0.17987105 -0.08510127 -0.07707523 0.1670262
-0.14569677 -0.146321 -0.012464721 0.066113494 -0.18387435 -0.08220283 0.16676322 -0.0152365565
0.0370044 -0.08238498 -0.012758607 -0.066578865 -0.14790396 -0.03632845 -0.1307661 0.16469407
-0.040763922 -0.14021537 0.114721745 0.13923551 -0.029494101 0.060052708 0.022449145 0.11130518
-0.049508385 -0.1038603 -0.14989592 0.15603712 0.15292233 0.0009863684 0.18166415 0.15054445
0.13948406 0.086986504 -0.13486683 -0.015544826 0.12665316 0.108024195 0.045746654 -0.18301575
-0.12246986 0.17558262 -0.017057152 0.073081866 0.08486673 0.18826017 0.13489741 -0.11606088
0.04357649 -0.09889474 -0.16059867 -0.11596176 -0.07578323 -0.028045027 0.19042917 0.047336243
0.0771258 0.15218143 0.13966553 0.07641713 0.13321981 0.14695728 0.036115993 -0.12682481
-0.123129144 -0.15112129 0.055457175 0.093833685 -0.06489337 -0.015758019 -0.041117474 0.09006317
-0.10766447 0.09677523 -0.18248078 0.17363116 -0.028414628 0.014158152 0.029033817 -0.048978392
0.08846355 -0.038044818 0.05666142 0.020379549 0.083815 0.027706815 -0.0065110186 0.15797937
-0.16398688 -0.020167185 -0.11733563 -0.006457741 0.18854535 -0.044974655 -0.18465926 0.09772934
0.15476985 0.07179406 0.12758428 -0.19455235 0.13492234 0.11755962 -0.014874254 0.08004373
0.04338319 0.05031041 -0.17324004 -0.052043192 0.02775419 0.14864133 -0.16449344 -0.027024612
0.035461176 -0.03283986 -0.030619578 0.014959255 -0.03316513 0.053590402 -0.10635654 0.19024827
0.0531678 0.1553218 0.16939323 -0.042112112 0.12306324 0.11489181 -0.1055856 0.055464733
-0.08236256 0.14907387 -0.08849328 -0.09371875 -0.11773145 -0.06436014 0.17786275 0.087596595
-0.115801916 0.18096845 -0.15156303 0.104457065 0.05608118 -0.13317089 -0.15832949 0.020908128
-0.11177558 -0.0770538 0.109153934 0.02344571 0.16097715 -0.15929586 0.10489972 0.14485998
-0.11324946 -0.06985417 0.191228 0.07753827 -0.041285228 0.14556998 0.031999145 -0.047253773
0.142733 -0.080409 0.08545612 0.1912284 0.12586856 -0.046653867 -0.117705315 0.11503108
0.18867645 0.024899859 -0.00883232 -0.0714966 -0.13492635 0.008460001 -0.021530883 0.049096603
0.11495765 0.18666555 0.14402474 -0.096208826 0.066229574 0.17250389 0.038940772 -0.03299884
0.021745645 -0.14944991 0.037905116 -0.14043151 0.15868282 -0.19374076 0.13053228 0.030762298
-0.03066042 -0.15203983 0.15736485 0.0667099 -0.077880464 0.15916948 0.11754419 0.1611934

encoders.1.encoder.prelu.weight f4 [128]
00000000: dbf9 7e3e ff82 803e def9 7e3e 0000 803e
00000010: 267a 803e 0000 803e dcf9 7e3e 0000 803e
00000020: 0000 803e e0f9 7e3e 0283 803e 0000 803e
00000030: 1283 803e e382 803e dbf9 7e3e dcf9 7e3e
00000040: cf7e 803e dcf9 7e3e dcf9 7e3e dbf9 7e3e
00000050: def9 7e3e 0000 803e 0000 803e 1283 803e
00000060: 1283 803e 0000 803e b982 803e 1283 803e
00000070: 7080 803e 1283 803e d782 803e ddf9 7e3e
00000080: fc82 803e 0000 803e dbf9 7e3e dff9 7e3e
00000090: 1183 803e 1283 803e 0000 803e dcf9 7e3e
000000a0: 0000 803e ddf9 7e3e dcf9 7e3e 305b 7f3e
000000b0: da80 803e dbf9 7e3e dbf9 7e3e 0000 803e
000000c0: dbf9 7e3e 0000 803e dbf9 7e3e 0000 803e
000000d0: dcf9 7e3e 1283 803e 0000 803e dcf9 7e3e
000000e0: 0000 803e 1283 803e 0000 803e 1183 803e
000000f0: 1283 803e dcf9 7e3e 0000 803e 0000 803e
00000100: 1283 803e dcf9 7e3e dbf9 7e3e 1283 803e
00000110: 1283 803e 1283 803e dcf9 7e3e eaf9 7e3e
00000120: a101 7f3e dbf9 7e3e bf82 803e ddf9 7e3e
00000130: dff9 7e3e 9682 803e 0000 803e 1283 803e
00000140: 0000 803e dbf9 7e3e 8cfa 7e3e dcf9 7e3e
00000150: 1283 803e 0000 803e 0000 803e 6d82 803e
00000160: 0f83 803e 1283 803e 1283 803e 1283 803e
00000170: 0000 803e 1283 803e dcf9 7e3e 1283 803e
00000180: 0000 803e dcf9 7e3e dcf9 7e3e 1183 803e
00000190: 0000 803e def9 7e3e 1283 803e 0000 803e
000001a0: dcf9 7e3e 0000 803e 0000 803e ddf9 7e3e
000001b0: 1283 803e def9 7e3e ddf9 7e3e 0000 803e
000001c0: 0583 803e dcf9 7e3e 1283 803e dbf9 7e3e
000001d0: dcf9 7e3e 0000 803e dcf9 7e3e e5f9 7e3e
000001e0: 0000 803e a582 803e ddf9 7e3e 0000 803e
000001f0: 1283 803e e1f9 7e3e dcf9 7e3e 0000 803e
0.249 0.25099942 0.24900004 0.25 0.25093192 0.25 0.24900001 0.25
0.25 0.24900007 0.2509995 0.25 0.251 0.2509986 0.249 0.24900001
0.25096747 0.24900001 0.24900001 0.249 0.24900004 0.25 0.25 0.251
0.251 0.25 0.25099733 0.251 0.2509799 0.251 0.25099823 0.24900003
0.25099933 0.25 0.249 0.24900006 0.25099996 0.251 0.25 0.24900001
0.25 0.24900003 0.24900001 0.24937129 0.25098306 0.249 0.249 0.25
0.249 0.25 0.249 0.25 0.24900001 0.251 0.25 0.24900001
0.25 0.251 0.25 0.25099996 0.251 0.24900001 0.25 0.25
0.251 0.24900001 0.249 0.251 0.251 0.251 0.24900001 0.24900022
0.24902965 0.249 0.2509975 0.24900003 0.24900006 0.2509963 0.25 0.251
0.25 0.249 0.24900264 0.24900001 0.251 0.25 0.25 0.25099507
0.2509999 0.251 0.251 0.251 0.25 0.251 0.24900001 0.251
0.25 0.24900001 0.24900001 0.25099996 0.25 0.24900004 0.251 0.25
0.24900001 0.25 0.25 0.24900003 0.251 0.24900004 0.24900003 0.25
0.2509996 0.24900001 0.251 0.249 0.24900001 0.25 0.24900001 0.24900015
0.25 0.25099674 0.24900003 0.25 0.251 0.24900009 0.24900001 0.25
