notebooks/checkpoint.pth (torch, 483691 bytes, 66 tensors)

encoders.0.weight f4 [128, 128]
00000000: a06c e43c 0a50 953d 6da8 153d 8c7d 993c
00000010: 8e75 aa3d 7d52 313d ebda 843d 505a 04bd
00000020: 7e89 3fbd cfff 83bd db8b 32bd 7646 623d
00000030: 410e 82bc 617e 71bd 012f 1bbd f7b3 953d
00000040: 4d93 54bd 155c d2bc e970 323c 577b b03d
00000050: 22e0 2e3d 0c06 153d b991 ae3c ba5e 2fbd
00000060: 68cb a83c 8198 963d f545 833d 1783 9e3c
00000070: 9ee2 373c 4777 9c3c e4dd 543d a260 a8bd
00000080: b1eb 823d 4d37 983d 6ed8 393d c461 7b3d
00000090: c32e 6f3d 16ba d1bc 8484 853d 7ee9 fabc
000000a0: 0d39 9b3d 45cf 5b3d 5e7f 0bbb dced 4fbd
000000b0: 53c0 97bd 98f6 04bd 3ac0 1d3d 96c2 87bd
000000c0: cfb8 a83d ef02 cbba c6c8 86bd 420f 74bd
000000d0: 5240 4f3d 9550 36bb 53c8 8b3d 3dc8 883c
000000e0: 3437 19bd 3c65 a83d a183 27bd 3454 3bbd
000000f0: 54ac cbbc 3132 c83c a644 8bbd d63b 57bc
00000100: 88b7 71bc c96e 863d e311 6cbd 2ef3 eb3c
00000110: 2192 243d bb6b 44bd 4ba4 2c3c 2488 8bbc
00000120: ad5e 2abd d07c 893c dec2 6bbd 0422 14bd
00000130: b1fa 5bbb 2b94 4b3d 9125 5f3b 7aec 773d
00000140: ed6b 32bd 4c31 983c 404b 35bd 915e 3f3d
00000150: 8f77 c3bb 4907 84bd cd0e 27bd 337c 583d
00000160: 244a e23c 0e28 8e3d 28b6 20bd 66d9 7dbd
00000170: 3dba 873d e2f6 7abc 9e58 6ebd 53f8 3a3d
00000180: 5735 ad3d 831c 16bc 8ee1 5bbd 34b5 14bd
00000190: e285 383d 6990 c5bc 7c45 e5bb a860 17bd
000001a0: c562 98bd 1bf2 ff3b 64fc 09bd ef77 11bd
000001b0: 3af0 0d3d 67d1 09bc ffb0 9a3d 611e 753d
000001c0: 5c2b f73b b8e2 6f3c 87c5 92bd 16fa a73d
000001d0: 6655 edbc babb 50bd e7b2 383d 5f9b 49bd
000001e0: 44e0 93bd 7e40 433b 0ca3 823d b468 c0bb
000001f0: ec12 8ebc bd3a 30bd 7d29 153c ec1a 85bd
00000200: 940a 89bd e726 63bd d77e d2ba 6234 19ba
00000210: 93df 14bd 2c1f 58bc 3eaa 813b f989 973d
00000220: 9305 12bd 83b4 8f3c 9967 2bbd c0e4 13bc
00000230: 35b0 9c3d 4b06 36bc f508 313d 0eec a63c
00000240: 137c 20bd 3086 65bd 4813 823d 539f 4dbb
00000250: fcbb cd3c ed3a 2abd 51ab 8bbc d2fd a4bd
00000260: 0e2f 6cbd afa8 473b ae74 3ebd 9bdc 1a3c
00000270: 5b6c 69bd 6c62 93bc 6b80 8cbd 401a b43d
00000280: 3856 683d 3b5d acba a904 7b3d b8ea 85bd
00000290: 76b9 1ebd f667 d8bb ba72 ecbc 0485 973d
000002a0: d3db 523b 1262 303d 799a 323d 2dd0 873c
000002b0: 2d3c a5bd ea17 9b3c f011 1f3d dc33 84bd
000002c0: ac63 8c3c f0b8 9abb efe9 993c 802b 503c
000002d0: 7b71 843d 9013 253d d497 6ebd 450f 523d
000002e0: 3a69 8e3d 1572 92bd bf88 68bd 2898 a93d
000002f0: 8525 03bd 32a9 2bbd d38f 36bc f59b a4bd
00000300: 79ee df3b 60ee e53c 09fc 643b c88b 953d
00000310: 8fdc 383d 50c8 a6bd 0203 5cbd 3218 a33d
00000320: 7a9a 423d cce8 30bd 78ea 81bd 1382 7a3c
00000330: f2d4 ad3d be7b afbd f537 77bd 93a0 14bd
00000340: ded6 cb3c 24f6 b93c 9635 503d 66f2 0e3d
00000350: 02ae 1bbd aa5c b73b 9211 aebd 2cc0 213b
00000360: 5f6d 2abc 97aa 39bd 7528 863d cfb2 df3c
00000370: 54a5 b1bd 2e72 41bd 5aed debb 6d1d 693d
00000380: d820 51bd 5308 493d a19a 8d3d 381b dc3a
00000390: 79ba 83bd 327a 6a3d 54f0 a23d 5244 793b
000003a0: 323e 50b8 a11b a7bc 5d55 9dbd 3be4 263c
000003b0: f8a1 6e3d 7f02 b03d 93c0 55bd bbc4 653d
000003c0: 39eb f8bc 83b8 a4bd 23bc b0bc ab2a a13d
000003d0: 3900 22bd 398f 263d 1dc4 abbd b9cc 693d
000003e0: acfe 95bd f9fc b13d bfbe f33c 7e6c 99bd
000003f0: 2c35 fbbc 44d5 49bc 3448 b73c d3f5 32bd
0.027883828 0.07290657 0.036537576 0.018736623 0.08323203 0.043291558 0.06487068 -0.03231269
-0.046761982 -0.06445276 -0.043590408 0.055242978 -0.015875937 -0.058958415 -0.037886623 0.07309716
-0.05189829 -0.025678674 0.010891178 0.08617275 0.04269422 0.03638272 0.02130972 -0.042814948
0.020604804 0.073533066 0.064098276 0.019349618 0.011223463 0.019099845 0.051969424 -0.08221556
0.06392611 0.07432423 0.04537242 0.061372533 0.058394205 -0.025601428 0.06519416 -0.030628916
0.07579241 0.053664465 -0.0021285634 -0.05076395 -0.0740973 -0.032461733 0.0385134 -0.06628911
0.082383744 -0.0015488545 -0.06581263 -0.059584863 0.05059845 -0.0027819027 0.06825318 0.016697044
-0.03740616 0.08222434 -0.040897015 -0.0457346 -0.024862446 0.024437996 -0.06800203 -0.013136825
-0.01475323 0.06564099 -0.057634246 0.02880248 0.040178422 -0.047954302 0.010537217 -0.01703269
-0.041594196 0.016783148 -0.057558887 -0.036165252 -0.0033566172 0.04970185 0.003404949 0.060528256
-0.043559957 0.018578194 -0.044261217 0.046721045 -0.00596518 -0.06446702 -0.0407856 0.05285282
0.027623244 0.069412336 -0.039236218 -0.061974905 0.06627319 -0.0153176505 -0.05818998 0.045646977
0.084574394 -0.009162071 -0.053681903 -0.03630562 0.045049556 -0.024116712 -0.0069968086 -0.036957413
-0.07440714 0.0078108436 -0.033687964 -0.03551477 0.034652926 -0.008411742 0.075532906 0.059843425
0.0075430106 0.014641456 -0.071665816 0.08201997 -0.028971385 -0.05096028 0.04509249 -0.04922044
-0.0722051 0.002979308 0.06378755 -0.0058718566 -0.017343007 -0.043024767 0.00910413 -0.064992756
-0.06691471 -0.055457022 -0.001605953 -0.00058442925 -0.03634603 -0.013191026 0.003957062 0.07399363
-0.035649847 0.01754213 -0.041846845 -0.009026706 0.07650796 -0.011109899 0.043221433 0.020376232
-0.039180826 -0.056036174 0.06351334 -0.0031375482 0.025114052 -0.041560102 -0.017049463 -0.08056225
-0.057662062 0.0030465533 -0.046497993 0.0094520105 -0.0569881 -0.017991267 -0.06860431 0.08794069
0.05672285 -0.0013150343 0.06128374 -0.0653891 -0.038751088 -0.00660419 -0.0288633 0.073984176
0.0032174482 0.043062277 0.043604348 0.016578758 -0.08068118 0.018932302 0.038835466 -0.06455204
0.017137371 -0.0047217533 0.018788306 0.012705684 0.06466957 0.04030186 -0.058250263 0.051284093
0.06953664 -0.07150666 -0.056771036 0.082809746 -0.032018203 -0.041909404 -0.011142689 -0.08037559
0.006833848 0.028067768 0.0034940264 0.07302052 0.045132216 -0.08143675 -0.053713806 0.07963599
0.0475106 -0.043190762 -0.063435495 0.015289801 0.08487882 -0.08568524 -0.0603561 -0.036285948
0.02488273 0.022700377 0.050832354 0.034899138 -0.038007744 0.005595763 -0.08499445 0.0024681194
-0.010402053 -0.045328703 0.06550685 0.027306942 -0.08674112 -0.04722803 -0.006803197 0.05691283
-0.051056713 0.049080204 0.06914259 0.001679278 -0.06432051 0.05724544 0.07955995 0.0038035107
-4.964899e-05 -0.020398917 -0.076822974 0.01018625 0.058259934 0.08594226 -0.052185606 0.05609582
-0.0303856 -0.08043005 -0.021574086 0.078694664 -0.039550994 0.04066393 -0.08387015 0.057080004
-0.073239654 0.08690829 0.02975404 -0.07491396 -0.030665003 -0.012318913 0.022373296 -0.043691467

encoders.0.encoder.conv.bias f4 [128]
00000000: f611 033b 5712 033b be08 03bb 4a12 033b
00000010: 3f12 033b 2611 03bb 2112 033b 4b12 03bb
00000020: 4412 033b d011 03bb fb11 03bb 4612 03bb
00000030: c810 033b 3712 033b cf11 03bb 7f10 03bb
00000040: 8f11 03bb 7710 03bb c211 03bb 3b12 033b
00000050: 330e 033b 1012 033b cd11 033b 3b12 033b
00000060: 7f70 023b 8410 033b 2312 033b 0412 03bb
00000070: a011 033b 2612 03bb 49c6 02bb 3012 03bb
00000080: d107 03bb da11 033b 5d11 03bb 3b12 03bb
00000090: 3b12 033b f211 033b f711 033b 0d12 033b
000000a0: 2512 033b 2b12 033b 1612 033b 4212 033b
000000b0: 4412 03bb ec10 033b 0412 03bb 2712 03bb
000000c0: 7910 033b eb11 033b 280c 03bb 2412 033b
000000d0: 3f12 03bb 5012 033b 3c12 033b 2d12 03bb
000000e0: 3912 033b ab11 03bb 4d12 03bb c511 03bb
000000f0: ea11 03bb 010f 03bb 0e12 03bb 3212 033b
00000100: 2312 033b f911 03bb 5412 03bb 0411 033b
00000110: 360e 033b 3912 03bb 3e12 033b aa11 03bb
00000120: 3112 03bb 4412 03bb 4012 033b 4f12 03bb
00000130: 4d12 033b 4812 033b 1912 033b ff11 033b
00000140: 4712 033b a711 03bb 2912 033b 3512 03bb
00000150: 4811 03bb 5d0c 033b cd0d 033b 4e12 033b
00000160: 4312 033b 4012 03bb 0c12 033b 9a11 03bb
00000170: f611 03bb 9e0e 03bb 2d12 033b 5b12 03bb
00000180: 3f12 033b 4912 033b 1810 03bb 5312 033b
00000190: 3312 033b 3912 033b 2012 033b c60d 03bb
000001a0: 2f12 033b 3612 03bb d411 03bb e110 033b
000001b0: 2912 033b 0111 03bb 1ef4 023b e011 033b
000001c0: ea11 033b 4012 033b 2e12 033b fd10 033b
000001d0: 1812 033b 160d 033b 5811 033b 1212 03bb
000001e0: 3f12 033b 9f11 033b f711 03bb 5012 03bb
000001f0: 3d12 033b 3a12 033b 5512 03bb 2c12 03bb
0.001999972 0.0019999945 -0.0019994224 0.0019999915 0.001999989 -0.0019999235 0.001999982 -0.0019999917
0.00199999 -0.001999963 -0.001999973 -0.0019999905 0.0019999016 0.001999987 -0.0019999628 -0.0019998846
-0.001999948 -0.0019998827 -0.0019999598 0.001999988 0.0019997477 0.001999978 0.0019999624 0.001999988
0.0019903479 0.0019998858 0.0019999824 -0.0019999752 0.001999952 -0.001999983 -0.0019954613 -0.0019999854
-0.0019993673 0.0019999654 -0.0019999363 -0.001999988 0.001999988 0.001999971 0.0019999722 0.0019999773
0.0019999829 0.0019999843 0.0019999794 0.0019999896 -0.00199999 0.00199991 -0.0019999752 -0.0019999833
0.0019998832 0.0019999694 -0.001999626 0.0019999826 -0.001999989 0.0019999929 0.0019999882 -0.0019999847
0.0019999875 -0.0019999545 -0.0019999922 -0.0019999605 -0.0019999691 -0.0019997957 -0.0019999775 0.001999986
0.0019999824 -0.0019999726 -0.0019999938 0.0019999156 0.0019997484 -0.0019999875 0.0019999887 -0.0019999542
-0.0019999857 -0.00199999 0.0019999892 -0.0019999926 0.0019999922 0.001999991 0.00199998 0.001999974
0.0019999908 -0.0019999535 0.0019999838 -0.0019999866 -0.0019999314 0.0019996383 0.001999724 0.0019999924
0.0019999899 -0.0019999892 0.001999977 -0.0019999505 -0.001999972 -0.0019997726 0.0019999847 -0.0019999954
0.001999989 0.0019999912 -0.0019998606 0.0019999936 0.0019999861 0.0019999875 0.0019999817 -0.0019997223
0.0019999852 -0.0019999868 -0.001999964 0.0019999074 0.0019999838 -0.0019999149 0.001998193 0.0019999668
0.0019999691 0.0019999892 0.001999985 0.001999914 0.0019999798 0.0019996813 0.0019999351 -0.0019999784
0.001999989 0.0019999517 -0.0019999722 -0.0019999929 0.0019999885 0.0019999878 -0.001999994 -0.0019999845

encoders.0.encoder.conv.lin.weight f4 [128, 16]
00000000: 61cd 6e3c 40a4 d0bd ab3f fcbd b497 9b3d
00000010: 6d85 dd3d e0ca f03d 74b7 133e d48b 413e
00000020: 5e83 e43d 45ff 27be ce39 043d bdcb 9d3d
00000030: 70c8 debd a29f d3bc bb7b 8e3d a5d7 153e
00000040: 4b49 27be c1e3 44be 0a40 13be 6d92 323e
00000050: 994e 173e 3590 01bd 2fa7 e2bd 1bfc d83c
00000060: b842 803d 7f42 69bb d93d 84bd ec1e 403d
00000070: 44e7 84ba 270a bbbc 0b50 103e 3ba7 63bd
00000080: 1040 483d 7ec2 1bbe 1ded ccbc 75a4 433e
00000090: cd28 55bd 7f2d 323e 2eef d63d 6d31 c9bd
000000a0: 7e68 dc3d 697c 02be 0f78 1c3e 4ff9 303d
000000b0: 0e2a 413c 280a 2b3e 5654 e13d 8943 3d3e
000000c0: 7f36 74bd db34 b9bd a672 14be a5e6 d4bd
000000d0: 8f81 bfbd edd2 3dbe bd2e 8cbd 08a8 3ebe
000000e0: 1226 043e 2ed7 c33c 7212 853d b151 f3bd
000000f0: 7f50 0dbe 4397 66bd 25e4 ef3d 1ea8 43be
00000100: 28f1 f7bd 5732 6e3d 4d1c 2c3e 0d1c 493b
00000110: f363 1abc ea70 92bc 2e23 b83d 3a3d 06be
00000120: 9d9e 20be 4e37 d6bd f80d 433e 2e08 253d
00000130: 481a d73c f3f7 28bd 9238 353e 4977 403e
00000140: 5859 ba3d fbda 453d 3570 15bd 7113 48be
00000150: ae1d 883d 9850 f4bd e634 73bd 6b32 453e
00000160: 05c6 d33d 192d 33bd 08c9 1bbd 1122 e83d
00000170: b3b1 c0bd 8ce6 e53d 6e7d 3bbe 02dc ac3d
00000180: 0573 503d 10cb 84bd 88e0 11be 97a2 7f3d
00000190: b855 3cbd 789c eabc 45b0 363e 3297 94bc
000001a0: dd5f 9fbd 7484 d53d 7eb3 5d3d 8980 cebd
000001b0: db09 293e 1d16 933d aee2 033e 7ea0 8e3d
000001c0: b127 473e 9989 433e 4e50 fd3d cab5 e83c
000001d0: 4455 0fbe e052 b1bd 4d33 f5bd 1aab 2ebe
000001e0: 911a bc3d c166 0dbe f95b 4fbe 2ceb 35be
000001f0: 8c87 08be feaa 33bd e44f 0dbd 71fe cf3b
00000200: 0085 ecbc 3d10 543d af60 40be 8146 81b9
00000210: da19 d43c c4eb f2bd d679 84bd 1a03 e83c
00000220: fcfe 263e fd8e 203e 102b b3bd 5787 d4bc
00000230: 9370 edbd e595 4ebe 56cd 81bd 09ea 733c
00000240: d4e6 4ebd 798d 9a3d e692 0bbe 4208 133e
00000250: a7e6 95bd 1844 553d cf3a fabc 5fe6 203e
00000260: 8f10 c1bd e166 67bd 719a 6bbc f324 5c3c
00000270: f22e 03be 0177 83bc 8add 0d3d 41c7 1c3e
00000280: a74c 2b3e f2b5 90bb 10e8 e53d 5c63 f7bd
00000290: ed33 f33c cf33 2a3d 4f39 333b 0ab6 25be
000002a0: 7368 fd3d 7e2e 8abd 003c 62bc 4441 043d
000002b0: 80aa 15be c97d 2ebe 7e65 42be f215 233e
000002c0: 2ec1 ad3d b31b f1bd 6d46 a23c 5388 0b3e
000002d0: 410f 99bd a6a8 39be 2e95 1d3d f71b 3dbe
000002e0: b40e de3d 5bf8 083e 136c b93d 42b6 2a3e
000002f0: 2f37 39be 8713 13be a7e8 2fbe 5d36 6cbd
00000300: 8a6b 373e f7f8 073e b105 4a3d 0dd3 3b3e
00000310: eb22 2ebe 983b 2abe 685b 0a3e 7fb6 a5bd
00000320: 6f43 c0bd 8c92 2ebd bde1 603d 5dcc ec3d
00000330: f610 d13c 06b7 e73d 0fde 103d 259b dfbd
00000340: a8ae e8bd 5eb2 5f3d de4f fb3c 2fab 0fbe
00000350: f504 1cbe c427 0a3d 82f0 453e 7b05 063e
00000360: 625a 03bd 5616 a1bc eb6e 74bd d630 433d
00000370: 08a3 3fbd cb0a 1cbd c0c1 27bd 01c1 5cbd
00000380: c315 be3d 0b3d 0abe 88f4 7fbc 24b3 e8b9
00000390: c160 183e 18a5 10be 3ea4 79bd 80be 893d
000003a0: ebab e33d 08df c4bd ff78 14bd c5fd 373e
000003b0: ef64 64bc 0227 493e 62da 50be bef4 7abd
000003c0: a26c 34be 335c 013e b7ba 4f3e 611f d43d
000003d0: 3266 10be 1951 1c3e 4daf 0a3e 2163 f43d
000003e0: 81bb 3abe 4077 37be 759c e1bd 2fea fc3d
000003f0: 27f4 1f3e 3b2d 0ebd 0f4a 423e 72dd 313d
0.014575333 -0.10187578 -0.12316831 0.075972944 0.108164646 0.11757445 0.1442545 0.18900996
0.11157869 -0.16405971 0.03228169 0.077048756 -0.10878074 -0.025832955 0.069571935 0.14633043
-0.16336553 -0.19227506 -0.14379898 0.1743867 0.14776076 -0.031631667 -0.11067044 0.0264874
0.062627256 -0.0035592613 -0.06457109 0.04690449 -0.0010139723 -0.02283199 0.14093034 -0.055579405
0.04888922 -0.15210912 -0.025015408 0.19105704 -0.052040864 0.17400168 0.10494839 -0.0982388
0.10762118 -0.12742771 0.15280174 0.04320651 0.011789812 0.16703093 0.11002414 0.18482794
-0.059622284 -0.090432845 -0.1449686 -0.103955545 -0.09350883 -0.18537493 -0.06844852 -0.18618786
0.12905148 0.023906317 0.06497659 -0.11880816 -0.13800238 -0.0562966 0.11713437 -0.191071
-0.12106544 0.058153477 0.16807671 0.0030686886 -0.009423244 -0.017876107 0.08991085 -0.13109294
-0.15685506 -0.10459767 0.19048297 0.040291004 0.026257649 -0.041252088 0.17697361 0.18795504
0.09099072 0.04830454 -0.036483962 -0.19538666 0.06646286 -0.119294345 -0.05937662 0.19257514
0.103405036 -0.04374418 -0.038033515 0.11334623 -0.094088934 0.11225614 -0.18309566 0.08440401
0.05089094 -0.064840436 -0.14245808 0.062410917 -0.045980185 -0.028639063 0.17840679 -0.018138502
-0.07781956 0.10425654 0.054126255 -0.1008311 0.16507666 0.07181952 0.1287944 0.06964205
0.19448735 0.19095458 0.123688325 0.028406996 -0.1399737 -0.08658385 -0.119726755 -0.17057458
0.09184755 -0.13808729 -0.20249929 -0.17765492 -0.13332957 -0.043864243 -0.034500018 0.0063474705
-0.028872013 0.0517733 -0.18786882 -0.00024657327 0.025891233 -0.11861375 -0.06468551 0.028321791
0.16308206 0.15679546 -0.08748448 -0.025943441 -0.115937375 -0.20174368 -0.06337993 0.014887341
-0.050513104 0.07546515 -0.13630256 0.14358619 -0.07319384 0.052066892 -0.03054562 0.1571288
-0.094269864 -0.056494597 -0.014380083 0.013436544 -0.12810877 -0.016047956 0.034635104 0.15310384
0.1672846 -0.004416221 0.11225903 -0.12079498 0.029687846 0.041553315 0.002734739 -0.16182724
0.12373438 -0.06747149 -0.01380825 0.032288805 -0.14615822 -0.1704017 -0.18984029 0.1592634
0.08484112 -0.11772861 0.019808972 0.13626222 -0.074736126 -0.1813074 0.038472347 -0.18467699
0.10842648 0.1337599 0.09053817 0.16671088 -0.18087457 -0.14362918 -0.17178594 -0.057669032
0.17912117 0.13278566 0.049321834 0.18342228 -0.17005508 -0.16624296 0.13511431 -0.08091449
-0.09387862 -0.042620227 0.05490278 0.11562417 0.025520783 0.11314206 0.03536802 -0.10918263
-0.11361438 0.054613464 0.030677732 -0.14030145 -0.15236266 0.03372933 0.19330028 0.13088028
-0.032068618 -0.01966397 -0.059676092 0.047653995 -0.046786338 -0.03809623 -0.04095626 -0.053895
0.092814945 -0.13499849 -0.015622266 -0.00044383958 0.14880659 -0.14125478 -0.06094765 0.06725788
0.11116775 -0.09612852 -0.036248203 0.17967899 -0.01394008 0.19643787 -0.20395806 -0.06126856
-0.17619565 0.12632827 0.2028607 0.103575476 -0.14101484 0.15265311 0.13543434 0.1193297
-0.1823559 -0.17916584 -0.1101617 0.123493545 0.1562048 -0.034711104 0.18973564 0.043424077

encoders.0.encoder.prelu.weight f4 [128]
00000000: b9f3 7d3e 2406 813e bbf3 7d3e 2406 813e
00000010: b9f3 7d3e b8f3 7d3e b8f3 7d3e 2506 813e
00000020: 2406 813e 2406 813e 2306 813e 2106 813e
00000030: b8f3 7d3e 1f06 813e 1f06 813e 2406 813e
00000040: b7f3 7d3e 2306 813e 2406 813e 2406 813e
00000050: 2206 813e b7f3 7d3e 2306 813e 2406 813e
00000060: b8f3 7d3e 2206 813e 1706 813e 2206 813e
00000070: c4f3 7d3e b9f3 7d3e 2406 813e 2506 813e
00000080: b8f3 7d3e 1e06 813e 2406 813e b8f3 7d3e
00000090: f0f3 7d3e 2406 813e baf3 7d3e 2406 813e
000000a0: bcf3 7d3e b7f3 7d3e 2506 813e 2406 813e
000000b0: 2106 813e b8f3 7d3e 2406 813e b8f3 7d3e
000000c0: b9f3 7d3e bef3 7d3e 2406 813e b9f3 7d3e
000000d0: 6ff6 7d3e 37f4 7d3e b9f3 7d3e 1906 813e
000000e0: d3f3 7d3e b8f3 7d3e c5f3 7d3e 2106 813e
000000f0: 2406 813e b9f3 7d3e 2406 813e 2006 813e
00000100: 2206 813e 2406 813e bbf3 7d3e cef3 7d3e
00000110: 2406 813e f505 813e b8f3 7d3e b7f3 7d3e
00000120: 2506 813e 2306 813e 2306 813e b8f3 7d3e
00000130: 2006 813e 2306 813e 2006 813e b7f3 7d3e
00000140: 2306 813e c0f3 7d3e c1f3 7d3e cef3 7d3e
00000150: 2006 813e 2306 813e 2506 813e 2406 813e
00000160: 2306 813e c9f3 7d3e 2406 813e 1806 813e
00000170: 2406 813e 2206 813e f2f3 7d3e bcf3 7d3e
00000180: 2506 813e 2406 813e c2f3 7d3e 2306 813e
00000190: 2406 813e 2406 813e 2206 813e b9f3 7d3e
000001a0: b7f3 7d3e 2306 813e 2406 813e 2206 813e
000001b0: bcf3 7d3e c1f3 7d3e 2206 813e 2406 813e
000001c0: 2106 813e 2406 813e 1806 813e b7f3 7d3e
000001d0: 2406 813e bdf3 7d3e 2206 813e b8f3 7d3e
000001e0: 2406 813e 35f4 7d3e 2406 813e 2206 813e
000001f0: 2406 813e 2406 813e b7f3 7d3e bdf3 7d3e
0.24800004 0.25199997 0.24800007 0.25199997 0.24800004 0.24800003 0.24800003 0.252
0.25199997 0.25199997 0.25199994 0.25199988 0.24800003 0.25199983 0.25199983 0.25199997
0.24800001 0.25199994 0.25199997 0.25199997 0.2519999 0.24800001 0.25199994 0.25199997
0.24800003 0.2519999 0.2519996 0.2519999 0.2480002 0.24800004 0.25199997 0.252
0.24800003 0.2519998 0.25199997 0.24800003 0.24800086 0.25199997 0.24800006 0.25199997
0.24800009 0.24800001 0.252 0.25199997 0.25199988 0.24800003 0.25199997 0.24800003
0.24800004 0.24800012 0.25199997 0.24800004 0.24801038 0.24800192 0.24800004 0.25199965
0.24800043 0.24800003 0.24800022 0.25199988 0.25199997 0.24800004 0.25199997 0.25199986
0.2519999 0.25199997 0.24800007 0.24800035 0.25199997 0.25199857 0.24800003 0.24800001
0.252 0.25199994 0.25199994 0.24800003 0.25199986 0.25199994 0.25199986 0.24800001
0.25199994 0.24800014 0.24800016 0.24800035 0.25199986 0.25199994 0.252 0.25199997
0.25199994 0.24800028 0.25199997 0.25199962 0.25199997 0.2519999 0.24800089 0.24800009
0.252 0.25199997 0.24800017 0.25199994 0.25199997 0.25199997 0.2519999 0.24800004
0.24800001 0.25199994 0.25199997 0.2519999 0.24800009 0.24800016 0.2519999 0.25199997
0.25199988 0.25199997 0.25199962 0.24800001 0.25199997 0.2480001 0.2519999 0.24800003
0.25199997 0.24800189 0.25199997 0.2519999 0.25199997 0.25199997 0.24800001 0.2480001

encoders.0.encoder.conv2.bias f4 [128]
00000000: 23d8 02bb 4877 01bb 4d12 033b 5412 03bb
00000010: 5612 033b 6012 033b ed11 033b 3d12 033b
00000020: 4e12 033b 0012 03bb e411 033b 4012 033b
00000030: fc11 033b cffe 023b be0f 03bb 0412 033b
00000040: 4012 033b 2f12 03bb d410 033b b711 03bb
00000050: 4d12 03bb 1b12 033b e211 033b 1812 033b
00000060: 4012 033b 2212 033b d311 03bb 3512 033b
00000070: 3912 033b 1712 03bb 4c12 033b 2311 033b
00000080: 2d12 033b ff11 03bb d26f 01bb 4b12 03bb
00000090: 0412 03bb 2412 03bb 2c12 033b 2612 033b
000000a0: 4112 033b 680e 033b 4612 03bb 8910 033b
000000b0: 310e 033b 3112 03bb 3412 033b 1312 033b
000000c0: 3711 033b 3b12 033b 2412 033b 8410 033b
000000d0: 5911 03bb 1012 03bb e611 033b 5112 033b
000000e0: 5a12 033b bb10 03bb 2712 033b 5712 033b
000000f0: bb10 033b 5212 033b 1b12 033b 2412 03bb
00000100: 2712 033b f511 033b f00b 033b 1f10 033b
00000110: 1912 033b 5612 033b fb11 033b 5b12 033b
00000120: b010 033b 4512 033b 5212 033b 2412 03bb
00000130: f611 03bb 3b12 033b 1412 033b 5012 03bb
00000140: b411 03bb 5010 033b 3d12 033b fb05 033b
00000150: cf11 03bb 4112 03bb 5512 033b 5812 03bb
00000160: 0711 03bb 4912 03bb 4312 03bb 4411 03bb
00000170: f911 033b 7a11 03bb 8d10 033b ef11 033b
00000180: 1612 033b 6610 03bb 4cfd 023b 0609 033b
00000190: cb11 033b 3df8 02bb ee11 03bb 2412 033b
000001a0: bf11 033b 2612 033b ffef 023b 1212 03bb
000001b0: bc11 033b 1912 033b 0f12 033b 5d0c 03bb
000001c0: 5d12 03bb 9910 03bb f010 03bb 2111 033b
000001d0: 7b11 033b b311 033b 4d12 033b e20d 03bb
000001e0: 1b12 033b ba10 033b 2b12 03bb 4b12 033b
000001f0: 2a12 033b 4612 033b 1f12 033b c807 03bb
-0.0019965253 -0.0019754935 0.0019999922 -0.0019999938 0.0019999943 0.0019999966 0.0019999698 0.0019999885
0.0019999924 -0.0019999743 0.0019999677 0.0019999892 0.0019999733 0.0019988304 -0.0019998397 0.0019999752
0.0019999892 -0.0019999852 0.0019999044 -0.0019999573 -0.0019999922 0.0019999805 0.0019999673 0.0019999798
0.0019999892 0.0019999822 -0.0019999638 0.0019999866 0.0019999875 -0.0019999796 0.001999992 0.0019999228
0.0019999847 -0.001999974 -0.0019750488 -0.0019999917 -0.0019999752 -0.0019999826 0.0019999845 0.001999983
0.0019999894 0.00199976 -0.0019999905 0.001999887 0.0019997472 -0.0019999857 0.0019999864 0.0019999787
0.0019999275 0.001999988 0.0019999826 0.0019998858 -0.0019999354 -0.001999978 0.0019999682 0.001999993
0.0019999952 -0.0019998986 0.0019999833 0.0019999945 0.0019998986 0.0019999933 0.0019999805 -0.0019999826
0.0019999833 0.0019999717 0.001999613 0.0019998623 0.00199998 0.0019999943 0.001999973 0.0019999954
0.001999896 0.0019999903 0.0019999933 -0.0019999826 -0.001999972 0.001999988 0.001999979 -0.0019999929
-0.0019999566 0.0019998737 0.0019999885 0.0019992578 -0.0019999628 -0.0019999894 0.001999994 -0.0019999947
-0.0019999163 -0.0019999912 -0.0019999899 -0.0019999305 0.0019999726 -0.001999943 0.0019998879 0.0019999703
0.0019999794 -0.0019998788 0.0019987402 0.0019994392 0.001999962 -0.0019984387 -0.00199997 0.0019999826
0.0019999591 0.001999983 0.0019979475 -0.0019999784 0.0019999584 0.00199998 0.0019999777 -0.0019996383
-0.001999996 -0.0019998907 -0.001999911 0.0019999223 0.0019999433 0.0019999563 0.0019999922 -0.0019997288
0.0019999805 0.0019998983 -0.0019999843 0.0019999917 0.001999984 0.0019999905 0.0019999815 -0.0019993652

encoders.0.encoder.conv2.lin.weight f4 [128, 128]
00000000: 4f30 bfbd e6c6 77bd 66b5 1b3e 3305 123e
00000010: 62ca 063e a0cb 903d 50ea 973d 1987 003d
00000020: 793c 1bbd ebf9 4b3d dbfd 9ebd a74c 223b
00000030: 7e77 17be 42c6 edbc c5ad 0abd 5d19 bc3d
00000040: 83f3 d3bd 8b61 863d 9442 18be f7f3 733d
00000050: 7050 1c3e cc0b 253d 96cd ae3d f02a 79bc
00000060: 7434 c8bd cddf adbd b3bf ee3d 617b 083e
00000070: 9d9c 11be a41c 2bbd 8281 f53d 6196 f13d
00000080: ab12 51bd c458 c33d 07c4 c1bc 73c4 8fbd
00000090: 4316 b1bc 8c5f b93c 97a2 d33d d4c5 4c3c
000000a0: 6362 babd ee24 e3bc e8d0 0f3e 7131 823d
000000b0: f3a6 523d a830 ffbc 863a 753d 731c 7b3b
000000c0: f586 d33d f725 0abe 31d0 213d 84c6 a73d
000000d0: e854 443d 04b7 9a3d 09ef 313d 4e91 c23d
000000e0: 19de e53b 12d2 adbd e879 d43d cbf0 0ebe
000000f0: 8079 8f3d 74cc 05be 601d 093d e305 f93d
00000100: 63d5 04be 396b 913d 78c1 f43d d9b6 8e3d
00000110: cac6 44bd 1b1c 9a3d 2c47 0f3e 4c9d 0cbe
00000120: 2727 94bd 8d2a b53a dd0d da3d 4c6d 0ebd
00000130: eaac c6bc b3bc 5a3d 3563 06bc 9442 bc3d
00000140: 37cc 96bd 84a2 e23c 0b91 993d dc4d a63d
00000150: 3112 11be 6c93 143e cc00 bf3d 4d29 003e
00000160: 0928 b93c e9b8 94bd 47c2 eebd ba38 1d3e
00000170: c850 93bd bf0f 02be 16ca ef3d 353b 84bd
00000180: 4af0 093e 458a c43d b081 903d b749 19be
00000190: 2d60 f53d aac5 9abd 3e77 16be ccd1 8c3c
000001a0: da73 d3bd a981 363d 9767 9d3c 8ad2 dcbd
000001b0: 8436 a93c 0f3b 0a3e e5eb fbbd 756f e2bd
000001c0: 56a5 dfbd 4259 03bd d3cc 0abe 5770 15bd
000001d0: 8274 6dbd 1baf 90bd ff2b f33c 5c33 82bd
000001e0: e9a8 8b3c f584 803c 365e 2ebd 9135 013d
000001f0: b978 613d 0e3e b6bd 5dea b13d bc31 2bbd
00000200: 08c6 82bd f364 2a3d dae0 02be 57f3 9dbd
00000210: 0f97 533d 05fd 09bd c7b2 e1bd ad18 2e3d
00000220: 5932 0ebc 3ffa 0abd 5428 06be bde1 60bd
00000230: 6a8b cebd 8507 d73c d2a2 1e3e 9be3 95bb
00000240: 16bc 16bd 528f 033d 5b44 f4bd c6ab 76bd
00000250: 9dda 6d3d d792 48bd a958 ef3d aea3 da3c
00000260: 5beb d3bd 64a3 7a3d 123e 11be 25a8 c5bd
00000270: ae27 86ba c19a e23c b64b c53d f83c b5bc
00000280: 997f 04be 467b 6c3d bc40 d9bd 1e6c 73bd
00000290: 0a2f 053d 5921 a7bd 78eb 133e d6a0 d4bd
000002a0: 8c07 12be bdcb c93c aa6d b13d 5c6c f7ba
000002b0: 5e3c 07be 29dc b4bd 58ec f8bd 9ca1 9c3d
000002c0: bca2 ee3d 3989 b4bd 9035 fb3d c37c fa3d
000002d0: 82aa 9b3d 8c19 fdbc e3e8 9dbd 2d36 f33c
000002e0: 148e 413b 8cca 063e 820c ab3d 91ab 183e
000002f0: 0ea7 3dbc 1b33 343c ed97 ea3c 10b8 c8bd
00000300: c0ba 0a3e 4606 8d3d a4d3 9f3c 0668 1dbe
00000310: f89d b7bc b9aa 0a3e 26a2 943d e59e 9d3d
00000320: a159 ddbd 294b 9dbd ad73 a8bd b048 f9bd
00000330: 4679 fe3d 79ae 5f3d db49 18bd c43c 50bd
00000340: d236 b0bd 1dc7 833b 3fc3 f43d 972c 833d
00000350: f0f1 1cbd 6a71 bd3d 337f fbbc edb1 d23d
00000360: 5492 ecbd 3d44 b4bd 8a8d 2ebd 7162 b83d
00000370: b37a 083e ba0e 07bd 863f 803c 8b98 dbbd
00000380: 9905 85bc df34 a43d 7911 50bc 5b3b e1bd
00000390: c276 8bbd c888 1d3e bfe0 003d 2e64 623d
000003a0: 5b63 6a3d 330b cabd 5912 663c b6cc d53d
000003b0: a4f4 21bd cfb9 353c 696e 533c 4976 ef3d
000003c0: fa17 953d 9680 0dbd bbdd d03d dfd8 193e
000003d0: 70f8 86bd 49d8 d9bd aa2e a4bd b805 0abe
000003e0: 80c5 9cbd 4898 963d f2b2 c2bd 69fb ac3c
000003f0: 0a1d cd3c 144a cc3d dc59 87bd 3574 35bc
-0.09335386 -0.06049242 0.15205917 0.14259796 0.1316314 0.070700884 0.074177384 0.03137884
-0.037899468 0.049798887 -0.07763263 0.0024764927 -0.14791676 -0.0290252 -0.033857126 0.09184525
-0.103491805 0.065615736 -0.14869148 0.059558835 0.1526506 0.040294454 0.08535306 -0.015207991
-0.0977563 -0.08489952 0.116576575 0.13328315 -0.142199 -0.04177536 0.11987592 0.117962606
-0.051043194 0.09538415 -0.023653043 -0.070198916 -0.02161706 0.022628568 0.10333746 0.012498338
-0.09100797 -0.02772757 0.14044535 0.063570864 0.051428746 -0.03115113 0.059870265 0.0038316518
0.103284754 -0.13491045 0.039505187 0.08192161 0.047932535 0.07554439 0.043440852 0.09500371
0.0070150015 -0.08487333 0.10374814 -0.13959043 0.07005596 -0.13066274 0.03347528 0.12159326
-0.12972026 0.07100529 0.11950964 0.06968469 -0.048041143 0.07524892 0.13991994 -0.13731879
-0.0723403 0.0013821885 0.106471755 -0.034772202 -0.024252374 0.053402614 -0.008202364 0.09192386
-0.0736317 0.027665384 0.07498368 0.08120319 -0.14167096 0.14509362 0.09326324 0.12515755
0.022602098 -0.07261831 -0.11658149 0.1535367 -0.07193142 -0.12701319 0.11708467 -0.06456605
0.13470569 0.09596685 0.07055986 -0.14969526 0.11981235 -0.07557233 -0.14693925 0.017189883
-0.10324831 0.044557247 0.019214435 -0.10782345 0.020655878 0.13499092 -0.12300853 -0.11056415
-0.10920207 -0.032067545 -0.13554697 -0.03648409 -0.05797244 -0.07064649 0.029684065 -0.06357452
0.017048316 0.015688399 -0.042570315 0.031545226 0.05504677 -0.08898555 0.086872794 -0.041795477
-0.06385428 0.04160018 -0.12781087 -0.07712429 0.051657733 -0.033688564 -0.11020427 0.042504
-0.008678996 -0.03393006 -0.13101321 -0.05490278 -0.10085185 0.026248703 0.15491799 -0.004574252
-0.036800466 0.032119103 -0.119271 -0.06022241 0.058069814 -0.048968162 0.116868325 0.026689377
-0.10347625 0.061190978 -0.14183834 -0.09651212 -0.0010235214 0.027661683 0.09633581 -0.022123799
-0.129393 0.05773475 -0.1060805 -0.05942928 0.032515563 -0.081606574 0.14445293 -0.103822395
-0.14260691 0.024633283 0.08663495 -0.0018876898 -0.13206622 -0.08831055 -0.12154454 0.07648012
0.11652133 -0.08815236 0.122660756 0.12230828 0.07600881 -0.03089597 -0.07710435 0.029688919
0.0029534148 0.13163203 0.08351995 0.14909197 -0.0115754735 0.010998513 0.028636897 -0.09800732
0.13547802 0.06885962 0.019510098 -0.15371713 -0.022414193 0.13541688 0.0725749 0.07696322
-0.10808111 -0.07680351 -0.082251884 -0.12172067 0.12425475 0.05460975 -0.03717981 -0.0508392
-0.08604206 0.004021539 0.11951303 0.06404989 -0.038316667 0.09250148 -0.030700302 0.10287843
-0.115513474 -0.08802078 -0.04261545 0.09003151 0.13328056 -0.03297303 0.01565529 -0.10722455
-0.01623802 0.08017897 -0.012699478 -0.10997649 -0.06809761 0.15384209 0.031464335 0.05527132
0.05722366 -0.09865417 0.01404246 0.10439436 -0.039539948 0.0110916635 0.012904742 0.11692483
0.07279964 -0.034546457 0.10198542 0.15024136 -0.065903544 -0.10636956 -0.08016713 -0.13478744
-0.07654858 0.07353264 -0.09506787 0.021115975 0.025038261 0.09975067 -0.06608936 -0.011075069

encoders.0.encoder.prelu2.weight f4 [128]
00000000: c3f3 7d3e 2ef5 7d3e 2406 813e b7f3 7d3e
00000010: 2306 813e 2406 813e 2306 813e 2406 813e
00000020: 2406 813e b8f3 7d3e 2306 813e b7f3 7d3e
00000030: 2306 813e 2206 813e d3f3 7d3e b8f3 7d3e
00000040: 2306 813e 2506 813e 1406 813e b9f3 7d3e
00000050: c4f3 7d3e 2206 813e 2206 813e b9f3 7d3e
00000060: 2206 813e 2406 813e fc05 813e 2406 813e
00000070: 2206 813e 2406 813e 2406 813e 1806 813e
00000080: 2406 813e 1f06 813e 64f4 7d3e b8f3 7d3e
00000090: bff3 7d3e bcf3 7d3e 2306 813e 2406 813e
000000a0: 2006 813e 1e06 813e baf3 7d3e b8f3 7d3e
000000b0: 4005 813e b8f3 7d3e 2006 813e 7ff5 7d3e
000000c0: daf3 7d3e 2406 813e 2406 813e 2106 813e
000000d0: b8f3 7d3e c9f3 7d3e c0f3 7d3e 2206 813e
000000e0: 2406 813e 2406 813e b7f3 7d3e 2406 813e
000000f0: baf3 7d3e 2406 813e 2406 813e b9f3 7d3e
00000100: 2206 813e 1806 813e baf3 7d3e b7f3 7d3e
00000110: 2306 813e 2406 813e 2206 813e 2406 813e
00000120: baf3 7d3e 2306 813e 2406 813e b9f3 7d3e
00000130: b8f3 7d3e 2206 813e 1b06 813e b8f3 7d3e
00000140: d1f3 7d3e eff3 7d3e 2406 813e 2406 813e
00000150: b8f3 7d3e c1f3 7d3e 2406 813e baf3 7d3e
00000160: bcf3 7d3e 2106 813e b7f3 7d3e b9f3 7d3e
00000170: 2406 813e b9f3 7d3e 2406 813e 2106 813e
00000180: b9f3 7d3e f7f3 7d3e 8ef4 7d3e b9f3 7d3e
00000190: b7f3 7d3e 1206 813e 2106 813e baf3 7d3e
000001a0: 1a06 813e 2106 813e b8f3 7d3e c3f3 7d3e
000001b0: 0b06 813e 2006 813e 1c06 813e 4cf4 7d3e
000001c0: b7f3 7d3e c9f3 7d3e bff3 7d3e 2306 813e
000001d0: 2306 813e 2106 813e 2406 813e b9f3 7d3e
000001e0: 2306 813e 2006 813e b7f3 7d3e 2406 813e
000001f0: 2406 813e 2106 813e 1d06 813e ccf3 7d3e
0.24800019 0.2480056 0.25199997 0.24800001 0.25199994 0.25199997 0.25199994 0.25199997
0.25199997 0.24800003 0.25199994 0.24800001 0.25199994 0.2519999 0.24800043 0.24800003
0.25199994 0.252 0.2519995 0.24800004 0.2480002 0.2519999 0.2519999 0.24800004
0.2519999 0.25199997 0.25199878 0.25199997 0.2519999 0.25199997 0.25199997 0.25199962
0.25199997 0.25199983 0.24800259 0.24800003 0.24800013 0.24800009 0.25199994 0.25199997
0.25199986 0.2519998 0.24800006 0.24800003 0.25199318 0.24800003 0.25199986 0.2480068
0.24800053 0.25199997 0.25199997 0.25199988 0.24800003 0.24800028 0.24800014 0.2519999
0.25199997 0.25199997 0.24800001 0.25199997 0.24800006 0.25199997 0.25199997 0.24800004
0.2519999 0.25199962 0.24800006 0.24800001 0.25199994 0.25199997 0.2519999 0.25199997
0.24800006 0.25199994 0.25199997 0.24800004 0.24800003 0.2519999 0.2519997 0.24800003
0.2480004 0.24800085 0.25199997 0.25199997 0.24800003 0.24800016 0.25199997 0.24800006
0.24800009 0.25199988 0.24800001 0.24800004 0.25199997 0.24800004 0.25199997 0.25199988
0.24800004 0.24800096 0.24800321 0.24800004 0.24800001 0.25199944 0.25199988 0.24800006
0.25199968 0.25199988 0.24800003 0.24800019 0.25199923 0.25199986 0.25199974 0.24800223
0.24800001 0.24800028 0.24800013 0.25199994 0.25199994 0.25199988 0.25199997 0.24800004
0.25199994 0.25199986 0.24800001 0.25199997 0.25199997 0.25199988 0.25199977 0.24800032

encoders.1.weight f4 [128, 128]
00000000: b9c1 923d 9512 263c 4640 103c 9b58 6abc
00000010: 0ab2 ac3c 4fad 08bc a540 0d3d 1a73 abbd
00000020: 9e78 21bd a141 413c ed75 eebc 8d7d f0bc
00000030: 0f05 a33d ecd4 7f3d 0d52 0ebb 4c07 003d
00000040: f4b0 97bd c604 953d ae8c cbbb 9822 563c
00000050: 988e a73d 7505 56bd 5514 8f3d e5c0 c1bc
00000060: 50d1 f9bc bc69 8fbd df7c 1e3d 5b68 0e3d
00000070: 1179 a9bd 3d04 b33b 591d c0bc 1651 d0bb
00000080: ae7d 103d 8331 6fbd 4e1c 88bd fdad 9c3d
00000090: 3231 b8bd f38d 6c3c 8a42 063c 5a85 aa3d
000000a0: 7b5c fc3c acec a0bc d8b8 72bd c679 353d
000000b0: 417e 13bd 7dd4 b8bd c9f1 1f3d b891 31bd
000000c0: ddbb 9ebd ea3d 663d 878f bd3c ff4d 3d3c
000000d0: 5258 aebd 8ead 8a3d 3362 64bc aa1d 2a3d
000000e0: f21f a7bc 4222 8cbd 1b0c 933b 9c45 6bbd
000000f0: 0c24 ab3d f4cd d3bc e1a2 9cbd adc4 ab3d
00000100: ecd6 083d 201f 56bb 691f 903d 52c0 8a3d
00000110: 5921 483d 7370 b23b f327 9cbc 4636 b0bc
00000120: 94ac 61bd df68 a63d 35e0 be3c 506e 3f3d
00000130: ef4d 7a3c d96c 90bd fa9b 003d ada6 99bd
00000140: 2f2a c6bc e56d 9ebd de70 f23c d14b a53d
00000150: 5300 6bbd 7c50 973c d439 673d 4bff d7bc
00000160: f2df 963c 8e31 ecbc 2101 42bc fc38 7dbd
00000170: 0d26 483d 1c7e 84bd 1238 b23c 2fe5 86bc
00000180: 9339 cd3c 534f 8c3d 23b3 983d 17df 2a3d
00000190: 9374 123c 1947 26bd 6247 14bc 4ff6 4abc
000001a0: a43f b9bc 9f5d 183d 5c4a 953d 9e98 80bd
000001b0: 80df 5bbc 31e1 14bd 5143 393d 5fde 83bd
000001c0: f0f2 8b3b 9685 a8bd 4102 a2bd 405d 35bd
000001d0: edba 82bd a923 963d 6ef9 62bd dbbd 67bd
000001e0: e957 1dbd 1808 a5bd 96f6 85bd 91f0 293d
000001f0: 90e2 87bd db2d c33c c5ef 0bbd 78b1 5bbd
00000200: 6ee8 4d3d 5dd7 203d df2f c0bc 0676 62bd
00000210: dac6 483d 1584 46bd 4b46 70bc 67fd 58bc
00000220: 3d02 9d3d 4b13 303d 924b b13d d373 8bbc
00000230: a5c5 7cbd 29e9 5bbd 5ab8 8e3d 03fa b13d
00000240: 9059 043c e9eb 423d d7f9 14bd 0b2e b83d
00000250: cf31 78bd 03e4 abbd 0410 c23c 633c 32bd
00000260: 4d55 92bd 2124 83bc 53c8 47bc 9eaf 353d
00000270: 5c8c 23bc fa98 0f3d 84a2 abbc 5e87 a73b
00000280: a183 0fbd bd78 2d39 3718 9b3d 1f40 d23c
00000290: 2687 833d a9f8 523d 31be b53d 9145 a83d
000002a0: 0da9 a93d b0d5 99bb b2b7 5dbd 71f1 3fbd
000002b0: 304c 28bd e7d7 303d f3b5 a0bd 6016 b93d
000002c0: a7b4 3cbd 551f 13bc cae5 8cbd 5a29 8d3d
000002d0: bd22 a1bc 05f4 a6bd aebd 2a3d 0285 0e3d
000002e0: ab58 89bb a480 98bd b72d d73c 7fa3 9f3d
000002f0: d2c5 b53d 7f7b b0bd c817 3fbc 4f39 943b
00000300: 0d50 5bbd 8dbe 8c3d 9c67 a3bd 230c a43d
00000310: e784 b53d 7a16 9d3d 2bb9 75bd 025d 6fbd
00000320: 899a 9d3d ae7b 93bd a936 843d ee89 fabc
00000330: af07 093d b8b5 9a3d 54a9 5e3d 8a02 523d
00000340: e036 70bd 9dbc cbb9 d9d6 0b3d d8d3 4c3d
00000350: 92ec adbd 436f 88bd 1e5c 46bc 939b 1fbb
00000360: 86f2 903d 6ec6 e2bb 39e2 6cbb 5514 9dbc
00000370: 3f68 033b 3164 39bc c3a2 a1bd d1b7 023d
00000380: 0957 b43c e462 3b3d 6b46 0e3d 3d72 6d3d
00000390: a79e fcbb babe 2d3c ca46 69bd 026b 98bc
000003a0: a718 403d 9186 a63d df3b a6bd e748 a1bd
000003b0: f587 433d 3713 82bc f120 3e3c e62a 7e3b
000003c0: 556b 8bbd 0912 ed3b 06c6 843d 9426 2cbd
000003d0: 47df aebd e322 443d dde1 9fbd b7d6 b23d
000003e0: 44db 273d fc96 93bd 8c06 b33d 7caf f7bb
000003f0: 4503 6cbb 0372 96bd 405a 63bd b469 3e3c
0.07165856 0.010136266 0.0088043865 -0.014303352 0.02108099 -0.008342101 0.034485478 -0.08371563
-0.03942167 0.011795432 -0.029108966 -0.029356742 0.07959949 0.062458917 -0.0021716387 0.03125696
-0.07406798 0.07276301 -0.0062118387 0.013069771 0.081814945 -0.052251298 0.069863 -0.02365155
-0.030495316 -0.07002589 0.038693305 0.03476749 -0.08275045 0.0054631517 -0.023451494 -0.0063573224
0.035276107 -0.058396827 -0.06646024 0.07650373 -0.08993758 0.01443814 0.008194575 0.08326216
0.030805817 -0.019644104 -0.059258312 0.044305585 -0.036009077 -0.09024904 0.039048944 -0.04335186
-0.07750676 0.05621139 0.023139728 0.01155424 -0.085129395 0.06771384 -0.013939428 0.041532196
-0.020400975 -0.06842472 0.004487527 -0.05743943 0.08356485 -0.025855042 -0.07648254 0.08387122
0.03340809 -0.003267236 0.07037241 0.067749634 0.048859928 0.005445534 -0.019062018 -0.021510255
-0.055096224 0.08125471 0.02330027 0.04673606 0.01527737 -0.07052011 0.03139875 -0.07502494
-0.024190037 -0.077358045 0.029594835 0.080711015 -0.057373356 0.018470995 0.056451634 -0.02636685
0.018417332 -0.028832223 -0.011841089 -0.061821923 0.048864413 -0.06469366 0.021755252 -0.016466705
0.025051868 0.068510674 0.074560426 0.04171666 0.008938926 -0.040595148 -0.009050222 -0.012387826
-0.022613354 0.03719866 0.072895736 -0.062791094 -0.013419986 -0.03634757 0.045230214 -0.06438898
0.0042709038 -0.082286045 -0.07910586 -0.044278383 -0.063833095 0.073310204 -0.055413656 -0.056577545
-0.038413916 -0.080581844 -0.06541173 0.041489188 -0.0663501 0.023825577 -0.03416421 -0.053636044
0.05027049 0.039267886 -0.023460327 -0.055288337 0.049017765 -0.048465807 -0.014665197 -0.01324401
0.076664425 0.04298715 0.08656992 -0.017023003 -0.061711926 -0.053689156 0.06968756 0.08690264
0.008077994 0.047588263 -0.03637108 0.08993157 -0.060594376 -0.08393099 0.023689277 -0.04351462
-0.07145176 -0.016008439 -0.012193757 0.044356935 -0.009982195 0.035058 -0.020951517 0.0051125726
-0.03503764 0.00016543544 0.07572978 0.025665341 0.06422262 0.051506672 0.08874167 0.08216394
0.08284197 -0.004694663 -0.054130264 -0.046861116 -0.041088283 0.04317465 -0.07847204 0.09037471
-0.04607072 -0.008979638 -0.06879766 0.06892653 -0.019669885 -0.08152012 0.0416848 0.034794815
-0.0041914782 -0.07446411 0.026266916 0.07794856 0.08875622 -0.08617305 -0.011663385 0.0045234333
-0.05354314 0.06872282 -0.07978746 0.080101274 0.0886324 0.07670303 -0.059991043 -0.05843831
0.07695491 -0.072013244 0.06455738 -0.030583348 0.033454593 0.07554191 0.054360703 0.051271953
-0.058646083 -0.00038859705 0.03414044 0.050006717 -0.08492388 -0.066618465 -0.012106923 -0.0024354204
0.07077508 -0.0069206273 -0.0036145581 -0.019174734 0.002005115 -0.011315391 -0.078923725 0.031913582
0.022014158 0.045748606 0.034735125 0.057970274 -0.0077093425 0.010604555 -0.056952275 -0.018605713
0.04689851 0.08131135 -0.08116888 -0.07875233 0.04773708 -0.015878303 0.0116045335 0.0038782894
-0.06807581 0.007234816 0.064830825 -0.04202898 -0.085386805 0.047884833 -0.07806752 0.0873236
0.040980592 -0.07206532 0.08741483 -0.007558761 -0.003601269 -0.07345965 -0.05550599 0.011621881

encoders.1.encoder.conv.bias f4 [128]
00000000: 2412 03bb 5612 033b 6412 033b f411 033b
00000010: 1e12 03bb 0612 03bb 6412 03bb d40f 03bb
00000020: 5212 03bb 6912 033b 5a12 03bb e8fe 023b
00000030: 2012 03bb 2312 03bb 0712 03bb 2812 033b
00000040: 6712 033b 3112 03bb 5212 03bb 2f12 033b
00000050: 620e 03bb 5e12 03bb 9d0f 03bb 6612 033b
00000060: 5612 033b 6512 03bb 8411 033b 5312 03bb
00000070: 1212 033b 0402 033b f011 03bb 5512 03bb
00000080: 1412 03bb 6412 03bb 6312 03bb 4d12 03bb
00000090: 6012 033b 3e12 033b 5a12 033b 5012 033b
000000a0: 6212 033b 5f12 03bb 5012 033b 2610 033b
000000b0: 7611 03bb 5b12 03bb 1e12 03bb 5f12 033b
000000c0: 4212 033b 9210 033b 6912 03bb 3212 03bb
000000d0: 5c12 03bb 0512 03bb 3a12 033b d111 03bb
000000e0: 6412 033b 5412 03bb 1f12 033b 5712 033b
000000f0: 5f12 033b 4212 033b 5312 03bb dd0e 033b
00000100: 4112 03bb 4a12 03bb 6f0c 03bb 0f12 033b
00000110: fa10 033b 6012 033b 5d12 03bb 5f12 033b
00000120: 4712 033b 3f12 033b 5d12 033b 2e12 03bb
00000130: 4912 033b 0e12 033b 5612 033b 2712 033b
00000140: 6212 03bb 0d12 033b 2d12 033b 8011 033b
00000150: bb0c 033b 5f12 033b 1812 03bb 2212 03bb
00000160: 2412 033b 6212 033b 6b12 033b 5a12 033b
00000170: 6312 03bb 3612 033b 4e12 03bb 5a12 033b
00000180: 4912 033b 5f12 03bb 5712 03bb be11 03bb
00000190: 6212 033b ca07 03bb b311 03bb 6212 033b
000001a0: 4b12 033b 0712 033b 5312 03bb 6412 03bb
000001b0: 3412 03bb 4d12 033b 2612 033b 3910 03bb
000001c0: 5f12 03bb 2d11 03bb ef11 033b 6a12 033b
000001d0: 6412 033b 6212 03bb 2212 033b 4b12 03bb
000001e0: 4012 033b 4c12 033b f211 03bb ea11 033b
000001f0: 2d10 03bb 1212 03bb e611 03bb 0711 033b
-0.0019999826 0.0019999943 0.0019999975 0.0019999715 -0.0019999812 -0.0019999756 -0.0019999975 -0.0019998448
-0.0019999933 0.0019999987 -0.0019999952 0.0019988362 -0.0019999817 -0.0019999824 -0.0019999759 0.0019999836
0.0019999982 -0.0019999857 -0.0019999933 0.0019999852 -0.0019997586 -0.0019999961 -0.001999832 0.001999998
0.0019999943 -0.0019999978 0.0019999454 -0.0019999936 0.0019999784 0.0019990215 -0.0019999705 -0.001999994
-0.001999979 -0.0019999975 -0.0019999973 -0.0019999922 0.0019999966 0.0019999887 0.0019999952 0.0019999929
0.001999997 -0.0019999964 0.0019999929 0.001999864 -0.0019999421 -0.0019999954 -0.0019999812 0.0019999964
0.0019999896 0.001999889 -0.0019999987 -0.001999986 -0.0019999957 -0.0019999754 0.0019999878 -0.0019999633
0.0019999975 -0.0019999938 0.0019999815 0.0019999945 0.0019999964 0.0019999896 -0.0019999936 0.0019997873
-0.0019999894 -0.0019999915 -0.0019996425 0.0019999777 0.0019999132 0.0019999966 -0.001999996 0.0019999964
0.0019999908 0.001999989 0.001999996 -0.001999985 0.0019999912 0.0019999775 0.0019999943 0.0019999833
-0.001999997 0.0019999773 0.0019999847 0.0019999444 0.0019996602 0.0019999964 -0.0019999798 -0.0019999822
0.0019999826 0.001999997 0.0019999992 0.0019999952 -0.0019999973 0.0019999868 -0.0019999924 0.0019999952
0.0019999912 -0.0019999964 -0.0019999945 -0.001999959 0.001999997 -0.0019993656 -0.0019999563 0.001999997
0.0019999917 0.0019999759 -0.0019999936 -0.0019999975 -0.0019999864 0.0019999922 0.001999983 -0.0019998683
-0.0019999964 -0.0019999251 0.0019999703 0.001999999 0.0019999975 -0.001999997 0.0019999822 -0.0019999917
0.0019999892 0.001999992 -0.001999971 0.0019999691 -0.0019998655 -0.0019999784 -0.0019999682 0.0019999163

encoders.1.encoder.conv.lin.weight f4 [128, 30]
00000000: ca30 343e 1f58 8c3d 582e 0abe 60e3 ef3d
00000010: 3651 10be 1872 a53d a0dc 22be 388c 593d
00000020: 4ed7 893d c763 1cbd b961 403e 7fd1 48bd
00000030: c207 c5bd 2c59 37be 94ef f23d c207 09bd
00000040: 4a53 f83d 200c f3bd 7578 20be 91a1 153e
00000050: 9d22 193e 95c6 a03b e645 32be 32fc 1fbd
00000060: 98d7 28be 5e9c 1b3e 58a1 7abd e17a a73d
00000070: c0fe eabc b63c 393e 49a6 bc3d cabe 7a3d
00000080: bdb3 383d b6eb a93d 405f c53c a1c8 b13c
00000090: 7eb1 f9bc 7f84 febd 0fba 24be 0ec1 89bd
000000a0: b6d8 be3d 5925 08be 74e2 dd3d 2c49 16be
000000b0: 8ee5 6f3d 2905 e53d ab74 3f3e 1a7c 1dbe
000000c0: d997 4abd 4fd0 813d ab22 053e a88f a03a
000000d0: 8ae9 133e 19d6 54bd 5296 b0bd dfaf 6d3d
000000e0: 3e1c 3b3e 2587 183e 2c47 1bbe ae4d abbc
000000f0: 5c67 e2bd 7cda 153e e4cc 3a3e 892a ea3d
00000100: dfa7 4ebc b714 fc3c cbb5 d13c 1dce bf3d
00000110: 8f45 a03c 400e ca3d ccec b93d aaaa bcbd
00000120: 15e2 12bd f8dd 2cbe 0442 413e e820 42be
00000130: b2b9 413d 325d d13c 483a 89bd 4bc8 193e
00000140: f112 cebd ba0a b53d b1e4 20be 1f3c 473e
00000150: f51a 203d 2991 b1bd 6801 34be f8ce 21be
00000160: 174d 083b 0bc5 8fbd c62a 5abd ec5b e5bd
00000170: 7575 c9bd 5ef0 37be 2830 b0bd 0475 e2bd
00000180: 2cb6 423e 14bf 1cbe ab50 c6bc 9759 3ebe
00000190: 9cfd 9d3b 34c5 383e 08d5 2d3d 3af5 533d
000001a0: 23a8 b03c 668b 91bc db16 17be 77f6 84bc
000001b0: 9dfc 69bd ae2e e13d dd6b 2ebe d00e 00be
000001c0: 36f0 c5bd c668 9e3d 1b6d 3b3e 902c d43c
000001d0: f57d 0e3d ceb7 b7bd 0ebc 9a3d d3da 1cbe
000001e0: ccf1 ae3d 2c91 0bbe 926e 02bb d289 fa3c
000001f0: d303 cfbd 5271 033d ff5e a0b8 3aae e53d
00000200: c094 9fbd 203a 39be cf12 6fbd 062b 103e
00000210: 5a91 45be e9a7 eb3d 3641 173e 035d 25bd
00000220: 5ad4 363d 2a8b 383c f78f fa3d 4e8d e93d
00000230: 498b 993b de25 1ebb b9d1 43be 6076 453e
00000240: 4580 93bd 29cb 943c 7291 1e3e 82cb dd3c
00000250: 7e80 0e3e c3a1 cb3c d932 623d b979 d93d
00000260: 6c3e 183e a783 f4bd 83b1 17be 9679 443d
00000270: 867f 483d 4eef 393d c488 d4bd b829 4ebd
00000280: 795d 11bd a0d7 3e3d 875b 02be 5c69 24bc
00000290: cdd2 06be 4394 de3d c575 b13d d6ca 22be
000002a0: 7af3 2b3e 3690 c93c c308 893d 2654 ffbd
000002b0: 9f14 48be 0086 163d 48d5 5fbd 4234 d5bd
000002c0: 8459 5cbd 6186 313e bb19 0fbe 8c0c b3bd
000002d0: dd85 bbba 5e99 073e 29bd 97bb 8e48 f7bd
000002e0: d741 f0bd 9c2e 35be aa82 44be f02e 0abe
000002f0: 93a5 86bd 9fc3 253e 3b97 073e c76b 873c
00000300: cacb 4a3d 8821 4d3d 2d6e 75bc 371e 263d
00000310: 31b9 113e 6044 19be a6f0 f03d 27a8 0a3e
00000320: 209b eb3d 5c35 b13c a752 b63d 13ce 223e
00000330: b8f9 853d 17c1 8ebd 6df3 43be 7baa 39bd
00000340: 818a 2e3c 0098 373d 488c bf3d 2ce5 d03d
00000350: b090 f63d 9000 5b3d e69b 1dbe 7db5 06be
00000360: f1d3 e43d b3fe 15bc 7d68 b1bc 3620 f1bd
00000370: f2cb 203e 396b eabd 0cbd 3dbe f873 3ebe
00000380: 0cdf 1abd 8291 12be 68b4 31be 3c66 2fbe
00000390: 7754 de3d 0f34 3b3d 0897 893d 8971 073d
000003a0: 95a8 103e ed3e ff3d 86bd a5bd d93b 093e
000003b0: 0116 d8bd f819 34bd 6e15 2ebd f858 df3d
000003c0: 441d cabc eec6 9ebd eccf 3a3d 0769 353e
000003d0: fbd0 243e 7d34 323e 746e d93d 270e 323e
000003e0: b52c 9d3d c34d 2a3d 79ab f5bd 202b d83c
000003f0: a0ec d9bd 5c47 eabc d115 b4bc 7bfa 91bd
0.17596737 0.06852745 -0.13494241 0.1171329 -0.1409348 0.08078402 -0.15904474 0.05311224
0.06730519 -0.038181093 0.18787278 -0.049027916 -0.0962062 -0.1790511 0.11862102 -0.033454664
0.12125261 -0.11867547 -0.1567095 0.14612414 0.1495461 0.0049064853 -0.17409477 -0.03905887
-0.16488492 0.15196368 -0.061189026 0.08177734 -0.028685927 0.18089566 0.09211404 0.061217107
0.045093287 0.082969114 0.02409327 0.021702113 -0.030480143 -0.124276154 -0.160866 -0.067262754
0.09318678 -0.13295497 0.10834208 -0.1467635 0.05856853 0.11182625 0.18696849 -0.15379372
-0.04946122 0.0633856 0.13001506 0.0012249844 0.14444557 -0.051961992 -0.08622421 0.058029052
0.18272492 0.14895304 -0.15163869 -0.020911064 -0.110548705 0.14634126 0.18242222 0.11433894
-0.012613266 0.030771596 0.025599381 0.09365485 0.019564418 0.09865999 0.090783685 -0.09212239
-0.03586014 -0.1688155 0.18872839 -0.18957865 0.047296233 0.025557134 -0.067005694 0.15017812
-0.100622065 0.088399366 -0.15712239 0.19456528 0.03908821 -0.08670265 -0.17578661 -0.15801609
0.0020797902 -0.07020005 -0.05326345 -0.11199173 -0.09836856 -0.17962787 -0.08602935 -0.11057475
0.19014806 -0.15307266 -0.024208387 -0.18588863 0.0048214924 0.18043977 0.04243949 0.05174754
0.021564549 -0.017766666 -0.14754812 -0.016230805 -0.057125676 0.109952316 -0.17033334 -0.1250565
-0.09664957 0.07734828 0.18303339 0.025900155 0.03478809 -0.08970605 0.075554 -0.1531785
0.08542213 -0.13629597 -0.001990233 0.030583296 -0.10108151 0.032090493 -7.647089e-05 0.11214872
-0.07792044 -0.18088579 -0.058367547 0.14078912 -0.19293728 0.11506636 0.1477097 -0.040371906
0.044636108 0.011263648 0.1223449 0.11403905 0.0046857935 -0.0024131457 -0.19122972 0.19283438
-0.072022 0.01816328 0.1548517 0.02707458 0.13916203 0.024857407 0.055224273 0.1061892
0.14867562 -0.11939173 -0.14813809 0.047967516 0.04894974 0.045394234 -0.103776485 -0.050332755
-0.035489533 0.046592355 -0.12730227 -0.010034885 -0.13166352 0.108681224 0.08665041 -0.15897688
0.16792098 0.024604898 0.06691124 -0.12467222 -0.19539116 0.036748886 -0.05464676 -0.10410358
-0.053796306 0.17336418 -0.13974659 -0.087426275 -0.0014306862 0.13242099 -0.004630704 -0.120743856
-0.11731308 -0.17693561 -0.1919047 -0.13494468 -0.065745495 0.16187905 0.13241284 0.016530884
0.049510755 0.050080806 -0.014979881 0.04055616 0.14230801 -0.14967489 0.1176465 0.13540708
0.11504197 0.021631889 0.089024834 0.15898924 0.06541771 -0.06970423 -0.19135828 -0.0453286
0.010653139 0.044822693 0.093529284 0.10199961 0.12039316 0.053467333 -0.15391502 -0.1315517
0.11173237 -0.009154963 -0.02165627 -0.11773722 0.15702799 -0.11446232 -0.18529147 -0.18598926
-0.03781037 -0.1431332 -0.17353976 -0.17128843 0.10855954 0.045703944 0.0671826 0.03306726
0.14126809 0.12463174 -0.08092789 0.13401736 -0.10551072 -0.04397008 -0.042500906 0.10905641
-0.024672158 -0.077527866 0.045608446 0.17715846 0.16095345 0.17402835 0.106167704 0.17388211
0.07674543 0.041578066 -0.119955964 0.026387751 -0.10640836 -0.02859848 -0.02198306 -0.071278535

encoders.1.encoder.prelu.weight f4 [128]
00000000: 2306 813e 19f4 7d3e bcf3 7d3e b9f3 7d3e
00000010: 1306 813e 2406 813e b9f3 7d3e b8f3 7d3e
00000020: 0000 803e 2506 813e bff3 7d3e 2506 813e
00000030: bbf3 7d3e 2406 813e 1e06 813e bbf3 7d3e
00000040: 2506 813e 2006 813e 2506 813e 44f4 7d3e
00000050: 0c06 813e c105 813e b8f3 7d3e 2406 813e
00000060: bef3 7d3e b7f3 7d3e 0f06 813e def3 7d3e
00000070: bbf3 7d3e 0000 803e 2406 813e b8f3 7d3e
00000080: 2506 813e fef6 803e 2106 813e fb05 813e
00000090: d5f3 7d3e b7f3 7d3e 2406 813e b7f3 7d3e
000000a0: baf3 7d3e b7f3 7d3e 0006 813e 2506 813e
000000b0: 2406 813e bbf3 7d3e 0000 803e f0f3 7d3e
000000c0: b7f3 7d3e bcf3 7d3e baf3 7d3e 0000 803e
000000d0: 0000 803e 2506 813e b7f3 7d3e b7f3 7d3e
000000e0: 2106 813e 9c02 7e3e bcf3 7d3e 2403 813e
000000f0: 0000 803e 2406 813e 2506 813e b9f3 7d3e
00000100: 1506 813e 1706 813e b7f3 7d3e b8f3 7d3e
00000110: 0000 803e 0000 803e b7f3 7d3e c7f3 7d3e
00000120: a905 813e d1f3 7d3e 2306 813e 2406 813e
00000130: 0106 813e 1906 813e 0000 803e 2206 813e
00000140: 2406 813e 2406 813e b7f3 7d3e b7f3 7d3e
00000150: 2406 813e 0406 813e e502 813e b9f3 7d3e
00000160: b8f3 7d3e 2406 813e 2506 813e bef3 7d3e
00000170: 0288 7e3e 1406 813e 40f9 7d3e 8402 813e
00000180: b8f3 7d3e 2106 813e 5bf6 7d3e d5f3 7d3e
00000190: c1f3 7d3e 2406 813e b7f3 7d3e bcf3 7d3e
000001a0: f205 813e 2106 813e b8f3 7d3e b7f3 7d3e
000001b0: b7f3 7d3e 0306 813e 1105 813e 2406 813e
000001c0: bff3 7d3e 2006 813e 2406 813e 2506 813e
000001d0: c2f3 7d3e b7f3 7d3e b7f3 7d3e b8f3 7d3e
000001e0: d605 813e b7f3 7d3e b7f3 7d3e 2506 813e
000001f0: b8f3 7d3e 2506 813e ecf3 7d3e e0f6 7d3e
0.25199994 0.24800147 0.24800009 0.24800004 0.25199947 0.25199997 0.24800004 0.24800003
0.25 0.252 0.24800013 0.252 0.24800007 0.25199997 0.2519998 0.24800007
0.252 0.25199986 0.252 0.24800211 0.25199926 0.25199702 0.24800003 0.25199997
0.24800012 0.24800001 0.25199935 0.24800059 0.24800007 0.25 0.25199997 0.24800003
0.252 0.2518844 0.25199988 0.25199875 0.24800046 0.24800001 0.25199997 0.24800001
0.24800006 0.24800001 0.2519989 0.252 0.25199997 0.24800007 0.25 0.24800086
0.24800001 0.24800009 0.24800006 0.25 0.25 0.252 0.24800001 0.24800001
0.25199988 0.24805683 0.24800009 0.2519771 0.25 0.25199997 0.252 0.24800004
0.25199953 0.2519996 0.24800001 0.24800003 0.25 0.25 0.24800001 0.24800025
0.2519963 0.2480004 0.25199994 0.25199997 0.25199893 0.25199965 0.25 0.2519999
0.25199997 0.25199997 0.24800001 0.24800001 0.25199997 0.25199902 0.2519752 0.24800004
0.24800003 0.25199997 0.252 0.24800012 0.2485657 0.2519995 0.24802113 0.25197232
0.24800003 0.25199988 0.24801008 0.24800046 0.24800016 0.25199997 0.24800001 0.24800009
0.25199848 0.25199988 0.24800003 0.24800001 0.24800001 0.251999 0.25199178 0.25199997
0.24800013 0.25199986 0.25199997 0.252 0.24800017 0.24800001 0.24800001 0.24800003
0.25199765 0.24800001 0.24800001 0.252 0.24800003 0.252 0.2480008 0.24801207
