notebooks/checkpoint.pth (torch, 451115 bytes, 66 tensors)

encoders.0.weight f4 [128, 128]
0	0x3ca9bb72	0.020719264
1	0xbcbe2f16	-0.023215812
2	0x3a587302	0.00082568836
3	0xbcad2190	-0.021134168
4	0x3ce9db21	0.028546872
5	0xbd0b6a00	-0.034036636
6	0x3cc46772	0.023975108
7	0xbd2f1fa1	-0.042754773
8	0x3da59eda	0.08086939
9	0x3cf7a786	0.030231249
10	0xbb3261aa	-0.0027218857
11	0xbd58c32d	-0.05292051
12	0x3da6d7a3	0.08146598
13	0x3d0ba883	0.034096252
14	0x3ba1af34	0.004934216
15	0x3cbd1104	0.023079403
16	0x3d0858e4	0.033287898
17	0xbd87d9ff	-0.06633376
18	0x3da911a7	0.0825532
19	0x3d6fc8b6	0.058541022
20	0xbd62c596	-0.055364214
21	0x3d891ad2	0.06694569
22	0x3d9c4f14	0.076322705
23	0xbbc86f4b	-0.006116783
24	0x3d71a4cb	0.05899505
25	0x3d280cd4	0.04102786
26	0x3d861ba8	0.06548244
27	0x3cb462ab	0.022019705
28	0x3b94ca9b	0.004540754
29	0xbd2dc454	-0.04242356
30	0x3d2e485f	0.042549487
31	0x3dac84e9	0.08423788
32	0x3cb1f097	0.021721167
33	0xbdae7f00	-0.08520317
34	0x3d983608	0.07432181
35	0x3ca2354f	0.01980081
36	0x3d999f10	0.07501042
37	0xbd1d5b36	-0.038417064
38	0xbd37ea5a	-0.04490123
39	0xbdaee0f5	-0.08539001
40	0x3ca0cc2d	0.019628609
41	0x3c3e6933	0.011621761
42	0xbc9d25b1	-0.019183012
43	0x3b774515	0.0037730385
44	0x3d717d73	0.05895753
45	0xbd091c15	-0.033474047
46	0xbbadf552	-0.0053087855
47	0x3d2113f0	0.039325655
48	0xbdae895d	-0.08522294
49	0x3d23cfd7	0.039993133
50	0x3daa555c	0.08317062
51	0xbd9ec7ca	-0.077529505
52	0xbbc71858	-0.0060759
53	0xbbb24d3f	-0.0054413374
54	0xbda4fa47	-0.08055549
55	0xbc419efe	-0.011817692
56	0x3cd3c986	0.02585293
57	0xbc940de5	-0.018073032
58	0x3ca83843	0.02053464
59	0xbcde4cd6	-0.027136248
60	0xbd115f02	-0.035490997
61	0xbd934985	-0.07191757
62	0xbd1caa9f	-0.038248654
63	0x3c0dc33d	0.008652505
64	0xbcec2683	-0.028826958
65	0x3cb432c3	0.021996861
66	0x3c5b0f67	0.013370371
67	0x3d59865c	0.05310665
68	0x3da65c28	0.08123046
69	0xbd2fbc9e	-0.04290449
70	0xbce71b3f	-0.028211234
71	0xbc0ed28c	-0.0087171905
72	0xbd1f9252	-0.0389579
73	0xbd6f7e6c	-0.058470175
74	0x3d9bf218	0.07614535
75	0x3b6568ee	0.003500517
76	0xbd9e2c36	-0.07723276
77	0xbb65f92e	-0.003509115
78	0xbd5d85e6	-0.054082774
79	0xbcce875e	-0.025211032
80	0x3d16be22	0.03680242
81	0xbd596f8b	-0.05308489
82	0x3d0ab706	0.03386595
83	0x3d1ebc22	0.038753636
84	0xbd8bc5e5	-0.06824855
85	0xbd899133	-0.06717148
86	0xbd912654	-0.07087389
87	0x3d832637	0.06403773
88	0xbdb0a2e3	-0.08624818
89	0x3dafc726	0.085829064
90	0x3d88dec9	0.06683118
91	0x3c33c841	0.010973037
92	0x3d518374	0.051150754
93	0x3ceef894	0.029171266
94	0xbcdc52ba	-0.026894916
95	0xbd024f5a	-0.031813957
96	0x3d134d98	0.03596267
97	0x3db12425	0.08649472
98	0xbdaab976	-0.08336155
99	0x3d30d083	0.043167602
100	0x3c1c520b	0.009541045
101	0x3d943336	0.0723633
102	0xbd376ffd	-0.044784535
103	0x3dad2c09	0.08455665
104	0xbd6ef8a5	-0.058342595
105	0xbae57d9d	-0.0017508749
106	0xbd0d67c2	-0.03452278
107	0x3ce87435	0.028375724
108	0xbd429f8a	-0.04751543
109	0x3d96fc15	0.073722996
110	0xbd8c5f7a	-0.06854148
111	0xbc983b49	-0.018582957
112	0xbd1a2555	-0.03763326
113	0x3dad95a4	0.08475807
114	0xbdaea784	-0.08528045
115	0xbd9583fa	-0.07300563
116	0xbd567e8e	-0.052366786
117	0x3d9030b9	0.07040543
118	0x3d274a22	0.040842183
119	0x3b371d4a	0.0027941042
120	0xbd1365d6	-0.03598579
121	0xbd74311a	-0.05961714
122	0x3d6cf18d	0.05784755
123	0x3d6f8ec6	0.05848577
124	0x3c8e5f7d	0.017379517
125	0xbd3b8e19	-0.04578981
126	0x3d7ea887	0.06217244
127	0x3d2fc0da	0.042908527
128	0xbd94ad82	-0.072596565
129	0x3b10e349	0.0022108129
130	0xbd385b91	-0.0450092
131	0x3c9e7b55	0.019345919
132	0x3d989958	0.07451123
133	0xbcdd25e2	-0.026995603
134	0x3d2d398f	0.04229122
135	0xbcd61acf	-0.02613583
136	0x3d24ee57	0.04026636
137	0xbdae9bfd	-0.08525846
138	0x3d82d7b4	0.06388798
139	0x3d72f8ec	0.05931942
140	0xbcbaa170	-0.022782058
141	0x3d891d0d	0.06694994
142	0x3ce8ae63	0.028403467
143	0x3d8123f8	0.063056886
144	0x3ca24f13	0.019813096
145	0x3d74b05b	0.0597385
146	0xbd45eff2	-0.048324533
147	0xbd9d9049	-0.07693536
148	0x3d478a41	0.048715834
149	0xbd72de19	-0.05929384
150	0x3da2b55b	0.07944747
151	0x3cf23270	0.029565066
152	0xbd3f6dac	-0.04673545
153	0xbd9ef61b	-0.07761785
154	0x3d4002d9	0.046877716
155	0xbd090ec0	-0.033461332
156	0x3cf12e93	0.029441154
157	0x3cc9561e	0.024577197
158	0x3cebbe15	0.028777162
159	0x3d86c81c	0.065811366
160	0x3d21dcd8	0.039517254
161	0x3ca486c0	0.020083785
162	0x3c744b65	0.014910554
163	0x3cee6e02	0.02910519
164	0xbd6d15a9	-0.057881985
165	0xbb2888d4	-0.0025716322
166	0x3ce915e4	0.028452821
167	0xbd28a514	-0.041173056
168	0xbccaf7dd	-0.024776394
169	0xbc56038f	-0.013062372
170	0xbd10cad6	-0.03534969
171	0xbc85cb42	-0.016332272
172	0x3d972d21	0.073816545
173	0xbd5b58bb	-0.053551417
174	0xbceded2f	-0.029043762
175	0xbd17b399	-0.037036512
176	0xbcf41115	-0.029793302
177	0xbd8acf76	-0.06777851
178	0xbda59249	-0.08084542
179	0x3d97246b	0.07379993
180	0xbdb4a25c	-0.0882003
181	0x3d9f7b75	0.077872194
182	0xbd2d46f3	-0.04230399
183	0xbda1ac68	-0.07894212
184	0x3d0a660a	0.03378872
185	0x3d595e66	0.05306854
186	0x3d0ff366	0.035144232
187	0x3d2968a6	0.041359566
188	0xbd4ed27d	-0.050493706
189	0xbd067340	-0.032824755
190	0x3d8bd23c	0.068272084
191	0xbcc39c5a	-0.023878265
192	0x3ce2fd16	0.027708571
193	0x3db48d13	0.0881597
194	0xbd9f453e	-0.07776879
195	0xbd17f2d7	-0.037096824
196	0xbbbf2600	-0.0058333874
197	0xbd8a764a	-0.06760843
198	0xbceee10c	-0.029160045
199	0x3d9847cd	0.0743557
200	0x3ced3287	0.028954757
201	0xbdaccb46	-0.08437209
202	0xbb47de99	-0.0030497669
203	0xbd6ce1ad	-0.05783241
204	0x3d23f2ee	0.040026598
205	0x3d04e3de	0.032443874
206	0xbba8cbd3	-0.005151251
207	0x3cbaab0d	0.022786641
208	0xbd15df48	-0.03658989
209	0x3b2a9964	0.002603137
210	0x3da9c064	0.08288649
211	0xbd1756ef	-0.03694814
212	0xbd07340f	-0.03300863
213	0x3d8ac786	0.06776337
214	0x3d8095c0	0.062785625
215	0xba90c268	-0.0011044266
216	0x3d1df972	0.038567968
217	0x3d4049fd	0.04694556
218	0xbda26074	-0.07928553
219	0xbd29c3cc	-0.041446492
220	0xbb4605b9	-0.0030215813
221	0x3dab270b	0.08357056
222	0xbd08e710	-0.033423483
223	0x3bbd7b86	0.0057825474
224	0xbd8cd066	-0.06875686
225	0xbce86dee	-0.028372731
226	0xbd8396f3	-0.06425276
227	0xbb47c5da	-0.003048292
228	0xbc692d12	-0.014231937
229	0x3d141149	0.036149297
230	0x3d5397a0	0.051658273
231	0xbb1fbc57	-0.0024373734
232	0x3bc1824f	0.0059054266
233	0xbd915ff5	-0.070983805
234	0xbcc684fb	-0.024233332
235	0xbd07f8de	-0.033196323
236	0xbd9b3768	-0.07578927
237	0x3d9a37af	0.07530152
238	0xbd31b0e8	-0.0433816
239	0x3cb4a42a	0.022050936
240	0xbd7b30d5	-0.061325867
241	0xbd0e59d2	-0.034753628
242	0xbc061389	-0.0081833685
243	0xbd9a392b	-0.07530435
244	0x3d76412d	0.06012075
245	0xbca640c2	-0.02029455
246	0x3bd85182	0.0066015134
247	0xbd022ff1	-0.031784
248	0xbd9feeab	-0.07809194
249	0x3d943ce1	0.07238174
250	0xbbd6fd09	-0.006560926
251	0xbd284bfb	-0.041088086
252	0x3db113b1	0.08646334
253	0x3d8fe130	0.07025373
254	0xbd76bd57	-0.060239162
255	0x3dae41d2	0.08508648

encoders.0.encoder.conv.bias f4 [128]
0	0xba8135d7	-0.0009857964
1	0xba606342	-0.00085597124
2	0x3a82cf1f	0.000997994
3	0xba82b32f	-0.0009971614
4	0x3a822e26	0.0009931966
5	0xba821d50	-0.0009926949
6	0xba81cad6	-0.0009902369
7	0x3a82dfab	0.0009984871
8	0x3a82d0f0	0.0009980481
9	0x3a82d456	0.0009981494
10	0xba82e35b	-0.000998597
11	0x3a82649b	0.0009948196
12	0x3a82c9bf	0.0009978338
13	0xba82b161	-0.0009971076
14	0xba82d6d8	-0.0009982241
15	0xba82d36f	-0.0009981225
16	0xba829e64	-0.0009965417
17	0x3a82dfc0	0.0009984896
18	0xba82e397	-0.000998604
19	0x3a800a7b	0.0009768748
20	0xba80fd55	-0.0009841124
21	0xba82d415	-0.0009981418
22	0x3a82a1ee	0.0009966472
23	0x3a82f402	0.0009990933
24	0x3a82dec4	0.0009984602
25	0xba7fa68e	-0.00097522966
26	0xba82a4c1	-0.0009967313
27	0xba82c40a	-0.0009976637
28	0xba823436	-0.0009933773
29	0xba82f9d3	-0.0009992666
30	0x3a8246dc	0.0009939331
31	0xba82e7d2	-0.0009987301
32	0xba82e8cb	-0.0009987591
33	0xba803b66	-0.0009783327
34	0xba82f722	-0.0009991864
35	0xba82c514	-0.0009976947
36	0x3a82a490	0.0009967256
37	0xba82abb7	-0.0009969388
38	0xba82ba2f	-0.00099737
39	0x3a82d8c9	0.000998282
40	0x3a82e884	0.0009987508
41	0x3a828c3f	0.000996001
42	0x3a82df47	0.0009984755
43	0xba828527	-0.0009957895
44	0x3a820b97	0.0009921667
45	0xba8293ed	-0.0009962298
46	0x3a82c323	0.0009976368
47	0x3a82ec90	0.0009988714
48	0xba828aed	-0.0009959616
49	0x3a823636	0.0009934369
50	0x3a81a99f	0.000989247
51	0x3a82ea55	0.0009988049
52	0xba8198ca	-0.0009887454
53	0x3a80b572	0.00098197
54	0x3a82ab8a	0.0009969336
55	0x3a8282a3	0.0009957146
56	0xba82b839	-0.0009973116
57	0xba813ffb	-0.0009860987
58	0xba827081	-0.0009951742
59	0x3a827127	0.0009951935
60	0xba827a04	-0.0009954576
61	0x3a82aa10	0.0009968895
62	0xba82c045	-0.0009975514
63	0x3a82da5f	0.0009983293
64	0xba829833	-0.0009963572
65	0x3a82f5df	0.0009991488
66	0xba82e78f	-0.0009987223
67	0x3a82cdc0	0.0009979531
68	0x3a82b286	0.0009971417
69	0xba81e6fb	-0.0009910756
70	0x3a82e4ef	0.000998644
71	0x3a82afd2	0.0009970611
72	0x3a826177	0.000994726
73	0x3a8058c7	0.0009792083
74	0x3a82c282	0.0009976181
75	0x3a82ac8e	0.0009969638
76	0x3a82d7fd	0.0009982582
77	0x3a82b0b9	0.000997088
78	0x3a82b319	0.0009971588
79	0x3a82d5e6	0.000998196
80	0x3a82c52b	0.0009976974
81	0x3a82a824	0.0009968323
82	0xba731e8b	-0.00092742656
83	0x3a82d92e	0.0009982937
84	0x3a824ad4	0.0009940513
85	0xba82b3d5	-0.0009971807
86	0xba820336	-0.000991917
87	0x3a82c2a7	0.0009976224
88	0x3a82f13f	0.000999011
89	0x3a8285c9	0.0009958084
90	0xba82b037	-0.0009970729
91	0x3a82a617	0.0009967712
92	0xba82aeb0	-0.0009970274
93	0xba82da30	-0.0009983238
94	0x3a82f7f6	0.0009992111
95	0xba808867	-0.0009806276
96	0x3a82d17d	0.0009980645
97	0xba828c6f	-0.0009960065
98	0x3a82c546	0.0009977005
99	0xba82a5bf	-0.0009967609
100	0xba7d5fc2	-0.0009665453
101	0x3a82ae22	0.0009970109
102	0x3a82f54a	0.0009991315
103	0xba81fb03	-0.0009916726
104	0x3a82693f	0.0009949579
105	0x3a82b253	0.0009971358
106	0x3a799da7	0.0009522088
107	0xba82b934	-0.0009973408
108	0xba82c1f2	-0.0009976013
109	0x3a82d00e	0.0009980218
110	0x3a82cc9d	0.0009979192
111	0xba828290	-0.0009957124
112	0xba8280c4	-0.0009956588
113	0x3a81c96d	0.0009901949
114	0xba825753	-0.0009944238
115	0xba812036	-0.0009851519
116	0xba82d53f	-0.0009981765
117	0xba82c554	-0.0009977021
118	0x3a82bb29	0.0009973991
119	0x3a826d83	0.000995085
120	0xba8261a7	-0.0009947316
121	0x3a768521	0.0009403993
122	0xba817d44	-0.0009879251
123	0xba825d6c	-0.0009946055
124	0xba82d89b	-0.0009982766
125	0x3a82c833	0.0009977877
126	0xba81c174	-0.0009899572
127	0x3a824e7b	0.0009941602

encoders.0.encoder.conv.lin.weight f4 [128, 16]
0	0x3d9df2d0	0.077123284
1	0xbe2d1e88	-0.16906178
2	0xbddacf4d	-0.10684071
3	0x3da452c4	0.08023599
4	0xbd56ec9c	-0.052471742
5	0x3e17a315	0.14808305
6	0xbd6be437	-0.05759069
7	0x3dce0209	0.10058982
8	0x3d4ceeda	0.050032474
9	0x3d95cb9c	0.07314226
10	0x3d5ff0cf	0.054673012
11	0xbdd1cb6e	-0.10243879
12	0x3da06ba0	0.07833028
13	0x3e1ca2c7	0.1529647
14	0x3e31547a	0.17317382
15	0xbe4d6819	-0.20059241
16	0xbe0830bd	-0.13299842
17	0xbe3eb4c7	-0.18623649
18	0xbde5fda7	-0.11230021
19	0xbe4e0014	-0.20117217
20	0xbe05f13a	-0.13080302
21	0x3d8a589b	0.067551814
22	0x3e0518d4	0.12997752
23	0xbdf78fa3	-0.120879434
24	0x3b4fd498	0.003171241
25	0x3c547b95	0.012968917
26	0xbe5188ba	-0.20462313
27	0xbe50a12e	-0.20373985
28	0x3e3c0420	0.18360949
29	0x3da2099a	0.079119876
30	0xbd11444b	-0.03546552
31	0x3de7418c	0.11291799
32	0xbd9a2736	-0.0752701
33	0xbd9513c6	-0.07279162
34	0xbe0af040	-0.1356821
35	0xbd5a709a	-0.05333004
36	0x3c9577f4	0.018245675
37	0xbd8c77b6	-0.068587705
38	0x3d53822c	0.051637813
39	0xbd93e078	-0.072205484
40	0x3df91e6f	0.12164008
41	0x3da9a216	0.082828686
42	0xbcfe77a4	-0.031062908
43	0x3db96a8f	0.090535276
44	0xbe26e78d	-0.16299267
45	0x3d3d056b	0.046147745
46	0xbe42dad5	-0.1902879
47	0xbc975d6f	-0.01847717
48	0x3da1cfdf	0.079009764
49	0x3dc5f013	0.09664931
50	0x3ccc8996	0.02496795
51	0x3d02fe17	0.0319806
52	0xbd25f31d	-0.040515054
53	0xbd9d1176	-0.07669346
54	0x3e12e4ce	0.14345095
55	0xbe3300dd	-0.17480798
56	0x3e4cd34a	0.20002475
57	0xbe15eebe	-0.14641854
58	0xbdf70c6d	-0.12062917
59	0xbe1427d9	-0.14468326
60	0x3e01a37f	0.12660025
61	0xbe1b2e14	-0.15154296
62	0x3db67320	0.08908677
63	0x3db23ce2	0.08703019
64	0xbde27e74	-0.11059275
65	0xbe430108	-0.19043362
66	0xbe3e1ba0	-0.18565226
67	0xbd8679ea	-0.06566222
68	0xbd0ac1f3	-0.03387637
69	0xbe467ac8	-0.19382775
70	0xbd09dfb6	-0.033660613
71	0x3ab7613d	0.0013990771
72	0xbddf6fa5	-0.109099664
73	0x3d6bbc7f	0.05755281
74	0xbdf87844	-0.12132314
75	0x3e2b0dec	0.1670453
76	0x3e1790f7	0.14801393
77	0xbc064865	-0.008195971
78	0xbd35a791	-0.044349257
79	0x3c55f5a8	0.013059057
80	0xbe210879	-0.15725888
81	0x3e497159	0.19672145
82	0xbe380506	-0.17970666
83	0xbdccdbb7	-0.10002845
84	0xbdbe6344	-0.09296277
85	0xbd9e6374	-0.07733813
86	0xbd9f12de	-0.077672705
87	0xbd7c0f89	-0.061538253
88	0xbcd53e54	-0.026030697
89	0x3e178b13	0.14799146
90	0x3c0dd1f3	0.008656013
91	0xbe0ea141	-0.13928701
92	0xbdcd7724	-0.1003249
93	0xbd97046b	-0.073738895
94	0x3e47fc5f	0.19529866
95	0xbdfdd771	-0.12394608
96	0xbd75938b	-0.05995516
97	0xbd86c5dd	-0.06580708
98	0xbd8e75a2	-0.069560304
99	0x3d91b6f8	0.07114977
100	0x3e2792b7	0.16364561
101	0xbe0c3c0d	-0.13694783
102	0xbe35ac85	-0.17741592
103	0x3d9ff0a4	0.078095704
104	0xbcc84a35	-0.024449447
105	0x3d271dbc	0.04079984
106	0xbd316583	-0.0433097
107	0x3dea6c14	0.114463955
108	0xbe001010	-0.12506127
109	0x3e3a267c	0.18178743
110	0xbd3a79df	-0.04552638
111	0xbe4031e9	-0.18769039
112	0xbd2171cc	-0.039415166
113	0x3e3cb94f	0.18430065
114	0x3e160d15	0.14653428
115	0x3d806490	0.06269181
116	0xbe075e52	-0.13219574
117	0xbe2f7ac5	-0.17136677
118	0x3cc6a2dd	0.024247581
119	0x3dabde26	0.08391981
120	0x3c885d8d	0.016646171
121	0xbde4c770	-0.11170852
122	0x3e4d899c	0.20072025
123	0xbdc112fb	-0.09427448
124	0x3db96cbb	0.09053942
125	0xbd10c662	-0.035345443
126	0x3c2a0053	0.010376054
127	0x3d4e4142	0.050355203
128	0x3e5055f1	0.20345284
129	0x3d9032e0	0.07040954
130	0xbe44ed5a	-0.19231167
131	0x3d894a3b	0.067036115
132	0x3be6aa54	0.0070393477
133	0xbcc2c481	-0.023775341
134	0x3e0c74ed	0.13716479
135	0x3d06e4d6	0.03293308
136	0x3cdf5799	0.02726345
137	0x3e18e5e8	0.14931452
138	0x3d661de4	0.05618085
139	0x3e16332b	0.14667957
140	0xbe312037	-0.17297445
141	0xbd2aa69f	-0.04166281
142	0xbd985a62	-0.07439114
143	0x3e3b1cf4	0.18272763
144	0xbdec767c	-0.115460366
145	0x3bf64998	0.0075160973
146	0x3dadd86d	0.084885456
147	0xbdff1c9e	-0.1245663
148	0xbdce55d8	-0.10074967
149	0xbe3b3c52	-0.18284729
150	0x3d86cf95	0.06582562
151	0x3e3c93f1	0.1841581
152	0xbdde809f	-0.10864376
153	0xbdda76dc	-0.10667202
154	0x3de5e842	0.1122594
155	0x3e3a9d87	0.18224154
156	0xbde9c9cc	-0.11415443
157	0x3e34a881	0.17642404
158	0x3d2722e4	0.04080476
159	0xbe1f279c	-0.15542454
160	0x3d8cc717	0.06873911
161	0xbda7f0ec	-0.08200249
162	0xbc74d309	-0.014942893
163	0xbdac4717	-0.08411997
164	0x3dbb155f	0.091349356
165	0xbdc45efa	-0.09588428
166	0xbcf05c23	-0.02934081
167	0x3dc15c37	0.09441417
168	0x3e2486d6	0.16067061
169	0xbdce1323	-0.10062244
170	0xbd5ed848	-0.05440548
171	0x3e1c2926	0.15250072
172	0xbc01198d	-0.007879627
173	0x3dd47768	0.103743374
174	0x3e47f7d7	0.19528137
175	0xbe0198e8	-0.12655985
176	0x3d480bb5	0.04883929
177	0xbe0f15d6	-0.13973173
178	0xbd2b5fc2	-0.04183937
179	0xbd465d30	-0.048428714
180	0xbdfc38ca	-0.12315519
181	0xbd8f2cf5	-0.06990997
182	0x3de8dd62	0.113703504
183	0x3e4e261a	0.20131722
184	0xbb4b5f65	-0.0031032201
185	0xbd030390	-0.03198582
186	0xbd35d8b6	-0.044396125
187	0x3e075c4b	0.132188
188	0xbe243803	-0.16036992
189	0x3e229c86	0.15880021
190	0x3e20561e	0.15657851
191	0x3e3b487e	0.18289372
192	0x3e428efb	0.18999855
193	0xbdd3e8e2	-0.10347153
194	0xbdf6bdc9	-0.120479174
195	0x3e3a9301	0.1822014
196	0xbe13297e	-0.14371297
197	0x3d87f381	0.066382416
198	0xbca1ee6c	-0.019767009
199	0xbdd2fcf7	-0.103021555
200	0xbe4b9ce3	-0.19884066
201	0xbdc05007	-0.09390264
202	0xbe0a7362	-0.13520578
203	0xbd64fa40	-0.05590272
204	0xbe2b37b8	-0.16720474
205	0xbe391533	-0.18074493
206	0xbdb44109	-0.08801467
207	0x3df00c7d	0.11721132
208	0x3d935951	0.0719477
209	0x3e0971a8	0.13422263
210	0x3d0276a7	0.031851437
211	0xbd470a3e	-0.048593752
212	0x3e4d9375	0.20075782
213	0xbe254b32	-0.16141966
214	0x3ddb30d5	0.10702673
215	0xbe395bb0	-0.18101382
216	0xbe0da84f	-0.13833736
217	0x3da06121	0.07831026
218	0x3e2c16ac	0.16805524
219	0x3c848f0a	0.016181488
220	0xbd0843dd	-0.033267844
221	0xba9a9821	-0.0011794606
222	0xbd2b3ee8	-0.04180804
223	0xbda889d9	-0.08229417
224	0xbe0c649c	-0.13710254
225	0x3db051bc	0.086093396
226	0xbe31174f	-0.17294048
227	0x3a103013	0.00055003277
228	0x3d8d2b83	0.06893065
229	0x3e14f8a3	0.14547972
230	0xbe061160	-0.13092566
231	0xbcc1209a	-0.023575116
232	0xbdff3321	-0.12460924
233	0xbd8ae2bf	-0.0678153
234	0x3e1e4ee7	0.15459786
235	0xbe37254d	-0.17885323
236	0xbe4ebdf8	-0.20189655
237	0xbd7aef4f	-0.06126338
238	0x3d323970	0.043511808
239	0xbd774e0a	-0.06037716
240	0xbe1ff787	-0.15621768
241	0xbe48b214	-0.19599181
242	0xbde7c63c	-0.11317107
243	0xbc0022f0	-0.00782083
244	0x3e1fbde0	0.15599775
245	0xbbc166cb	-0.0059021465
246	0xbd9c487a	-0.07631011
247	0xbe147b35	-0.14500125
248	0xbcd4007a	-0.025879133
249	0x3da5606c	0.08075032
250	0x3d8c6894	0.06855884
251	0x3d91efbe	0.07125805
252	0x3e1a29c6	0.15054998
253	0xbe2ad2e2	-0.16682008
254	0x3e13a954	0.14420062
255	0xbd840166	-0.06445579

encoders.0.encoder.prelu.weight f4 [128]
0	0x3e8082c3	0.25099763
1	0x3e7efa3f	0.24900149
2	0x3e7f02fd	0.24903484
3	0x3e7efa49	0.24900164
4	0x3e8081bc	0.2509898
5	0x3e808198	0.25098872
6	0x3e8082c1	0.25099757
7	0x3e7f0f64	0.24908215
8	0x3e80824d	0.25099412
9	0x3e80825a	0.2509945
10	0x3e80627c	0.25075138
11	0x3e7f020c	0.24903125
12	0x3e7efc78	0.24900997
13	0x3e7f017a	0.24902907
14	0x3e7efa26	0.24900112
15	0x3e7f82c7	0.24952231
16	0x3e80824e	0.25099415
17	0x3e8082ac	0.25099695
18	0x3e7efc69	0.24900974
19	0x3e7f0546	0.24904355
20	0x3e7efdef	0.24901555
21	0x3e7efbf1	0.24900796
22	0x3e8082ca	0.25099784
23	0x3e8082db	0.25099835
24	0x3e8082c7	0.25099775
25	0x3e8081da	0.2509907
26	0x3e8082bf	0.2509975
27	0x3e7efb7f	0.24900626
28	0x3e80828c	0.250996
29	0x3e7efa77	0.24900232
30	0x3e7f013a	0.24902812
31	0x3e7eff77	0.2490214
32	0x3e7efaf8	0.24900424
33	0x3e7efd69	0.24901356
34	0x3e7efd40	0.24901295
35	0x3e7f08c1	0.24905683
36	0x3e7efab2	0.2490032
37	0x3e7efaa8	0.24900305
38	0x3e7efc28	0.24900877
39	0x3e80806c	0.25097978
40	0x3e80822a	0.25099307
41	0x3e808271	0.2509952
42	0x3e808222	0.25099283
43	0x3e7efadb	0.24900381
44	0x3e80818b	0.25098833
45	0x3e7f0678	0.24904811
46	0x3e808055	0.2509791
47	0x3e8080b2	0.25098187
48	0x3e8082ca	0.25099784
49	0x3e7efa8d	0.24900265
50	0x3e808200	0.25099182
51	0x3e7efcf5	0.24901183
52	0x3e7efadc	0.24900383
53	0x3e7efebc	0.24901861
54	0x3e8082bf	0.2509975
55	0x3e7efb62	0.24900582
56	0x3e7efceb	0.24901168
57	0x3e7efc7e	0.24901006
58	0x3e7efb6b	0.24900596
59	0x3e8082aa	0.2509969
60	0x3e808292	0.25099617
61	0x3e7eff40	0.24902058
62	0x3e8080fa	0.250984
63	0x3e8082c1	0.25099757
64	0x3e7f01db	0.24903052
65	0x3e8082b0	0.25099707
66	0x3e7efa9f	0.24900292
67	0x3e808287	0.25099584
68	0x3e8082c6	0.25099772
69	0x3e80825f	0.25099465
70	0x3e808172	0.2509876
71	0x3e80819f	0.25098893
72	0x3e8080e2	0.2509833
73	0x3e7efa77	0.24900232
74	0x3e80827c	0.25099552
75	0x3e807a94	0.2509352
76	0x3e803554	0.25040686
77	0x3e7efdb9	0.24901475
78	0x3e7efa65	0.24900205
79	0x3e7efbf8	0.24900806
80	0x3e7efc89	0.24901022
81	0x3e808229	0.25099304
82	0x3e808158	0.2509868
83	0x3e7efd39	0.24901284
84	0x3e7efb43	0.24900536
85	0x3e7efa95	0.24900277
86	0x3e80814e	0.25098652
87	0x3e808137	0.25098583
88	0x3e7efac3	0.24900346
89	0x3e7f0fd6	0.24908385
90	0x3e7f01f4	0.24903089
91	0x3e808289	0.2509959
92	0x3e7efab8	0.24900329
93	0x3e7efa7c	0.2490024
94	0x3e8082d1	0.25099805
95	0x3e80812b	0.25098547
96	0x3e7f0a0d	0.24906178
97	0x3e807e15	0.25096193
98	0x3e7f06df	0.24904965
99	0x3e80827f	0.2509956
100	0x3e8082aa	0.2509969
101	0x3e7efc0a	0.24900833
102	0x3e8082c1	0.25099757
103	0x3e808011	0.25097707
104	0x3e807ca8	0.25095105
105	0x3e7efd51	0.2490132
106	0x3e7efb95	0.24900658
107	0x3e808162	0.2509871
108	0x3e7efac1	0.24900343
109	0x3e808282	0.2509957
110	0x3e80823d	0.25099364
111	0x3e8082bf	0.2509975
112	0x3e807f79	0.25097254
113	0x3e7efae0	0.24900389
114	0x3e80826e	0.2509951
115	0x3e807b29	0.25093964
116	0x3e7efb83	0.24900632
117	0x3e7efe89	0.24901785
118	0x3e7f03c6	0.24903783
119	0x3e807e6e	0.25096458
120	0x3e7f01ea	0.24903074
121	0x3e7eff8d	0.24902172
122	0x3e7efae3	0.24900393
123	0x3e8082c3	0.25099763
124	0x3e7efa3d	0.24900146
125	0x3e8082cb	0.25099787
126	0x3e7f0baa	0.24906793
127	0x3e80827e	0.25099558

encoders.0.encoder.conv2.bias f4 [128]
0	0x3a82aea9	0.0009970266
1	0x3a82d43b	0.0009981462
2	0x3a829642	0.0009962993
3	0x3a820587	0.000991986
4	0x3a82b9f9	0.0009973637
5	0x3a82e4ee	0.0009986439
6	0xba7e8829	-0.00097096205
7	0xba824b79	-0.0009940705
8	0xba817dca	-0.0009879407
9	0x3a8286d3	0.0009958394
10	0x3a828169	0.000995678
11	0x3a783673	0.0009468563
12	0xba82c2b6	-0.0009976241
13	0x3a8085d6	0.0009805511
14	0x3a82cf78	0.0009980043
15	0x3a81ca64	0.0009902236
16	0x3a829c8f	0.0009964871
17	0x3a82f455	0.000999103
18	0x3a816e90	0.0009874869
19	0x3a82d03d	0.0009980273
20	0xba8257a7	-0.0009944335
21	0xba82aedb	-0.0009970324
22	0x3a82ec59	0.000998865
23	0x3a82d6b6	0.0009982202
24	0xba82c293	-0.00099762
25	0xba82ae68	-0.000997019
26	0x3a82bfb1	0.0009975341
27	0xba814011	-0.0009861012
28	0x3a82e851	0.0009987449
29	0x3a82e2b0	0.0009985771
30	0x3a82d3d0	0.0009981338
31	0x3a82c7b2	0.0009977727
32	0x3a7c3415	0.0009620798
33	0xba82dd97	-0.0009984252
34	0x3a82ecff	0.0009988843
35	0x3a8249c5	0.0009940198
36	0x3a82d932	0.0009982942
37	0x3a829a9d	0.0009964291
38	0xba80a3c2	-0.0009814429
39	0xba82cd5d	-0.0009979416
40	0x3a826a16	0.0009949829
41	0x3a82d4af	0.0009981598
42	0x3a82cd83	0.000997946
43	0x3a80dea2	0.0009831975
44	0x3a82e21c	0.0009985599
45	0x3a82c254	0.0009976127
46	0x3a8273cc	0.0009952723
47	0x390961cf	0.00013101775
48	0x3a82857d	0.0009957995
49	0x3a82bf52	0.0009975231
50	0x3a8230d0	0.000993276
51	0x3a82c56e	0.0009977052
52	0xba82c81d	-0.0009977851
53	0xba82cb1e	-0.0009978747
54	0x3a82b104	0.0009970968
55	0x3a825ba7	0.0009945527
56	0xba82c5a7	-0.0009977118
57	0x3a7a3694	0.0009544876
58	0xba824084	-0.000993744
59	0x3a8272ed	0.0009952463
60	0xba828413	-0.0009957574
61	0x3a82ce34	0.0009979666
62	0x3a82e7f2	0.0009987338
63	0xba76bf90	-0.00094127003
64	0x3a82eca8	0.0009988742
65	0x3a823e52	0.0009936786
66	0xba82e17b	-0.0009985411
67	0x3a7f1ffe	0.0009732245
68	0xba80e780	-0.0009834617
69	0xba7eedfd	-0.0009724794
70	0xba826b1b	-0.0009950133
71	0x3a82fc91	0.0009993484
72	0x3a82ee51	0.0009989237
73	0x3a82391f	0.0009935236
74	0x3a82f7d0	0.0009992067
75	0xba82ad2f	-0.0009969826
76	0xba82ef61	-0.0009989553
77	0x3a82d1ab	0.0009980699
78	0xba82dbf4	-0.0009983764
79	0x3a82a24a	0.0009966579
80	0x3a82b256	0.0009971361
81	0x3a82f84b	0.000999221
82	0x3a82d22a	0.0009980847
83	0x3a82a394	0.0009966963
84	0x3a82e794	0.0009987229
85	0xba829d6b	-0.0009965127
86	0x3a82da9b	0.0009983362
87	0xba82c7eb	-0.0009977793
88	0x3a82ae3f	0.0009970142
89	0xba81ff24	-0.0009917957
90	0xba82aef9	-0.0009970359
91	0x3a82e389	0.0009986024
92	0x3a82da9b	0.0009983362
93	0xba823a45	-0.0009935579
94	0x3a82c493	0.0009976797
95	0xba82ed0d	-0.000998886
96	0xba82c79f	-0.0009977705
97	0xba8216c9	-0.0009925003
98	0xba82b147	-0.0009971046
99	0xba82e3ed	-0.000998614
100	0xba82dfd7	-0.0009984922
101	0x3a82c514	0.0009976947
102	0x3a82516b	0.0009942477
103	0x3a825d2b	0.0009945979
104	0xba82bc90	-0.0009974409
105	0x3a825e95	0.00099464
106	0xba82ad36	-0.0009969834
107	0x3a825409	0.0009943257
108	0x3a828a67	0.000995946
109	0xba82cd90	-0.0009979475
110	0xba82b3bd	-0.0009971779
111	0x3a8298e7	0.0009963781
112	0xba7a92b2	-0.00095586025
113	0xba82effb	-0.0009989733
114	0x3a828fd6	0.0009961079
115	0x3a821e03	0.0009927157
116	0x3a82b9c9	0.0009973581
117	0x3a81e97b	0.0009911502
118	0x3a82d14f	0.0009980592
119	0xba81f507	-0.0009914943
120	0x3a82cf5d	0.0009980012
121	0xba82e5e3	-0.0009986724
122	0x3a82a442	0.0009967166
123	0x3a82c8a0	0.0009978004
124	0x3a826a3b	0.0009949872
125	0xba80e827	-0.0009834812
126	0x3a82e11f	0.0009985304
127	0xba80bebe	-0.0009822471

encoders.0.encoder.conv2.lin.weight f4 [128, 128]
0	0xbda338eb	-0.079698406
1	0x3df0d89f	0.11760067
2	0x3cddb390	0.027063161
3	0xbdc4a3c1	-0.09601546
4	0xbe0c4a88	-0.13700306
5	0xbd840f00	-0.064481735
6	0x3db502bf	0.088384144
7	0xbdac34b1	-0.084084876
8	0xbe014aad	-0.12626143
9	0x3e0e5a53	0.13901643
10	0xbd8be67a	-0.06831069
11	0xbda4778d	-0.08030615
12	0x3e193865	0.14962919
13	0x3dd5b004	0.10433963
14	0x3bc8aaa2	0.0061238566
15	0x3dfb1128	0.12259132
16	0x3de90dee	0.1137961
17	0x3b968ccb	0.0045944205
18	0x3dc99b31	0.098440535
19	0x3c2daf09	0.010600814
20	0x3de86903	0.113481544
21	0xbdd969fe	-0.106159195
22	0xbbd4a2ce	-0.0064891344
23	0x3e0010d9	0.12506427
24	0xbd38cc11	-0.045116488
25	0x3de24c5b	0.1104972
26	0x3d33d5e4	0.043905154
27	0xbdb3ef3b	-0.08785864
28	0xbe185091	-0.14874484
29	0x3cfbb00f	0.0307236
30	0xbd1322bb	-0.035921793
31	0xbd1488e0	-0.036263347
32	0xbdbc465c	-0.091931075
33	0x3cdb53ff	0.02677345
34	0xba7b358a	-0.0009582868
35	0x3e136519	0.14394034
36	0xbbff0d2b	-0.007783552
37	0xbdddc902	-0.10829355
38	0x3d7bf2f2	0.061510988
39	0xbded0cbd	-0.11574695
40	0xbc6eb724	-0.014570031
41	0x3de873ad	0.113501884
42	0xbda35915	-0.079759754
43	0x3db121cb	0.086490236
44	0xbd5f1ef1	-0.054472867
45	0xbe13d88a	-0.14438072
46	0xbdd82402	-0.10553743
47	0xbda871b5	-0.08224813
48	0x3d654ff8	0.055984467
49	0x3d60df71	0.05490059
50	0x3e03f1b3	0.1288517
51	0x3e059bf2	0.1304777
52	0x3e0a665e	0.13515612
53	0x3d10a3e5	0.035312552
54	0xbdb6c600	-0.08924484
55	0xbdbba83a	-0.09162946
56	0x3b1218fc	0.0022292724
57	0x3c748daa	0.0149263535
58	0x3cd9abeb	0.026571235
59	0x3ddc53bb	0.10758158
60	0xbc2f397d	-0.010694859
61	0x3dcac564	0.099009305
62	0xbd39464b	-0.045233052
63	0x3dd4d6a8	0.10392505
64	0x3d224cd8	0.039624065
65	0xbdc8eb4c	-0.09810504
66	0xbc843bce	-0.016141798
67	0x3c2726b2	0.010202097
68	0xbe1857d0	-0.14877248
69	0x3dd0f13a	0.1020226
70	0x3c2ca745	0.010537927
71	0x3dea3c85	0.114373244
72	0xbd5e1d47	-0.05422714
73	0x3b8e0921	0.0043345843
74	0xbd874915	-0.06605736
75	0xbde2aac0	-0.11067724
76	0xbdaad7f8	-0.08341974
77	0x3e042d86	0.12907991
78	0xbdcc9262	-0.09988858
79	0x3d93d98a	0.07219227
80	0x3cfce3b8	0.030870304
81	0xbdb79737	-0.08964389
82	0xbd9149cd	-0.070941545
83	0x3d230a5f	0.039804813
84	0x3dea2159	0.11432142
85	0xbda6c672	-0.08143319
86	0x3e12b775	0.14327796
87	0xbb9ff748	-0.004881773
88	0xbbf0549f	-0.0073343064
89	0xbd52475d	-0.05133759
90	0xbd18427c	-0.03717278
91	0x3db503fc	0.088386506
92	0xbdfab149	-0.12240846
93	0x3d686f68	0.05674687
94	0xbda08585	-0.07837967
95	0x3d5a61fe	0.05331611
96	0xbe1070f1	-0.14105584
97	0x3e08fdf9	0.13378133
98	0xbb8ac645	-0.0042350614
99	0x3d74f7f3	0.059806775
100	0x3dbd70be	0.092500195
101	0x3b8e3af3	0.0043405234
102	0xbd2b72dc	-0.041857585
103	0x3d6ee599	0.05832443
104	0x3e16a8fd	0.14712901
105	0xbe08041c	-0.13282818
106	0x3dc01266	0.09378509
107	0xbdcb3716	-0.09922616
108	0x3c1c96fe	0.009557484
109	0x3d5f5d7c	0.054532513
110	0xbe16ed21	-0.14738895
111	0xbdcff0d8	-0.10153359
112	0x3d8692db	0.06570979
113	0x3cf2d31c	0.02964168
114	0x3d64b34c	0.055835053
115	0xbc57ee07	-0.013179309
116	0x3da6d319	0.081457324
117	0x3de4d7f9	0.11174006
118	0x3d2b0c4b	0.04175977
119	0x3cf581a5	0.029969046
120	0x3d8e7641	0.06956149
121	0x3da7c584	0.0819197
122	0x3e0b3724	0.13595253
123	0x3d8d16c5	0.068891086
124	0xbd7ce00f	-0.061737116
125	0xbdc77687	-0.09739404
126	0x3cf0528b	0.029336235
127	0x3dcc32ad	0.09970603
128	0x3e16d430	0.1472938
129	0xbdacdb77	-0.08440297
130	0x3dae2cef	0.08504664
131	0x3d17e184	0.037080303
132	0xbdd1a7a7	-0.10237055
133	0x3da7ce44	0.08193639
134	0x3d501104	0.050797477
135	0x3c9def17	0.019279046
136	0xbd04aafe	-0.032389633
137	0x3dad2673	0.08454599
138	0xbde2d14c	-0.110750765
139	0x3de0c7d7	0.109756164
140	0xbd05a3a1	-0.03262675
141	0xbd5f8179	-0.054566834
142	0xbdf3f0d8	-0.11911172
143	0xbdb15432	-0.08658637
144	0x3de39c99	0.11113853
145	0xbdd03fb8	-0.101684034
146	0x3d9a0d5e	0.07522081
147	0x3e03928e	0.12848875
148	0xbda4ba8f	-0.08043396
149	0x3df78572	0.120859995
150	0x3d2fb0cb	0.042893212
151	0xbd21478c	-0.039374873
152	0xbcd3b154	-0.025841393
153	0x3cca528e	0.024697568
154	0x3c366c3b	0.011134203
155	0x3d49591d	0.04915725
156	0x3df92dc1	0.1216693
157	0xbe0ec8b7	-0.13943754
158	0x3da0011a	0.0781271
159	0xbd6b3fe2	-0.05743397
160	0x3b048436	0.0020220405
161	0x3d0cd7db	0.034385543
162	0xbd9a877a	-0.07545371
163	0xbd2e35b1	-0.042531673
164	0x3cdb9ade	0.026807245
165	0xbdcc9c17	-0.09990709
166	0x3ddbd9e0	0.10734916
167	0xbd5fd522	-0.05464662
168	0x3de73054	0.11288515
169	0xbd50a25c	-0.050936088
170	0xbdd8193a	-0.105516866
171	0xbe1992b1	-0.14997365
172	0xbb59f54c	-0.003325778
173	0xbdc9eeb3	-0.098599814
174	0x3e1bc08a	0.15210167
175	0x3da4e80b	0.08052071
176	0xbe069978	-0.13144481
177	0xbe1a8ea2	-0.15093473
178	0xbd6f398e	-0.058404498
179	0x3dfcce6c	0.12344059
180	0x3e10e5a8	0.14150107
181	0xbdeddb62	-0.116141096
182	0x3dd0fbb2	0.10204257
183	0xbc93f70a	-0.018062133
184	0xbe1ca63c	-0.15297788
185	0x3db3ded1	0.08782733
186	0x3dd7ec5b	0.10543128
187	0xbe1ab1df	-0.15106915
188	0x3b271507	0.002549471
189	0x3d799224	0.060930386
190	0xbdd1b0b4	-0.102387816
191	0xbcc7a1f7	-0.024369223
192	0xbd9e5896	-0.0773174
193	0x3ae9744d	0.001781115
194	0xbe126721	-0.14297153
195	0xbd14bdf6	-0.036313973
196	0x3e19ee13	0.15032224
197	0xbe05dcfb	-0.13072579
198	0x3db8daec	0.09026131
199	0xbd933da9	-0.07189495
200	0x3d806fbe	0.06271313
201	0xbdfde7c6	-0.12397723
202	0x3dfb98c3	0.12284996
203	0x3e19d9ac	0.15024441
204	0xbbbe54e7	-0.005808461
205	0x3dc2e775	0.09516803
206	0x3d87c243	0.06628849
207	0x3e07c696	0.13259348
208	0xbd888b4e	-0.06667195
209	0x3df1cb79	0.118063875
210	0x3d6b4468	0.057438284
211	0xbc8f0883	-0.017460113
212	0xbd13f073	-0.036117982
213	0xbdb7c209	-0.08972556
214	0x3e0510a8	0.12994635
215	0xbde9c45a	-0.11414404
216	0x3cd01087	0.025398506
217	0x3d9ebe5d	0.07751153
218	0x3dd9f4db	0.106424056
219	0x3d54c48b	0.05194525
220	0x3d3ff106	0.046860717
221	0x3e04ada2	0.1295686
222	0x3e196a33	0.14981918
223	0xbe05c359	-0.130628
224	0xbb9788c0	-0.004624456
225	0x3e0ccee0	0.13750792
226	0x3de2592b	0.11052164
227	0x3bb0705e	0.005384489
228	0x3dc7efce	0.09762536
229	0xbdd9a0c0	-0.10626364
230	0xbda04ffe	-0.07827757
231	0x3dc18e5e	0.094509825
232	0x3e1a96a6	0.1509653
233	0xbe1d26e8	-0.15346873
234	0x3df32ec1	0.11874152
235	0x3dd3ec46	0.103478
236	0x3d8d4a6e	0.06898962
237	0xbdbb1336	-0.091345236
238	0xbddea792	-0.10871805
239	0xbde9a523	-0.114084505
240	0x3de855c8	0.113444865
241	0xbd45783a	-0.04821036
242	0xbd326d73	-0.04356141
243	0x3d23c070	0.039978445
244	0x3dd0c229	0.10193283
245	0xbb5edac1	-0.00340049
246	0xbd301f6c	-0.042998716
247	0xbc2ed9e5	-0.010672067
248	0xbdd7cd51	-0.10537208
249	0xbdc109be	-0.09425686
250	0x3e0cfec5	0.13769062
251	0xbdefac51	-0.117027886
252	0xbd006a96	-0.03135165
253	0x3d5a8bb8	0.053355902
254	0x3e0da5e9	0.13832821
255	0xbd026544	-0.031834856

encoders.0.encoder.prelu2.weight f4 [128]
0	0x3e808206	0.250992
1	0x3e808148	0.25098634
2	0x3e808201	0.25099185
3	0x3e807e65	0.2509643
4	0x3e808205	0.25099197
5	0x3e808248	0.25099397
6	0x3e808283	0.25099573
7	0x3e7efc36	0.24900898
8	0x3e80670e	0.25078624
9	0x3e8082d3	0.2509981
10	0x3e808048	0.2509787
11	0x3e7efbc4	0.24900728
12	0x3e7efb1f	0.24900483
13	0x3e7efcd1	0.2490113
14	0x3e8081a7	0.25098917
15	0x3e807f35	0.2509705
16	0x3e80824f	0.25099418
17	0x3e808297	0.25099632
18	0x3e7efde7	0.24901544
19	0x3e8080d6	0.25098294
20	0x3e8081ee	0.25099128
21	0x3e7efe84	0.24901778
22	0x3e8082a5	0.25099674
23	0x3e80826c	0.25099504
24	0x3e7efb44	0.24900538
25	0x3e7efb3e	0.24900529
26	0x3e8081bb	0.25098976
27	0x3e7efc5b	0.24900953
28	0x3e808211	0.25099233
29	0x3e808208	0.25099206
30	0x3e7f0876	0.24905571
31	0x3e80813b	0.25098595
32	0x3e808291	0.25099614
33	0x3e7efbc1	0.24900724
34	0x3e8082d7	0.25099823
35	0x3e7efcb0	0.2490108
36	0x3e80820d	0.2509922
37	0x3e807e3c	0.2509631
38	0x3e807c4e	0.25094837
39	0x3e80816c	0.2509874
40	0x3e808202	0.25099188
41	0x3e80827c	0.25099552
42	0x3e7f0ab6	0.2490643
43	0x3e7efb16	0.24900469
44	0x3e8082a3	0.25099668
45	0x3e7efa61	0.249002
46	0x3e8082b3	0.25099716
47	0x3e7ffd31	0.24998929
48	0x3e8082e1	0.25099853
49	0x3e808076	0.25098008
50	0x3e808059	0.25097921
51	0x3e808263	0.25099477
52	0x3e7efc8e	0.2490103
53	0x3e7efba3	0.2490068
54	0x3e807a22	0.2509318
55	0x3e8082d2	0.25099808
56	0x3e7efae3	0.24900393
57	0x3e7f2597	0.24916683
58	0x3e7efaa3	0.24900298
59	0x3e808165	0.2509872
60	0x3e7efae4	0.24900395
61	0x3e7f06b6	0.24904904
62	0x3e80829e	0.25099653
63	0x3e808238	0.2509935
64	0x3e808241	0.25099376
65	0x3e7f775e	0.24947879
66	0x3e7efabd	0.24900337
67	0x3e80808f	0.25098082
68	0x3e7efc51	0.24900939
69	0x3e807c2d	0.2509474
70	0x3e7efbd1	0.24900748
71	0x3e8082d3	0.2509981
72	0x3e8082e3	0.2509986
73	0x3e8082ba	0.25099736
74	0x3e8081c2	0.25098997
75	0x3e7efdf0	0.24901557
76	0x3e7efaf6	0.24900422
77	0x3e7efa81	0.24900247
78	0x3e7f035d	0.24903627
79	0x3e7efe63	0.24901728
80	0x3e7f0830	0.24905467
81	0x3e8082b2	0.25099713
82	0x3e808211	0.25099233
83	0x3e7f8d6c	0.24956292
84	0x3e8082af	0.25099704
85	0x3e7efaf6	0.24900422
86	0x3e8082db	0.25099835
87	0x3e7efe59	0.24901713
88	0x3e808240	0.25099373
89	0x3e7efb10	0.2490046
90	0x3e7efb69	0.24900593
91	0x3e7efba9	0.24900688
92	0x3e7efcd0	0.24901128
93	0x3e7efc83	0.24901013
94	0x3e808118	0.2509849
95	0x3e7efac1	0.24900343
96	0x3e80811b	0.250985
97	0x3e7efab8	0.24900329
98	0x3e807c52	0.2509485
99	0x3e7efb88	0.24900639
100	0x3e7efbaa	0.2490069
101	0x3e808261	0.2509947
102	0x3e7efcc3	0.24901108
103	0x3e80822d	0.25099316
104	0x3e7efa22	0.24900106
105	0x3e807bec	0.25094545
106	0x3e80796b	0.25092635
107	0x3e808098	0.2509811
108	0x3e7efa4f	0.24900173
109	0x3e7efafd	0.24900432
110	0x3e80826a	0.25099498
111	0x3e80821f	0.25099275
112	0x3e7f0f66	0.24908218
113	0x3e7f0058	0.24902475
114	0x3e80812f	0.2509856
115	0x3e7efc10	0.24900842
116	0x3e7efaaa	0.24900308
117	0x3e7efd3a	0.24901286
118	0x3e80824e	0.25099415
119	0x3e7efebf	0.24901865
120	0x3e808272	0.25099522
121	0x3e7efb39	0.24900521
122	0x3e808251	0.25099424
123	0x3e808146	0.25098628
124	0x3e807ed4	0.25096762
125	0x3e7efaed	0.24900408
126	0x3e80829b	0.25099644
127	0x3e7efd27	0.24901257

encoders.1.weight f4 [128, 128]
0	0x3d4d3ac7	0.050104883
1	0xbd2734ee	-0.040821962
2	0x3c170734	0.009218026
3	0x3bcb1aca	0.006198262
4	0xbd79973b	-0.06093524
5	0x3d69cccd	0.05708008
6	0x3d7db5b7	0.061940875
7	0xbd9d004a	-0.07666071
8	0xbd97abe6	-0.07405834
9	0xbc13a147	-0.0090106195
10	0x3db241d5	0.08703963
11	0x3c373c6c	0.011183839
12	0xbd7f9f94	-0.062408045
13	0xbd757cd2	-0.05993349
14	0x3d9f7768	0.07786447
15	0xbd08d5ff	-0.033407208
16	0xbd727eb8	-0.05920288
17	0x3cc01961	0.023449602
18	0xbd88c58b	-0.06678303
19	0xbc37aabf	-0.011210143
20	0xbc3e0ded	-0.0116
21	0xbda47f52	-0.08032097
22	0xbd083c18	-0.033260435
23	0x3d94c0e3	0.07263353
24	0xbd83fd87	-0.06444841
25	0xbd22cc72	-0.039745755
26	0xbda71df9	-0.08160014
27	0x3cb470aa	0.022026379
28	0xbda3b844	-0.0799413
29	0x3daf5eab	0.08562978
30	0xbd94d492	-0.07267107
31	0x3c581b0d	0.013190043
32	0xbc2c54a8	-0.0105182305
33	0x3c84e7c4	0.016223796
34	0x3ce8a8df	0.028400837
35	0xbd7e2793	-0.06204946
36	0x3ba1ddc6	0.0049397675
37	0x3d400833	0.04688282
38	0xbd0ceb4d	-0.034404088
39	0xbd3fa10d	-0.04678445
40	0x3cd42ec5	0.025901208
41	0xbd1d868a	-0.038458385
42	0xbd5a864c	-0.05335073
43	0x3b8de27b	0.004329977
44	0xbd5b46f2	-0.053534456
45	0x3d12a63f	0.035803076
46	0x3d90083c	0.070328206
47	0x3d8d711a	0.06906338
48	0xbd1daf90	-0.038497508
49	0x3d64f6d2	0.05589945
50	0x3c95ab82	0.018270258
51	0x3d81c003	0.063354515
52	0x3d074098	0.033020586
53	0xbdb01157	-0.08597057
54	0x3d43482b	0.047676247
55	0x3d77ba75	0.060480554
56	0xbda37073	-0.07980432
57	0x3d95263d	0.07282684
58	0xbd85de8b	-0.06536587
59	0xbd619327	-0.055071976
60	0x3d8f6f0b	0.07003602
61	0xbdb581fb	-0.088626824
62	0xbda05c3e	-0.07830094
63	0x3da4d6bb	0.08048769
64	0xbd3e5dbf	-0.046476122
65	0xbd8e7e05	-0.0695763
66	0xbda88739	-0.08228917
67	0xbcb1e819	-0.021717118
68	0xbdb35e9a	-0.08758278
69	0xbda3c11f	-0.07995819
70	0xbdb3d6d8	-0.087812126
71	0xbd9640fb	-0.07336613
72	0x3d984ecd	0.07436905
73	0xbc78fe93	-0.015197414
74	0x3c8f9961	0.017529191
75	0xbd934f69	-0.07192881
76	0xbd156168	-0.036469847
77	0xbd9a1f11	-0.07525457
78	0xbc89d2b8	-0.016824111
79	0xbd783989	-0.060601745
80	0xbd0313ae	-0.03200119
81	0xbb8938e5	-0.0041876906
82	0xbd692f78	-0.056930035
83	0xbda74cd4	-0.08168951
84	0xbb5604e1	-0.0032656717
85	0xbbf7c41e	-0.007561221
86	0x3c306dae	0.010768337
87	0xbc310069	-0.01080332
88	0x3d2d98d1	0.042382065
89	0xbd672ed5	-0.056441147
90	0x3d806ea2	0.062711015
91	0x3c9cfbd3	0.019163048
92	0x3dab8527	0.08375006
93	0xbd4aaa88	-0.049479038
94	0xbd15238b	-0.03641085
95	0xbd730d0b	-0.05933861
96	0xbc7b6b69	-0.015345433
97	0x3d7c5836	0.061607562
98	0xbd9cbf12	-0.07653631
99	0xbd021c26	-0.031765126
100	0xbdaf6691	-0.08564485
101	0xbce02b11	-0.027364286
102	0x3c057331	0.00814514
103	0xbd4f0260	-0.050539374
104	0x3b53748d	0.0032265515
105	0xbda4b26f	-0.08041846
106	0x3cabdd0a	0.020979423
107	0xbdb01ede	-0.085996374
108	0x3c95598a	0.018231172
109	0x3d93003a	0.071777776
110	0x3dadff77	0.08495992
111	0xbd8c3ebc	-0.06847903
112	0x3d2d8bcb	0.042369645
113	0xbd819a71	-0.063282855
114	0x3cc68c9b	0.024236968
115	0xbcb0ac18	-0.021566436
116	0x3c48dc18	0.012259506
117	0xbd9380d6	-0.07202308
118	0x3d1a7d29	0.03771702
119	0x3d9455ed	0.072429515
120	0x3d16c0f0	0.036805093
121	0xbbb0491b	-0.0053798086
122	0x3d545749	0.051841054
123	0x3be58e61	0.0070054983
124	0x3d93a885	0.07209877
125	0x3d94c541	0.07264186
126	0xbcb8f5ac	-0.022578083
127	0x3cbba8e3	0.02290768
128	0x3db24409	0.08704383
129	0x3c4ebfc9	0.012618967
130	0x3da2f2ec	0.0795649
131	0x3d9f85e3	0.07789209
132	0xbd3caa6b	-0.04606096
133	0xbd6012e4	-0.054705516
134	0x3cff7197	0.031182094
135	0xbcdfbfdf	-0.027313171
136	0x3d88149b	0.06644555
137	0xbd9558db	-0.072923385
138	0x3bd666ef	0.0065430324
139	0xbcd9f336	-0.02660523
140	0x3d24c9ad	0.040231396
141	0xbd20e402	-0.039279945
142	0x3d6774e7	0.05650797
143	0x3ca5785a	0.02019899
144	0xbd5f09a1	-0.054452542
145	0x3d7b48a1	0.06134856
146	0xbd81e1be	-0.06341885
147	0xbd38b1fa	-0.045091607
148	0x3d8efd1e	0.06981872
149	0xbc20d225	-0.009815727
150	0x3d64f296	0.05589541
151	0xbd441b89	-0.047877822
152	0xbd854c0f	-0.06508648
153	0xbcefe833	-0.029285526
154	0x3cd37bc6	0.025815856
155	0xbd582d9c	-0.05277787
156	0x3d6ef7d2	0.05834181
157	0x3d620a6f	0.05518573
158	0x3da43ca4	0.08019379
159	0xbd5dabfc	-0.054119095
160	0x3d9b95b5	0.07596914
161	0x3d9bbb8e	0.076041326
162	0x3d941902	0.07231332
163	0x3dae98ef	0.085252635
164	0xbdb511c4	-0.08841279
165	0x3ca7d913	0.020489251
166	0x3db01590	0.08597863
167	0xbd680195	-0.056642134
168	0xbd3da67d	-0.046301354
169	0x3d89b9ae	0.06724869
170	0xbbb418f0	-0.005496137
171	0x3cf02c84	0.029318102
172	0xbd8a2cfd	-0.06746862
173	0x3b7230af	0.0036955287
174	0xbd18ed75	-0.03733583
175	0xbbc6a23b	-0.00606182
176	0xbda137cb	-0.0787197
177	0xbcac5ce2	-0.021040384
178	0xbd78fcc2	-0.060787924
179	0xbd04b698	-0.032400697
180	0x3d21aa31	0.039468948
181	0xba99e87a	-0.0011742257
182	0xbcd79fe9	-0.026321368
183	0x3db2d06d	0.0873116
184	0x3d97c800	0.07411194
185	0x3d6f3809	0.05840305
186	0x3d104741	0.035224203
187	0x3d086319	0.033297632
188	0xbccfaaad	-0.02534994
189	0xbc3ef9f4	-0.011656273
190	0x3ca09856	0.01960389
191	0x3cb8a64c	0.022540234
192	0x3c8e54e0	0.017374456
193	0x3d73080f	0.059333857
194	0xbce6b8b1	-0.02816424
195	0x3c706e72	0.01467477
196	0x3d8e0813	0.06935134
197	0x3d24f5b7	0.040273394
198	0x3ca54745	0.020175586
199	0xbd5b264e	-0.053503327
200	0xbd9baffb	-0.07601925
201	0x3da4fa47	0.08055549
202	0xbd5baa2a	-0.053629078
203	0x3d143ee3	0.036192786
204	0xbd2ee764	-0.04270114
205	0xbd6d5ff8	-0.05795285
206	0xbd40cdba	-0.047071196
207	0x3d86d72b	0.06584009
208	0xbce29e11	-0.027663263
209	0xbd96139a	-0.073279575
210	0x3d453585	0.048146743
211	0x3d840380	0.0644598
212	0xbd26c1bc	-0.040712103
213	0x3ce18bef	0.027532546
214	0xbd17af9a	-0.0370327
215	0x3d88388c	0.066514105
216	0x3c6d2a46	0.014475411
217	0xbdb16874	-0.08662501
218	0x3d3a74ea	0.045521654
219	0xbd4444db	-0.04791723
220	0x3d0147df	0.031562682
221	0xbd1087c7	-0.035285737
222	0xbd6f516b	-0.058427256
223	0xbbe53ef6	-0.006996031
224	0x3ba736ea	0.005102982
225	0x3d8d2c37	0.06893199
226	0x3d44132b	0.047869842
227	0xbdacc6a4	-0.08436325
228	0x3c97ab78	0.01851438
229	0x3c9c6df2	0.019095395
230	0xbb8af068	-0.0042400844
231	0x3d632276	0.055452786
232	0xbd524286	-0.051332973
233	0xbd00a6e3	-0.031409156
234	0x3b54d1dd	0.003247372
235	0x3b5e16c7	0.0033888088
236	0xbd3e25ed	-0.046422888
237	0xbcec18d4	-0.028820433
238	0xbd7934a2	-0.06084121
239	0xbd66b806	-0.056327842
240	0x3d473322	0.04863275
241	0x3cd83b31	0.026395412
242	0xbd40c952	-0.047066994
243	0x3c4c2ca7	0.012461818
244	0x3d4d8c06	0.050182365
245	0xbd52d3ea	-0.05147163
246	0xbcafe43a	-0.021471132
247	0xbd914f6a	-0.07095225
248	0xbd9657e1	-0.0734098
249	0xbd66704c	-0.05625944
250	0xbcbf0b4f	-0.023320822
251	0xbb10251d	-0.0021994777
252	0x3da763e8	0.081733525
253	0xbc0cd0a8	-0.008594669
254	0xbca08bc1	-0.01959789
255	0xbd95fb5b	-0.07323333

encoders.1.encoder.conv.bias f4 [128]
0	0x3a82fc94	0.0009993487
1	0x3a830262	0.0009995217
2	0x3a82a3aa	0.0009966989
3	0xba81cacb	-0.0009902356
4	0x3a82aef7	0.0009970356
5	0xba82c6fb	-0.0009977514
6	0xba82c895	-0.0009977991
7	0xba82e9af	-0.0009987856
8	0xba82d9c0	-0.0009983107
9	0xba82c7af	-0.0009977723
10	0x3a83083f	0.0009996964
11	0x3a7d08f3	0.00096525176
12	0xba829999	-0.0009963989
13	0x3a8302a3	0.0009995293
14	0xba82f0ae	-0.0009989941
15	0xba82f060	-0.000998985
16	0xba82e576	-0.0009986598
17	0x3a82f37d	0.0009990778
18	0x3a82fee7	0.000999418
19	0xba82d792	-0.0009982458
20	0x3a82f5da	0.0009991482
21	0xba830217	-0.000999513
22	0x3a83081f	0.0009996927
23	0x3a82f0da	0.0009989992
24	0xba82affd	-0.0009970661
25	0xba7f5d2f	-0.00097413635
26	0xba82fa30	-0.0009992775
27	0xba8302a0	-0.0009995289
28	0xba828f1e	-0.0009960865
29	0x3a8307f8	0.0009996882
30	0x3a8308ee	0.0009997168
31	0x3a82a93e	0.0009968651
32	0x3a82a5e0	0.0009967647
33	0xba82faec	-0.0009992993
34	0x3a82d382	0.0009981247
35	0x3a82a7df	0.0009968242
36	0xba82fe10	-0.0009993929
37	0xba830380	-0.000999555
38	0xba830a96	-0.0009997662
39	0x3a8300a2	0.0009994695
40	0xba8300bf	-0.0009994729
41	0x3a82f641	0.0009991602
42	0xba8309e8	-0.0009997459
43	0xba82f3cf	-0.0009990874
44	0xba8305cf	-0.0009996238
45	0x3a82e4d6	0.0009986411
46	0x3a82e33c	0.0009985934
47	0x3a82fd64	0.0009993729
48	0x3a8282a9	0.0009957153
49	0xba82f632	-0.0009991585
50	0x3a82d99d	0.0009983067
51	0x3a8301bb	0.0009995023
52	0xba82f6e9	-0.0009991798
53	0xba82d259	-0.0009980901
54	0x3a82bddb	0.0009974794
55	0xba82cbdf	-0.0009978971
56	0x3a82b6a5	0.0009972645
57	0x3a830ab9	0.0009997702
58	0x3a826fbe	0.0009951515
59	0xba8307cb	-0.0009996829
60	0x3a830b84	0.0009997939
61	0xba83033e	-0.0009995473
62	0x3a82d310	0.0009981114
63	0xba82f20d	-0.000999035
64	0xba83010b	-0.0009994818
65	0x3a82fe1b	0.0009993942
66	0xba82f4a2	-0.0009991119
67	0x3a830c36	0.0009998146
68	0x3a82be00	0.0009974837
69	0xba82fc12	-0.0009993336
70	0xba82f364	-0.0009990749
71	0xba82e677	-0.0009986897
72	0x3a82c0f4	0.0009975717
73	0x3a830eac	0.0009998879
74	0xba8304c2	-0.0009995925
75	0xba830cba	-0.00099983
76	0x3a82e686	0.0009986914
77	0xba82f3ff	-0.0009990929
78	0xba82e71d	-0.000998709
79	0xba82f9f3	-0.0009992704
80	0x3a8305c4	0.0009996225
81	0x3a82ca44	0.0009978493
82	0x3a830c6d	0.000999821
83	0xba82f762	-0.0009991939
84	0x3a82e622	0.0009986798
85	0xba82f8be	-0.0009992344
86	0xba82a6a4	-0.0009967876
87	0xba82f5c7	-0.000999146
88	0xba82fe96	-0.0009994085
89	0x3a82f83f	0.0009992196
90	0x3a8242a4	0.0009938073
91	0x3a7ba240	0.0009599067
92	0xba82dbfd	-0.0009983775
93	0xba7ee4b8	-0.0009723413
94	0xba830e1b	-0.0009998711
95	0xba830b46	-0.0009997867
96	0xba82ddd0	-0.0009984318
97	0x3a82f93a	0.0009992488
98	0xba82ea9c	-0.0009988132
99	0x3a730e92	0.00092718855
100	0xba82f07c	-0.0009989883
101	0xba830143	-0.0009994883
102	0x3a83075f	0.0009996704
103	0x3a82e0f4	0.0009985254
104	0x3a82bc03	0.0009974245
105	0xba82e335	-0.0009985926
106	0xba82916f	-0.0009961555
107	0x3a82dfeb	0.0009984946
108	0x3a830f2b	0.0009999027
109	0x3a82e934	0.0009987713
110	0xba82d68b	-0.0009982152
111	0xba82d8e0	-0.0009982847
112	0xba8302c7	-0.0009995335
113	0x3a82d96b	0.0009983008
114	0x3a82f16d	0.0009990163
115	0xba8301f7	-0.0009995092
116	0xba830af8	-0.0009997776
117	0xba82f5fd	-0.0009991523
118	0x3a82b7b4	0.0009972961
119	0xba82b4de	-0.0009972116
120	0xba824436	-0.0009938541
121	0x3a82f247	0.0009990417
122	0x3a82f87e	0.0009992269
123	0xba82e547	-0.0009986543
124	0xba8034ca	-0.0009781357
125	0xba82e9a7	-0.0009987847
126	0x3a82fc52	0.000999341
127	0xba82e2ed	-0.0009985842
