notebooks/checkpoint.pth (torch, 372715 bytes, 66 tensors)

encoders.0.weight f4 [128, 128]
000000 bd 14 33 3c ed 0a af bc 4a 7c 2e bb 33 79 9c bd
       0.010930237 -0.021367515 -0.0026624375 -0.076403044
000010 fa 2a 5b 3d ba 6b 89 3d f6 62 6a bb 78 f9 8d bd
       0.053507783 0.0671 -0.0035764552 -0.06932348
000020 ab a1 a8 3d 8f 42 6d 3d 2c d4 c2 bc 0b 06 9a bd
       0.08233961 0.057924803 -0.023782812 -0.07520684
000030 5a 72 ad 3c 0c d6 8c bb 9a af 4f 3d cc d7 ad 3d
       0.021172691 -0.0042979773 0.050704576 0.084884256
000040 96 98 81 3c 2d 90 6b bd 77 b1 2a bd 7f 94 52 3d
       0.015819829 -0.057510544 -0.04167315 0.05141115
000050 d9 54 a5 3c e5 de 93 3c 62 c0 34 3d 99 4a a2 3d
       0.02018206 0.01805062 0.044128783 0.079243846
000060 85 2b c8 bc cc f8 94 3d 12 81 f8 bb 38 95 ac 3d
       -0.024434814 0.07274017 -0.0075837458 0.08426899
000070 81 91 64 3d a9 e7 64 3c a8 80 3a bd 52 29 31 3d
       0.055802826 0.013971248 -0.045532852 0.043252297
000080 3d a8 9c bd 64 c7 42 3d 03 b5 8c bd 4d b5 8b 3d
       -0.076492764 0.047553435 -0.06870463 0.0682169
000090 a1 f8 1d bc 0e f9 83 3c 59 4d 40 bc c3 22 eb 3b
       -0.009641797 0.01610997 -0.011737191 0.007175775
0000a0 20 2d 58 bd 77 24 b0 3c 65 ef 79 bc 87 63 3d 3c
       -0.05277741 0.021501763 -0.01525483 0.011559374
0000b0 bc df eb 3c 53 d6 c9 3b 65 fe c3 bc 43 7a 0f bc
       0.028793208 0.0061595826 -0.023925016 -0.008757177
0000c0 dd 9f 7a 3c 55 3b 41 3d 89 aa 00 3c ad 72 65 bd
       0.015296903 0.047175724 0.007853159 -0.056017566
0000d0 9e ca 59 bc 9e 8f 1e 3d fa 83 26 3c ed 4b 9e bd
       -0.013292937 0.038711183 0.010163302 -0.077293254
0000e0 70 23 b3 3d 1d 11 61 bd 2d 84 d4 bb 0c 6e 6b bd
       0.087469935 -0.05494796 -0.006485483 -0.057477996
0000f0 71 4d 04 bc 70 6a 7b 3d 38 e2 1c bd 13 35 af 3d
       -0.008075104 0.061380804 -0.038301677 0.08555045
000100 c8 8b f1 3a 1e fc 15 3d 1b 24 20 bd b2 70 93 bc
       0.0018428499 0.03661739 -0.039096933 -0.017998073
000110 a6 62 03 3d f9 37 80 3d 4f c6 31 3d d9 eb a3 bc
       0.0320765 0.06260676 0.043402012 -0.020009922
000120 35 c6 42 3d b8 26 b1 3d f3 67 5a 3c 54 9e 69 3d
       0.047552306 0.08649963 0.0133304475 0.05703576
000130 b4 ed 9a bd 96 19 3c 3d 7d 51 8c bd 99 2a 4f 3b
       -0.075648695 0.04592284 -0.0685148 0.0031611084
000140 f7 ce 83 3d 4c 26 50 3d 77 39 3b 3b 97 57 f9 3a
       0.0643596 0.050817773 0.0028568187 0.0019023296
000150 0a 91 9f bd 43 60 8e 3d d5 a9 21 bd db 52 7e ba
       -0.07791336 0.06951954 -0.039468605 -0.00097016775
000160 f2 1c b3 3d e5 e1 d7 bc 88 f4 a1 bd ff fa d3 3b
       0.08745755 -0.026352832 -0.07907969 0.00646913
000170 49 97 09 bc 3e 20 88 bd 14 7c 02 bc 4b ee 4a bc
       -0.008397886 -0.06646775 -0.007964153 -0.012385915
000180 61 79 b9 3c 7c 7d 75 3d 23 14 a7 bc 45 cc 9b 3d
       0.022640886 0.059934124 -0.020395344 0.07607321
000190 f1 46 6c bd dd 22 79 3d 2d 9c 9a bd 13 c6 82 bd
       -0.057684842 0.060824264 -0.075493194 -0.06385436
0001a0 7c 3f 4e 3d 75 f1 9c bd 5e cf a7 bd ca 4c 56 3d
       0.050353512 -0.07663242 -0.08193849 0.052319326
0001b0 f5 e7 7e bd fa 5a f8 3b 9b f3 8f 3d f2 71 4c bd
       -0.06223293 0.0075792046 0.07028886 -0.049913354
0001c0 75 e0 94 bd c0 6d e0 3c c3 9d 4c bc 29 7b 78 bd
       -0.07269374 0.027396083 -0.012488785 -0.06066433
0001d0 db 52 9a bd 94 55 25 bd e0 f8 36 3c b6 a3 9c bd
       -0.07535335 -0.040364817 0.011167735 -0.07648413
0001e0 8a 4e 27 bd dd 79 5b 3d 36 61 da bc 78 1b b0 bd
       -0.040846385 0.053583015 -0.026657682 -0.08598989
0001f0 10 ce ab 3d b4 9e 93 bd 1e 74 d3 3b 7c 06 b2 bd
       0.08388913 -0.072080046 0.006453051 -0.08692643
000200 40 df d6 3b 06 68 65 3d a8 3b c7 3c d6 08 6c 3d
       0.006557375 0.056007408 0.024320439 0.057625614
000210 b4 98 d0 b9 c9 4b b1 3d 7d 65 86 3d d6 1b b6 3c
       -0.00039786624 0.08657033 0.06562326 0.02223007
000220 78 90 35 3c e0 6b 6e 3d 94 9c 18 bd da b4 2b bd
       0.011081807 0.058208346 -0.0372587 -0.04192052
000230 ba 10 0d bd 28 e9 8d bc 60 df ba bc 6b cc c6 3b
       -0.03443978 -0.017323092 -0.022811592 0.006066849
000240 60 20 c1 3c ea e2 2f 3d 26 14 a3 3d a9 91 be bc
       0.023575008 0.04294101 0.079628274 -0.023262816
000250 7e e5 fa 3c 01 35 19 bd 93 56 ec 3c 60 2d 2d bd
       0.030627009 -0.037404064 0.028849876 -0.0422796
000260 86 f6 09 bc a5 e6 be bc 96 c1 d8 3c 71 c0 aa 3d
       -0.008420592 -0.02330334 0.026459496 0.083374865
000270 08 d7 1f bb bb 6b 73 3d bb aa b3 bc 1e b5 ff 37
       -0.0024389643 0.05942891 -0.021931997 3.0482708e-05
000280 53 ad a5 3c ba bb f6 ba 78 9c b5 3c d5 55 77 3d
       0.020224249 -0.0018824257 0.022169337 0.06038459
000290 1c 0f 34 3d 5b ab 0c bc 44 d9 62 bb f5 c7 91 3d
       0.043959722 -0.008585776 -0.0034614364 0.07118217
0002a0 39 3f 54 3d 7d 3b 8a 3c e5 59 2a 3d 0f c9 d7 bc
       0.051818106 0.01687407 0.041589636 -0.02634099
0002b0 b8 54 7d bd e7 12 74 3d aa a9 bd bc e2 25 09 bd
       -0.061848372 0.05958834 -0.023152191 -0.033483393
0002c0 16 98 2a 3d 25 05 27 bd 74 c6 f8 bb cb 5c a7 3d
       0.041648947 -0.04077639 -0.007592017 0.08171996
0002d0 75 6f 0b bc ff c8 c1 bc 0f 69 55 bc a5 95 19 bd
       -0.00851046 -0.023655413 -0.013025536 -0.037496228
0002e0 09 7e dc 3c 8b 01 e4 3c a5 58 3b bd 22 d3 cf 3c
       0.026915567 0.027832767 -0.045738835 0.02536923
0002f0 31 0e da ba 26 50 97 3c 54 d8 66 bd 95 67 e9 bb
       -0.001663631 0.018470835 -0.05635865 -0.0071229436
000300 51 db 52 bd c6 f0 1f bd 3f b2 4e bd 47 22 5c bd
       -0.051478688 -0.03904798 -0.050462957 -0.053743627
000310 2c c7 33 bd 1b ac 11 bd 21 5a 75 3c 50 6e 8a bd
       -0.043891117 -0.035564523 0.014975102 -0.06759322
000320 41 a8 55 bc 00 a3 a1 bd 56 a7 5c 3d 63 69 88 3d
       -0.013040603 -0.07892418 0.05387052 0.06660726
000330 b0 79 a0 bd 6c 21 39 bd 82 e8 83 bd b4 dc 5b bd
       -0.0783571 -0.04519789 -0.06440832 -0.053677276
000340 e7 30 97 3b 88 4f 9d 3d f9 fd b4 3d 9a c7 07 bc
       0.004613984 0.07681185 0.08837504 -0.008287335
000350 43 0e b4 bd ae 6d 8c 3d 54 ab ab 3d c5 91 c7 3c
       -0.08791783 0.06856857 0.083822876 0.0243615
000360 d4 40 10 3d 12 d5 a3 3d d8 4d 80 bd 39 a7 86 3d
       0.035218075 0.07999624 -0.062648475 0.06574864
000370 1a 34 c2 bc ee 9c f9 bc c4 13 50 bb 75 cb b2 bd
       -0.023706485 -0.030470338 -0.0031750062 -0.087302126
000380 71 58 1e 3c 3a 00 6f bc 80 97 b0 3c 61 17 67 3d
       0.009664641 -0.014587456 0.021556616 0.05641878
000390 b0 79 87 bc 56 5f b2 bd 61 30 ab 3d 06 fb 28 bb
       -0.016537517 -0.0870959 0.08358837 -0.0025784387
0003a0 c1 f3 a0 bd df 5f 47 3d 57 ac 8f bd cf 6d bc 3c
       -0.07858992 0.048675414 -0.07015293 0.02300158
0003b0 a4 20 52 3d a7 99 3f 3d 41 d9 4f bc 7d 2e 10 bc
       0.05130066 0.046777394 -0.012686075 -0.008800146
0003c0 8e 5d 3e 3d 1a 8d 80 3c 97 86 ab 3d 84 7c 37 3d
       0.04647594 0.015692282 0.0837528 0.04479648
0003d0 9c a0 91 bd 1a b0 72 bd d0 4c 9f bc 5e 2f 67 bd
       -0.07110712 -0.059249975 -0.019445807 -0.056441657
0003e0 b7 66 85 3c fa 85 aa 3d 08 7d b4 bd 7f 64 9f bd
       0.01628433 0.08326335 -0.0881291 -0.0778284
0003f0 7a 05 6e 3d bf 62 d8 ba a6 2b 3a bd 27 cb 65 bd
       0.05811069 -0.0016508921 -0.045451783 -0.056101944

encoders.0.encoder.conv.bias f4 [128]
000000 a9 ec 82 ba 17 e8 82 ba f1 f0 82 ba 96 f0 82 3a
       -0.0009988743 -0.0009987381 -0.0009990019 0.0009989913
000010 1f ee 82 3a 90 fe 82 3a b8 6e 75 ba 29 90 82 ba
       0.0009989179 0.0009994078 -0.00093625067 -0.0009961176
000020 b9 ca 82 3a bb 49 82 3a d2 f8 82 ba cc f7 82 ba
       0.0009978629 0.0009940186 -0.0009992367 -0.0009992062
000030 4b e9 82 3a db fe 81 ba c8 f7 82 3a 64 ef 82 3a
       0.000998774 -0.0009917872 0.0009992057 0.0009989557
000040 b7 5b 82 3a 03 e1 82 3a 02 b9 82 ba 40 ef 82 3a
       0.0009945546 0.0009985272 -0.000997335 0.0009989515
000050 a4 94 82 ba 07 fa 82 3a 0d d5 81 ba a0 f4 82 3a
       -0.0009962511 0.0009992727 -0.0009905413 0.0009991117
000060 82 99 7e ba ac d6 82 3a a2 74 82 ba 0f 05 83 ba
       -0.00097122055 0.000998219 -0.0009952972 -0.0009996014
000070 74 d2 82 3a 77 bb 82 ba b9 a6 82 3a 29 f0 82 3a
       0.0009980933 -0.0009974082 0.00099679 0.0009989786
000080 f0 e8 82 3a 1c 0e 7c ba 26 f1 82 ba a2 1e 82 ba
       0.0009987634 -0.00096151396 -0.0009990081 -0.0009927342
000090 61 eb 82 3a 24 b8 82 ba e6 d8 82 3a b2 9e 82 3a
       0.0009988361 -0.0009973091 0.0009982854 0.0009965508
0000a0 2a ef 82 ba ca 51 82 3a 24 5d 82 3a 97 cb 81 ba
       -0.0009989489 0.0009942588 0.0009945971 -0.0009902593
0000b0 d0 b0 82 ba c2 9f 59 ba 45 01 83 3a b2 fd 82 3a
       -0.0009970907 -0.0008301699 0.0009994885 0.000999382
0000c0 bb ba 82 ba a7 c3 82 3a 99 e9 82 3a 62 3f 82 3a
       -0.0009973863 0.0009976522 0.000998783 0.0009937102
0000d0 60 ce 82 ba 00 aa 82 3a df c7 82 ba 52 e9 82 ba
       -0.0009979717 0.0009968877 -0.0009977779 -0.0009987748
0000e0 ae b0 82 3a c7 ec 82 3a a1 26 81 3a 47 a1 82 ba
       0.0009970868 0.0009988778 0.0009853431 -0.0009966277
0000f0 5b 95 82 ba 6f d3 82 3a df d9 82 ba 9d dd 82 ba
       -0.0009962724 0.0009981225 -0.0009983144 -0.0009984259
000100 ef ea 82 3a 3b f9 82 ba f9 f5 82 3a 0a 03 81 ba
       0.0009988229 -0.0009992489 0.0009991518 -0.0009842825
000110 d2 0f 82 3a 34 d8 82 3a f9 a8 80 ba d2 df 82 ba
       0.0009922928 0.0009982646 -0.0009815983 -0.0009984917
000120 52 b0 82 ba be ef 82 ba a6 01 83 3a 16 e7 82 ba
       -0.000997076 -0.0009989662 0.0009994998 -0.0009987082
000130 37 a1 7f ba 83 f4 82 3a e0 00 83 3a 9f c6 82 3a
       -0.0009751501 0.0009991083 0.0009994768 0.0009977407
000140 57 b5 82 ba 7e f1 81 3a 80 7d 7c 3a c4 ed 82 ba
       -0.0009972256 0.0009913889 0.0009631738 -0.0009989073
000150 72 54 81 3a bf 01 82 ba 26 e6 82 3a be f6 82 ba
       0.0009867086 -0.0009918733 0.0009986802 -0.0009991748
000160 cf f9 82 ba 91 f6 82 ba 3d 01 83 3a eb f9 82 3a
       -0.0009992662 -0.0009991695 0.0009994876 0.0009992694
000170 a7 fe 82 3a 19 fa 82 3a b9 56 82 ba 62 24 82 3a
       0.0009994105 0.0009992748 -0.0009944058 0.0009929056
000180 f7 b4 82 ba d4 ef 82 3a 43 fa 82 3a f4 b8 80 3a
       -0.0009972145 0.0009989687 0.0009992797 0.0009820745
000190 04 67 82 3a 9a f6 82 3a f9 c0 82 3a 6f 80 82 ba
       0.0009948914 0.0009991706 0.0009975723 -0.0009956489
0001a0 4b dc 82 ba a4 ce 82 3a 8c fe 82 3a fd f4 82 3a
       -0.0009983865 0.0009979797 0.0009994074 0.0009991225
0001b0 3f b5 82 ba 75 2e 66 ba 4d d6 82 ba 80 dd 82 ba
       -0.0009972228 -0.00087807263 -0.000998208 -0.0009984225
0001c0 dc 6d 7b 3a af e3 82 ba da 9b 82 ba 4e 5c 82 ba
       0.00095912605 -0.0009986068 -0.000996466 -0.0009945722
0001d0 3a fa 82 3a c4 8b 82 ba 96 c0 82 3a f7 b6 82 ba
       0.0009992786 -0.0009959866 0.0009975608 -0.0009972741
0001e0 7e f2 82 ba ae df 82 ba b3 ef 82 3a ca e4 82 3a
       -0.0009990481 -0.0009984875 0.0009989649 0.0009986397
0001f0 bb ba 82 ba c1 2a 7a 3a a2 56 81 ba aa f1 82 ba
       -0.0009973863 0.0009543114 -0.0009867738 -0.0009990234

encoders.0.encoder.conv.lin.weight f4 [128, 16]
000000 c3 1e 95 3c 98 a9 4e 3e df 4c 32 3e c2 ab 3d 3e
       0.018203145 0.20181882 0.17412136 0.18522552
000010 85 47 cc 3d 82 70 03 3e 3c 4e c7 3d 4c 9d 2d bd
       0.09974579 0.12835887 0.09731719 -0.042386338
000020 c0 d3 47 be 77 3d 38 be a3 d1 34 be f1 ec 41 3e
       -0.1951437 -0.17992197 -0.17658095 0.18938042
000030 a6 81 2b 3d a7 5a 2c 3d 78 6c 11 be 5c 7b 97 3c
       0.04187169 0.04207864 -0.14201534 0.01849144
000040 5d 3d 84 3d f6 74 b1 bd f0 3c 47 be a0 47 2f 3e
       0.064570166 -0.08664887 -0.1945684 0.17117167
000050 98 b5 4b be c3 5a 38 be 50 65 98 bd db dc 0e 3e
       -0.19893491 -0.18003373 -0.07441199 0.13951437
000060 c8 b0 2f 3e 93 58 db ba 53 7c ff 3d 8b 3b 30 3e
       0.1715728 -0.0016734771 0.12474885 0.17210214
000070 0b 60 29 be a5 ac e6 bd fd 49 08 be 52 00 d4 bc
       -0.16540544 -0.11263398 -0.13309474 -0.025879059
000080 c2 ba 3d be 40 2d 1f bc 71 55 9e 3d dd f2 3c be
       -0.18528274 -0.009715378 0.077311404 -0.1845202
000090 bc 0d 9b 3d 03 99 85 3d 76 1a ca bd ee cb 0c be
       0.07570979 0.06523325 -0.09868328 -0.13749668
0000a0 92 3f 79 3d a5 70 98 3d ab 45 ba bd 78 62 df bd
       0.06085164 0.0744336 -0.09095319 -0.10907453
0000b0 86 70 f5 3b a9 92 ea bd ef 47 8c 3d bb 87 e1 bc
       0.0074902205 -0.114537545 0.06849658 -0.027530542
0000c0 71 37 fd bd 48 aa 39 3e 0b 85 af bc 70 8d 37 bc
       -0.1236409 0.18131363 -0.021425745 -0.011203155
0000d0 4b be 12 3e 3b e2 36 3d f5 20 f5 3d 03 e1 29 be
       0.14330404 0.044649344 0.11969177 -0.16589741
0000e0 01 fb 18 be 65 98 14 3e aa 44 33 bd fd 58 5f 3c
       -0.149395 0.14511259 -0.043766655 0.013632056
0000f0 ea 6b 74 bd db d1 56 3d 13 1d e3 3d 50 1b 6a bc
       -0.059673227 0.052446228 0.1108953 -0.014288738
000100 4b 04 0a be f1 8a f6 bd e9 de 02 3d 17 9e 14 bd
       -0.134782 -0.1203822 0.031950865 -0.03628358
000110 26 a3 d0 3c b2 ed 16 bd 02 32 27 3e f1 3c b0 bc
       0.02546842 -0.036847778 0.1632767 -0.021513434
000120 b5 c1 e5 bc 94 03 a0 3d 1a 36 c0 3d 7a ee d3 3d
       -0.028046468 0.078131825 0.09385319 0.1034822
000130 1f e3 3c 3e 3d c6 33 be 17 35 07 bd ad 05 fb bd
       0.18446015 -0.1755609 -0.033009615 -0.12256942
000140 f4 0c 3f 3e 39 45 3b be 9f 05 67 3d 94 c1 fa bb
       0.18657285 -0.18288125 0.056401845 -0.007652471
000150 f2 68 37 be 54 2d 27 3e 29 44 f6 3c b1 90 b7 bd
       -0.17911127 0.16325885 0.030061798 -0.089631446
000160 6e 3b ef 3d ab cf 0d be 33 76 1f bd 35 a4 17 3d
       0.11681257 -0.1384875 -0.038931083 0.037021834
000170 1d 42 3c bd 0f 83 1a be 19 6a c6 3d f4 fe 39 be
       -0.045961488 -0.15089057 0.09688205 -0.18163663
000180 30 61 b3 3c a4 35 04 3e b3 fd e2 3d ed 48 93 3d
       0.021896929 0.12911087 0.110835455 0.07191644
000190 15 05 35 3e 47 11 33 bd 6f 07 2e 3d 51 35 75 bd
       0.1767772 -0.04371765 0.042487558 -0.0598653
0001a0 3a 7c 1e 3e 88 b4 c6 3d 66 ad 8c 3d 39 7c 98 b7
       0.15477076 0.09702402 0.068690106 -1.8177658e-05
0001b0 e5 66 d3 3d e4 cc 02 be 5a b9 d9 3b 60 bd 51 be
       0.1032236 -0.12773472 0.00664441 -0.20482397
0001c0 da 43 06 3e 79 b3 30 3d bb 3e 49 3e 54 4f 28 be
       0.13111821 0.04313991 0.19652836 -0.16436511
0001d0 02 4b 16 be 37 5b 6f bc 0c b2 e6 bd cd a1 a9 bd
       -0.1467705 -0.01460915 -0.112644285 -0.08282814
0001e0 24 10 88 bd f3 91 88 3d e9 96 27 bd 4d e8 31 be
       -0.066437036 0.066684626 -0.040915404 -0.17373772
0001f0 0b f9 f5 bc ab 1f 4b 3d 34 10 ec 3d 5d 12 9d 3d
       -0.03002598 0.049590748 0.11526528 0.07669518
000200 cb e7 08 be 2e 29 d2 3d d1 d1 d5 3d 3c 72 24 3e
       -0.13369672 0.10261761 0.1044041 0.16059202
000210 fe 36 82 3d 2d 80 eb bc 76 86 13 bd 7a 7f 9e bd
       0.06358145 -0.028747642 -0.036016904 -0.07739158
000220 b1 33 2b 3d 55 30 19 be 93 35 38 3e 2e 9f 26 be
       0.041797344 -0.14959843 0.17989187 -0.1627166
000230 d5 f3 05 3e 33 4e 22 3e 72 ff a4 3d 53 8a c5 3d
       0.13081296 0.15850143 0.08056535 0.09645524
000240 71 36 c6 3c dd 89 16 3d 95 7f 39 be 34 59 0f 3e
       0.024195882 0.03675257 -0.18115075 0.13998872
000250 ca b0 a4 3c 77 18 10 be f4 a5 1f bd ee ee 06 be
       0.02010383 -0.14071833 -0.038976625 -0.13177082
000260 d5 86 0e be ef 31 28 3d 3a 06 3e 3b e1 fa 8e bd
       -0.13918622 0.041063245 0.002899541 -0.06981445
000270 8d 9d d4 3d 2d c2 10 3c c4 af 90 bd 12 e9 e2 bd
       0.10381613 0.008835358 -0.07064775 -0.11079611
000280 4f 02 00 3d 02 83 11 be 31 b3 07 3e 05 74 1f 3e
       0.0312522 -0.14210132 0.1325195 0.15571602
000290 9b df 00 bc 1c 82 17 3e 5a 3b b0 bd 16 c6 d3 bd
       -0.007865812 0.14795727 -0.086050704 -0.10340516
0002a0 40 7b d7 bd 79 36 83 3d b2 e6 2a 3e b3 ca 31 be
       -0.10521555 0.06406874 0.16689566 -0.1736248
0002b0 89 3a 2a be 9b a5 37 be c7 91 13 be 7f 4a b7 3d
       -0.16623892 -0.17934267 -0.14411078 0.08949756
0002c0 c0 bf b5 ba 21 89 25 3a ee 42 b1 bd 25 4c f7 3d
       -0.001386635 0.0006314684 -0.08655344 0.1207507
0002d0 67 b1 0f be f9 26 92 3d 48 9d aa bc 7a ce 4d 3e
       -0.14032517 0.0713634 -0.02082695 0.20098296
0002e0 bb d1 3e 3e a5 2f e4 3d f3 4c 11 be 79 f8 9f 3d
       0.18634693 0.111419 -0.1418951 0.07811064
0002f0 ef 46 bb 3d ed 7b 91 3d 9b 72 22 be 7e 2e 3e be
       0.09144389 0.07103715 -0.15864031 -0.18572423
000300 72 ee e7 bc 62 5b 1d 3d f7 92 f3 bc 6a 7f d5 bd
       -0.028311942 0.038417228 -0.029733164 -0.10424693
000310 8b 39 d8 3c b9 db c4 3d 8f d6 0b be 92 00 08 bc
       0.026394626 0.09612221 -0.13656066 -0.008300917
000320 ca 96 d5 3d 9f 97 3a be b2 a0 18 be 89 ee 2e be
       0.10429151 -0.18221901 -0.1490505 -0.17083181
000330 98 8a b0 bd d2 6b 00 3e 38 36 c5 3c 9b 88 25 bd
       -0.08620185 0.1254113 0.024073705 -0.04041348
000340 51 c3 0e 3e fd 6d 08 be 57 25 4f 3d de d3 0a be
       0.13941695 -0.13323207 0.05057272 -0.13557383
000350 48 cd 21 bd 6a dd 35 3e f6 d7 2e 3e 0d fc 38 be
       -0.039502412 0.17760244 0.1707457 -0.180649
000360 fe 62 19 3e 83 82 f5 bd e9 aa 1a be dd 42 0b 3e
       0.14979169 -0.11987784 -0.1510426 0.13599725
000370 ba 83 07 3d 0f 97 6c 3c 91 24 5f 3d 01 cf 24 3e
       0.03308461 0.014440312 0.05447823 0.1609459
000380 5d 22 d4 3d be f1 d9 3c 4e b5 fa 3d 9b f5 ae bd
       0.10358117 0.02660453 0.122416124 -0.08542939
000390 98 e3 3e bd 17 79 fe bd 50 1f cd bd 0f 83 07 3e
       -0.04660377 -0.1242544 -0.10015738 0.13233589
0003a0 52 4a 00 bd 2d e1 23 bd 37 44 41 3e 9b 99 7d 3d
       -0.031320877 -0.040009666 0.18873678 0.061914068
0003b0 6c ec 2f be 22 a8 13 be e2 ab 8d bc 73 0f d8 bd
       -0.17180032 -0.14419606 -0.017293874 -0.10549822
0003c0 fa eb 9e bd 99 d4 26 be 44 ef 06 bd 49 73 28 be
       -0.07759853 -0.16292037 -0.032943025 -0.16450228
0003d0 d5 83 7f 3c 72 d6 e3 bd 64 bc c4 bd 28 0b c0 3d
       0.015595396 -0.111248866 -0.09606245 0.09377128
0003e0 b4 3c 8d 3d ee 10 de bc d2 57 44 3e 2f a1 25 3c
       0.06896344 -0.027107682 0.19174126 0.01010923
0003f0 4b 83 6a 3c d6 a4 e6 3d f0 35 32 3e ea 6d 4e 3d
       0.014313529 0.11261909 0.17403388 0.05039779

encoders.0.encoder.prelu.weight f4 [128]
000000 af 82 80 3e 48 82 80 3e cc 82 80 3e a3 82 80 3e
       0.25099704 0.25099397 0.2509979 0.25099668
000010 1a 82 80 3e e8 82 80 3e 93 fd 7e 3e 53 82 80 3e
       0.2509926 0.25099874 0.24901418 0.2509943
000020 91 00 7f 3e bf 82 80 3e 4b fa 7e 3e 20 81 80 3e
       0.2490256 0.2509975 0.24900167 0.25098515
000030 10 81 80 3e a9 fb 7e 3e 99 82 80 3e fa fa 7e 3e
       0.25098467 0.24900688 0.25099638 0.24900427
000040 a2 fa 7e 3e cc 82 80 3e 43 ff 7e 3e c3 fb 7e 3e
       0.24900296 0.2509979 0.24902062 0.24900727
000050 53 82 80 3e 98 fb 7e 3e 98 82 80 3e d8 82 80 3e
       0.2509943 0.24900663 0.25099635 0.25099826
000060 a3 fa 7e 3e 91 82 80 3e 6c 7f 80 3e 59 fa 7e 3e
       0.24900298 0.25099614 0.25097215 0.24900188
000070 95 fa 7e 3e ea 82 80 3e e6 73 80 3e 7f fc 7e 3e
       0.24900277 0.2509988 0.25088423 0.24901007
000080 ee fc 7e 3e 15 fc 7e 3e 30 fa 7e 3e e5 82 80 3e
       0.24901173 0.24900849 0.24900126 0.25099865
000090 61 fa 7e 3e 53 fa 7e 3e 98 7d 80 3e 49 82 80 3e
       0.249002 0.24900179 0.2509582 0.250994
0000a0 16 82 80 3e bc 82 80 3e 1b 80 80 3e ca 82 80 3e
       0.25099248 0.25099742 0.25097737 0.25099784
0000b0 c7 81 80 3e b8 fa 7e 3e 76 82 80 3e 6a fb 7e 3e
       0.25099012 0.24900329 0.25099534 0.24900594
0000c0 53 fc 7e 3e f7 fa 7e 3e 9e 81 80 3e db 82 80 3e
       0.24900942 0.24900423 0.2509889 0.25099835
0000d0 80 82 80 3e c5 82 80 3e ac fa 7e 3e 0e 82 80 3e
       0.25099564 0.2509977 0.24900311 0.25099224
0000e0 b5 81 80 3e 42 30 7f 3e bc 82 80 3e bb 82 80 3e
       0.2509896 0.24920753 0.25099742 0.2509974
0000f0 97 7e 80 3e 73 04 7f 3e d9 81 80 3e e2 82 80 3e
       0.2509658 0.24904041 0.25099066 0.25099856
000100 cb 82 80 3e 3b fb 7e 3e a9 fa 7e 3e 24 fa 7e 3e
       0.25099787 0.24900524 0.24900307 0.24900109
000110 31 fa 7e 3e 36 82 80 3e 19 82 80 3e 7a fa 7e 3e
       0.24900128 0.25099343 0.25099257 0.24900237
000120 b6 80 80 3e 36 fa 7e 3e e4 82 80 3e 23 fa 7e 3e
       0.250982 0.24900135 0.25099862 0.24900107
000130 33 fa 7e 3e d4 fa 7e 3e dd 00 7f 3e 9d 82 80 3e
       0.24900131 0.24900371 0.24902673 0.2509965
000140 4a fa 7e 3e c0 82 80 3e 6e fa 7e 3e 72 fa 7e 3e
       0.24900165 0.25099754 0.24900219 0.24900225
000150 7a fa 7e 3e 8e 7f 80 3e f9 81 80 3e a9 82 80 3e
       0.24900237 0.25097317 0.2509916 0.25099686
000160 f2 fb 7e 3e b1 fa 7e 3e d6 82 80 3e 74 fc 7e 3e
       0.24900797 0.24900319 0.2509982 0.2490099
000170 74 fa 7e 3e 8b fb 7e 3e 63 fd 7e 3e c8 82 80 3e
       0.24900228 0.24900644 0.24901347 0.25099778
000180 8e 82 80 3e 90 fc 7e 3e 90 82 80 3e f0 fa 7e 3e
       0.25099605 0.24901032 0.2509961 0.24900413
000190 a7 82 80 3e fb 82 80 3e bb fa 7e 3e 6b fb 7e 3e
       0.2509968 0.2509993 0.24900334 0.24900596
0001a0 6b 82 80 3e eb 82 80 3e 7f 82 80 3e e8 82 80 3e
       0.250995 0.25099882 0.2509956 0.25099874
0001b0 ab 82 80 3e f2 fc 7e 3e aa 81 80 3e 2d 82 80 3e
       0.25099692 0.24901178 0.25098926 0.25099316
0001c0 80 81 80 3e 0f fa 7e 3e af 82 80 3e ef 82 80 3e
       0.250988 0.24900077 0.25099704 0.25099894
0001d0 21 82 80 3e 9b fc 7e 3e 8e 82 80 3e 3c 82 80 3e
       0.2509928 0.24901049 0.25099605 0.2509936
0001e0 34 fa 7e 3e c2 7d 80 3e c9 fa 7e 3e e0 82 80 3e
       0.24900132 0.25095946 0.24900354 0.2509985
0001f0 9a 82 80 3e 1a 80 80 3e 49 fa 7e 3e 2b fb 7e 3e
       0.2509964 0.25097734 0.24900164 0.249005

encoders.0.encoder.conv2.bias f4 [128]
000000 ec d5 82 3a a1 f4 82 ba 5d 9e 82 3a 1d f1 82 3a
       0.0009981967 -0.0009991118 0.0009965409 0.000999007
000010 40 7a 82 3a 0e d7 82 3a 8c ce 82 3a e2 ee 82 ba
       0.0009954646 0.0009982304 0.0009979769 -0.0009989406
000020 62 f5 82 3a 9f b8 82 3a 60 02 83 3a 40 f9 82 ba
       0.0009991343 0.0009973234 0.0009995215 -0.0009992495
000030 1b f9 82 3a 1f b8 82 ba d1 ec 82 3a 19 f9 82 3a
       0.0009992452 -0.0009973085 0.000998879 0.000999245
000040 fe ef 82 ba 5b e1 82 ba c0 f3 82 3a ab e2 82 ba
       -0.0009989736 -0.0009985374 0.0009990856 -0.0009985765
000050 50 f1 82 3a fa fd 82 ba 26 dd 82 ba e6 c2 52 3a
       0.000999013 -0.0009993904 -0.000998412 0.00080399064
000060 49 f8 82 3a 28 f3 82 3a 49 f0 82 3a 9d e4 82 ba
       0.0009992208 0.0009990679 0.0009989823 -0.0009986345
000070 a2 ef 82 ba 37 24 7b ba 1a e6 82 ba d4 68 80 ba
       -0.0009989629 -0.00095802866 -0.0009986789 -0.0009796866
000080 d7 e5 82 3a 56 fa 82 ba 94 f8 82 3a 25 e4 82 3a
       0.000998671 -0.0009992819 0.0009992295 0.0009986205
000090 0b 02 83 3a 80 6b 82 3a 76 fe 82 ba 00 dd 82 ba
       0.0009995116 0.000995025 -0.0009994048 -0.0009984076
0000a0 56 e4 82 ba a9 b6 82 ba 45 00 83 3a 0f dd 82 ba
       -0.0009986262 -0.000997265 0.0009994587 -0.0009984093
0000b0 7a 03 83 3a 9e 96 82 3a 74 e6 81 3a 22 83 82 3a
       0.0009995543 0.00099631 0.0009910599 0.0009957294
0000c0 06 ea 82 ba c2 f8 82 ba 1d 64 81 ba e2 45 82 ba
       -0.0009987957 -0.0009992348 -0.0009871755 -0.000993904
0000d0 af d6 80 ba 82 fb 82 3a d1 f4 82 3a 4f 9b 82 ba
       -0.0009829606 0.0009993168 0.0009991174 -0.0009964498
0000e0 3e 66 82 ba bf f9 82 ba fb 05 83 3a bb 44 80 3a
       -0.0009948683 -0.0009992643 0.0009996289 0.0009786108
0000f0 dd ee 82 ba 00 c1 7d ba 8d b9 80 ba 77 72 82 3a
       -0.00099894 -0.00096799433 -0.0009820923 0.0009952326
000100 98 8d 82 3a db 02 83 3a b3 fc 82 ba 4c f7 82 3a
       0.0009960411 0.0009995358 -0.0009993523 0.0009991913
000110 db f9 82 3a 16 ff 82 ba 90 3c 82 3a d2 b4 82 3a
       0.0009992676 -0.0009994234 0.0009936262 0.0009972102
000120 3b 2c 81 3a ca 04 83 3a f6 e5 82 3a ae 73 82 3a
       0.0009855101 0.0009995934 0.0009986747 0.0009952688
000130 5f f3 82 ba e6 b4 82 ba 24 29 82 3a ed ef 82 3a
       -0.0009990743 -0.0009972125 0.0009930474 0.0009989716
000140 90 ff 82 ba c1 d8 82 ba e6 82 82 3a 0d ac 82 3a
       -0.0009994376 -0.0009982811 0.0009957224 0.0009969488
000150 3c f8 82 3a 62 ca 82 ba 5e fa 82 ba c0 d9 82 ba
       0.0009992192 -0.0009978528 -0.0009992828 -0.0009983107
000160 37 44 82 3a 0e 40 6d ba 67 fd 82 ba 2e f2 82 ba
       0.0009938542 -0.00090503774 -0.0009993733 -0.0009990388
000170 63 f4 82 3a d9 a4 82 ba 6d dc 82 3a a0 04 83 ba
       0.0009991046 -0.0009967341 0.0009983905 -0.0009995885
000180 b4 2a 82 3a 11 8b 82 ba 1c 05 83 3a 25 e9 82 ba
       0.0009930939 -0.0009959658 0.000999603 -0.0009987695
000190 e0 94 82 3a 2a f7 7c 3a ad fa 82 ba 80 72 82 ba
       0.0009962581 0.00096498674 -0.000999292 -0.0009952337
0001a0 b7 f2 82 3a 02 fd 82 ba f9 f0 82 ba 14 1e 81 3a
       0.0009990548 -0.0009993615 -0.0009990028 0.0009850883
0001b0 18 f7 82 ba 53 d9 82 ba 26 ce 82 3a 42 72 82 3a
       -0.0009991853 -0.000998298 0.000997965 0.0009952264
0001c0 2f f6 82 3a 0b 2d 7e 3a 15 5e 79 ba 5d 85 82 ba
       0.0009991581 0.0009696043 -0.00095126155 -0.0009957958
0001d0 4d e2 82 3a 32 f4 82 3a 4d ef 82 3a 8a a1 82 3a
       0.0009985656 0.0009990989 0.000998953 0.0009966355
0001e0 3d 21 82 3a bd c8 81 ba bb ec 82 ba db 9e 82 3a
       0.0009928119 -0.0009901744 -0.0009988764 0.0009965556
0001f0 4b ea 82 3a 87 c8 81 ba 24 b9 82 ba 20 7c 82 3a
       0.0009988038 -0.0009901681 -0.0009973389 0.0009955205

encoders.0.encoder.conv2.lin.weight f4 [128, 128]
000000 24 99 e8 3d 32 c5 d4 bd 86 65 db bd 22 cf cf 3d
       0.11357334 -0.103891745 -0.107127234 0.10146929
000010 53 2e 05 3e 09 63 4d 3d 43 e0 00 3e 11 61 ef bd
       0.13005953 0.050143275 0.12585549 -0.11688436
000020 41 73 c4 3d be ee e2 3d e8 85 0e 3b cb 27 07 3d
       0.095922954 0.11080693 0.0021747295 0.032996934
000030 54 4e 17 be 31 01 99 bc 80 2d e2 bd 4f a3 24 3d
       -0.14775974 -0.018677326 -0.11043835 0.040194806
000040 5f 0d d6 39 54 7e 52 bc 9d 32 3b bd fd 51 a0 3d
       0.00040827223 -0.012847502 -0.045702565 0.07828138
000050 09 c7 ff bd e2 a7 f8 bb fc fe 16 bd 28 62 0c 3e
       -0.12489135 -0.0075883726 -0.036864266 0.13709319
000060 c8 40 96 bd c6 49 07 3e fe f1 09 3e a0 96 09 bd
       -0.07336575 0.13211736 0.13471219 -0.033590913
000070 10 cc 7c bd a9 37 b2 3b e6 fe f3 bd 96 e8 f5 3d
       -0.061718047 0.005438764 -0.119138524 0.12007253
000080 6e 52 79 3c cf 5f 33 3d 75 57 15 39 37 32 a1 bd
       0.015217407 0.043792542 0.00014242328 -0.07870906
000090 36 68 54 3d 91 25 d5 bd 4f 3c a8 bc c2 e7 03 3e
       0.051857196 -0.10407556 -0.02053657 0.12881377
0000a0 15 df c4 bd 70 13 b8 3d fd 00 1a 3d c2 3c 82 ba
       -0.09612862 0.089880824 0.0375986 -0.000993632
0000b0 c2 52 13 be 56 9f 45 3d 44 c5 14 3e 5c d6 e9 bd
       -0.14387038 0.048247658 0.14528376 -0.11417839
0000c0 56 06 92 bb 41 87 18 be 52 fd 05 3e 4b 07 cf bd
       -0.0044563217 -0.14895345 0.13084915 -0.10108813
0000d0 36 fd 6e 3d 15 c4 00 3e 0c ca ba bd 65 42 ea 3d
       0.05834695 0.125748 -0.09120569 0.11438445
0000e0 13 75 c0 3d ec ef 83 3d 80 dd 0f be 04 5d a2 3d
       0.0939733 0.06442246 -0.1404934 0.079278976
0000f0 82 8a db bd c2 7b 0b 3e 4d 02 a1 bd 41 a7 a0 3d
       -0.10719778 0.13621429 -0.07861767 0.07844401
000100 dd f4 05 3e 85 cd fd bd 18 d2 cd 3c 8e c2 16 3e
       0.13081689 -0.12392715 0.025124595 0.14722654
000110 9d c7 8d bd 50 8c 1b 3e d2 7e 12 be 98 90 08 3d
       -0.06922839 0.15190244 -0.1430619 0.03334102
000120 81 22 54 bd 12 42 0a bd 78 79 02 3e 8b 1e cf 3d
       -0.051790718 -0.033754416 0.12741649 0.101132475
000130 1a c9 ef 3d 0f c6 1b 3c 6e ae 9b 3d 30 72 ed 3c
       0.11708279 0.00950767 0.07601629 0.028985113
000140 98 a8 de 3c 40 c3 1c 3e 2b 7f 0f be 5f 8d c5 3d
       0.027180001 0.15308857 -0.14013354 0.09646105
000150 04 ce 17 be 45 fb d1 bd 0e 64 e0 bd fd 0c e0 bd
       -0.14824682 -0.10253004 -0.10956584 -0.10939977
000160 89 57 19 be b0 6b 96 bd 6e 17 11 bd e1 cb d7 bb
       -0.14974798 -0.073447585 -0.035422735 -0.0065855836
000170 6d 8a a3 3d 13 4b 9e 3d 21 a5 f3 bd 8b 7e f8 bd
       0.07985387 0.07729163 -0.1189673 -0.12133511
000180 67 09 5d 3d ae af bd bd 0f 01 ba 3d 05 e1 a3 3b
       0.053964045 -0.09262024 0.09082233 0.0050011897
000190 eb 1b 14 3e 49 4e 0c be 6c 93 68 bd 14 0d 00 3c
       0.14463775 -0.13701738 -0.056781217 0.007815618
0001a0 26 41 26 3d 16 de b5 bd 79 29 b9 3d f1 36 8f bd
       0.040589474 -0.0888025 0.090411134 -0.06992901
0001b0 4b 0d 01 3e 81 84 9f 3d dc 8a 10 3e 0f 90 a9 bd
       0.12602727 0.07788945 0.1411547 -0.0827943
0001c0 28 9b ce 3d 23 58 0e 3e 8e b7 92 3d 49 6e c5 bc
       0.100881875 0.13900809 0.071639165 -0.02410044
0001d0 f2 53 11 3e 8d b3 b0 3c 62 d4 bd bd 49 e2 e2 bd
       0.14192179 0.021569991 -0.092690244 -0.11078317
0001e0 c7 3e 0e be d0 cf 4a 3c 62 63 63 bc d3 64 54 bd
       -0.13891135 0.012378648 -0.013878675 -0.051853966
0001f0 9d ff b2 3d 77 0c a3 3c 6e 8e 46 3d 28 46 ce 3d
       0.087401606 0.019903405 0.048475675 0.10071975
000200 7f c8 a1 3d 77 76 fb 3d c2 23 d0 3d 71 f1 be bd
       0.0789957 0.12278455 0.1016307 -0.09323395
000210 dc 7e 0a bd 46 28 8b 3d 29 ef d3 bd 46 c3 cf bd
       -0.03381239 0.06794791 -0.103483506 -0.10144667
000220 41 b4 0f bc 68 be 06 3e 85 89 d4 3d cf 5d 07 3e
       -0.008771003 0.13158572 0.10377792 0.13219379
000230 ae 3b 19 bd 1e 69 0e be cb cb de bd a1 4d 1a be
       -0.03741043 -0.13907287 -0.10878714 -0.15068676
000240 9e fd e7 bd e9 53 b0 bd cf 3a c0 bd 7d 9e 14 3e
       -0.113276705 -0.086097546 -0.09386217 0.14513583
000250 8e cf e7 bd c9 40 10 be 98 d9 89 bd 4a 41 fc 3b
       -0.11318885 -0.14087214 -0.06730956 0.0076982128
000260 27 44 04 3e 3c 56 9e bc 8a 56 be 3d c9 c9 79 bb
       0.12916623 -0.01932823 0.0929385 -0.0038114658
000270 8f ad c8 bc 61 44 6e 3d b5 38 96 3d 4f 39 0b 3e
       -0.024496822 0.05817068 0.07335035 0.1359608
000280 9f 0a 41 bd ec 44 03 3e 4f 62 de bd a8 51 8f bc
       -0.04712927 0.1281926 -0.108585946 -0.017494991
000290 4a 42 c9 3d 8f 61 16 3e b2 f4 a9 bc 8e 5d 76 3d
       0.09827097 0.14685653 -0.020746563 0.060147814
0002a0 8f 0e 09 be 0a a3 5a 3d 81 a3 db 3c d0 9a 0d be
       -0.1338446 0.053378142 0.026811363 -0.13828588
0002b0 b2 82 e2 bd ed 32 fc bc e2 3f 0f be 7f 01 0d 3e
       -0.110600844 -0.030786002 -0.13989213 0.13770102
0002c0 0e 46 13 3d 36 98 09 3d 57 93 13 be d4 cd 30 bd
       0.03595548 0.033592425 -0.14411674 -0.043165043
0002d0 f6 23 cf bd 6b d1 b9 bd 1f 90 ba bd 47 c8 a6 3c
       -0.10114281 -0.090731464 -0.0910952 0.020359172
0002e0 b8 64 c6 3d 24 26 01 bc ad 4d b9 bc a9 ce 4e 3d
       0.09687179 -0.007882629 -0.022620047 0.050490055
0002f0 9c 44 f9 3c 2f 8e 9e 3d de 81 5f 3d a0 07 d7 bd
       0.030428223 0.07741963 0.05456721 -0.10499501
000300 1a 4f 19 be fa 08 77 bb 39 98 54 3d 1a d1 1c be
       -0.14971581 -0.003769456 0.051902983 -0.15314141
000310 b8 90 75 bc e1 93 9c bd 98 c6 85 bd 86 2a 09 be
       -0.014988117 -0.07645393 -0.065320194 -0.13395128
000320 78 c7 9f 3d c7 28 eb 3d 12 91 e5 3d 66 65 a9 bb
       0.078017175 0.11482387 0.112093106 -0.0051695583
000330 6f 1a 95 bd e2 2e 0a be 7a fc 9d 3c 4b 19 d1 bd
       -0.072804324 -0.13494447 0.01928543 -0.102099024
000340 00 18 b5 3c 43 7d ae bc 01 b2 fc 3d 7b 08 f2 3d
       0.02210617 -0.021299964 0.12338639 0.11818024
000350 0f 98 cc bd 36 f7 9d bd 29 38 09 3e 7b ba 94 bd
       -0.099899404 -0.07713167 0.1340033 -0.07262131
000360 18 fe 17 3e bc 2c c3 bd 9f 73 02 3c 11 e2 2c bd
       0.14843023 -0.09530017 0.0079621365 -0.04220778
000370 6f b8 f1 bd 9c 5a 14 3c fc 37 3b 3d d2 c2 d3 bd
       -0.11802756 0.009054806 0.045707688 -0.103398934
000380 92 59 05 be c8 47 1f 3b 7e b8 4c bd 48 54 99 3c
       -0.1302245 0.002430426 -0.049980633 0.018716946
000390 9c b3 cb bc 0d a6 d6 bb 76 c9 c8 3d e9 88 0f 3e
       -0.024865918 -0.0065505565 0.098040506 0.14017071
0003a0 59 06 ed bd f2 7d ba 3a a4 8c a5 3c 42 0a a9 bd
       -0.11573476 0.0014228208 0.020208664 -0.0825391
0003b0 84 79 cf bc 23 2a bb bd ed 39 08 3e 3a 09 34 bd
       -0.025326498 -0.09138896 0.13303347 -0.04395411
0003c0 97 3f 15 3e 2c 07 d3 3a 6e 1a d0 3d 45 b7 db bc
       0.14575039 0.001610016 0.10161291 -0.026820788
0003d0 d3 b0 ce 3d 6d 85 f7 3b bc e9 b4 bd be b9 0a 3e
       0.1009232 0.0075537474 -0.08833644 0.13547418
0003e0 40 70 18 3e 6a 10 84 3d 50 79 8b bd bc 5b 91 bd
       0.1488657 0.06448443 -0.06810248 -0.07097575
0003f0 ff 9f bf 3d cd f9 ef 3d 9b 25 f0 bc 34 be 01 be
       0.09356689 0.117175676 -0.029314807 -0.12670213

encoders.0.encoder.prelu2.weight f4 [128]
000000 d3 81 80 3e 0e fa 7e 3e 40 fa 7e 3e 9a 82 80 3e
       0.25099048 0.24900076 0.2490015 0.2509964
000010 86 80 80 3e d5 82 80 3e 35 82 80 3e 61 fa 7e 3e
       0.25098056 0.25099817 0.2509934 0.249002
000020 7e 82 80 3e ad 81 80 3e b2 82 80 3e 66 fa 7e 3e
       0.25099558 0.25098935 0.25099713 0.24900207
000030 ae 82 80 3e 52 06 7f 3e 9f 82 80 3e ec 82 80 3e
       0.250997 0.24904755 0.25099656 0.25099885
000040 1d fa 7e 3e 19 fb 7e 3e 7b 82 80 3e 32 fa 7e 3e
       0.24900098 0.24900474 0.2509955 0.2490013
000050 f9 82 80 3e 3a fa 7e 3e 6b fa 7e 3e be fa 7e 3e
       0.25099924 0.24900141 0.24900214 0.24900338
000060 9a 82 80 3e b1 82 80 3e 09 82 80 3e c4 fb 7e 3e
       0.2509964 0.2509971 0.2509921 0.24900728
000070 29 fc 7e 3e e0 fa 7e 3e f0 fa 7e 3e 69 81 80 3e
       0.24900879 0.24900389 0.24900413 0.25098732
000080 e0 82 80 3e 24 fa 7e 3e d7 82 80 3e cf 00 7f 3e
       0.2509985 0.24900109 0.25099823 0.24902652
000090 e1 82 80 3e 61 fd 7e 3e bb fb 7e 3e 10 fa 7e 3e
       0.25099853 0.24901344 0.24900715 0.24900079
0000a0 4e fa 7e 3e a8 fa 7e 3e d5 82 80 3e df fa 7e 3e
       0.24900171 0.24900305 0.25099817 0.24900387
0000b0 04 83 80 3e 41 82 80 3e 7f 7f 80 3e 49 82 80 3e
       0.25099957 0.25099376 0.25097272 0.250994
0000c0 31 fa 7e 3e 71 fa 7e 3e b5 fa 7e 3e e5 fa 7e 3e
       0.24900128 0.24900223 0.24900325 0.24900396
0000d0 6f 80 80 3e 34 82 80 3e c8 82 80 3e 54 80 80 3e
       0.25097987 0.25099337 0.25099778 0.25097907
0000e0 57 fa 7e 3e df fc 7e 3e f2 82 80 3e e3 82 80 3e
       0.24900185 0.2490115 0.25099903 0.2509986
0000f0 82 fc 7e 3e 0a 72 80 3e b4 fa 7e 3e 42 fd 7e 3e
       0.24901012 0.25087005 0.24900323 0.24901298
000100 c2 fc 7e 3e d8 82 80 3e 32 fa 7e 3e cf 82 80 3e
       0.24901107 0.25099826 0.2490013 0.250998
000110 dd 82 80 3e 75 fa 7e 3e 6e fd 7e 3e 92 82 80 3e
       0.2509984 0.2490023 0.24901363 0.25099617
000120 2a fa 7e 3e ef 82 80 3e 53 82 80 3e be 82 80 3e
       0.24900118 0.25099894 0.2509943 0.25099748
000130 2d fa 7e 3e 82 64 80 3e df 82 80 3e b0 fa 7e 3e
       0.24900122 0.2507668 0.25099847 0.24900317
000140 3e fa 7e 3e 28 fb 7e 3e 5d fc 7e 3e 90 fa 7e 3e
       0.24900147 0.24900496 0.24900956 0.2490027
000150 f9 82 80 3e 84 fc 7e 3e 2f fa 7e 3e 94 fa 7e 3e
       0.25099924 0.24901015 0.24900125 0.24900275
000160 a2 fb 7e 3e f8 81 80 3e 94 fb 7e 3e d3 fa 7e 3e
       0.24900678 0.25099158 0.24900657 0.2490037
000170 9c 82 80 3e 53 fa 7e 3e 13 82 80 3e 3a fa 7e 3e
       0.25099647 0.24900179 0.2509924 0.24900141
000180 c3 fa 7e 3e 07 7b 80 3e b0 82 80 3e c3 fb 7e 3e
       0.24900346 0.25093862 0.25099707 0.24900727
000190 d9 05 7f 3e 24 fa 7e 3e 79 fa 7e 3e 5b 82 80 3e
       0.24904574 0.24900109 0.24900235 0.25099453
0001a0 e0 82 80 3e 5c fa 7e 3e ce fb 7e 3e cb 7f 80 3e
       0.2509985 0.24900192 0.24900743 0.25097498
0001b0 63 fa 7e 3e 86 fb 7e 3e 53 80 80 3e 5b 82 80 3e
       0.24900202 0.24900636 0.25097904 0.25099453
0001c0 d6 82 80 3e fd fc 7e 3e c7 82 80 3e b0 81 80 3e
       0.2509982 0.24901195 0.25099775 0.25098944
0001d0 0d fe 7e 3e 48 81 80 3e c4 82 80 3e 57 7b 80 3e
       0.249016 0.25098634 0.25099766 0.250941
0001e0 9a 82 80 3e ba fb 7e 3e 48 fa 7e 3e 83 80 80 3e
       0.2509964 0.24900714 0.24900162 0.25098047
0001f0 9d 82 80 3e 7c fc 7e 3e a9 fd 7e 3e d9 fa 7e 3e
       0.2509965 0.24901003 0.24901451 0.24900378

encoders.1.weight f4 [128, 128]
000000 2d d0 d7 3c 15 9a 9d 3c 70 58 83 bd d8 f6 b9 3c
       0.026344383 0.019238511 -0.064133525 0.022700712
000010 f7 f8 3b bc 5f 90 6f bd 63 c5 91 bd c9 7e 33 3d
       -0.011472932 -0.058487292 -0.07117727 0.043822084
000020 0c ea 9a bd 1a 5e 84 3d 61 c8 28 3c 4c cb 58 bc
       -0.07564172 0.06463261 0.01030168 -0.0132320635
000030 4e be 8b bc 96 68 f8 ba b7 40 63 3b 40 aa f1 bc
       -0.017058518 -0.0018952067 0.0034676024 -0.029500127
000040 ab db 7c bd 55 72 28 bc d8 40 8f bd 05 73 16 bd
       -0.06173293 -0.010281165 -0.0699479 -0.036730785
000050 0f db 88 3d b9 ba c0 3c 91 32 6e 3c 2b c9 12 bd
       0.06682407 0.023526536 0.014538423 -0.03583638
000060 b3 64 b1 bd 92 c8 83 3d 81 79 7e bd 66 e2 dd bc
       -0.08661785 0.0643474 -0.062127594 -0.027085494
000070 30 53 75 bd 8a ac f0 3c 9a 0f 92 3d 0b 97 4d 3d
       -0.059893787 0.029379148 0.07131882 0.050192874
000080 42 a3 a8 3c 93 ae af 3b 4d 71 6a 3d e6 1b 78 bd
       0.02058566 0.005361387 0.05723696 -0.06057348
000090 eb 24 5d bd 2a 53 1d bc 59 0b 8e bd 2c 26 12 3b
       -0.053990286 -0.009602347 -0.06935758 0.0022300584
0000a0 1e 72 56 3d 46 f4 04 bd 8a dd ad bc 00 4e 93 3c
       0.052354924 -0.03245952 -0.021223802 0.01798153
0000b0 8c 6f 8b bd ce 3e 86 3c 9b b9 e6 bc db 5a 26 bd
       -0.06808385 0.01638737 -0.028164675 -0.04061399
0000c0 1b 7c a0 3c dd 77 2d bd 4f 6f 73 bd 04 18 78 bc
       0.019590428 -0.04235064 -0.059432324 -0.0151424445
0000d0 7f dc 98 3d 67 2d 8d 3b f9 bd 8d 3d 55 70 3f 3d
       0.07463931 0.004308391 0.06921 0.046737988
0000e0 9c 18 03 3b 9c c1 87 3d 3f 08 d5 bc 21 56 42 3d
       0.0020003682 0.06628725 -0.026004909 0.04744542
0000f0 65 9e 89 3d ad ac 8b 3a a7 01 16 bd 5e e6 47 bd
       0.067196645 0.001065632 -0.03662267 -0.04880368
000100 5e f4 af bd f3 53 07 3d 1c 2d 68 3d 79 57 1f 3d
       -0.08591531 0.033039045 0.056683645 0.03890178
000110 f3 d8 78 bd 1a 46 a2 bd 86 56 23 3d 7c 50 ac bd
       -0.060753774 -0.07923527 0.039877437 -0.08413789
000120 2c 7d 46 3d 9d c5 51 bd 06 3d 02 bd f4 a0 98 bd
       0.048459217 -0.05121385 -0.031796478 -0.07452574
000130 6f a0 83 3d bf 02 86 3d b9 91 f1 bc 60 e6 32 bc
       0.06427085 0.065434925 -0.029488431 -0.0109191835
000140 f0 3c b4 3d ca df a6 3d bf ec 84 bc f2 b9 35 3d
       0.088006854 0.08148153 -0.01622617 0.044366784
000150 d4 c0 47 3d 75 67 88 3d e7 86 af bd 08 c4 23 3d
       0.04876788 0.06660358 -0.085706525 0.03998187
000160 79 4f ad bd 24 1e 06 bd 15 c5 63 3d fc f9 3c 3c
       -0.08462424 -0.032743588 0.055607874 0.01153421
000170 fe ae c3 3c 9e a8 92 bd af ba da 3c 04 79 a8 bb
       0.023887154 -0.071610674 0.026700346 -0.0051413793
000180 c2 51 6d bd b7 0d 25 bd b8 85 a6 bd bc 92 6f bd
       -0.0579393 -0.040296283 -0.081309736 -0.058489546
000190 f7 19 b2 3d 96 ac 0d 3c 7e 57 2f 3d b9 58 1f bc
       0.08696359 0.008647105 0.04280805 -0.009725743
0001a0 8b 59 ad bc e4 4b b7 3b de 51 cf bc 61 d0 84 3d
       -0.021160861 0.0055937637 -0.025307592 0.064850576
0001b0 9c e3 57 bd 27 5d 8b bc 87 39 d9 bc ef c2 a1 bd
       -0.0527073 -0.017012192 -0.026516689 -0.07898509
0001c0 0d 4c 8d bd 53 07 99 3d 82 2e f6 bc e7 cf b8 3c
       -0.06899271 0.074721 -0.030051474 0.022560073
0001d0 d2 30 4b 3d ee 38 a4 b9 26 f4 99 3d 9d 69 aa bd
       0.049607106 -0.00031322934 0.07517271 -0.083209254
0001e0 5a 5c 90 3c ad a3 4d bd f3 c2 22 bd ae ff 7f bd
       0.017622162 -0.05020492 -0.0397367 -0.062499695
0001f0 41 ca 7c bd 02 cd 21 3b f1 e3 bd 3a b2 73 5c 3d
       -0.06171632 0.0024688845 0.0014487487 0.053821273
000200 ec 88 b7 39 3d 07 78 bd 82 5b 3c bc f2 ec 5c bd
       0.00035006495 -0.060553778 -0.011496427 -0.053936906
000210 d7 59 85 3d 4c e6 28 bd 48 1c 85 bd e9 58 06 bd
       0.06511276 -0.041235253 -0.06499535 -0.032799635
000220 d0 ec 8b 3d 02 82 af bc 64 2b ac 3d 00 bd aa bd
       0.06832278 -0.021424297 0.084067136 -0.0833683
000230 56 84 ef bc c0 13 b0 bc 67 6c 9a bd a9 cd b4 bd
       -0.029237907 -0.021493793 -0.07540207 -0.08828289
000240 04 51 d6 39 3d 13 67 3d f3 18 9e 3d 58 86 87 bd
       0.00040877622 0.05641483 0.077196024 -0.06617421
000250 6a 4a a1 bd 6c c1 b3 bd 37 7f 47 bd 27 0d da 3c
       -0.078755215 -0.08777127 -0.048705306 0.0266176
000260 a4 19 df 3c 13 c6 5e bd 6c ae 0c 3d ba c8 06 bd
       0.027233906 -0.054388117 0.03434603 -0.03290627
000270 fe e5 77 bd c3 59 34 bd 75 fa 87 bd 4c e3 8d 3d
       -0.060522072 -0.044030916 -0.06639568 0.06928119
000280 40 b0 2d bd bc 79 a3 3d e1 e4 19 3d 9e a8 d5 bb
       -0.042404413 0.07982203 0.03757179 -0.006520345
000290 5c 18 68 bd 19 a2 c0 bc fd 57 5f 3d b8 90 a9 bc
       -0.056663856 -0.023514794 0.05452727 -0.02069889
0002a0 2d 9f 70 3c 2d 0e e2 ba e1 60 94 bd e7 b2 b2 bd
       0.014686388 -0.0017246656 -0.07245041 -0.08725529
0002b0 89 27 79 bd 31 ac fc bc 97 48 12 3d 39 32 86 3c
       -0.06082872 -0.030843826 0.03571376 0.01638137
0002c0 c4 86 1e bc c9 d8 63 3d 32 9a aa bc 19 4f 15 bd
       -0.009675685 0.055626664 -0.02082548 -0.036452387
0002d0 07 98 b1 bd a9 7f 29 3d 27 b3 a1 bd 47 34 02 bd
       -0.08671575 0.04138151 -0.07895499 -0.031788137
0002e0 6f f8 b2 bc 54 ef 76 3d 34 63 bf 3c f2 36 a4 bd
       -0.021846978 0.060286835 0.023362733 -0.080182925
0002f0 22 39 95 bb 82 55 2f bd db 95 01 3d db b0 67 3d
       -0.00455393 -0.042806156 0.031637054 0.056565147
000300 6f 33 97 bd b8 1b 54 3c dc 4b a2 bc 15 01 01 3d
       -0.07382857 0.012946062 -0.019811563 0.031495173
000310 21 1c a4 3d c5 e8 16 3c 21 b2 08 bb 53 37 39 3d
       0.08013178 0.00921077 -0.0020858126 0.045218777
000320 f4 66 23 3d 08 56 77 3c af 8d e8 3c e3 e6 9b bd
       0.039893106 0.015096195 0.028387873 -0.076123975
000330 34 1d 88 3d 21 7c 69 3d 61 cf 2b bd 0c 57 07 bd
       0.06646195 0.057003144 -0.04194582 -0.033042
000340 f8 1f 42 bc 8f 58 61 3d fa c3 a1 bd 4c 0d 45 3b
       -0.011848442 0.055016097 -0.07898708 0.003006774
000350 f7 a6 b0 bd 9c e1 47 3d db af 8f bd 1c 8d 16 bb
       -0.08625596 0.048799142 -0.07015964 -0.0022972291
000360 a4 94 5a 3b 7d d1 45 3d 67 55 b2 bd 1f 99 a7 3d
       0.0033352757 0.048295487 -0.087076955 0.081835024
000370 64 6c 41 3c c5 f2 f3 bb 97 5f b4 bd 90 36 99 3d
       0.0118056275 -0.007444712 -0.08807295 0.0748111
000380 94 f1 d2 bc 7b e1 f0 3c 16 dc a9 3d dc 5d 80 3d
       -0.025749959 0.029404392 0.08293931 0.06267902
000390 bd 17 21 bc b3 68 92 3c 3e 50 69 bd a0 49 8c 3c
       -0.00983232 0.01787219 -0.05696129 0.01712495
0003a0 73 a3 13 3d a4 12 74 bd a2 fe 47 3b 36 f4 13 bd
       0.03604455 -0.05958809 0.0030516763 -0.03612157
0003b0 1e 62 a7 bd 78 a2 26 3d 2b f2 73 3d f8 59 86 bd
       -0.08173011 0.040682286 0.05955712 -0.06560129
0003c0 8f 7e 0d bc 7e b1 6a bd 22 0f 7e bc 7c 99 ee bc
       -0.008636131 -0.057298176 -0.015506538 -0.029125921
0003d0 6b d5 26 3c 1f 6b d9 bc 45 dd 20 bd e9 5f 3b 3d
       0.010182719 -0.026540337 -0.03927352 0.045745764
0003e0 44 e8 96 3d f9 0e 19 bc 48 1e ad bd 5b 68 8a 3d
       0.0736852 -0.009341949 -0.08453041 0.067581855
0003f0 17 0e b7 bd d9 ac b5 3c d2 40 54 3b f8 3a 48 3c
       -0.08938234 0.022177147 0.0032387269 0.0122210905

encoders.1.encoder.conv.bias f4 [128]
000000 ce 05 83 ba 20 05 83 ba 25 0f 83 ba 18 07 82 3a
       -0.0009996237 -0.0009996034 -0.000999902 0.0009920327
000010 fd 02 83 ba cd f5 81 3a 48 59 82 3a c6 f7 82 ba
       -0.0009995397 0.0009915173 0.0009944821 -0.0009992055
000020 7c 11 82 3a b4 fe 82 ba 99 0c 83 ba ae 0a 83 ba
       0.0009923424 -0.000999412 -0.0009998261 -0.000999769
000030 c2 a0 82 3a 77 f8 82 3a df 02 83 3a 5d 06 83 ba
       0.0009966122 0.0009992261 0.0009995362 -0.0009996403
000040 ff e2 82 ba db ed 82 ba 45 0c 83 ba 8a ea 82 ba
       -0.0009985863 -0.0009989099 -0.0009998163 -0.0009988111
000050 96 01 83 ba 6f 0a 83 3a 66 ff 82 3a f2 06 83 3a
       -0.000999498 0.0009997616 0.0009994328 0.0009996577
000060 39 05 83 ba f3 0e 83 ba b1 26 82 ba 86 00 83 3a
       -0.0009996063 -0.0009998962 -0.0009929744 0.0009994663
000070 cf 6c 82 ba b4 0f 83 ba ff bf 82 3a b6 03 83 3a
       -0.000995064 -0.0009999187 0.0009975432 0.0009995613
000080 ba 05 83 ba 5c ba 82 ba 87 ff 82 ba 2a 27 81 ba
       -0.0009996213 -0.0009973752 -0.0009994366 -0.0009853591
000090 19 f8 82 ba f2 08 83 ba 16 7a 80 ba 28 e8 82 ba
       -0.0009992152 -0.0009997173 -0.000980201 -0.0009987401
0000a0 6d 03 83 ba 04 0f 83 3a 92 05 83 3a 67 f7 82 3a
       -0.0009995528 0.0009998982 0.0009996167 0.0009991945
0000b0 23 cb 82 3a 01 da 82 ba 26 f7 82 3a 7f 07 83 3a
       0.0009978752 -0.0009983183 0.0009991869 0.0009996741
0000c0 10 ea 82 3a 90 fe 82 3a fc d8 81 ba 6d 0e 83 ba
       0.0009987969 0.0009994078 -0.0009906585 -0.0009998806
0000d0 39 09 83 3a f2 f5 82 ba 9f d1 82 3a 65 0e 83 3a
       0.0009997255 -0.000999151 0.0009980685 0.0009998797
0000e0 7f fa 82 3a 4d 0e 83 3a 34 03 83 3a 85 0d 83 3a
       0.0009992867 0.0009998769 0.0009995461 0.0009998536
0000f0 ce b6 7d 3a 17 0f 83 3a a3 00 83 ba dc ba 82 3a
       0.0009678424 0.0009999004 -0.0009994697 0.0009973901
000100 33 0d 83 ba 7d fd 82 3a 7f 03 83 3a e0 0f 83 3a
       -0.000999844 0.0009993758 0.0009995549 0.0009999238
000110 87 08 83 ba ff 0c 83 3a 8c 0b 83 3a cb 0c 83 ba
       -0.0009997048 0.000999838 0.0009997948 -0.000999832
000120 a3 ff 82 ba 3d 0c 83 ba 77 09 83 3a ad 0d 83 3a
       -0.0009994399 -0.0009998154 0.0009997328 0.0009998583
000130 d0 09 83 3a 6a dd 73 3a a4 0a 83 ba a0 e6 82 3a
       0.0009997431 0.00093027076 -0.0009997678 0.0009986944
000140 30 e6 82 3a 52 ff 82 3a 34 f4 82 3a 32 f9 82 3a
       0.0009986814 0.0009994304 0.0009990991 0.0009992479
000150 47 e7 82 ba 70 fe 82 ba a7 f6 82 ba 7a 0b 83 3a
       -0.0009987139 -0.0009994041 -0.0009991721 0.0009997927
000160 54 0a 83 ba b2 86 82 3a 96 f3 82 ba 99 01 83 ba
       -0.0009997585 0.0009958355 -0.0009990807 -0.0009994983
000170 3f fd 82 3a 57 00 83 ba 52 a4 82 3a 09 0b 83 3a
       0.0009993686 -0.0009994608 0.0009967184 0.0009997796
000180 ab 07 83 ba 61 0c 83 3a 5a 03 83 ba 4d 08 83 ba
       -0.0009996792 0.0009998196 -0.0009995506 -0.0009996981
000190 24 0b 83 ba ae d4 82 ba 68 0d 83 3a b9 07 83 3a
       -0.0009997827 -0.0009981596 0.0009998502 0.0009996808
0001a0 2e 09 83 3a 46 e9 81 ba 20 0e 83 ba b8 fd 82 3a
       0.0009997243 -0.000991144 -0.0009998716 0.0009993827
0001b0 bf ff 82 ba 5d 1d 82 3a 6b 06 83 ba 91 00 83 3a
       -0.0009994431 0.0009926964 -0.000999642 0.0009994676
0001c0 13 e0 82 ba 36 e7 82 3a ad 0e 83 3a 1d fc 82 3a
       -0.0009984992 0.0009987119 0.000999888 0.0009993349
0001d0 8b 01 83 3a da f3 82 ba 9c 09 83 3a fa 0d 83 ba
       0.0009994967 -0.0009990886 0.0009997371 -0.0009998672
0001e0 e7 04 83 ba 7e 79 82 ba fc 0c 83 3a cf ea 82 ba
       -0.0009995968 -0.000995442 0.0009998376 -0.0009988191
0001f0 07 bc 81 3a b6 e9 82 3a 43 08 83 ba a1 dd 82 ba
       0.0009897955 0.0009987864 -0.0009996969 -0.0009984263
