notebooks/checkpoint.pth (torch, 372715 bytes, 66 tensors)

encoders.0.weight f4 [128, 128]
000000 d0 04 79 bc 79 7b cf 3b 02 c3 2a 3d 65 4a 36 3c
       -0.015198901 0.0063318578 0.04168988 0.0111261355
000010 a5 36 83 3c d8 c4 2a bd 8b 01 f5 bc 38 45 48 bd
       0.016017267 -0.04169163 -0.029907962 -0.048894137
000020 70 2c 63 3d 13 1c 72 3d 63 f5 87 bb 46 04 d1 3b
       0.0554623 0.059108805 -0.0041491254 0.0063786833
000030 4d f5 a1 3d a6 ff e2 bc af 46 1f bd b7 4b a0 3d
       0.079081155 -0.027709793 -0.03888577 0.078269415
000040 2b f4 62 bd 1d d3 79 3d b0 49 47 3d 52 75 38 3d
       -0.055408638 0.06099235 0.04865426 0.04503376
000050 9c 4c c6 3a bf 31 95 3d a0 70 f5 3b 7a 0e 6b bc
       0.0015129033 0.07284879 0.0074902326 -0.014346713
000060 68 f7 01 bd 43 80 a5 bd 66 ae 95 bd 33 2d 4c bc
       -0.031730086 -0.080811046 -0.073086545 -0.012461948
000070 8a b2 a8 3d 16 09 b8 3c ec d9 b2 3d db b1 a9 3d
       0.082371786 0.02246527 0.087329715 0.08285876
000080 9a 4e a9 3d bd 39 a0 bd 4c a8 ef bc c0 9e 34 3d
       0.08266945 -0.07823513 -0.029255055 0.04409671
000090 06 ea 0c 3c 13 79 41 3c 82 61 88 3c 38 cc 1c bd
       0.008600717 0.0118086515 0.016648058 -0.038280696
0000a0 ee 3b a7 3d 9d ef a1 3d 3f 62 94 bd e4 7d b3 bd
       0.081657276 0.07907031 -0.072453015 -0.08764246
0000b0 a1 67 9f bd a4 e1 b0 3d 52 a4 18 bd 34 8f ed bc
       -0.077834375 0.086367875 -0.037266083 -0.028998949
0000c0 07 5b 82 bd 76 d6 ac 3d 7b cd 44 bd eb 88 b0 3d
       -0.06365018 0.08439343 -0.048047524 0.08619865
0000d0 a8 df 61 3d 88 79 cf bc a3 2d 8c bd db 27 89 3d
       0.055144936 -0.025326505 -0.06844642 0.06697055
0000e0 ac 78 9c 3c 64 51 40 3d 48 f4 9e bd 6b ef a9 3c
       0.01910051 0.04695262 -0.07761437 0.020744046
0000f0 43 d5 63 bc 10 8f 32 bd 0a e0 a9 3c f6 c8 a6 bd
       -0.013905826 -0.043593466 0.020736713 -0.08143799
000100 47 92 d3 3c d4 a7 b5 bc 69 bd 64 3d e4 d8 95 bd
       0.025826586 -0.022174753 0.055844698 -0.07316759
000110 7b 25 1d bd 45 81 ca bc b6 aa 80 3d ee f1 11 3c
       -0.038365822 -0.024719844 0.062825605 0.008907778
000120 4f 04 a1 3d ac 12 a4 3b a2 c5 4f bb 14 44 89 3d
       0.0786215 0.0050071087 -0.0031703492 0.06702438
000130 08 67 43 3d d1 da d0 3a ff 27 96 3d 0c e4 85 bd
       0.04770568 0.0015934353 0.073318474 -0.06537637
000140 21 92 b5 3c 6b 2a 26 bd 4a 64 19 3d 36 4e a2 bd
       0.022164406 -0.040567797 0.03744916 -0.07925074
000150 3f d9 af 3c fe df 62 bd 33 d8 4a bd 99 95 3f 3d
       0.021465896 -0.055389397 -0.04952259 0.046773527
000160 ea c8 fb bc e8 b4 59 3d 79 54 21 3c 42 36 d9 3b
       -0.030735452 0.05315104 0.0098468 0.0066287825
000170 cd b7 95 3d 9d 3d cd bc 90 fb 70 bd 69 6c 67 bd
       0.07310448 -0.025053794 -0.05883366 -0.056499872
000180 9d 68 49 3d b7 c8 9a 3c 42 93 26 3d 2d ba 59 bd
       0.049172033 0.018894536 0.04066778 -0.053156067
000190 a7 95 39 bd fe fb 91 3d 4d 17 24 bd 0e 96 36 bd
       -0.045308735 0.07128142 -0.040061284 -0.044576697
0001a0 99 da 50 bc 06 2a 8f bd 2f 5d 91 bd 5b bf 32 bb
       -0.01274743 -0.06990437 -0.070978515 -0.0027274701
0001b0 d9 ad b1 3d 30 d8 3d bd 9a 57 9f bd cb 37 be 3c
       0.08675737 -0.04634875 -0.077803805 0.023219964
0001c0 25 b1 a1 bd 96 e6 96 bd 22 33 f4 3c 15 ee ac 3d
       -0.07895116 -0.073681995 0.029809538 0.08443848
0001d0 c2 20 ad 3d f1 cf 85 3d 6b 28 c1 bb a8 fe 70 3d
       0.08453514 0.06533802 -0.005894711 0.05883661
0001e0 8e 08 58 3d e1 73 43 bd b4 56 3c bd 9e db b2 3d
       0.052742533 -0.047717933 -0.045981124 0.08733295
0001f0 1c 31 18 3d c8 7e 63 bd dc e7 e0 3c fe 4a be bc
       0.03715621 -0.05554083 0.02745431 -0.023229118
000200 c1 f7 76 bd c7 4e 63 bd 78 7d a1 bd 6c 57 3c bd
       -0.06029487 -0.05549505 -0.078852594 -0.04598181
000210 8c 33 4d 3d 45 3d 5e bd 9f 6d 9e bd 93 d4 a6 bd
       0.050097987 -0.05425765 -0.07735752 -0.08146014
000220 5b c7 a9 3c b3 ad 27 bd f8 27 f5 b9 95 9e a5 3d
       0.020724943 -0.040937137 -0.0004675982 0.08086888
000230 50 29 91 3d df 80 4a bd 92 82 a4 3b 57 4a 30 3d
       0.07087958 -0.049439307 0.005020448 0.043039646
000240 f4 98 c6 3c 81 f0 ec 3b a6 0a 6c 3d 42 25 56 3d
       0.024242856 0.0072308187 0.057627343 0.052281626
000250 61 c1 44 bc 52 47 95 3b 1e b3 86 bd 87 c1 2a bd
       -0.012008996 0.004555621 -0.06577133 -0.04168847
000260 60 26 9b bd 55 89 ca 3c 09 c9 75 bd 8e e9 22 bc
       -0.07575679 0.024723688 -0.060006175 -0.009943379
000270 68 28 ad bd e5 6f 5c 3c e9 aa 15 bd 3b 65 c9 3c
       -0.084549725 0.013454412 -0.036539946 0.024584403
000280 d8 47 3e bd fa 70 23 3d fc 30 49 bd 9a 6f 11 bd
       -0.046455234 0.039902665 -0.04911898 -0.035506822
000290 15 52 a6 ba bc c5 03 3d 01 c1 03 bd da 9e be 3a
       -0.0012689257 0.032170996 -0.032166485 0.0014543191
0002a0 30 1a 8a bd 43 1c a4 bd c0 b8 a3 bd e0 50 8f bc
       -0.06743276 -0.08013203 -0.07994223 -0.017494619
0002b0 26 7b 72 3d 5f f8 59 bd 1c c8 ca 3c c3 b7 54 3d
       0.059199475 -0.05321538 0.024753623 0.05193306
0002c0 b8 b2 87 3d 87 d6 18 3d bd 99 6e bc 8d 60 c4 3b
       0.06625885 0.037313964 -0.014563021 0.005992955
0002d0 b6 aa 63 3d b1 43 95 3d 67 09 61 39 00 33 8d bd
       0.055582725 0.07288302 0.00021461175 -0.06894493
0002e0 f7 35 5a bd 2d e2 d0 3c 01 9d 34 bd 7b 47 53 3b
       -0.05327412 0.025498474 -0.044095043 0.003223865
0002f0 f2 df fa bb 6e 44 1f 3d c4 fb ed 3c c7 d7 9d 3d
       -0.007656091 0.03888362 0.029050715 0.07707172
000300 28 8c 21 3d 0b d3 9d bc 8e a7 0c bc 60 9c 32 3d
       0.039440304 -0.019265672 -0.00858487 0.043606162
000310 e2 30 4d 3d 73 00 86 bd 25 61 90 bd 6a da a2 3d
       0.050095446 -0.065430544 -0.07049779 0.079518154
000320 3e 3e 32 bd 16 f7 27 bd 76 b3 9c bd 5b a5 e7 bc
       -0.04351639 -0.041007124 -0.07651417 -0.02827709
000330 0c 2d c3 bc 79 69 49 3d 75 8e 9e 3d b5 ab 7a bc
       -0.023825191 0.049172852 0.07742015 -0.015299727
000340 c8 10 1c 3d db de 2b bd 4a 6b 81 bc e3 bd 4b 3d
       0.03810194 -0.04196058 -0.01579823 0.049741637
000350 b0 87 5d 3d 1e 1a 6c bd 99 77 96 3d 7a a1 a6 3d
       0.05408448 -0.057642095 0.0734703 0.08136268
000360 ff 40 44 3c 49 65 d0 3c ca df b4 3d f8 8a 39 bc
       0.011978387 0.025438922 0.08831747 -0.011324637
000370 8f 54 0c 3d 01 18 d1 bc c3 35 8f bc f0 20 11 3d
       0.03426033 -0.025524141 -0.01748169 0.035431802
000380 85 de 7c bc 66 b5 8a 3d 20 51 4b 3d cd 5a 9f 3d
       -0.015433912 0.0677288 0.049637914 0.07780991
000390 ec 4f 93 bd 82 14 37 3d 91 6c 52 3d 3a 99 a5 3d
       -0.07192978 0.044697292 0.05137307 0.08085866
0003a0 7e 01 fa 3c 90 0c 0f 3d a6 69 1d bd 16 40 e2 bc
       0.03051829 0.03492409 -0.038430832 -0.02761845
0003b0 f4 c7 9d bd 90 3c 6d bc e1 45 a6 bd 40 cd 15 3d
       -0.07704154 -0.014479771 -0.08118797 0.036572695
0003c0 ae 8d 8f 3d c0 d9 25 bd 14 2b 8d bb f4 87 84 bd
       0.07009445 -0.040490866 -0.004308114 -0.064712435
0003d0 eb 69 96 bd 77 31 5f 3d d9 9e 3f 3d 5d 6f 8c bd
       -0.07344421 0.054490533 0.04678235 -0.06857178
0003e0 fe e5 9f 3d 31 13 7a bd eb 70 96 bd ce 2e 7c 3c
       0.078075394 -0.06105346 -0.07345756 0.0153920185
0003f0 8b 29 76 bd 65 c1 c1 bc c0 55 89 3d 61 6d 85 3d
       -0.060098212 -0.023651788 0.06705809 0.06515003

encoders.0.encoder.conv.bias f4 [128]
000000 c1 d7 82 ba 5f 1c 81 3a 44 e0 82 ba 64 e4 82 ba
       -0.0009982513 0.0009850374 -0.0009985049 -0.0009986279
000010 d2 e8 82 ba af c7 82 3a 2f e5 82 3a f8 99 82 3a
       -0.0009987599 0.0009977723 0.0009986515 0.0009964099
000020 69 d6 82 3a 78 d5 7f ba e1 d5 82 ba 3b a3 81 ba
       0.0009982112 -0.00097592873 -0.0009981954 -0.0009890565
000030 c1 c2 82 3a 6d a0 82 3a 9d 52 82 ba b6 f2 82 3a
       0.0009976254 0.0009966023 -0.0009942834 0.0009990546
000040 b9 cd 82 ba bf fb 82 ba b7 f5 82 3a 30 f1 82 ba
       -0.0009979523 -0.0009993239 0.0009991442 -0.0009990092
000050 25 fd 82 ba e4 c7 82 ba 2a 8c 82 3a 42 d1 82 ba
       -0.0009993656 -0.0009977785 0.0009959985 -0.0009980577
000060 2d cb 82 ba 50 d8 82 3a b1 95 82 3a 23 ea 82 ba
       -0.0009978764 0.0009982679 0.0009962824 -0.0009987991
000070 25 e1 82 ba 70 f4 82 3a f4 ec 6c ba af b4 82 ba
       -0.0009985311 0.0009991061 -0.00090379943 -0.0009972061
000080 f9 d0 82 3a b1 d6 82 3a 04 75 80 3a 46 07 81 3a
       0.0009980492 0.0009982196 0.0009800498 0.0009844087
000090 ba f0 81 ba 7f 26 82 ba e6 d5 82 3a c0 a8 6e 3a
       -0.0009913661 -0.0009929686 0.000998196 0.0009104125
0000a0 56 fe 82 3a 4f 9c 77 ba 70 c0 81 3a 18 df 82 ba
       0.0009994011 -0.0009445594 0.000989927 -0.00099847
0000b0 1c d0 82 3a 84 d2 82 ba 44 e7 82 3a 23 a8 82 ba
       0.0009980234 -0.0009980951 0.0009987135 -0.0009968322
0000c0 c4 f3 82 ba 9f df 82 3a e9 e1 81 3a 92 3d 82 ba
       -0.0009990861 0.0009984857 0.0009909245 -0.0009936562
0000d0 f2 5f 80 ba e2 f0 82 3a cf fa 82 ba a3 f1 82 ba
       -0.0009794219 0.0009990002 -0.000999296 -0.0009990226
0000e0 2b e9 82 3a 34 f7 82 3a 9a a3 82 3a 16 fa 82 3a
       0.0009987702 0.0009991885 0.000996697 0.0009992744
0000f0 0f e1 81 ba 23 dc 77 ba f7 ec 82 3a e0 7a 80 ba
       -0.0009908992 -0.0009455105 0.0009988834 -0.0009802245
000100 c9 ea 82 3a 2b 39 82 3a 18 f3 82 3a be b6 82 3a
       0.0009988184 0.000993525 0.000999066 0.0009972674
000110 74 90 82 ba 06 c2 82 3a 04 8a 82 3a b4 08 82 ba
       -0.0009961263 0.0009976036 0.0009959345 -0.0009920807
000120 90 d6 82 ba 90 c6 82 ba 5f d8 82 ba 2c f4 82 ba
       -0.0009982157 -0.0009977389 -0.0009982697 -0.0009990982
000130 51 c7 82 ba 3f 4a 82 3a 39 6c 80 ba b7 f5 82 ba
       -0.0009977614 0.000994034 -0.0009797878 -0.0009991442
000140 06 70 81 3a 4d e7 82 ba b9 d1 82 ba ff 4c 82 ba
       0.0009875305 -0.0009987146 -0.0009980715 -0.000994116
000150 d4 a0 82 3a 5c d2 82 ba 06 6c 82 3a af 4a 72 3a
       0.0009966143 -0.0009980905 0.0009950406 0.0009242696
000160 c6 c5 82 ba a6 a0 82 ba 49 cc 82 3a c8 7a 82 3a
       -0.0009977154 -0.000996609 0.0009979095 0.0009954805
000170 f8 e4 82 3a 6c 7b 82 ba e4 dc 82 3a 1f f8 82 3a
       0.0009986451 -0.0009954995 0.0009984043 0.0009992159
000180 7b bf 82 3a 88 a6 82 3a e0 32 63 3a 12 f5 82 3a
       0.0009975279 0.0009967843 0.0008666944 0.000999125
000190 20 dd 82 3a bd bb 82 3a 1d ac 82 ba f3 7b 82 3a
       0.0009984113 0.0009974163 -0.0009969507 0.0009955153
0001a0 eb e1 82 3a 36 fc 81 3a 97 7a 82 ba d7 ca 82 ba
       0.0009985542 0.0009917084 -0.0009954748 -0.0009978664
0001b0 0a 9e 82 ba d2 f5 82 3a bc 23 82 3a 06 f4 82 3a
       -0.0009965312 0.0009991473 0.0009928863 0.0009990938
0001c0 51 a2 82 ba a2 d0 82 3a f1 f9 80 ba 14 cf 82 3a
       -0.0009966587 0.000998039 -0.0009840113 0.0009979927
0001d0 d0 f1 82 ba e8 1f 82 ba 62 e0 81 ba 3a b6 81 3a
       -0.0009990279 -0.0009927722 -0.000990879 0.0009896227
0001e0 fc ab 82 ba 8f e3 82 3a 8f 4e 82 ba f6 cf 82 3a
       -0.0009969468 0.0009986031 -0.0009941625 0.000998019
0001f0 8b cb 82 ba fb 5c 82 ba a4 c7 82 3a ec ee 82 3a
       -0.0009978873 -0.0009945923 0.000997771 0.0009989417

encoders.0.encoder.conv.lin.weight f4 [128, 16]
000000 48 ba 1c 3e 07 44 4a bd a6 d5 91 bd 8b 06 2d 3d
       0.15305436 -0.049381282 -0.07120828 0.042242568
000010 4b 9b 1f be be 68 d6 3d 80 4f e3 bc 81 51 d1 bb
       -0.15586583 0.10469197 -0.02774787 -0.00638789
000020 8b 7d 02 3d 40 d0 b3 bc c6 39 ab 3d 51 6e 1a be
       0.03185801 -0.021949887 0.08360629 -0.15081145
000030 92 43 19 bd 1d 37 5f bd 49 b8 3b 3d d0 5e ba bc
       -0.037417956 -0.05449592 0.045830045 -0.022750288
000040 f2 22 f9 bd 77 d5 b2 3d 91 b5 8f bd 77 3c 36 be
       -0.121648684 0.087321214 -0.07017053 -0.17796503
000050 14 97 c1 3d 4a ed 39 3e 54 db 23 3e 39 8c 39 be
       0.09452644 0.18156925 0.16001636 -0.18119897
000060 5f 9e 8d 3d 32 17 8b 3d f1 cc 1a 3b 62 f2 2a 3e
       0.069149725 0.067915335 0.002362069 0.16694024
000070 41 0b 9b 3d e5 81 20 3e d3 09 b8 bd dd 30 38 3e
       0.07570506 0.15674551 -0.08986249 0.1798739
000080 44 37 b0 bd 01 49 05 bc 3f ad e7 3d 4e b6 37 be
       -0.08604291 -0.008135081 0.11312341 -0.17940637
000090 80 15 30 3d 2d 7a 07 be f0 61 be 3c b9 2a 6d bd
       0.042989254 -0.132302 0.02324006 -0.05790207
0000a0 5b af 48 3e 6e 47 08 be b3 d5 ae bd ec e9 c3 3d
       0.19598143 -0.13308498 -0.08536854 0.095661014
0000b0 58 64 af 3d 17 e0 2c be ca af 03 3e fb af 50 3e
       0.08564061 -0.16882358 0.12860027 0.20379631
0000c0 25 2a ae 3c ed 00 4a 3e 72 25 50 3d e6 db 1a 3e
       0.02126033 0.19726916 0.05081696 0.15122947
0000d0 ca 3b 08 be ee 3e 6b 3d 3f 04 3a bd e2 a0 c9 bc
       -0.13304058 0.05743306 -0.045414206 -0.024612848
0000e0 50 f7 b9 3d 32 4e 23 be bb 50 22 be d0 ad 71 3d
       0.09080374 -0.15947798 -0.15851109 0.05900365
0000f0 9e 67 3b be 95 a7 00 3d d6 cf 4e be 79 56 7b bd
       -0.18301246 0.03140982 -0.2019647 -0.061361764
000100 b4 aa 1b be 73 20 30 3e ee 5f 45 be d3 7c 04 bd
       -0.15201837 0.17199878 -0.19274876 -0.032345604
000110 69 fc c6 3d d2 c6 2c 3e c5 65 38 3e 17 95 01 3e
       0.09716112 0.16872719 0.18007572 0.1265453
000120 6c c8 f0 bd 07 38 5a bb dd 4a 2a 3e 99 29 ce bd
       -0.117569774 -0.0033297555 0.1663012 -0.10066528
000130 29 bd d5 3d 5e e2 eb 3c 2c 46 84 3c c4 0f 5e bd
       0.1043647 0.028794464 0.016146742 -0.054214254
000140 c3 1d d6 bd db 8e fa 3d 6d af 4f 3e bb 89 b2 3d
       -0.10454895 0.12234279 0.20281763 0.08717676
000150 c7 ca 4f 3e 35 98 d7 3d fe 13 18 3d 0f 6f 31 3d
       0.20292197 0.10527078 0.03712844 0.043318804
000160 81 33 45 3e 1a 0e 07 be e1 08 48 3c 2b d7 eb 3d
       0.19257928 -0.13188973 0.012209148 0.115156494
000170 5c 8b 4f be ab c4 43 3e 57 9a dc 3c ea 88 f3 bd
       -0.20268005 0.19117992 0.026929064 -0.11891349
000180 51 82 3c 3e 4c 6b 30 be 8e 64 0b 3e af de 9b 3d
       0.18409087 -0.1722843 0.13612577 0.07610833
000190 6c 7b b9 3d de 87 64 3d 6a 87 3d 3e 08 17 6a 3d
       0.09056744 0.055793636 0.18508688 0.05715087
0001a0 99 ab 38 3d 85 61 93 3d 96 65 76 bb 23 e1 9d bd
       0.045085523 0.07196335 -0.003759717 -0.07708957
0001b0 5b 26 4e 3e 36 4c 01 3e b1 0f 59 bd ac 34 ee bd
       0.20131819 0.12626728 -0.05299348 -0.1163114
0001c0 b4 2f 9a 3d c8 d0 49 3e 5a 06 27 be a5 45 1f 3e
       0.0752863 0.1970855 -0.16311017 0.15553911
0001d0 23 35 d6 bd 85 9a e3 bd 18 54 41 3e dc a4 d9 bc
       -0.10459354 -0.11113457 0.18879735 -0.026567869
0001e0 d1 d7 af bd 8a 6f 9d 3c e6 dc 16 bd a5 8b 4a be
       -0.085860856 0.019218225 -0.03683176 -0.19779833
0001f0 54 c1 7a bb 4f a9 5f bd 33 ad 40 3b ed c6 10 3e
       -0.0038262205 -0.054604825 0.002940011 0.14138384
000200 62 2b c1 bc fa 8a fb 3d 85 d2 fb bd 5c 5a 06 3e
       -0.023580257 0.12282367 -0.12296013 0.13120407
000210 2b 39 c3 3b 07 94 f4 bc 72 d6 1b bc 8d 00 b5 bd
       0.0059577427 -0.029855741 -0.009511577 -0.08837996
000220 4c 9f 96 bd 26 c4 8f 3d 3e f1 96 b9 56 83 7a bd
       -0.07354602 0.07019834 -0.0002878997 -0.061160408
000230 3e 00 72 bb 9c 0e 95 bd 2d f8 3b 3e 9d 7f 52 bc
       -0.0036926414 -0.07278177 0.1835639 -0.012847808
000240 dc ad 49 be 01 c3 2a 3d 9c 29 e1 bd 16 8b 0b 3e
       -0.19695228 0.041689876 -0.109942645 0.13627276
000250 4e 54 26 3d 0a 7d c8 bd 34 9a cb 3d 3a ce 44 be
       0.040607743 -0.09789474 0.09941521 -0.19219294
000260 0d 6e 90 3d 16 37 07 bd 71 04 2d bd 0c ff 05 be
       0.070522405 -0.03301152 -0.042240564 -0.13085574
000270 45 53 dc bd 82 7b 25 3d 1c 57 1e be 04 89 19 bc
       -0.1075807 0.04040099 -0.15462917 -0.009371046
000280 9f 67 06 3d 7d ac af bc 12 ee 67 3c 6c 85 d8 3d
       0.032813665 -0.021444554 0.0141558815 0.10572323
000290 ff f5 d1 3d 45 90 e0 3d 7f 9f c4 3d 2c 0e 7c bc
       0.10251998 0.10965017 0.09600734 -0.015384238
0002a0 6f 20 8d bc 25 56 3e be 7a ab 1a 3c f4 cf 32 3e
       -0.01722738 -0.18587549 0.009440297 0.1746214
0002b0 a8 1a 26 bb 5a 9b fc 3d fc 80 82 bd 15 86 0e be
       -0.0025345478 0.123343185 -0.06372258 -0.13918336
0002c0 cb de d7 bd 69 a4 45 3e 45 9a 13 3e 6b ab 01 be
       -0.10540541 0.19300999 0.14414318 -0.12663047
0002d0 2d 92 27 bd 2a 69 af 3d 89 a1 41 3e 71 5a f1 bd
       -0.04091089 0.0856498 0.18909277 -0.117848285
0002e0 5f a2 c3 bd 3c e1 be bd 83 81 18 be 50 55 70 bb
       -0.09552454 -0.09320304 -0.14893155 -0.0036671944
0002f0 2e 20 40 3e 14 01 89 3b f3 ff 1a 3e ec 1f e3 3c
       0.18762276 0.0041810367 0.151367 0.027725182
000300 7b 34 7c 3d 07 62 f6 3d b0 43 0c 3c 9f 28 06 3c
       0.061573487 0.12030416 0.00856106 0.008188396
000310 5d eb 35 be 66 be d7 3d c5 84 64 3d 5d 87 2f 3e
       -0.17765565 0.105343625 0.05579068 0.1714148
000320 43 1d a3 bd de 5c f9 3b 41 91 5f bd 51 2d 44 be
       -0.079645656 0.0076099476 -0.054581884 -0.19157912
000330 c0 a2 ce bd cf 71 d3 bc 57 71 2a 3e bf c8 06 be
       -0.10089636 -0.025811104 0.16644798 -0.13162516
000340 0d 69 22 3d 20 da 32 3e 25 d5 3a 3e a7 21 4c 3e
       0.039650965 0.1746602 0.1824537 0.19934712
000350 bb 3b 1a be 01 03 e1 bd 47 80 02 3e 30 e2 34 be
       -0.15061848 -0.10986901 0.12744246 -0.17664409
000360 44 ee 79 3d 23 1b 3a be b9 28 61 bd 66 ed 0d 3e
       0.061018243 -0.18174414 -0.054970477 0.13860092
000370 c2 f1 17 3e a7 73 95 bc 78 3e 83 3d e4 db 30 be
       0.14838317 -0.018243624 0.06408399 -0.17271382
000380 87 5f e0 bd 2c c8 04 3d 17 e3 74 bd ef af ff 3d
       -0.109557204 0.03241746 -0.059786882 0.124847285
000390 23 eb 25 be 7c 49 cd 3d 37 b7 5e bd bc 9f 14 bd
       -0.16202979 0.10023782 -0.054373946 -0.036285147
0003a0 8a 70 43 3d f6 21 bd 3d 72 00 dc 3d b2 a6 93 bd
       0.047714747 0.09234993 0.107422724 -0.07209529
0003b0 ac 88 9e 3d 2d 74 28 3d 0e 3d 34 3e d4 a5 1c 3e
       0.07740912 0.04112642 0.17601416 0.15297633
0003c0 ef 6a 4e bc 01 14 50 3d b6 74 db 3c 76 52 d8 bd
       -0.012598737 0.050800327 0.02678905 -0.10562603
0003d0 20 3f db 3d d3 a7 d2 3d 1d b1 48 be 77 1e 97 3d
       0.107053995 0.10285916 -0.19598813 0.073788576
0003e0 1b c6 2b bd 46 07 33 3e 21 1b b8 bd 27 e5 25 be
       -0.041936975 0.17483243 -0.089895494 -0.16200696
0003f0 69 52 8a bd d2 6e 35 3e 7a 92 d2 3c a6 6c 86 3d
       -0.06754 0.17718056 0.025704611 0.06563692

encoders.0.encoder.prelu.weight f4 [128]
000000 57 82 80 3e 04 2c 7f 3e 1b fb 7e 3e 9f 82 80 3e
       0.2509944 0.24919134 0.24900477 0.25099656
000010 3f 79 80 3e a1 fa 7e 3e a6 fa 7e 3e f1 7c 80 3e
       0.25092503 0.24900295 0.24900302 0.25095323
000020 68 7d 80 3e a1 82 80 3e 41 81 80 3e b6 fc 7e 3e
       0.25095677 0.25099662 0.25098613 0.24901089
000030 8b fb 7e 3e b2 fa 7e 3e 51 fc 7e 3e c3 82 80 3e
       0.24900644 0.2490032 0.24900939 0.25099763
000040 14 fa 7e 3e 54 81 80 3e b8 82 80 3e 1d fa 7e 3e
       0.24900085 0.2509867 0.2509973 0.24900098
000050 b1 fa 7e 3e 15 82 80 3e 1e 82 80 3e 67 fa 7e 3e
       0.24900319 0.25099245 0.25099272 0.24900208
000060 7d 81 80 3e 5f 04 7f 3e cb 82 80 3e 1b fa 7e 3e
       0.25098792 0.24904011 0.25099787 0.24900095
000070 34 fa 7e 3e e1 82 80 3e 22 03 7f 3e 98 fa 7e 3e
       0.24900132 0.25099853 0.24903539 0.24900281
000080 c2 fd 7e 3e 69 82 80 3e 58 fb 7e 3e a1 fa 7e 3e
       0.24901488 0.25099495 0.24900568 0.24900295
000090 20 ff 7e 3e c8 fb 7e 3e 99 fb 7e 3e d8 02 7f 3e
       0.2490201 0.24900734 0.24900664 0.24903429
0000a0 9b 82 80 3e a6 82 80 3e 63 81 80 3e 5f 82 80 3e
       0.25099644 0.25099677 0.25098714 0.25099465
0000b0 17 81 80 3e 5e fb 7e 3e cc fc 7e 3e 7e fa 7e 3e
       0.25098488 0.24900576 0.24901122 0.24900243
0000c0 63 fa 7e 3e 74 82 80 3e 93 81 80 3e 0f 82 80 3e
       0.24900202 0.25099528 0.25098857 0.25099227
0000d0 2c fc 7e 3e b2 82 80 3e 29 fc 7e 3e 36 fd 7e 3e
       0.24900883 0.25099713 0.24900879 0.2490128
0000e0 03 fc 7e 3e ea 82 80 3e ae fb 7e 3e bf fa 7e 3e
       0.24900822 0.2509988 0.24900696 0.2490034
0000f0 4b fa 7e 3e 8e 82 80 3e 65 81 80 3e 17 fa 7e 3e
       0.24900167 0.25099605 0.2509872 0.24900089
000100 3b fc 7e 3e e7 fe 7e 3e 73 82 80 3e 99 82 80 3e
       0.24900906 0.24901925 0.25099525 0.25099638
000110 f3 fa 7e 3e e7 64 80 3e cd 82 80 3e 99 82 80 3e
       0.24900417 0.25076982 0.25099793 0.25099638
000120 3c fb 7e 3e 6d fa 7e 3e 4b fa 7e 3e e3 0c 7f 3e
       0.24900526 0.24900217 0.24900167 0.2490726
000130 9b 82 80 3e bf 82 80 3e 02 fc 7e 3e cc 82 80 3e
       0.25099644 0.2509975 0.24900821 0.2509979
000140 f6 fb 7e 3e a8 82 80 3e 73 fa 7e 3e d2 fa 7e 3e
       0.24900803 0.25099683 0.24900226 0.24900368
000150 86 fa 7e 3e a9 01 7f 3e 93 fa 7e 3e 5c fb 7e 3e
       0.24900255 0.24902977 0.24900274 0.24900573
000160 6f fd 7e 3e b1 82 80 3e c8 82 80 3e 30 82 80 3e
       0.24901365 0.2509971 0.25099778 0.25099325
000170 18 80 80 3e 6b fa 7e 3e d7 fb 7e 3e 55 fa 7e 3e
       0.25097728 0.24900214 0.24900757 0.24900182
000180 bc 82 80 3e 75 ff 7e 3e 41 fc 7e 3e ea 7f 80 3e
       0.25099742 0.24902137 0.24900915 0.2509759
000190 97 fa 7e 3e e1 82 80 3e 12 fb 7e 3e e5 fd 7e 3e
       0.2490028 0.25099853 0.24900463 0.2490154
0001a0 f3 82 80 3e 18 fb 7e 3e 29 fa 7e 3e ba 82 80 3e
       0.25099906 0.24900472 0.24900116 0.25099736
0001b0 c6 fa 7e 3e b4 82 80 3e ac 82 80 3e cb 82 80 3e
       0.2490035 0.2509972 0.25099695 0.25099787
0001c0 42 fb 7e 3e a6 81 80 3e dd 82 80 3e 02 80 80 3e
       0.24900535 0.25098914 0.2509984 0.25097662
0001d0 12 fb 7e 3e a0 02 7f 3e 80 5d 80 3e db fb 7e 3e
       0.24900463 0.24903345 0.25071335 0.24900763
0001e0 83 82 80 3e f5 fa 7e 3e 8e 82 80 3e 2e 82 80 3e
       0.25099573 0.2490042 0.25099605 0.2509932
0001f0 25 fa 7e 3e b0 82 80 3e 9e 82 80 3e a6 82 80 3e
       0.2490011 0.25099707 0.25099653 0.25099677

encoders.0.encoder.conv2.bias f4 [128]
000000 80 db 82 ba e2 bb 82 3a 27 ef 82 3a c6 98 82 ba
       -0.0009983629 0.0009974206 0.0009989486 -0.0009963743
000010 2e e6 82 ba 0e 18 82 3a bf fd 82 3a 72 b5 82 3a
       -0.0009986812 0.0009925382 0.0009993835 0.0009972288
000020 13 8f 82 3a c5 d5 82 ba 3a b9 82 3a 32 65 82 3a
       0.0009960852 -0.0009981921 0.0009973415 0.0009948371
000030 57 f4 82 3a df d2 82 ba a3 d2 82 ba 7b 62 82 3a
       0.0009991032 -0.0009981057 -0.0009980988 0.0009947562
000040 1b 85 b3 38 41 cc 82 3a cd 5e 82 3a 03 ea 82 ba
       8.560178e-05 0.0009979085 0.0009946466 -0.0009987954
000050 20 d9 81 3a 96 db 81 3a 7d e5 82 3a 66 fa 82 3a
       0.0009906627 0.0009907361 0.0009986606 0.0009992837
000060 2b 9c 82 ba eb dc 82 3a 22 f0 82 3a 54 f8 81 3a
       -0.0009964755 0.0009984052 0.0009989778 0.0009915926
000070 90 11 7e 3a cd f0 82 3a 8e fe 81 3a 0d e3 82 3a
       0.0009691948 0.0009989977 0.0009917782 0.0009985879
000080 fd e2 82 3a 45 a8 82 ba 0d c0 82 3a ae fd 82 ba
       0.0009985861 -0.0009968361 0.0009975448 -0.0009993815
000090 6b 02 82 ba 1a d9 82 3a e0 c9 82 ba 79 d3 82 ba
       -0.0009918934 0.0009982914 -0.0009978376 -0.0009981237
0000a0 f3 d8 82 3a 7c 2b 82 3a e6 b3 82 3a 74 fb 82 ba
       0.0009982869 0.0009931172 0.0009971827 -0.0009993152
0000b0 d2 85 82 3a df 9b 82 ba 44 66 82 ba 65 c3 82 ba
       0.0009958094 -0.0009964666 -0.000994869 -0.0009976445
0000c0 b2 01 82 ba ce 4e 82 ba a4 dd 82 3a 64 7b 82 ba
       -0.0009918718 -0.0009941699 0.0009984267 -0.0009954986
0000d0 8b c0 82 3a ee d4 82 ba 96 b2 81 ba 74 0c 81 ba
       0.0009975595 -0.0009981671 -0.0009895142 -0.000984563
0000e0 c9 d9 82 ba 2d f6 82 ba 6d 15 82 3a 77 bc 82 3a
       -0.0009983118 -0.0009991579 0.0009924598 0.000997438
0000f0 5d fa 81 3a 6d d8 82 ba ca eb 82 3a 9d d9 82 ba
       0.0009916533 -0.0009982713 0.0009988484 -0.0009983067
000100 07 50 82 3a 43 ae 82 3a db 16 82 ba ab 80 82 ba
       0.0009942063 0.0009970147 -0.0009925024 -0.0009956559
000110 70 fa 82 3a 75 f6 82 3a ee 9d 82 ba e7 63 82 3a
       0.0009992849 0.0009991663 -0.000996528 0.0009947986
000120 a6 d9 82 3a 02 f0 82 3a 12 ff 82 ba 25 73 82 3a
       0.0009983077 0.0009989741 -0.000999423 0.0009952529
000130 06 b9 82 ba a6 07 7f ba 70 f4 82 3a 0d 4c 0a ba
       -0.0009973354 -0.0009728618 0.0009991061 -0.00052756147
000140 6b ca 82 3a 53 d8 82 ba af e1 82 ba 14 ea 82 3a
       0.0009978538 -0.0009982683 -0.0009985472 0.0009987974
000150 f0 d1 82 ba dc 3c 76 3a d9 55 74 3a 37 d8 82 ba
       -0.0009980779 0.0009393224 0.00093206536 -0.000998265
000160 7e e3 82 3a ad ce 82 ba 1b e9 82 ba 92 d3 82 ba
       0.0009986011 -0.0009979807 -0.0009987684 -0.0009981266
000170 0a 1c 82 ba 19 d7 82 3a f5 f8 82 ba 2c 59 82 ba
       -0.0009926569 0.0009982317 -0.0009992408 -0.0009944788
000180 f6 f0 80 ba 35 ed 82 ba 9a ca 81 ba 84 6a 82 3a
       -0.0009837437 -0.0009988906 -0.0009902299 0.0009949957
000190 05 e3 7b ba 79 ba 82 ba c0 f4 82 ba 70 50 7a ba
       -0.00096087187 -0.0009973786 -0.0009991154 -0.0009548729
0001a0 f0 2a 81 3a 77 d4 82 3a 6b f8 82 3a ed cf 82 3a
       0.0009854715 0.0009981532 0.0009992247 0.000998018
0001b0 b7 f6 82 ba 82 ec 82 ba 96 d4 82 3a c5 c8 82 ba
       -0.000999174 -0.0009988698 0.0009981568 -0.0009978047
0001c0 a7 d7 82 ba 1d 6b 82 3a 3b 14 82 ba ca e6 82 3a
       -0.0009982482 0.0009950135 -0.0009924242 0.0009986993
0001d0 c9 ed 82 ba dd f1 82 3a b6 9d 80 ba a1 f6 82 ba
       -0.0009989078 0.0009990294 -0.0009812627 -0.0009991714
0001e0 1d eb 82 3a 32 da 82 3a d5 f2 82 3a 47 c9 82 3a
       0.0009988282 0.000998324 0.0009990582 0.0009978198
0001f0 d6 19 82 ba 90 7b 82 ba 72 e4 82 3a 28 e8 82 3a
       -0.0009925913 -0.0009955037 0.0009986295 0.0009987401

encoders.0.encoder.conv2.lin.weight f4 [128, 128]
000000 e5 20 ef bc 06 4c 05 3b f0 ca d9 bd c3 9c 39 bd
       -0.02919049 0.0020339503 -0.106344104 -0.045315515
000010 67 83 e4 3d 0f 54 ae bc 33 7f 8c 3c e9 9a 29 ba
       0.111578755 -0.021280317 0.017150497 -0.0006469922
000020 4a 80 f8 3d 17 6e 8f bd 27 50 a4 bd de ee 9e 3d
       0.12133844 -0.0700342 -0.080231 0.07760404
000030 31 02 9a 3d 30 ce c6 3b e5 4b 12 be 33 63 dd bd
       0.07519949 0.00606706 -0.14286764 -0.108099364
000040 b9 d8 10 3d 8a 9c 1b 3e 4c 28 6a 3c 14 ae 89 bd
       0.035362933 0.15196434 0.014291834 -0.06722656
000050 4b cd bf 3d fb a2 cd 3d 1e be 14 bd 71 de e3 3d
       0.093653284 0.10040852 -0.036314122 0.11126412
000060 a8 ef aa bd c7 97 9b 3d 28 64 3b bd 57 6d e7 3c
       -0.08346492 0.075973086 -0.045749813 0.02825038
000070 f7 fd c3 3d 60 fd de bd e7 7d c4 bd b8 ba 1a be
       0.09569924 -0.10888171 -0.095943265 -0.1511029
000080 1a ab 19 3e b9 13 a7 bd 13 e1 c7 bd a6 17 3b 3b
       0.15006676 -0.08158059 -0.097597264 0.002854803
000090 be fd 01 3e 13 6c 61 3d b9 9f ab bd fd 47 9b 3b
       0.12694451 0.05503471 -0.08380074 0.0047388063
0000a0 5b 4c 1b be 9a 86 9e bd 60 f8 f5 bd 0a d5 4b bd
       -0.15165846 -0.07740517 -0.120102644 -0.049763717
0000b0 03 fa f1 3d e7 44 0f 3e 5c 25 3f bd 20 8d dc bd
       0.11815264 0.13991128 -0.046666488 -0.10769105
0000c0 95 64 47 3d 40 57 ff bc 6a f0 b2 bd 37 24 ca bd
       0.048679907 -0.031169534 -0.087372616 -0.09870189
0000d0 d5 b9 56 3c 9a 7b 25 bd fe 3f 75 bd 93 f5 a6 3d
       0.013105829 -0.04040108 -0.05987548 0.08152308
0000e0 7d 05 5b bd 06 bf bd bd 68 28 28 bd 91 05 17 3e
       -0.05347203 -0.092649505 -0.04105416 0.14748217
0000f0 25 bc 5b 3d a8 89 a3 3d a6 cd e6 3d df 5a ca bd
       0.053646225 0.0798524 0.11269693 -0.098806135
000100 40 de d1 bc 0e f7 c7 3d 1c 3a d4 bd 8e 0b 03 bd
       -0.025618672 0.09763919 -0.10362646 -0.03199344
000110 43 97 1d 3d ad d6 0e 3e 76 c6 ad bc 18 0d 0d 3e
       0.038474333 0.1394908 -0.021212798 0.13774526
000120 6b 22 15 be de 51 05 3e 98 fa 20 bd 36 6a 43 bd
       -0.1456391 0.13019511 -0.039301485 -0.047708713
000130 b5 da 1a be 19 b7 d5 bb f5 b6 7d 3d 2c 13 ff bd
       -0.15122493 -0.006522071 0.06194206 -0.124548286
000140 1b 6d a4 3c 10 e1 e1 3d 57 f8 12 3e 38 30 88 3d
       0.020071557 0.110292554 0.14352547 0.06649822
000150 be 7e 08 3e 4e 53 0f 3e 43 b6 44 3d 51 fc 97 bd
       0.13329598 0.13996622 0.04802538 -0.074211724
000160 3e 12 b4 bd 7f e6 04 3e 93 dc f7 bc 43 06 f0 bd
       -0.08792542 0.12978552 -0.030256545 -0.11719944
000170 39 f7 44 3d 6d cf b0 3d 45 17 ae bd 6f 9f 92 bd
       0.048087332 0.08633313 -0.08500532 -0.07159316
000180 bc e7 54 3d 46 29 00 be 76 6f c8 3d a6 06 90 bd
       0.05197881 -0.12515745 0.097868845 -0.07032518
000190 c8 69 8f bd 2a 3f 1d bd 7b 25 8a bd 21 b2 01 be
       -0.07002598 -0.038390316 -0.0674543 -0.12665607
0001a0 e4 99 44 3d 2d f0 80 bc ff d9 df 3c f9 6c 16 bd
       0.047998324 -0.015739525 0.027325628 -0.03672502
0001b0 e0 f0 0c 3d c1 c0 11 be 05 da 11 3e b9 b5 e7 3b
       0.034409404 -0.14233686 0.14243324 0.0070712236
0001c0 b8 06 c5 3d 12 d6 c0 bd ab ba 94 bd 5d 47 0a be
       0.09620422 -0.09415831 -0.072621666 -0.13503785
0001d0 58 56 08 bd b6 ad da bd 1d 48 dd bd 80 a5 01 3e
       -0.03328547 -0.10677664 -0.1080477 0.1266079
0001e0 1c 3e 43 bb 5d 11 ad 3d e5 3d f6 3c 04 32 52 3d
       -0.0029791659 0.084505774 0.03005881 0.05131723
0001f0 94 05 ea 3d 62 e1 21 bd 54 0a 9a 3d 33 33 1d 3c
       0.11426845 -0.039521582 0.07521501 0.009594726
000200 ba 2d fc 3d af b6 0d 3d ed 70 10 3e 81 2c c9 bd
       0.12313409 0.03459805 0.14105578 -0.098229416
000210 45 68 5c 3d 42 4c a4 bd a4 b3 85 3d 69 0e 70 3d
       0.053810377 -0.080223575 0.06528404 0.058607493
000220 68 56 04 bd 2e 71 3e bd 55 87 01 be c5 8b 60 bd
       -0.032308966 -0.046494655 -0.12649281 -0.054820795
000230 a3 5f 00 3e 28 ca 0f be 99 56 0f be b2 69 fe bd
       0.12536483 -0.1404196 -0.13997878 -0.124225035
000240 83 ce f5 bc 89 30 f4 3c 03 77 9d 3c 09 8f 50 bd
       -0.030005699 0.0298083 0.019221788 -0.05091766
000250 eb 07 5f 3c 84 fe 17 be 84 37 7e 3c f2 a7 9e 3d
       0.013612728 -0.14843184 0.015516166 0.07746877
000260 ff c5 7f bd 6b 28 05 be cd e0 d5 3c 65 08 f8 3c
       -0.062444683 -0.130037 0.02610817 0.03027744
000270 5a 54 18 3e 55 ad ec bd ce c4 14 3e d4 50 0d be
       0.14875928 -0.11556498 0.145282 -0.13800365
000280 f6 fa 26 bc 98 75 46 3d e7 1a 19 be 98 27 8e 3d
       -0.01019167 0.04845199 -0.14951669 0.06941146
000290 ca 98 19 be d7 39 95 bc d0 cd 10 3e 29 0d 04 bd
       -0.1499969 -0.018216057 0.14141011 -0.032239113
0002a0 c3 8c 79 bd 47 ba f3 bd dd 3f 05 be 24 5d e3 3c
       -0.060925256 -0.11900764 -0.13012643 0.027754374
0002b0 fe 1b 99 bd 10 10 83 3d 8f 73 73 bd eb af ca 3d
       -0.07476042 0.06399548 -0.059436377 0.09896835
0002c0 46 93 c8 bd 97 2f ca bc ee 46 ac bd e7 81 f0 3d
       -0.09793715 -0.024680896 -0.08411966 0.11743527
0002d0 55 7a 0a 3e b5 cf 7d 3d 1b 14 fb bc dd 1a 61 3d
       0.13523228 0.061965663 -0.030649235 0.05495726
0002e0 5a 36 e6 3c 8b c4 00 bd 9f 91 fb 3a 1c b3 3f bc
       0.028102089 -0.031437438 0.0019193179 -0.011700418
0002f0 9e 7e 7e bc 72 f9 d2 bd 2c dd d1 3d 09 32 26 bc
       -0.015533118 -0.10301484 0.10247263 -0.010143765
000300 a1 37 ec 3d d9 24 c8 bc 95 40 32 3d 4e 10 de bd
       0.11534048 -0.024431633 0.04351862 -0.108429536
000310 b5 d1 b8 bd 88 36 42 bc d9 a8 76 bd 39 1d 55 bd
       -0.090243734 -0.011853822 -0.06021962 -0.052029822
000320 58 d6 da 3d a5 a2 35 3d e9 52 4e bd be 06 19 be
       0.10685414 0.044344563 -0.050372038 -0.14943978
000330 50 7b c1 bd e9 04 4b bd c5 8a 5e bc d7 26 b6 3d
       -0.09447348 -0.04956523 -0.01358289 0.08894127
000340 c3 da 13 3e 7c 58 f9 3c 79 4f 08 bd 29 0a 39 3d
       0.1443892 0.0304377 -0.033278916 0.045175705
000350 d6 f6 cd 3d 97 36 fc 3d b8 9a 2f 3d b3 0f 1f bb
       0.10056846 0.123151 0.04287216 -0.0024270832
000360 77 79 d7 bd c1 3c 8e bc 96 49 bc bd 84 f2 63 bd
       -0.105212145 -0.017362954 -0.09193723 -0.055651203
000370 3d ac db 3d fe 23 14 3e 7e 7e 2c bc 21 3f 04 3e
       0.10726211 0.14466855 -0.010528205 0.12914707
000380 94 9c 00 bc db f4 ee bd 6f d4 cd 3d 00 32 9f 3d
       -0.007849831 -0.11667796 0.10050284 0.077732086
000390 e3 1a de 3d a6 e8 fc 3d ee d1 b1 3d 82 10 13 3e
       0.10844972 0.12349062 0.08682619 0.14361766
0003a0 a0 ef 03 bd c7 2c 74 3d 55 29 ec bc 4d c1 49 bd
       -0.032210946 0.059613016 -0.028828302 -0.04925661
0003b0 c9 27 e2 3d cf 3f 63 bd fe 94 81 bd 9d d9 79 3d
       0.11042745 -0.055480774 -0.06327246 0.060998548
0003c0 a7 3e fa 3d 2b 06 83 3d 2e e1 3e bc e1 15 fb 3c
       0.12218981 0.06397661 -0.011650367 0.030650081
0003d0 8d ad f2 bd 0c 6f 63 3b ac 1e a8 3d 52 7a 87 bd
       -0.118495084 0.003470364 0.08208975 -0.066151276
0003e0 d9 6a 5b 3d 90 7b 52 bd 9c 83 9b bd 76 c7 96 bb
       0.053568695 -0.05138737 -0.07593462 -0.0046014143
0003f0 82 62 d4 3d 5e f2 cf 3c a4 28 e4 bd 04 c5 0d 3e
       0.103703514 0.025384124 -0.11140564 0.13844687

encoders.0.encoder.prelu2.weight f4 [128]
000000 40 ff 7e 3e a4 fa 7e 3e e7 82 80 3e 5e 06 7f 3e
       0.24902058 0.249003 0.2509987 0.24904773
000010 3f fb 7e 3e c5 7d 80 3e 53 82 80 3e b1 fa 7e 3e
       0.2490053 0.25095955 0.2509943 0.24900319
000020 00 fd 7e 3e ab fb 7e 3e 30 82 80 3e 01 fb 7e 3e
       0.249012 0.24900691 0.25099325 0.24900438
000030 db 82 80 3e cf 82 80 3e de fa 7e 3e 37 81 80 3e
       0.25099835 0.250998 0.24900386 0.25098583
000040 b4 82 80 3e 47 82 80 3e db fa 7e 3e d1 fa 7e 3e
       0.2509972 0.25099394 0.24900381 0.24900366
000050 15 7d 80 3e 72 fd 7e 3e e6 82 80 3e ad fa 7e 3e
       0.2509543 0.24901369 0.25099868 0.24900313
000060 91 82 80 3e 8c 82 80 3e 89 82 80 3e 92 82 80 3e
       0.25099614 0.250996 0.2509959 0.25099617
000070 0a 72 80 3e d8 82 80 3e 50 fa 7e 3e ac 82 80 3e
       0.25087005 0.25099826 0.24900174 0.25099695
000080 b4 82 80 3e 45 fd 7e 3e d3 7f 80 3e 87 fa 7e 3e
       0.2509972 0.24901302 0.25097522 0.24900256
000090 cd 82 80 3e 55 82 80 3e fd 81 80 3e b9 fb 7e 3e
       0.25099793 0.25099435 0.25099173 0.24900712
0000a0 2b 81 80 3e 93 82 80 3e 8a 19 7f 3e 60 fa 7e 3e
       0.25098547 0.2509962 0.24912086 0.24900198
0000b0 ec 0a 7f 3e 1f fb 7e 3e 4e fe 7e 3e 04 fc 7e 3e
       0.2490651 0.24900483 0.24901697 0.24900824
0000c0 35 fe 7e 3e 7b 7b 80 3e 6c 01 7f 3e a9 82 80 3e
       0.2490166 0.25094208 0.24902886 0.25099686
0000d0 26 81 80 3e 2c fb 7e 3e b4 fa 7e 3e 28 80 80 3e
       0.25098532 0.24900502 0.24900323 0.25097775
0000e0 9c 00 7f 3e 75 fa 7e 3e bb 7f 80 3e 4c 81 80 3e
       0.24902576 0.2490023 0.2509745 0.25098646
0000f0 e9 79 80 3e bd fa 7e 3e b8 82 80 3e 3b fa 7e 3e
       0.2509301 0.24900337 0.2509973 0.24900143
000100 fb 81 80 3e cf 80 80 3e 8c 82 80 3e 61 fb 7e 3e
       0.25099167 0.25098273 0.250996 0.24900581
000110 06 fd 7e 3e a9 82 80 3e da fb 7e 3e 54 73 80 3e
       0.24901208 0.25099686 0.24900761 0.25087988
000120 93 01 7f 3e 77 82 80 3e 1f fa 7e 3e 04 0b 7f 3e
       0.24902944 0.25099537 0.24900101 0.24906546
000130 dc fb 7e 3e 97 fb 7e 3e e5 82 80 3e 2f 7a 80 3e
       0.24900764 0.24900661 0.25099865 0.2509322
000140 ee 81 80 3e 3c 00 7f 3e b2 fa 7e 3e 30 82 80 3e
       0.25099128 0.24902433 0.2490032 0.25099325
000150 de fa 7e 3e 39 81 80 3e 64 02 7f 3e 86 fa 7e 3e
       0.24900386 0.2509859 0.24903256 0.24900255
000160 14 78 80 3e 76 fb 7e 3e 8b fa 7e 3e 20 fe 7e 3e
       0.25091612 0.24900612 0.24900262 0.24901628
000170 f3 fa 7e 3e 34 fb 7e 3e 28 fb 7e 3e 44 fb 7e 3e
       0.24900417 0.24900514 0.24900496 0.24900538
000180 bf 81 80 3e f7 82 80 3e 60 fa 7e 3e 78 80 80 3e
       0.25098988 0.25099918 0.24900198 0.25098014
000190 62 7d 80 3e 88 82 80 3e 6a fb 7e 3e d2 82 80 3e
       0.2509566 0.25099587 0.24900594 0.25099808
0001a0 f0 82 80 3e 4c 82 80 3e c4 82 80 3e 9a 82 80 3e
       0.25099897 0.2509941 0.25099766 0.2509964
0001b0 ea fd 7e 3e eb fa 7e 3e 03 81 80 3e a0 fb 7e 3e
       0.24901548 0.24900405 0.25098428 0.24900675
0001c0 c4 7d 80 3e 7b 7b 80 3e a1 fa 7e 3e 58 fb 7f 3e
       0.25095952 0.25094208 0.24900295 0.24998224
0001d0 29 fb 7e 3e c2 82 80 3e d7 fd 7e 3e a7 fa 7e 3e
       0.24900497 0.2509976 0.2490152 0.24900304
0001e0 e5 82 80 3e b4 82 80 3e ad 82 80 3e 97 82 80 3e
       0.25099865 0.2509972 0.25099698 0.25099632
0001f0 a1 82 80 3e c7 00 7f 3e 8f 0c 7f 3e 3a 82 80 3e
       0.25099662 0.2490264 0.24907134 0.25099355

encoders.1.weight f4 [128, 128]
000000 f3 f7 d0 bb 2d 74 14 bd 26 10 20 3c 14 d1 35 bb
       -0.006377214 -0.036243606 0.009769475 -0.0027743028
000010 71 21 9a 3d 26 9d c1 3c 06 04 85 3d 43 bd 52 3d
       0.0752591 0.023634505 0.06494908 0.051450025
000020 8d a8 8e bd 19 2d 7a bc 4a c1 8e 3d e0 fd 9b bd
       -0.06965742 -0.015269541 0.06970461 -0.07616782
000030 74 0c 0f bc a5 47 3f bd 0c c9 ad bd 42 b8 3f bd
       -0.008730996 -0.046699185 -0.08485612 -0.04680658
000040 ae f5 a7 3c 55 13 55 bd 32 3c 2e 3d 5e 37 6c 3d
       0.020502891 -0.05202039 0.042537875 0.05766999
000050 77 35 24 3b 77 b7 a3 bd d6 78 6c 3c 29 71 ab bd
       0.0025056282 -0.079939775 0.014433106 -0.08371193
000060 69 dc 6e 3d ad f8 8b bd 12 11 b3 3d e4 e6 d5 bb
       0.05831567 -0.068345405 0.0874349 -0.0065277684
000070 1a a1 85 3c ef ba 5b bd 57 ac 77 3d 5b 38 0c bd
       0.01631217 -0.05364507 0.06046709 -0.034233432
000080 db c4 e4 3b 3f d2 85 bd 89 ac 23 bd 5e ba ab bd
       0.006981475 -0.06534242 -0.039959464 -0.08385156
000090 4c 11 0f bd e0 04 c1 bb c0 74 3d bd 62 15 02 bd
       -0.034928605 -0.0058904737 -0.04625392 -0.031758673
0000a0 da 67 2b bd 2d 8e 8a bd e4 0a 48 bd 17 a5 78 bd
       -0.041847087 -0.06765399 -0.04883851 -0.060704317
0000b0 0f 68 91 bd 85 b8 3d 3d 7c f8 06 bd 4d e0 b2 bd
       -0.07099926 0.04631855 -0.032951817 -0.08734188
0000c0 22 58 0c 3d ef 68 6e 3c 51 8c 29 bd 87 1c f9 3c
       0.034263737 0.014551385 -0.04139358 0.03040911
0000d0 86 20 38 bd c5 ad 86 3a 65 2d 2f 3d 43 78 c4 bb
       -0.04495289 0.0010275176 0.0427679 -0.0059957816
0000e0 d3 ac ac 3d 46 2f 85 bd 67 59 13 bc d6 fe 78 3d
       0.08431401 -0.06503157 -0.008993483 0.060789905
0000f0 10 ff 96 bd f4 d1 ab 3d 7d 0f 6b bd b6 86 85 bd
       -0.07372868 0.08389655 -0.057387818 -0.06519835
000100 80 58 6a bd 91 20 d9 bc c5 ca a2 bd b2 63 93 39
       -0.057213306 -0.026504787 -0.079488315 0.00028112304
000110 6e 82 94 3c bd ad bb bc e9 b2 2d bd 22 f9 3a bd
       0.0181286 -0.022909993 -0.04240695 -0.045647748
000120 ac 75 c9 bc 73 c7 98 3d 02 47 9a bd 0a c4 2c 3d
       -0.024592243 0.07459917 -0.07533075 0.042179145
000130 51 82 ef bb ed a6 43 3c 76 7c b4 3c 38 7b 8b bc
       -0.007309236 0.011941654 0.022032004 -0.017026529
000140 95 02 7c 3d 86 49 b2 bd c5 e5 72 3d a8 d9 95 3c
       0.0615259 -0.0870543 0.059301157 0.018292263
000150 1a ca aa 3d 70 52 d0 3c a2 31 0b bd cc 1a c9 3c
       0.08339329 0.025429934 -0.03398288 0.02454891
000160 7c e1 ad 3d 98 b6 49 3d a0 26 88 3d 35 01 77 bc
       0.08490273 0.0492464 0.06647992 -0.015075971
000170 81 0f 58 3d 4a ee f8 3a 03 df f0 3c cf 9a b2 bd
       0.05274916 0.0018991914 0.029403215 -0.08720934
000180 5b ee 7e bc 0f 43 a1 bd 86 75 a1 bc de 8e a9 bd
       -0.015559758 -0.078741185 -0.01970936 -0.08279203
000190 cf c8 5f 3d be 3b 4b bd 11 16 3f 3d d2 e8 96 3d
       0.054634865 -0.04961752 0.046651904 0.07368626
0001a0 58 81 84 3c e2 b7 1c 3d 4e b3 81 3d 84 53 8d 3c
       0.016174957 0.0382613 0.06333028 0.017251737
0001b0 96 dc 4a 3d 65 0f 7e 3d c9 a3 6c 3d e1 c7 77 3d
       0.049526773 0.0620264 0.057773385 0.060493354
0001c0 fa b2 a9 bd fb 5a a6 3c f5 2e cb 3c 09 bc 5f 3c
       -0.0828609 0.020307055 0.024802664 0.013655671
0001d0 fc 86 59 bd ea c4 82 bd 88 11 e0 3c 4f 44 5c bd
       -0.053107247 -0.063852146 0.02735211 -0.05377608
0001e0 40 28 be 3c 3b 87 4c bd 51 86 3c bd 6e fa c2 bc
       0.023212552 -0.049933653 -0.04602653 -0.023801055
0001f0 6d 08 d1 bb 7d 0f 99 3d 0d 0c 06 bd d7 3a e6 bc
       -0.0063791783 0.07473657 -0.032726336 -0.028104229
000200 39 26 99 bd c1 80 1f 3d 37 d0 b5 bb 62 ea 0c bd
       -0.074779935 0.03894115 -0.005548503 -0.034403212
000210 d5 8a 75 3c ac 81 46 3d b7 16 98 3d f7 b6 0e 3d
       0.014986713 0.04846351 0.074262075 0.034842458
000220 cd f6 c9 3c 34 ac 4f 3c d4 d4 4c bd 8d a2 8c bd
       0.024653817 0.012675334 -0.050007656 -0.068669416
000230 e1 87 9c bd 09 52 59 3d 49 ec 4d 3d 2b a4 ab bd
       -0.07643104 0.05305675 0.050274167 -0.08380922
000240 fa a8 26 3d 42 4d 69 3d 8f 2f 7e 3c 1c a4 7f 3d
       0.040688492 0.056958444 0.015514269 0.062412366
000250 31 98 8a 3d 91 d2 ea bc 0d b4 5c 3d 1c 39 62 bd
       0.067673095 -0.028664859 0.053882647 -0.055230245
000260 2d 92 5e 3d 65 72 0a 3d 36 48 00 3c 55 94 86 3d
       0.054338623 0.0338005 0.007829716 0.06571261
000270 ad b7 2e bc 22 82 9a bd dd 10 43 bd 39 40 45 3d
       -0.010663909 -0.07544352 -0.047623504 0.04815695
000280 99 5f 66 bd 9f 4f 45 3d 77 d1 cc bb c2 e8 a1 bd
       -0.056243513 0.048171636 -0.006250556 -0.07905723
000290 48 f1 5a bd c1 a9 ff bb 9c 3f af 3d da df 45 bd
       -0.05345276 -0.0078022187 0.085570544 -0.048309185
0002a0 6c 66 83 bd 3a d7 c3 3c 44 cb 65 bd ab 18 4a 3d
       -0.0641602 0.023906339 -0.056102052 0.04933993
0002b0 e1 e4 92 bd 4f 43 66 b9 0f c2 e4 bc 5d 62 96 bd
       -0.071725614 -0.00021959584 -0.027924566 -0.0734298
0002c0 21 a2 f2 3c 00 58 80 bd 23 ef 40 bd 99 ca 6a bd
       0.029618325 -0.06266785 -0.04710306 -0.05732212
0002d0 e0 55 39 3d 80 41 80 3d 3b 57 5a 3d 2b b3 2e 3d
       0.045247912 0.06262493 0.053305846 0.042651337
0002e0 06 7a b4 bd f3 62 3a bc ab 7f 97 bd a5 c1 94 bb
       -0.088123366 -0.01137613 -0.073973976 -0.004539686
0002f0 79 85 1d 3c 3a 92 00 bd c0 3a 40 3b 88 67 9d 3d
       0.009614342 -0.031389453 0.0029331893 0.07685763
000300 4d 66 26 3d 70 e1 09 bd 6e bd 41 bc 58 7d 72 bd
       0.040624905 -0.03366226 -0.011824949 -0.05920157
000310 98 a0 4f bd 50 f4 65 3d 20 e0 3a bc f2 c1 5c 3d
       -0.050690264 0.056141198 -0.011405975 0.0538959
000320 76 7f 17 bd 9f 09 6f 3c 21 c2 77 3d 09 7e 18 bd
       -0.03698679 0.014589696 0.06048787 -0.03722957
000330 39 32 8c 3c 8e bc d2 bc ed af 7e 3d b6 79 ef 3b
       0.017113792 -0.025724676 0.062179495 0.0073082102
000340 f1 19 e8 bc f8 b2 aa bd d4 d3 37 bc 21 3f 2a bd
       -0.028332682 -0.08334917 -0.011219937 -0.04156411
000350 24 61 b1 bd 50 6a f7 3c c2 88 a0 3d d0 2d 9d 3d
       -0.08661106 0.030202061 0.078385845 0.07674754
000360 7e 7f 43 3d 1f 91 4e bc ad 4d 9d bd 3c c2 a9 bd
       0.047729008 -0.012607842 -0.07680831 -0.082890004
000370 8c 98 1f 3d 55 b3 05 bd fe f2 d6 3b 4f 23 79 3d
       0.03896384 -0.032641727 0.0065597286 0.06082469
000380 3c de dc bb 75 78 41 bd 83 f8 3a bc f0 bb 9e bd
       -0.0067403596 -0.047234017 -0.011411789 -0.0775069
000390 5c 07 3e bd 22 1a c9 bc fe b9 55 3d 34 cf bc bc
       -0.046393737 -0.024548594 0.05217933 -0.02304802
0003a0 6d 90 86 bd c1 82 94 3c 9b 96 ee 3c 82 2c 4c bd
       -0.06570516 0.018128755 0.029124549 -0.049847133
0003b0 47 2b a7 3a 4b 91 99 bc 58 6b 53 3d 9d f7 5c 3d
       0.0012753987 -0.018746039 0.051616043 0.05394708
0003c0 76 d1 69 bd ed 3f a8 bb 37 38 54 bd 1c 8a 55 bb
       -0.057084523 -0.0051345737 -0.051811423 -0.003258354
0003d0 0f e0 94 3d 03 39 f9 3c 8d 71 8f 3c ae 95 2e bd
       0.07269298 0.030422693 0.0175102 -0.042623214
0003e0 a9 09 27 3d bd eb 9f bd b9 fe de bb 99 1f fa 3c
       0.040780697 -0.078086354 -0.0068052677 0.030532645
0003f0 18 65 9d bd 85 23 72 bc b4 df 2e bc 32 9e 71 3d
       -0.07685298 -0.014778976 -0.010673452 0.058988757

encoders.1.encoder.conv.bias f4 [128]
000000 ef a4 82 3a 1f 0d 83 ba f6 0c 83 3a 8b 47 82 ba
       0.0009967367 -0.0009998417 0.000999837 -0.0009939534
000010 3f 0f 83 3a d2 08 83 ba 87 0a 83 ba e6 6a 82 ba
       0.000999905 -0.0009997135 -0.0009997644 -0.0009950071
000020 8c 6e 81 3a 06 07 83 3a 87 2f 82 3a 44 30 81 3a
       0.0009874864 0.00099966 0.0009932377 0.0009856303
000030 19 ea 82 ba ce 0c 83 3a ad f6 82 ba 31 03 83 ba
       -0.000998798 0.0009998323 -0.0009991728 -0.0009995458
000040 e9 00 83 3a 26 02 83 ba 8f f5 82 ba 4c d5 82 3a
       0.0009994778 -0.0009995147 -0.0009991395 0.000998178
000050 ca 09 83 ba ac 07 83 3a 91 ff 82 ba 0b 08 83 ba
       -0.0009997424 0.0009996793 -0.0009994378 -0.0009996904
000060 03 0e 83 3a 06 06 83 ba 4d 03 83 3a c0 78 82 ba
       0.0009998683 -0.0009996302 0.000999549 -0.0009954199
000070 34 97 82 3a bb 0f 83 3a e6 0d 83 ba 90 0c 83 3a
       0.0009963275 0.0009999195 -0.0009998649 0.0009998251
000080 66 0d 83 ba 42 45 81 ba 36 0e 83 3a f1 f1 82 ba
       -0.00099985 -0.0009862559 0.0009998742 -0.0009990317
000090 df 09 83 3a 2b 08 83 ba 49 dd 82 ba fa 01 83 3a
       0.0009997449 -0.0009996941 -0.0009984161 0.0009995096
0000a0 e7 05 83 3a 6f fd 82 3a 8d 9f 80 3a f1 05 83 3a
       0.0009996266 0.0009993742 0.0009813175 0.0009996278
0000b0 78 0b 83 3a 8d 07 83 3a b9 ff 82 ba 04 da 81 ba
       0.0009997925 0.0009996757 -0.0009994424 -0.0009906893
0000c0 cf 06 83 ba 87 05 83 3a df 0f 83 3a 0f fe 82 3a
       -0.0009996536 0.0009996154 0.0009999237 0.0009993928
0000d0 ae f7 82 3a 79 0c 83 ba d2 f4 82 3a 79 03 83 ba
       0.0009992027 -0.0009998224 0.0009991175 -0.0009995542
0000e0 74 ea 82 ba a5 5a 82 ba 49 09 83 ba cf f6 82 3a
       -0.0009988085 -0.0009945227 -0.0009997274 0.0009991768
0000f0 81 0d 83 3a ef a3 82 3a 74 8f 82 ba 77 0f 83 3a
       0.0009998531 0.0009967069 -0.0009960965 0.0009999116
000100 b9 01 83 ba 1c 6e 73 3a ff 0c 83 ba 12 07 83 ba
       -0.000999502 0.0009286122 -0.000999838 -0.0009996614
000110 97 d7 80 ba 99 0d 83 3a 21 09 83 3a 57 ff 82 3a
       -0.0009829876 0.0009998559 0.0009997227 0.000999431
000120 f9 f8 82 ba d0 d4 82 3a f6 dd 82 ba d1 fa 82 3a
       -0.0009992413 0.0009981636 -0.0009984362 0.0009992962
000130 df 07 83 3a 59 0f 83 ba ef b4 82 ba d4 dc 82 ba
       0.0009996853 -0.0009999081 -0.0009972135 -0.0009984025
000140 5c fc 82 ba 89 e8 80 ba c0 fd 82 ba ad 88 82 3a
       -0.0009993422 -0.0009834926 -0.0009993836 0.0009958945
000150 c3 ee 82 ba fb 0c 83 3a d6 a3 82 ba 9e ef 82 3a
       -0.000998937 0.0009998375 -0.000996704 0.0009989624
000160 a9 5b 82 ba 37 09 83 ba 3d 05 83 ba d2 f9 82 ba
       -0.000994553 -0.0009997253 -0.0009996068 -0.0009992665
000170 7c 08 83 ba 99 53 82 ba 15 08 83 ba a2 f8 82 ba
       -0.0009997035 -0.0009943127 -0.0009996915 -0.0009992311
000180 c4 ea 82 3a 9f 93 82 ba 54 0d 83 3a 34 04 83 3a
       0.0009988178 -0.0009962207 0.0009998479 0.000999576
000190 11 f7 82 3a 38 f0 82 ba 5d 03 83 3a 58 e9 82 ba
       0.0009991844 -0.0009989804 0.0009995509 -0.0009987755
0001a0 6a b4 81 3a 9f f7 82 3a 66 f7 82 3a 1b fe 82 3a
       0.0009895687 0.000999201 0.0009991943 0.0009993942
0001b0 b6 06 83 3a d4 08 82 3a d9 0d 83 ba 1a 61 82 3a
       0.0009996507 0.0009920844 -0.0009998634 0.0009947151
0001c0 4d d7 82 ba 3c c6 82 ba 77 01 83 3a 79 0c 83 3a
       -0.0009982378 -0.0009977291 0.0009994943 0.0009998224
0001d0 11 10 83 ba c0 b8 82 3a 1b 0b 83 ba fb 09 83 3a
       -0.0009999295 0.0009973273 -0.0009997817 0.0009997481
0001e0 8f f3 82 ba b4 07 83 ba b4 a8 7c 3a 1b f2 82 3a
       -0.0009990799 -0.0009996803 0.0009638176 0.0009990366
0001f0 5c 0e 83 ba 5d 01 83 ba f4 ff 82 3a 66 f6 82 ba
       -0.0009998786 -0.0009994913 0.0009994493 -0.0009991645
